…
I0412 16:54:01.441727 27914 net.cpp:53] Initializing net from parameters: 
name: "DummyNetbyHand"
state {
  phase: TRAIN
  level: 0
  stage: ""
}
layer {
  name: "x_train"
  type: "DummyData"
  top: "data"
  include {
    phase: TRAIN
  }
  dummy_data_param {
    data_filler {
      type: "constant"
    }
    shape {
      dim: 30
      dim: 3
      dim: 61
      dim: 61
    }
  }
}
layer {
  name: "y_train"
  type: "DummyData"
  top: "label"
  include {
    phase: TRAIN
  }
  dummy_data_param {
    data_filler {
      type: "constant"
    }
    shape {
      dim: 30
    }
  }
}
layer {
  name: "CONV"
  type: "Convolution"
  bottom: "data"
  top: "conv1"
  param {
    lr_mult: 1
  }
  param {
    lr_mult: 1
  }
  convolution_param {
    num_output: 73
    kernel_size: 10
    stride: 1
    weight_filler {
      type: "gaussian"
    }
    bias_filler {
      type: "gaussian"
    }
  }
}
layer {
  name: "POOLING"
  type: "Pooling"
  bottom: "conv1"
  top: "pool1"
  pooling_param {
    pool: MAX
    kernel_size: 2
    stride: 2
  }
}
layer {
  name: "IP"
  type: "InnerProduct"
  bottom: "pool1"
  top: "ip2"
  param {
    lr_mult: 1
  }
  param {
    lr_mult: 1
  }
  inner_product_param {
    num_output: 2326
    weight_filler {
      type: "gaussian"
    }
    bias_filler {
      type: "gaussian"
    }
  }
}
layer {
  name: "loss"
  type: "SoftmaxWithLoss"
  bottom: "ip2"
  bottom: "label"
  top: "loss"
}
I0412 16:54:01.442225 27914 layer_factory.hpp:77] Creating layer x_train
I0412 16:54:01.442301 27914 net.cpp:86] Creating Layer x_train
I0412 16:54:01.442327 27914 net.cpp:382] x_train -> data
I0412 16:54:01.447862 27914 net.cpp:124] Setting up x_train
I0412 16:54:01.447911 27914 net.cpp:131] Top shape: 30 3 61 61 (334890)
I0412 16:54:01.447917 27914 net.cpp:139] Memory required for data: 1339560
I0412 16:54:01.447933 27914 layer_factory.hpp:77] Creating layer y_train
I0412 16:54:01.447963 27914 net.cpp:86] Creating Layer y_train
I0412 16:54:01.447981 27914 net.cpp:382] y_train -> label
I0412 16:54:01.448037 27914 net.cpp:124] Setting up y_train
I0412 16:54:01.448055 27914 net.cpp:131] Top shape: 30 (30)
I0412 16:54:01.448060 27914 net.cpp:139] Memory required for data: 1339680
I0412 16:54:01.448068 27914 layer_factory.hpp:77] Creating layer CONV
I0412 16:54:01.448115 27914 net.cpp:86] Creating Layer CONV
I0412 16:54:01.448134 27914 net.cpp:408] CONV <- data
I0412 16:54:01.448177 27914 net.cpp:382] CONV -> conv1
I0412 16:54:01.451333 27914 cudnn_conv_layer.cpp:21] start cudnn_conv LayerSetUp()
I0412 16:54:01.816654 27914 cudnn_conv_layer.cpp:89] End cudnn_conv LayerSetUp()
I0412 16:54:01.816774 27914 cudnn_conv_layer.cpp:96] Start cudnn_conv reshape()
I0412 16:54:01.816844 27914 cudnn_conv_layer.cpp:196]  [CONV] reallocate 101064
I0412 16:54:01.817157 27914 cudnn_conv_layer.cpp:234] End cudnn_conv reshape()
I0412 16:54:01.817175 27914 net.cpp:124] Setting up CONV
I0412 16:54:01.817199 27914 net.cpp:131] Top shape: 30 73 52 52 (5921760)
I0412 16:54:01.817206 27914 net.cpp:139] Memory required for data: 25026720
I0412 16:54:01.817312 27914 layer_factory.hpp:77] Creating layer POOLING
I0412 16:54:01.817364 27914 net.cpp:86] Creating Layer POOLING
I0412 16:54:01.817380 27914 net.cpp:408] POOLING <- conv1
I0412 16:54:01.817414 27914 net.cpp:382] POOLING -> pool1
I0412 16:54:01.817481 27914 net.cpp:124] Setting up POOLING
I0412 16:54:01.817498 27914 net.cpp:131] Top shape: 30 73 26 26 (1480440)
I0412 16:54:01.817504 27914 net.cpp:139] Memory required for data: 30948480
I0412 16:54:01.817513 27914 layer_factory.hpp:77] Creating layer IP
I0412 16:54:01.817551 27914 net.cpp:86] Creating Layer IP
I0412 16:54:01.817562 27914 net.cpp:408] IP <- pool1
I0412 16:54:01.817596 27914 net.cpp:382] IP -> ip2
I0412 16:54:01.817643 27914 inner_product_layer.cpp:21] Start IP LayerSetUp
I0412 16:54:11.448330 27914 inner_product_layer.cpp:56] End IP LayerSetUp
I0412 16:54:11.448377 27914 inner_product_layer.cpp:69] Start IP Reshape()
I0412 16:54:11.448397 27914 inner_product_layer.cpp:84] End IP Reshape()
I0412 16:54:11.448412 27914 net.cpp:124] Setting up IP
I0412 16:54:11.448433 27914 net.cpp:131] Top shape: 30 2326 (69780)
I0412 16:54:11.448439 27914 net.cpp:139] Memory required for data: 31227600
I0412 16:54:11.448488 27914 layer_factory.hpp:77] Creating layer loss
I0412 16:54:11.448540 27914 net.cpp:86] Creating Layer loss
I0412 16:54:11.448555 27914 net.cpp:408] loss <- ip2
I0412 16:54:11.448572 27914 net.cpp:408] loss <- label
I0412 16:54:11.448590 27914 net.cpp:382] loss -> loss
I0412 16:54:11.448626 27914 layer_factory.hpp:77] Creating layer loss
…
