…
I0404 20:27:33.265143 20560 net.cpp:53] Initializing net from parameters: 
name: "DummyNetbyHand"
state {
  phase: TRAIN
  level: 0
  stage: ""
}
layer {
  name: "x_train"
  type: "DummyData"
  top: "data"
  include {
    phase: TRAIN
  }
  dummy_data_param {
    data_filler {
      type: "constant"
    }
    shape {
      dim: 14
      dim: 3
      dim: 192
      dim: 192
    }
  }
}
layer {
  name: "y_train"
  type: "DummyData"
  top: "label"
  include {
    phase: TRAIN
  }
  dummy_data_param {
    data_filler {
      type: "constant"
    }
    shape {
      dim: 14
    }
  }
}
layer {
  name: "CONV"
  type: "Convolution"
  bottom: "data"
  top: "conv1"
  param {
    lr_mult: 1
  }
  param {
    lr_mult: 1
  }
  convolution_param {
    num_output: 48
    kernel_size: 8
    stride: 2
    weight_filler {
      type: "gaussian"
    }
    bias_filler {
      type: "gaussian"
    }
  }
}
layer {
  name: "POOLING"
  type: "Pooling"
  bottom: "conv1"
  top: "pool1"
  pooling_param {
    pool: MAX
    kernel_size: 2
    stride: 1
  }
}
layer {
  name: "IP"
  type: "InnerProduct"
  bottom: "pool1"
  top: "ip2"
  param {
    lr_mult: 1
  }
  param {
    lr_mult: 1
  }
  inner_product_param {
    num_output: 927
    weight_filler {
      type: "gaussian"
    }
    bias_filler {
      type: "gaussian"
    }
  }
}
layer {
  name: "loss"
  type: "SoftmaxWithLoss"
  bottom: "ip2"
  bottom: "label"
  top: "loss"
}
I0404 20:27:33.265419 20560 layer_factory.hpp:77] Creating layer x_train
I0404 20:27:33.265460 20560 net.cpp:86] Creating Layer x_train
I0404 20:27:33.265478 20560 net.cpp:382] x_train -> data
I0404 20:27:33.271113 20560 net.cpp:124] Setting up x_train
I0404 20:27:33.271162 20560 net.cpp:131] Top shape: 14 3 192 192 (1548288)
I0404 20:27:33.271169 20560 net.cpp:139] Memory required for data: 6193152
I0404 20:27:33.271195 20560 layer_factory.hpp:77] Creating layer y_train
I0404 20:27:33.271245 20560 net.cpp:86] Creating Layer y_train
I0404 20:27:33.271276 20560 net.cpp:382] y_train -> label
I0404 20:27:33.271430 20560 net.cpp:124] Setting up y_train
I0404 20:27:33.271442 20560 net.cpp:131] Top shape: 14 (14)
I0404 20:27:33.271447 20560 net.cpp:139] Memory required for data: 6193208
I0404 20:27:33.271453 20560 layer_factory.hpp:77] Creating layer CONV
I0404 20:27:33.271491 20560 net.cpp:86] Creating Layer CONV
I0404 20:27:33.271507 20560 net.cpp:408] CONV <- data
I0404 20:27:33.271543 20560 net.cpp:382] CONV -> conv1
I0404 20:27:33.273699 20560 cudnn_conv_layer.cpp:21] start cudnn_conv LayerSetUp()
I0404 20:27:33.451115 20560 cudnn_conv_layer.cpp:89] End cudnn_conv LayerSetUp()
I0404 20:27:33.451258 20560 cudnn_conv_layer.cpp:96] Start cudnn_conv reshape()
I0404 20:27:33.451289 20560 cudnn_conv_layer.cpp:196]  [CONV] reallocate 155700
I0404 20:27:33.451467 20560 cudnn_conv_layer.cpp:234] End cudnn_conv reshape()
I0404 20:27:33.451475 20560 net.cpp:124] Setting up CONV
I0404 20:27:33.451488 20560 net.cpp:131] Top shape: 14 48 93 93 (5812128)
I0404 20:27:33.451493 20560 net.cpp:139] Memory required for data: 29441720
I0404 20:27:33.451550 20560 layer_factory.hpp:77] Creating layer POOLING
I0404 20:27:33.451584 20560 net.cpp:86] Creating Layer POOLING
I0404 20:27:33.451599 20560 net.cpp:408] POOLING <- conv1
I0404 20:27:33.451617 20560 net.cpp:382] POOLING -> pool1
I0404 20:27:33.451679 20560 net.cpp:124] Setting up POOLING
I0404 20:27:33.451691 20560 net.cpp:131] Top shape: 14 48 92 92 (5687808)
I0404 20:27:33.451695 20560 net.cpp:139] Memory required for data: 52192952
I0404 20:27:33.451700 20560 layer_factory.hpp:77] Creating layer IP
I0404 20:27:33.451720 20560 net.cpp:86] Creating Layer IP
I0404 20:27:33.451726 20560 net.cpp:408] IP <- pool1
I0404 20:27:33.451740 20560 net.cpp:382] IP -> ip2
I0404 20:27:33.451758 20560 inner_product_layer.cpp:21] Start IP LayerSetUp
I0404 20:27:59.718513 20560 inner_product_layer.cpp:56] End IP LayerSetUp
I0404 20:27:59.718538 20560 inner_product_layer.cpp:69] Start IP Reshape()
I0404 20:27:59.718590 20560 inner_product_layer.cpp:84] End IP Reshape()
I0404 20:27:59.718597 20560 net.cpp:124] Setting up IP
I0404 20:27:59.718610 20560 net.cpp:131] Top shape: 14 927 (12978)
I0404 20:27:59.718614 20560 net.cpp:139] Memory required for data: 52244864
I0404 20:27:59.718643 20560 layer_factory.hpp:77] Creating layer loss
I0404 20:27:59.718670 20560 net.cpp:86] Creating Layer loss
I0404 20:27:59.718678 20560 net.cpp:408] loss <- ip2
I0404 20:27:59.718690 20560 net.cpp:408] loss <- label
I0404 20:27:59.718703 20560 net.cpp:382] loss -> loss
I0404 20:27:59.718725 20560 layer_factory.hpp:77] Creating layer loss
…
I0404 20:27:59.719434 20560 net.cpp:53] Initializing net from parameters: 
name: "DummyNetbyHand"
state {
  phase: TEST
}
layer {
  name: "x_test"
  type: "DummyData"
  top: "data"
  include {
    phase: TEST
  }
  dummy_data_param {
    data_filler {
      type: "constant"
    }
    shape {
      dim: 14
      dim: 3
      dim: 192
      dim: 192
    }
  }
}
layer {
  name: "y_test"
  type: "DummyData"
  top: "label"
  include {
    phase: TEST
  }
  dummy_data_param {
    data_filler {
      type: "constant"
    }
    shape {
      dim: 14
    }
  }
}
layer {
  name: "CONV"
  type: "Convolution"
  bottom: "data"
  top: "conv1"
  param {
    lr_mult: 1
  }
  param {
    lr_mult: 1
  }
  convolution_param {
    num_output: 48
    kernel_size: 8
    stride: 2
    weight_filler {
      type: "gaussian"
    }
    bias_filler {
      type: "gaussian"
    }
  }
}
layer {
  name: "POOLING"
  type: "Pooling"
  bottom: "conv1"
  top: "pool1"
  pooling_param {
    pool: MAX
    kernel_size: 2
    stride: 1
  }
}
layer {
  name: "IP"
  type: "InnerProduct"
  bottom: "pool1"
  top: "ip2"
  param {
    lr_mult: 1
  }
  param {
    lr_mult: 1
  }
  inner_product_param {
    num_output: 927
    weight_filler {
      type: "gaussian"
    }
    bias_filler {
      type: "gaussian"
    }
  }
}
layer {
  name: "accuracy"
  type: "Accuracy"
  bottom: "ip2"
  bottom: "label"
  top: "accuracy"
  include {
    phase: TEST
  }
}
layer {
  name: "loss"
  type: "SoftmaxWithLoss"
  bottom: "ip2"
  bottom: "label"
  top: "loss"
}
I0404 20:27:59.719558 20560 layer_factory.hpp:77] Creating layer x_test
I0404 20:27:59.719576 20560 net.cpp:86] Creating Layer x_test
I0404 20:27:59.719585 20560 net.cpp:382] x_test -> data
I0404 20:27:59.730428 20560 net.cpp:124] Setting up x_test
I0404 20:27:59.730463 20560 net.cpp:131] Top shape: 14 3 192 192 (1548288)
I0404 20:27:59.730468 20560 net.cpp:139] Memory required for data: 6193152
I0404 20:27:59.730484 20560 layer_factory.hpp:77] Creating layer y_test
I0404 20:27:59.730523 20560 net.cpp:86] Creating Layer y_test
I0404 20:27:59.730533 20560 net.cpp:382] y_test -> label
I0404 20:27:59.730630 20560 net.cpp:124] Setting up y_test
I0404 20:27:59.730640 20560 net.cpp:131] Top shape: 14 (14)
I0404 20:27:59.730644 20560 net.cpp:139] Memory required for data: 6193208
I0404 20:27:59.730649 20560 layer_factory.hpp:77] Creating layer label_y_test_0_split
I0404 20:27:59.730665 20560 net.cpp:86] Creating Layer label_y_test_0_split
I0404 20:27:59.730671 20560 net.cpp:408] label_y_test_0_split <- label
I0404 20:27:59.730684 20560 net.cpp:382] label_y_test_0_split -> label_y_test_0_split_0
I0404 20:27:59.730697 20560 net.cpp:382] label_y_test_0_split -> label_y_test_0_split_1
I0404 20:27:59.730736 20560 net.cpp:124] Setting up label_y_test_0_split
I0404 20:27:59.730746 20560 net.cpp:131] Top shape: 14 (14)
I0404 20:27:59.730749 20560 net.cpp:131] Top shape: 14 (14)
I0404 20:27:59.730753 20560 net.cpp:139] Memory required for data: 6193320
I0404 20:27:59.730757 20560 layer_factory.hpp:77] Creating layer CONV
I0404 20:27:59.730774 20560 net.cpp:86] Creating Layer CONV
I0404 20:27:59.730780 20560 net.cpp:408] CONV <- data
I0404 20:27:59.730794 20560 net.cpp:382] CONV -> conv1
I0404 20:27:59.731591 20560 cudnn_conv_layer.cpp:21] start cudnn_conv LayerSetUp()
I0404 20:27:59.732208 20560 cudnn_conv_layer.cpp:89] End cudnn_conv LayerSetUp()
I0404 20:27:59.732321 20560 cudnn_conv_layer.cpp:96] Start cudnn_conv reshape()
I0404 20:27:59.732336 20560 cudnn_conv_layer.cpp:196]  [CONV] reallocate 155700
I0404 20:27:59.732350 20560 cudnn_conv_layer.cpp:234] End cudnn_conv reshape()
I0404 20:27:59.732355 20560 net.cpp:124] Setting up CONV
I0404 20:27:59.732362 20560 net.cpp:131] Top shape: 14 48 93 93 (5812128)
I0404 20:27:59.732365 20560 net.cpp:139] Memory required for data: 29441832
I0404 20:27:59.732388 20560 layer_factory.hpp:77] Creating layer POOLING
I0404 20:27:59.732403 20560 net.cpp:86] Creating Layer POOLING
I0404 20:27:59.732410 20560 net.cpp:408] POOLING <- conv1
I0404 20:27:59.732422 20560 net.cpp:382] POOLING -> pool1
I0404 20:27:59.732466 20560 net.cpp:124] Setting up POOLING
I0404 20:27:59.732475 20560 net.cpp:131] Top shape: 14 48 92 92 (5687808)
I0404 20:27:59.732480 20560 net.cpp:139] Memory required for data: 52193064
I0404 20:27:59.732483 20560 layer_factory.hpp:77] Creating layer IP
I0404 20:27:59.732496 20560 net.cpp:86] Creating Layer IP
I0404 20:27:59.732502 20560 net.cpp:408] IP <- pool1
I0404 20:27:59.732516 20560 net.cpp:382] IP -> ip2
I0404 20:27:59.732527 20560 inner_product_layer.cpp:21] Start IP LayerSetUp
I0404 20:28:25.991341 20560 inner_product_layer.cpp:56] End IP LayerSetUp
I0404 20:28:25.991387 20560 inner_product_layer.cpp:69] Start IP Reshape()
I0404 20:28:25.991436 20560 inner_product_layer.cpp:84] End IP Reshape()
I0404 20:28:25.991443 20560 net.cpp:124] Setting up IP
I0404 20:28:25.991456 20560 net.cpp:131] Top shape: 14 927 (12978)
I0404 20:28:25.991459 20560 net.cpp:139] Memory required for data: 52244976
I0404 20:28:25.991489 20560 layer_factory.hpp:77] Creating layer ip2_IP_0_split
I0404 20:28:25.991509 20560 net.cpp:86] Creating Layer ip2_IP_0_split
I0404 20:28:25.991518 20560 net.cpp:408] ip2_IP_0_split <- ip2
I0404 20:28:25.991533 20560 net.cpp:382] ip2_IP_0_split -> ip2_IP_0_split_0
I0404 20:28:25.991547 20560 net.cpp:382] ip2_IP_0_split -> ip2_IP_0_split_1
I0404 20:28:25.991587 20560 net.cpp:124] Setting up ip2_IP_0_split
I0404 20:28:25.991596 20560 net.cpp:131] Top shape: 14 927 (12978)
I0404 20:28:25.991608 20560 net.cpp:131] Top shape: 14 927 (12978)
I0404 20:28:25.991612 20560 net.cpp:139] Memory required for data: 52348800
I0404 20:28:25.991616 20560 layer_factory.hpp:77] Creating layer accuracy
I0404 20:28:25.991631 20560 net.cpp:86] Creating Layer accuracy
I0404 20:28:25.991637 20560 net.cpp:408] accuracy <- ip2_IP_0_split_0
I0404 20:28:25.991647 20560 net.cpp:408] accuracy <- label_y_test_0_split_0
I0404 20:28:25.991657 20560 net.cpp:382] accuracy -> accuracy
…
