…
I0330 15:46:57.072509 30179 net.cpp:296] The NetState phase (0) differed from the phase (1) specified by a rule in layer mnist
I0330 15:46:57.072525 30179 net.cpp:296] The NetState phase (0) differed from the phase (1) specified by a rule in layer accuracy
I0330 15:46:57.072568 30179 net.cpp:53] Initializing net from parameters: 
name: "LeNet"
state {
  phase: TRAIN
  level: 0
  stage: ""
}
layer {
  name: "mnist"
  type: "Data"
  top: "data"
  top: "label"
  include {
    phase: TRAIN
  }
  transform_param {
    scale: 0.00390625
  }
  data_param {
    source: "/home/sbchoi/git/caffe/examples/mnist/mnist_train_lmdb"
    batch_size: 128
    backend: LMDB
  }
}
layer {
  name: "conv1"
  type: "Convolution"
  bottom: "data"
  top: "conv1"
  param {
    lr_mult: 1
  }
  param {
    lr_mult: 1
  }
  convolution_param {
    num_output: 32
    kernel_size: 5
    stride: 1
    weight_filler {
      type: "gaussian"
    }
    bias_filler {
      type: "gaussian"
    }
  }
}
layer {
  name: "pool1"
  type: "Pooling"
  bottom: "conv1"
  top: "pool1"
  pooling_param {
    pool: MAX
    kernel_size: 2
    stride: 2
  }
}
layer {
  name: "ip1"
  type: "InnerProduct"
  bottom: "pool1"
  top: "ip2"
  param {
    lr_mult: 1
  }
  param {
    lr_mult: 1
  }
  inner_product_param {
    num_output: 10
    weight_filler {
      type: "gaussian"
    }
    bias_filler {
      type: "gaussian"
    }
  }
}
layer {
  name: "loss"
  type: "SoftmaxWithLoss"
  bottom: "ip2"
  bottom: "label"
  top: "loss"
}
I0330 15:46:57.072811 30179 layer_factory.hpp:77] Creating layer mnist
I0330 15:46:57.072957 30179 db_lmdb.cpp:35] Opened lmdb /home/sbchoi/git/caffe/examples/mnist/mnist_train_lmdb
I0330 15:46:57.072994 30179 net.cpp:86] Creating Layer mnist
I0330 15:46:57.073009 30179 net.cpp:382] mnist -> data
I0330 15:46:57.073078 30179 net.cpp:382] mnist -> label
I0330 15:46:57.073763 30179 data_layer.cpp:45] output data size: 128,1,28,28
…
I0330 15:46:57.248031 30179 solver.cpp:173] Creating test net (#0) specified by net file: lenet_train_test2.prototxt
I0330 15:46:57.248075 30179 net.cpp:296] The NetState phase (1) differed from the phase (0) specified by a rule in layer mnist
I0330 15:46:57.248133 30179 net.cpp:53] Initializing net from parameters: 
name: "LeNet"
state {
  phase: TEST
}
layer {
  name: "mnist"
  type: "Data"
  top: "data"
  top: "label"
  include {
    phase: TEST
  }
  transform_param {
    scale: 0.00390625
  }
  data_param {
    source: "/home/sbchoi/git/caffe/examples/mnist/mnist_test_lmdb"
    batch_size: 128
    backend: LMDB
  }
}
layer {
  name: "conv1"
  type: "Convolution"
  bottom: "data"
  top: "conv1"
  param {
    lr_mult: 1
  }
  param {
    lr_mult: 1
  }
  convolution_param {
    num_output: 32
    kernel_size: 5
    stride: 1
    weight_filler {
      type: "gaussian"
    }
    bias_filler {
      type: "gaussian"
    }
  }
}
layer {
  name: "pool1"
  type: "Pooling"
  bottom: "conv1"
  top: "pool1"
  pooling_param {
    pool: MAX
    kernel_size: 2
    stride: 2
  }
}
layer {
  name: "ip1"
  type: "InnerProduct"
  bottom: "pool1"
  top: "ip2"
  param {
    lr_mult: 1
  }
  param {
    lr_mult: 1
  }
  inner_product_param {
    num_output: 10
    weight_filler {
      type: "gaussian"
    }
    bias_filler {
      type: "gaussian"
    }
  }
}
layer {
  name: "accuracy"
  type: "Accuracy"
  bottom: "ip2"
  bottom: "label"
  top: "accuracy"
  include {
    phase: TEST
  }
}
layer {
  name: "loss"
  type: "SoftmaxWithLoss"
  bottom: "ip2"
  bottom: "label"
  top: "loss"
}
I0330 15:46:57.248250 30179 layer_factory.hpp:77] Creating layer mnist
I0330 15:46:57.248318 30179 db_lmdb.cpp:35] Opened lmdb /home/sbchoi/git/caffe/examples/mnist/mnist_test_lmdb
I0330 15:46:57.248334 30179 net.cpp:86] Creating Layer mnist
I0330 15:46:57.248344 30179 net.cpp:382] mnist -> data
I0330 15:46:57.248364 30179 net.cpp:382] mnist -> label
I0330 15:46:57.248453 30179 data_layer.cpp:45] output data size: 128,1,28,28
…
I0330 15:46:57.249696 30179 syncedmem.cpp:88] to_gpu(),HEAD_AT_CPU : allocate and copy from CPU to GPU  401408
I0330 15:46:57.249711 30179 syncedmem.cpp:88] to_gpu(),HEAD_AT_CPU : allocate and copy from CPU to GPU  512
I0330 15:46:57.249790 30179 syncedmem.cpp:88] to_gpu(),HEAD_AT_CPU : allocate and copy from CPU to GPU  401408
I0330 15:46:57.249807 30179 syncedmem.cpp:88] to_gpu(),HEAD_AT_CPU : allocate and copy from CPU to GPU  512
I0330 15:46:57.249811 30179 base_data_layer.cpp:72] Initializing prefetch
I0330 15:46:57.249860 30179 base_data_layer.cpp:75] Prefetch initialized.
I0330 15:46:57.249881 30179 net.cpp:124] Setting up mnist
I0330 15:46:57.249894 30179 net.cpp:131] Top shape: 128 1 28 28 (100352)
I0330 15:46:57.249899 30179 net.cpp:131] Top shape: 128 (128)
I0330 15:46:57.249903 30179 net.cpp:139] Memory required for data: 401920
I0330 15:46:57.249917 30179 layer_factory.hpp:77] Creating layer label_mnist_1_split
I0330 15:46:57.249944 30179 net.cpp:86] Creating Layer label_mnist_1_split
I0330 15:46:57.249953 30179 net.cpp:408] label_mnist_1_split <- label
I0330 15:46:57.249969 30179 net.cpp:382] label_mnist_1_split -> label_mnist_1_split_0
I0330 15:46:57.249994 30179 net.cpp:382] label_mnist_1_split -> label_mnist_1_split_1
I0330 15:46:57.250041 30179 net.cpp:124] Setting up label_mnist_1_split
I0330 15:46:57.250049 30179 net.cpp:131] Top shape: 128 (128)
I0330 15:46:57.250054 30179 net.cpp:131] Top shape: 128 (128)
I0330 15:46:57.250058 30179 net.cpp:139] Memory required for data: 402944
I0330 15:46:57.250062 30179 layer_factory.hpp:77] Creating layer conv1
I0330 15:46:57.250084 30179 net.cpp:86] Creating Layer conv1
I0330 15:46:57.250090 30179 net.cpp:408] conv1 <- data
I0330 15:46:57.250104 30179 net.cpp:382] conv1 -> conv1
I0330 15:46:57.250314 30179 cudnn_conv_layer.cpp:21] start cudnn_conv LayerSetUp()
I0330 15:46:57.251049 30179 cudnn_conv_layer.cpp:89] End cudnn_conv LayerSetUp()
I0330 15:46:57.251164 30179 cudnn_conv_layer.cpp:96] Start cudnn_conv reshape()
I0330 15:46:57.251184 30179 cudnn_conv_layer.cpp:196]  [CONV] reallocate 20664
I0330 15:46:57.251195 30179 cudnn_conv_layer.cpp:234] End cudnn_conv reshape()
I0330 15:46:57.251199 30179 net.cpp:124] Setting up conv1
I0330 15:46:57.251209 30179 net.cpp:131] Top shape: 128 32 24 24 (2359296)
I0330 15:46:57.251211 30179 net.cpp:139] Memory required for data: 9840128
I0330 15:46:57.251236 30179 layer_factory.hpp:77] Creating layer pool1
I0330 15:46:57.251255 30179 net.cpp:86] Creating Layer pool1
I0330 15:46:57.251262 30179 net.cpp:408] pool1 <- conv1
I0330 15:46:57.251276 30179 net.cpp:382] pool1 -> pool1
I0330 15:46:57.251318 30179 net.cpp:124] Setting up pool1
I0330 15:46:57.251327 30179 net.cpp:131] Top shape: 128 32 12 12 (589824)
I0330 15:46:57.251333 30179 net.cpp:139] Memory required for data: 12199424
I0330 15:46:57.251338 30179 layer_factory.hpp:77] Creating layer ip1
I0330 15:46:57.251354 30179 net.cpp:86] Creating Layer ip1
I0330 15:46:57.251361 30179 net.cpp:408] ip1 <- pool1
I0330 15:46:57.251374 30179 net.cpp:382] ip1 -> ip2
I0330 15:46:57.251390 30179 inner_product_layer.cpp:21] Start IP LayerSetUp
…
