…
I0329 22:52:38.281579 20892 net.cpp:296] The NetState phase (0) differed from the phase (1) specified by a rule in layer mnist
I0329 22:52:38.281596 20892 net.cpp:296] The NetState phase (0) differed from the phase (1) specified by a rule in layer accuracy
I0329 22:52:38.281638 20892 net.cpp:53] Initializing net from parameters: 
name: "LeNet"
state {
  phase: TRAIN
  level: 0
  stage: ""
}
layer {
  name: "mnist"
  type: "Data"
  top: "data"
  top: "label"
  include {
    phase: TRAIN
  }
  transform_param {
    scale: 0.00390625
  }
  data_param {
    source: "/home/sbchoi/git/caffe/examples/mnist/mnist_train_lmdb"
    batch_size: 128
    backend: LMDB
  }
}
layer {
  name: "conv1"
  type: "Convolution"
  bottom: "data"
  top: "conv1"
  param {
    lr_mult: 1
  }
  param {
    lr_mult: 1
  }
  convolution_param {
    num_output: 32
    kernel_size: 5
    stride: 1
    weight_filler {
      type: "gaussian"
    }
    bias_filler {
      type: "gaussian"
    }
  }
}
layer {
  name: "pool1"
  type: "Pooling"
  bottom: "conv1"
  top: "pool1"
  pooling_param {
    pool: MAX
    kernel_size: 2
    stride: 2
  }
}
layer {
  name: "ip1"
  type: "InnerProduct"
  bottom: "pool1"
  top: "ip2"
  param {
    lr_mult: 1
  }
  param {
    lr_mult: 1
  }
  inner_product_param {
    num_output: 10
    weight_filler {
      type: "gaussian"
    }
    bias_filler {
      type: "gaussian"
    }
  }
}
layer {
  name: "loss"
  type: "SoftmaxWithLoss"
  bottom: "ip2"
  bottom: "label"
  top: "loss"
}
I0329 22:52:38.281869 20892 layer_factory.hpp:77] Creating layer mnist
I0329 22:52:38.282032 20892 db_lmdb.cpp:35] Opened lmdb /home/sbchoi/git/caffe/examples/mnist/mnist_train_lmdb
I0329 22:52:38.282079 20892 net.cpp:86] Creating Layer mnist
I0329 22:52:38.282094 20892 net.cpp:382] mnist -> data
I0329 22:52:38.282161 20892 net.cpp:382] mnist -> label
I0329 22:52:38.282989 20892 data_layer.cpp:45] output data size: 128,1,28,28
…
I0329 22:52:38.453075 20892 solver.cpp:173] Creating test net (#0) specified by net file: lenet_train_test2.prototxt
I0329 22:52:38.453119 20892 net.cpp:296] The NetState phase (1) differed from the phase (0) specified by a rule in layer mnist
I0329 22:52:38.453174 20892 net.cpp:53] Initializing net from parameters: 
name: "LeNet"
state {
  phase: TEST
}
layer {
  name: "mnist"
  type: "Data"
  top: "data"
  top: "label"
  include {
    phase: TEST
  }
  transform_param {
    scale: 0.00390625
  }
  data_param {
    source: "/home/sbchoi/git/caffe/examples/mnist/mnist_test_lmdb"
    batch_size: 128
    backend: LMDB
  }
}
layer {
  name: "conv1"
  type: "Convolution"
  bottom: "data"
  top: "conv1"
  param {
    lr_mult: 1
  }
  param {
    lr_mult: 1
  }
  convolution_param {
    num_output: 32
    kernel_size: 5
    stride: 1
    weight_filler {
      type: "gaussian"
    }
    bias_filler {
      type: "gaussian"
    }
  }
}
layer {
  name: "pool1"
  type: "Pooling"
  bottom: "conv1"
  top: "pool1"
  pooling_param {
    pool: MAX
    kernel_size: 2
    stride: 2
  }
}
layer {
  name: "ip1"
  type: "InnerProduct"
  bottom: "pool1"
  top: "ip2"
  param {
    lr_mult: 1
  }
  param {
    lr_mult: 1
  }
  inner_product_param {
    num_output: 10
    weight_filler {
      type: "gaussian"
    }
    bias_filler {
      type: "gaussian"
    }
  }
}
layer {
  name: "accuracy"
  type: "Accuracy"
  bottom: "ip2"
  bottom: "label"
  top: "accuracy"
  include {
    phase: TEST
  }
}
layer {
  name: "loss"
  type: "SoftmaxWithLoss"
  bottom: "ip2"
  bottom: "label"
  top: "loss"
}
I0329 22:52:38.453292 20892 layer_factory.hpp:77] Creating layer mnist
I0329 22:52:38.453359 20892 db_lmdb.cpp:35] Opened lmdb /home/sbchoi/git/caffe/examples/mnist/mnist_test_lmdb
I0329 22:52:38.453380 20892 net.cpp:86] Creating Layer mnist
I0329 22:52:38.453389 20892 net.cpp:382] mnist -> data
I0329 22:52:38.453409 20892 net.cpp:382] mnist -> label
I0329 22:52:38.453497 20892 data_layer.cpp:45] output data size: 128,1,28,28
…
I0329 22:52:38.454768 20892 syncedmem.cpp:88] to_gpu(),HEAD_AT_CPU : allocate and copy from CPU to GPU  401408
I0329 22:52:38.454785 20892 syncedmem.cpp:88] to_gpu(),HEAD_AT_CPU : allocate and copy from CPU to GPU  512
I0329 22:52:38.454867 20892 syncedmem.cpp:88] to_gpu(),HEAD_AT_CPU : allocate and copy from CPU to GPU  401408
I0329 22:52:38.454883 20892 syncedmem.cpp:88] to_gpu(),HEAD_AT_CPU : allocate and copy from CPU to GPU  512
I0329 22:52:38.454888 20892 base_data_layer.cpp:72] Initializing prefetch
I0329 22:52:38.454926 20892 base_data_layer.cpp:75] Prefetch initialized.
I0329 22:52:38.454947 20892 net.cpp:124] Setting up mnist
I0329 22:52:38.454959 20892 net.cpp:131] Top shape: 128 1 28 28 (100352)
I0329 22:52:38.454964 20892 net.cpp:131] Top shape: 128 (128)
I0329 22:52:38.454968 20892 net.cpp:139] Memory required for data: 401920
I0329 22:52:38.454979 20892 layer_factory.hpp:77] Creating layer label_mnist_1_split
I0329 22:52:38.455003 20892 net.cpp:86] Creating Layer label_mnist_1_split
I0329 22:52:38.455011 20892 net.cpp:408] label_mnist_1_split <- label
I0329 22:52:38.455026 20892 net.cpp:382] label_mnist_1_split -> label_mnist_1_split_0
I0329 22:52:38.455049 20892 net.cpp:382] label_mnist_1_split -> label_mnist_1_split_1
I0329 22:52:38.455096 20892 net.cpp:124] Setting up label_mnist_1_split
I0329 22:52:38.455106 20892 net.cpp:131] Top shape: 128 (128)
I0329 22:52:38.455111 20892 net.cpp:131] Top shape: 128 (128)
I0329 22:52:38.455113 20892 net.cpp:139] Memory required for data: 402944
I0329 22:52:38.455117 20892 layer_factory.hpp:77] Creating layer conv1
I0329 22:52:38.455138 20892 net.cpp:86] Creating Layer conv1
I0329 22:52:38.455145 20892 net.cpp:408] conv1 <- data
I0329 22:52:38.455158 20892 net.cpp:382] conv1 -> conv1
I0329 22:52:38.455364 20892 cudnn_conv_layer.cpp:21] start cudnn_conv LayerSetUp()
I0329 22:52:38.456079 20892 cudnn_conv_layer.cpp:89] End cudnn_conv LayerSetUp()
I0329 22:52:38.456171 20892 cudnn_conv_layer.cpp:96] Start cudnn_conv reshape()
I0329 22:52:38.456188 20892 cudnn_conv_layer.cpp:196]  [CONV] reallocate 20664
I0329 22:52:38.456200 20892 cudnn_conv_layer.cpp:234] End cudnn_conv reshape()
I0329 22:52:38.456207 20892 net.cpp:124] Setting up conv1
I0329 22:52:38.456214 20892 net.cpp:131] Top shape: 128 32 24 24 (2359296)
I0329 22:52:38.456218 20892 net.cpp:139] Memory required for data: 9840128
I0329 22:52:38.456240 20892 layer_factory.hpp:77] Creating layer pool1
I0329 22:52:38.456259 20892 net.cpp:86] Creating Layer pool1
I0329 22:52:38.456266 20892 net.cpp:408] pool1 <- conv1
I0329 22:52:38.456280 20892 net.cpp:382] pool1 -> pool1
I0329 22:52:38.456327 20892 net.cpp:124] Setting up pool1
I0329 22:52:38.456336 20892 net.cpp:131] Top shape: 128 32 12 12 (589824)
I0329 22:52:38.456341 20892 net.cpp:139] Memory required for data: 12199424
I0329 22:52:38.456346 20892 layer_factory.hpp:77] Creating layer ip1
I0329 22:52:38.456360 20892 net.cpp:86] Creating Layer ip1
I0329 22:52:38.456367 20892 net.cpp:408] ip1 <- pool1
I0329 22:52:38.456379 20892 net.cpp:382] ip1 -> ip2
I0329 22:52:38.456393 20892 inner_product_layer.cpp:21] Start IP LayerSetUp
…
