…
I0427 15:58:49.832234 27383 net.cpp:53] Initializing net from parameters: 
name: "DummyNetbyHand"
state {
  phase: TRAIN
  level: 0
  stage: ""
}
layer {
  name: "x_train"
  type: "DummyData"
  top: "data"
  include {
    phase: TRAIN
  }
  dummy_data_param {
    data_filler {
      type: "constant"
    }
    shape {
      dim: 40
      dim: 19
      dim: 138
      dim: 138
    }
  }
}
layer {
  name: "y_train"
  type: "DummyData"
  top: "label"
  include {
    phase: TRAIN
  }
  dummy_data_param {
    data_filler {
      type: "constant"
    }
    shape {
      dim: 40
    }
  }
}
layer {
  name: "CONV"
  type: "Convolution"
  bottom: "data"
  top: "conv1"
  param {
    lr_mult: 1
  }
  param {
    lr_mult: 1
  }
  convolution_param {
    num_output: 25
    pad: 2
    kernel_size: 10
    stride: 6
    weight_filler {
      type: "gaussian"
    }
    bias_filler {
      type: "gaussian"
    }
  }
}
layer {
  name: "POOLING"
  type: "Pooling"
  bottom: "conv1"
  top: "pool1"
  pooling_param {
    pool: MAX
    kernel_size: 3
    stride: 1
  }
}
layer {
  name: "IP"
  type: "InnerProduct"
  bottom: "pool1"
  top: "ip1"
  param {
    lr_mult: 1
  }
  param {
    lr_mult: 1
  }
  inner_product_param {
    num_output: 2757
    weight_filler {
      type: "gaussian"
    }
    bias_filler {
      type: "gaussian"
    }
  }
}
layer {
  name: "RELU"
  type: "ReLU"
  bottom: "ip1"
  top: "relu1"
}
layer {
  name: "SOFTMAX"
  type: "SoftmaxWithLoss"
  bottom: "relu1"
  bottom: "label"
  top: "loss"
}
I0427 15:58:49.832473 27383 layer_factory.hpp:77] Creating layer x_train
I0427 15:58:49.832511 27383 net.cpp:86] Creating Layer x_train
I0427 15:58:49.832525 27383 net.cpp:382] x_train -> data
I0427 15:58:49.859482 27383 net.cpp:124] Setting up x_train
I0427 15:58:49.859542 27383 net.cpp:131] Top shape: 40 19 138 138 (14473440)
I0427 15:58:49.859546 27383 net.cpp:139] Memory required for data: 57893760
I0427 15:58:49.859567 27383 layer_factory.hpp:77] Creating layer y_train
I0427 15:58:49.859611 27383 net.cpp:86] Creating Layer y_train
I0427 15:58:49.859623 27383 net.cpp:382] y_train -> label
I0427 15:58:49.859680 27383 net.cpp:124] Setting up y_train
I0427 15:58:49.859689 27383 net.cpp:131] Top shape: 40 (40)
I0427 15:58:49.859694 27383 net.cpp:139] Memory required for data: 57893920
I0427 15:58:49.859697 27383 layer_factory.hpp:77] Creating layer CONV
I0427 15:58:49.859726 27383 net.cpp:86] Creating Layer CONV
I0427 15:58:49.859740 27383 net.cpp:408] CONV <- data
I0427 15:58:49.859767 27383 net.cpp:382] CONV -> conv1
I0427 15:58:49.863571 27383 cudnn_conv_layer.cpp:21] start cudnn_conv LayerSetUp()
I0427 15:58:50.057134 27383 cudnn_conv_layer.cpp:89] End cudnn_conv LayerSetUp()
I0427 15:58:50.057199 27383 cudnn_conv_layer.cpp:96] Start cudnn_conv reshape()
I0427 15:58:50.057226 27383 cudnn_conv_layer.cpp:196]  [CONV] reallocate 48348
I0427 15:58:50.057241 27383 cudnn_conv_layer.cpp:234] End cudnn_conv reshape()
I0427 15:58:50.057246 27383 net.cpp:124] Setting up CONV
I0427 15:58:50.057260 27383 net.cpp:131] Top shape: 40 25 23 23 (529000)
I0427 15:58:50.057263 27383 net.cpp:139] Memory required for data: 60009920
I0427 15:58:50.057317 27383 layer_factory.hpp:77] Creating layer POOLING
I0427 15:58:50.057344 27383 net.cpp:86] Creating Layer POOLING
I0427 15:58:50.057351 27383 net.cpp:408] POOLING <- conv1
I0427 15:58:50.057368 27383 net.cpp:382] POOLING -> pool1
I0427 15:58:50.057402 27383 net.cpp:124] Setting up POOLING
I0427 15:58:50.057413 27383 net.cpp:131] Top shape: 40 25 21 21 (441000)
I0427 15:58:50.057416 27383 net.cpp:139] Memory required for data: 61773920
I0427 15:58:50.057421 27383 layer_factory.hpp:77] Creating layer IP
I0427 15:58:50.057446 27383 net.cpp:86] Creating Layer IP
I0427 15:58:50.057461 27383 net.cpp:408] IP <- pool1
I0427 15:58:50.057474 27383 net.cpp:382] IP -> ip1
I0427 15:58:50.057492 27383 inner_product_layer.cpp:21] Start IP LayerSetUp
I0427 15:58:52.184520 27383 inner_product_layer.cpp:56] End IP LayerSetUp
I0427 15:58:52.184538 27383 inner_product_layer.cpp:69] Start IP Reshape()
I0427 15:58:52.184551 27383 inner_product_layer.cpp:84] End IP Reshape()
I0427 15:58:52.184554 27383 net.cpp:124] Setting up IP
I0427 15:58:52.184566 27383 net.cpp:131] Top shape: 40 2757 (110280)
I0427 15:58:52.184571 27383 net.cpp:139] Memory required for data: 62215040
I0427 15:58:52.184600 27383 layer_factory.hpp:77] Creating layer RELU
I0427 15:58:52.184625 27383 net.cpp:86] Creating Layer RELU
I0427 15:58:52.184633 27383 net.cpp:408] RELU <- ip1
I0427 15:58:52.184646 27383 net.cpp:382] RELU -> relu1
I0427 15:58:52.184835 27383 net.cpp:124] Setting up RELU
I0427 15:58:52.184845 27383 net.cpp:131] Top shape: 40 2757 (110280)
I0427 15:58:52.184849 27383 net.cpp:139] Memory required for data: 62656160
I0427 15:58:52.184854 27383 layer_factory.hpp:77] Creating layer SOFTMAX
I0427 15:58:52.184867 27383 net.cpp:86] Creating Layer SOFTMAX
I0427 15:58:52.184872 27383 net.cpp:408] SOFTMAX <- relu1
I0427 15:58:52.184882 27383 net.cpp:408] SOFTMAX <- label
I0427 15:58:52.184893 27383 net.cpp:382] SOFTMAX -> loss
…
