…
I1016 23:32:02.559904 15100 net.cpp:53] Initializing net from parameters: 
name: "DummyNetbyHand"
state {
  phase: TRAIN
  level: 0
  stage: ""
}
layer {
  name: "x_train"
  type: "DummyData"
  top: "data"
  include {
    phase: TRAIN
  }
  dummy_data_param {
    data_filler {
      type: "constant"
    }
    shape {
      dim: 16
      dim: 11
      dim: 14
      dim: 14
    }
  }
}
layer {
  name: "y_train"
  type: "DummyData"
  top: "label"
  include {
    phase: TRAIN
  }
  dummy_data_param {
    data_filler {
      type: "constant"
    }
    shape {
      dim: 16
    }
  }
}
layer {
  name: "IP"
  type: "InnerProduct"
  bottom: "data"
  top: "ip2"
  param {
    lr_mult: 1
    decay_mult: 0
  }
  param {
    lr_mult: 2
    decay_mult: 0
  }
  inner_product_param {
    num_output: 3387
    weight_filler {
      type: "gaussian"
      std: 0.01
    }
    bias_filler {
      type: "constant"
    }
  }
}
layer {
  name: "RELU"
  type: "ReLU"
  bottom: "ip2"
  top: "relu1"
}
layer {
  name: "IP2"
  type: "InnerProduct"
  bottom: "relu1"
  top: "ip1"
  param {
    lr_mult: 1
  }
  param {
    lr_mult: 1
  }
  inner_product_param {
    num_output: 748
    weight_filler {
      type: "gaussian"
    }
    bias_filler {
      type: "gaussian"
    }
  }
}
layer {
  name: "SOFTMAX"
  type: "SoftmaxWithLoss"
  bottom: "ip1"
  bottom: "label"
  top: "loss"
}
I1016 23:32:02.559979 15100 layer_factory.hpp:77] Creating layer x_train
I1016 23:32:02.560003 15100 net.cpp:86] Creating Layer x_train
I1016 23:32:02.560012 15100 net.cpp:382] x_train -> data
I1016 23:32:02.594257 15100 net.cpp:124] Setting up x_train
I1016 23:32:02.594314 15100 net.cpp:131] Top shape: 16 11 14 14 (34496)
I1016 23:32:02.594322 15100 net.cpp:139] Memory required for data: 137984
I1016 23:32:02.594336 15100 layer_factory.hpp:77] Creating layer y_train
I1016 23:32:02.594358 15100 net.cpp:86] Creating Layer y_train
I1016 23:32:02.594367 15100 net.cpp:382] y_train -> label
I1016 23:32:02.594427 15100 net.cpp:124] Setting up y_train
I1016 23:32:02.594441 15100 net.cpp:131] Top shape: 16 (16)
I1016 23:32:02.594447 15100 net.cpp:139] Memory required for data: 138048
I1016 23:32:02.594454 15100 layer_factory.hpp:77] Creating layer IP
I1016 23:32:02.594471 15100 net.cpp:86] Creating Layer IP
I1016 23:32:02.594480 15100 net.cpp:408] IP <- data
I1016 23:32:02.594498 15100 net.cpp:382] IP -> ip2
I1016 23:32:02.851932 15100 net.cpp:124] Setting up IP
I1016 23:32:02.851982 15100 net.cpp:131] Top shape: 16 3387 (54192)
I1016 23:32:02.851989 15100 net.cpp:139] Memory required for data: 354816
I1016 23:32:02.852018 15100 layer_factory.hpp:77] Creating layer RELU
I1016 23:32:02.852037 15100 net.cpp:86] Creating Layer RELU
I1016 23:32:02.852044 15100 net.cpp:408] RELU <- ip2
I1016 23:32:02.852054 15100 net.cpp:382] RELU -> relu1
I1016 23:32:03.110260 15100 net.cpp:124] Setting up RELU
I1016 23:32:03.110311 15100 net.cpp:131] Top shape: 16 3387 (54192)
I1016 23:32:03.110316 15100 net.cpp:139] Memory required for data: 571584
I1016 23:32:03.110324 15100 layer_factory.hpp:77] Creating layer IP2
I1016 23:32:03.110344 15100 net.cpp:86] Creating Layer IP2
I1016 23:32:03.110350 15100 net.cpp:408] IP2 <- relu1
I1016 23:32:03.110360 15100 net.cpp:382] IP2 -> ip1
I1016 23:32:03.175695 15100 net.cpp:124] Setting up IP2
I1016 23:32:03.175724 15100 net.cpp:131] Top shape: 16 748 (11968)
I1016 23:32:03.175729 15100 net.cpp:139] Memory required for data: 619456
I1016 23:32:03.175742 15100 layer_factory.hpp:77] Creating layer SOFTMAX
I1016 23:32:03.175758 15100 net.cpp:86] Creating Layer SOFTMAX
I1016 23:32:03.175765 15100 net.cpp:408] SOFTMAX <- ip1
I1016 23:32:03.175779 15100 net.cpp:408] SOFTMAX <- label
I1016 23:32:03.175788 15100 net.cpp:382] SOFTMAX -> loss
I1016 23:32:03.175819 15100 layer_factory.hpp:77] Creating layer SOFTMAX
…
