…
I1016 23:30:55.350735 14954 net.cpp:53] Initializing net from parameters: 
name: "DummyNetbyHand"
state {
  phase: TRAIN
  level: 0
  stage: ""
}
layer {
  name: "x_train"
  type: "DummyData"
  top: "data"
  include {
    phase: TRAIN
  }
  dummy_data_param {
    data_filler {
      type: "constant"
    }
    shape {
      dim: 256
      dim: 188
      dim: 16
      dim: 16
    }
  }
}
layer {
  name: "y_train"
  type: "DummyData"
  top: "label"
  include {
    phase: TRAIN
  }
  dummy_data_param {
    data_filler {
      type: "constant"
    }
    shape {
      dim: 256
    }
  }
}
layer {
  name: "IP"
  type: "InnerProduct"
  bottom: "data"
  top: "ip2"
  param {
    lr_mult: 1
    decay_mult: 0
  }
  param {
    lr_mult: 2
    decay_mult: 0
  }
  inner_product_param {
    num_output: 114
    weight_filler {
      type: "gaussian"
      std: 0.01
    }
    bias_filler {
      type: "constant"
    }
  }
}
layer {
  name: "RELU"
  type: "ReLU"
  bottom: "ip2"
  top: "relu1"
}
layer {
  name: "IP2"
  type: "InnerProduct"
  bottom: "relu1"
  top: "ip1"
  param {
    lr_mult: 1
  }
  param {
    lr_mult: 1
  }
  inner_product_param {
    num_output: 2690
    weight_filler {
      type: "gaussian"
    }
    bias_filler {
      type: "gaussian"
    }
  }
}
layer {
  name: "SOFTMAX"
  type: "SoftmaxWithLoss"
  bottom: "ip1"
  bottom: "label"
  top: "loss"
}
I1016 23:30:55.350809 14954 layer_factory.hpp:77] Creating layer x_train
I1016 23:30:55.350833 14954 net.cpp:86] Creating Layer x_train
I1016 23:30:55.350843 14954 net.cpp:382] x_train -> data
I1016 23:30:55.417444 14954 net.cpp:124] Setting up x_train
I1016 23:30:55.417516 14954 net.cpp:131] Top shape: 256 188 16 16 (12320768)
I1016 23:30:55.417523 14954 net.cpp:139] Memory required for data: 49283072
I1016 23:30:55.417536 14954 layer_factory.hpp:77] Creating layer y_train
I1016 23:30:55.417559 14954 net.cpp:86] Creating Layer y_train
I1016 23:30:55.417569 14954 net.cpp:382] y_train -> label
I1016 23:30:55.417661 14954 net.cpp:124] Setting up y_train
I1016 23:30:55.417676 14954 net.cpp:131] Top shape: 256 (256)
I1016 23:30:55.417682 14954 net.cpp:139] Memory required for data: 49284096
I1016 23:30:55.417688 14954 layer_factory.hpp:77] Creating layer IP
I1016 23:30:55.417713 14954 net.cpp:86] Creating Layer IP
I1016 23:30:55.417721 14954 net.cpp:408] IP <- data
I1016 23:30:55.417738 14954 net.cpp:382] IP -> ip2
I1016 23:30:55.610898 14954 net.cpp:124] Setting up IP
I1016 23:30:55.610942 14954 net.cpp:131] Top shape: 256 114 (29184)
I1016 23:30:55.610949 14954 net.cpp:139] Memory required for data: 49400832
I1016 23:30:55.610975 14954 layer_factory.hpp:77] Creating layer RELU
I1016 23:30:55.610988 14954 net.cpp:86] Creating Layer RELU
I1016 23:30:55.610996 14954 net.cpp:408] RELU <- ip2
I1016 23:30:55.611006 14954 net.cpp:382] RELU -> relu1
I1016 23:30:55.840701 14954 net.cpp:124] Setting up RELU
I1016 23:30:55.840747 14954 net.cpp:131] Top shape: 256 114 (29184)
I1016 23:30:55.840752 14954 net.cpp:139] Memory required for data: 49517568
I1016 23:30:55.840759 14954 layer_factory.hpp:77] Creating layer IP2
I1016 23:30:55.840776 14954 net.cpp:86] Creating Layer IP2
I1016 23:30:55.840782 14954 net.cpp:408] IP2 <- relu1
I1016 23:30:55.840791 14954 net.cpp:382] IP2 -> ip1
I1016 23:30:55.850482 14954 net.cpp:124] Setting up IP2
I1016 23:30:55.850499 14954 net.cpp:131] Top shape: 256 2690 (688640)
I1016 23:30:55.850504 14954 net.cpp:139] Memory required for data: 52272128
I1016 23:30:55.850514 14954 layer_factory.hpp:77] Creating layer SOFTMAX
I1016 23:30:55.850528 14954 net.cpp:86] Creating Layer SOFTMAX
I1016 23:30:55.850533 14954 net.cpp:408] SOFTMAX <- ip1
I1016 23:30:55.850548 14954 net.cpp:408] SOFTMAX <- label
I1016 23:30:55.850565 14954 net.cpp:382] SOFTMAX -> loss
I1016 23:30:55.850582 14954 layer_factory.hpp:77] Creating layer SOFTMAX
…
