…
I1018 03:59:56.922329  1063 net.cpp:53] Initializing net from parameters: 
name: "DummyNetbyHand"
state {
  phase: TRAIN
  level: 0
  stage: ""
}
layer {
  name: "x_train"
  type: "DummyData"
  top: "data"
  include {
    phase: TRAIN
  }
  dummy_data_param {
    data_filler {
      type: "constant"
    }
    shape {
      dim: 128
      dim: 23
      dim: 53
      dim: 53
    }
  }
}
layer {
  name: "y_train"
  type: "DummyData"
  top: "label"
  include {
    phase: TRAIN
  }
  dummy_data_param {
    data_filler {
      type: "constant"
    }
    shape {
      dim: 128
    }
  }
}
layer {
  name: "IP"
  type: "InnerProduct"
  bottom: "data"
  top: "ip2"
  param {
    lr_mult: 1
    decay_mult: 0
  }
  param {
    lr_mult: 2
    decay_mult: 0
  }
  inner_product_param {
    num_output: 35
    weight_filler {
      type: "gaussian"
      std: 0.01
    }
    bias_filler {
      type: "constant"
    }
  }
}
layer {
  name: "RELU"
  type: "ReLU"
  bottom: "ip2"
  top: "relu1"
}
layer {
  name: "IP2"
  type: "InnerProduct"
  bottom: "relu1"
  top: "ip1"
  param {
    lr_mult: 1
  }
  param {
    lr_mult: 1
  }
  inner_product_param {
    num_output: 4080
    weight_filler {
      type: "gaussian"
    }
    bias_filler {
      type: "gaussian"
    }
  }
}
layer {
  name: "SOFTMAX"
  type: "SoftmaxWithLoss"
  bottom: "ip1"
  bottom: "label"
  top: "loss"
}
I1018 03:59:56.922411  1063 layer_factory.hpp:77] Creating layer x_train
I1018 03:59:56.922436  1063 net.cpp:86] Creating Layer x_train
I1018 03:59:56.922448  1063 net.cpp:382] x_train -> data
I1018 03:59:56.950218  1063 net.cpp:124] Setting up x_train
I1018 03:59:56.950295  1063 net.cpp:131] Top shape: 128 23 53 53 (8269696)
I1018 03:59:56.950302  1063 net.cpp:139] Memory required for data: 33078784
I1018 03:59:56.950318  1063 layer_factory.hpp:77] Creating layer y_train
I1018 03:59:56.950353  1063 net.cpp:86] Creating Layer y_train
I1018 03:59:56.950366  1063 net.cpp:382] y_train -> label
I1018 03:59:56.950472  1063 net.cpp:124] Setting up y_train
I1018 03:59:56.950487  1063 net.cpp:131] Top shape: 128 (128)
I1018 03:59:56.950493  1063 net.cpp:139] Memory required for data: 33079296
I1018 03:59:56.950500  1063 layer_factory.hpp:77] Creating layer IP
I1018 03:59:56.950515  1063 net.cpp:86] Creating Layer IP
I1018 03:59:56.950523  1063 net.cpp:408] IP <- data
I1018 03:59:56.950538  1063 net.cpp:382] IP -> ip2
I1018 03:59:57.030220  1063 net.cpp:124] Setting up IP
I1018 03:59:57.030242  1063 net.cpp:131] Top shape: 128 35 (4480)
I1018 03:59:57.030248  1063 net.cpp:139] Memory required for data: 33097216
I1018 03:59:57.030270  1063 layer_factory.hpp:77] Creating layer RELU
I1018 03:59:57.030285  1063 net.cpp:86] Creating Layer RELU
I1018 03:59:57.030292  1063 net.cpp:408] RELU <- ip2
I1018 03:59:57.030299  1063 net.cpp:382] RELU -> relu1
I1018 03:59:57.415391  1063 net.cpp:124] Setting up RELU
I1018 03:59:57.415446  1063 net.cpp:131] Top shape: 128 35 (4480)
I1018 03:59:57.415453  1063 net.cpp:139] Memory required for data: 33115136
I1018 03:59:57.415463  1063 layer_factory.hpp:77] Creating layer IP2
I1018 03:59:57.415504  1063 net.cpp:86] Creating Layer IP2
I1018 03:59:57.415524  1063 net.cpp:408] IP2 <- relu1
I1018 03:59:57.415537  1063 net.cpp:382] IP2 -> ip1
I1018 03:59:57.423329  1063 net.cpp:124] Setting up IP2
I1018 03:59:57.423352  1063 net.cpp:131] Top shape: 128 4080 (522240)
I1018 03:59:57.423357  1063 net.cpp:139] Memory required for data: 35204096
I1018 03:59:57.423372  1063 layer_factory.hpp:77] Creating layer SOFTMAX
I1018 03:59:57.423393  1063 net.cpp:86] Creating Layer SOFTMAX
I1018 03:59:57.423399  1063 net.cpp:408] SOFTMAX <- ip1
I1018 03:59:57.423406  1063 net.cpp:408] SOFTMAX <- label
I1018 03:59:57.423415  1063 net.cpp:382] SOFTMAX -> loss
I1018 03:59:57.423437  1063 layer_factory.hpp:77] Creating layer SOFTMAX
…
I1018 03:59:57.426473  1063 net.cpp:53] Initializing net from parameters: 
name: "DummyNetbyHand"
state {
  phase: TEST
}
layer {
  name: "x_test"
  type: "DummyData"
  top: "data"
  include {
    phase: TEST
  }
  dummy_data_param {
    data_filler {
      type: "constant"
    }
    shape {
      dim: 128
      dim: 23
      dim: 53
      dim: 53
    }
  }
}
layer {
  name: "y_test"
  type: "DummyData"
  top: "label"
  include {
    phase: TEST
  }
  dummy_data_param {
    data_filler {
      type: "constant"
    }
    shape {
      dim: 128
    }
  }
}
layer {
  name: "IP"
  type: "InnerProduct"
  bottom: "data"
  top: "ip2"
  param {
    lr_mult: 1
    decay_mult: 0
  }
  param {
    lr_mult: 2
    decay_mult: 0
  }
  inner_product_param {
    num_output: 35
    weight_filler {
      type: "gaussian"
      std: 0.01
    }
    bias_filler {
      type: "constant"
    }
  }
}
layer {
  name: "RELU"
  type: "ReLU"
  bottom: "ip2"
  top: "relu1"
}
layer {
  name: "IP2"
  type: "InnerProduct"
  bottom: "relu1"
  top: "ip1"
  param {
    lr_mult: 1
  }
  param {
    lr_mult: 1
  }
  inner_product_param {
    num_output: 4080
    weight_filler {
      type: "gaussian"
    }
    bias_filler {
      type: "gaussian"
    }
  }
}
layer {
  name: "accuracy"
  type: "Accuracy"
  bottom: "ip1"
  bottom: "label"
  top: "accuracy"
  include {
    phase: TEST
  }
}
layer {
  name: "SOFTMAX"
  type: "SoftmaxWithLoss"
  bottom: "ip1"
  bottom: "label"
  top: "loss"
}
I1018 03:59:57.426547  1063 layer_factory.hpp:77] Creating layer x_test
I1018 03:59:57.426560  1063 net.cpp:86] Creating Layer x_test
I1018 03:59:57.426568  1063 net.cpp:382] x_test -> data
I1018 03:59:57.452409  1063 net.cpp:124] Setting up x_test
I1018 03:59:57.452466  1063 net.cpp:131] Top shape: 128 23 53 53 (8269696)
I1018 03:59:57.452474  1063 net.cpp:139] Memory required for data: 33078784
I1018 03:59:57.452484  1063 layer_factory.hpp:77] Creating layer y_test
I1018 03:59:57.452508  1063 net.cpp:86] Creating Layer y_test
I1018 03:59:57.452517  1063 net.cpp:382] y_test -> label
I1018 03:59:57.452651  1063 net.cpp:124] Setting up y_test
I1018 03:59:57.452677  1063 net.cpp:131] Top shape: 128 (128)
I1018 03:59:57.452682  1063 net.cpp:139] Memory required for data: 33079296
I1018 03:59:57.452688  1063 layer_factory.hpp:77] Creating layer label_y_test_0_split
I1018 03:59:57.452699  1063 net.cpp:86] Creating Layer label_y_test_0_split
I1018 03:59:57.452705  1063 net.cpp:408] label_y_test_0_split <- label
I1018 03:59:57.452715  1063 net.cpp:382] label_y_test_0_split -> label_y_test_0_split_0
I1018 03:59:57.452725  1063 net.cpp:382] label_y_test_0_split -> label_y_test_0_split_1
I1018 03:59:57.452762  1063 net.cpp:124] Setting up label_y_test_0_split
I1018 03:59:57.452770  1063 net.cpp:131] Top shape: 128 (128)
I1018 03:59:57.452776  1063 net.cpp:131] Top shape: 128 (128)
I1018 03:59:57.452781  1063 net.cpp:139] Memory required for data: 33080320
I1018 03:59:57.452786  1063 layer_factory.hpp:77] Creating layer IP
I1018 03:59:57.452798  1063 net.cpp:86] Creating Layer IP
I1018 03:59:57.452805  1063 net.cpp:408] IP <- data
I1018 03:59:57.452813  1063 net.cpp:382] IP -> ip2
I1018 03:59:57.532088  1063 net.cpp:124] Setting up IP
I1018 03:59:57.532109  1063 net.cpp:131] Top shape: 128 35 (4480)
I1018 03:59:57.532116  1063 net.cpp:139] Memory required for data: 33098240
I1018 03:59:57.532131  1063 layer_factory.hpp:77] Creating layer RELU
I1018 03:59:57.532143  1063 net.cpp:86] Creating Layer RELU
I1018 03:59:57.532150  1063 net.cpp:408] RELU <- ip2
I1018 03:59:57.532160  1063 net.cpp:382] RELU -> relu1
I1018 03:59:57.532459  1063 net.cpp:124] Setting up RELU
I1018 03:59:57.532472  1063 net.cpp:131] Top shape: 128 35 (4480)
I1018 03:59:57.532479  1063 net.cpp:139] Memory required for data: 33116160
I1018 03:59:57.532485  1063 layer_factory.hpp:77] Creating layer IP2
I1018 03:59:57.532496  1063 net.cpp:86] Creating Layer IP2
I1018 03:59:57.532502  1063 net.cpp:408] IP2 <- relu1
I1018 03:59:57.532512  1063 net.cpp:382] IP2 -> ip1
I1018 03:59:57.537544  1063 net.cpp:124] Setting up IP2
I1018 03:59:57.537557  1063 net.cpp:131] Top shape: 128 4080 (522240)
I1018 03:59:57.537562  1063 net.cpp:139] Memory required for data: 35205120
I1018 03:59:57.537573  1063 layer_factory.hpp:77] Creating layer ip1_IP2_0_split
I1018 03:59:57.537583  1063 net.cpp:86] Creating Layer ip1_IP2_0_split
I1018 03:59:57.537590  1063 net.cpp:408] ip1_IP2_0_split <- ip1
I1018 03:59:57.537598  1063 net.cpp:382] ip1_IP2_0_split -> ip1_IP2_0_split_0
I1018 03:59:57.537607  1063 net.cpp:382] ip1_IP2_0_split -> ip1_IP2_0_split_1
I1018 03:59:57.537645  1063 net.cpp:124] Setting up ip1_IP2_0_split
I1018 03:59:57.537653  1063 net.cpp:131] Top shape: 128 4080 (522240)
I1018 03:59:57.537660  1063 net.cpp:131] Top shape: 128 4080 (522240)
I1018 03:59:57.537664  1063 net.cpp:139] Memory required for data: 39383040
I1018 03:59:57.537670  1063 layer_factory.hpp:77] Creating layer accuracy
I1018 03:59:57.537688  1063 net.cpp:86] Creating Layer accuracy
I1018 03:59:57.537693  1063 net.cpp:408] accuracy <- ip1_IP2_0_split_0
I1018 03:59:57.537700  1063 net.cpp:408] accuracy <- label_y_test_0_split_0
I1018 03:59:57.537708  1063 net.cpp:382] accuracy -> accuracy
…
