…
  top: "data"
  include {
    phase: TRAIN
  }
  dummy_data_param {
    data_filler {
      type: "constant"
    }
    shape {
      dim: 44
      dim: 40
      dim: 40
    }
  }
}
layer {
  name: "cont"
  type: "DummyData"
  top: "cont"
  dummy_data_param {
    data_filler {
      type: "constant"
    }
    shape {
      dim: 44
      dim: 40
    }
  }
}
layer {
  name: "y_train"
  type: "DummyData"
  top: "label"
  include {
    phase: TRAIN
  }
  dummy_data_param {
    data_filler {
      type: "constant"
    }
    shape {
      dim: 44
      dim: 40
    }
  }
}
layer {
  name: "LSTM"
  type: "LSTM"
  bottom: "data"
  bottom: "cont"
  top: "ip1"
  recurrent_param {
    num_output: 40
    weight_filler {
      type: "gaussian"
      std: 0.1
    }
    bias_filler {
      type: "constant"
    }
  }
}
layer {
  name: "SOFTMAX"
  type: "SoftmaxWithLoss"
  bottom: "ip1"
  bottom: "label"
  top: "loss"
}
I0717 14:21:15.002761 27687 layer_factory.hpp:77] Creating layer x_train
I0717 14:21:15.002784 27687 net.cpp:86] Creating Layer x_train
I0717 14:21:15.002794 27687 net.cpp:382] x_train -> data
I0717 14:21:15.034312 27687 net.cpp:124] Setting up x_train
I0717 14:21:15.034358 27687 net.cpp:131] Top shape: 44 40 40 (70400)
I0717 14:21:15.034365 27687 net.cpp:139] Memory required for data: 281600
I0717 14:21:15.034379 27687 layer_factory.hpp:77] Creating layer cont
I0717 14:21:15.034399 27687 net.cpp:86] Creating Layer cont
I0717 14:21:15.034407 27687 net.cpp:382] cont -> cont
I0717 14:21:15.035681 27687 net.cpp:124] Setting up cont
I0717 14:21:15.035702 27687 net.cpp:131] Top shape: 44 40 (1760)
I0717 14:21:15.035708 27687 net.cpp:139] Memory required for data: 288640
I0717 14:21:15.035714 27687 layer_factory.hpp:77] Creating layer y_train
I0717 14:21:15.035728 27687 net.cpp:86] Creating Layer y_train
I0717 14:21:15.035738 27687 net.cpp:382] y_train -> label
I0717 14:21:15.035787 27687 net.cpp:124] Setting up y_train
I0717 14:21:15.035800 27687 net.cpp:131] Top shape: 44 40 (1760)
I0717 14:21:15.035805 27687 net.cpp:139] Memory required for data: 295680
I0717 14:21:15.035810 27687 layer_factory.hpp:77] Creating layer LSTM
I0717 14:21:15.035825 27687 net.cpp:86] Creating Layer LSTM
I0717 14:21:15.035833 27687 net.cpp:408] LSTM <- data
I0717 14:21:15.035847 27687 net.cpp:408] LSTM <- cont
I0717 14:21:15.035856 27687 net.cpp:382] LSTM -> ip1
I0717 14:21:15.035873 27687 recurrent_layer.cpp:20] Initializing recurrent layer: assuming input batch contains 44 timesteps of 40 independent streams.
I0717 14:21:15.037638 27687 net.cpp:53] Initializing net from parameters: 
layer {
  name: "LSTM_"
  type: "Input"
  top: "x"
  top: "cont"
  input_param {
    shape {
      dim: 44
      dim: 40
      dim: 40
    }
    shape {
      dim: 44
      dim: 40
    }
  }
}
layer {
  name: "LSTM_"
  type: "Input"
  top: "c_0"
  top: "h_0"
  input_param {
    shape {
      dim: 1
      dim: 40
      dim: 40
    }
    shape {
      dim: 1
      dim: 40
      dim: 40
    }
  }
}
layer {
  name: "LSTM_cont_slice"
  type: "Slice"
  bottom: "cont"
  top: "cont_1"
  top: "cont_2"
  top: "cont_3"
  top: "cont_4"
  top: "cont_5"
  top: "cont_6"
  top: "cont_7"
  top: "cont_8"
  top: "cont_9"
  top: "cont_10"
  top: "cont_11"
  top: "cont_12"
  top: "cont_13"
  top: "cont_14"
  top: "cont_15"
  top: "cont_16"
  top: "cont_17"
  top: "cont_18"
  top: "cont_19"
  top: "cont_20"
  top: "cont_21"
  top: "cont_22"
  top: "cont_23"
  top: "cont_24"
  top: "cont_25"
  top: "cont_26"
  top: "cont_27"
  top: "cont_28"
  top: "cont_29"
  top: "cont_30"
  top: "cont_31"
  top: "cont_32"
  top: "cont_33"
  top: "cont_34"
  top: "cont_35"
  top: "cont_36"
  top: "cont_37"
  top: "cont_38"
  top: "cont_39"
  top: "cont_40"
  top: "cont_41"
  top: "cont_42"
  top: "cont_43"
  top: "cont_44"
  slice_param {
    axis: 0
  }
}
layer {
  name: "LSTM_x_transform"
  type: "InnerProduct"
  bottom: "x"
  top: "W_xc_x"
  param {
    name: "W_xc"
  }
  param {
    name: "b_c"
  }
  propagate_down: true
  inner_product_param {
    num_output: 160
    bias_term: true
    weight_filler {
      type: "gaussian"
      std: 0.1
    }
    bias_filler {
      type: "constant"
    }
    axis: 2
  }
}
layer {
  name: "LSTM_W_xc_x_slice"
  type: "Slice"
  bottom: "W_xc_x"
  top: "W_xc_x_1"
  top: "W_xc_x_2"
  top: "W_xc_x_3"
  top: "W_xc_x_4"
  top: "W_xc_x_5"
  top: "W_xc_x_6"
  top: "W_xc_x_7"
  top: "W_xc_x_8"
  top: "W_xc_x_9"
  top: "W_xc_x_10"
  top: "W_xc_x_11"
  top: "W_xc_x_12"
  top: "W_xc_x_13"
  top: "W_xc_x_14"
  top: "W_xc_x_15"
  top: "W_xc_x_16"
  top: "W_xc_x_17"
  top: "W_xc_x_18"
  top: "W_xc_x_19"
  top: "W_xc_x_20"
  top: "W_xc_x_21"
  top: "W_xc_x_22"
  top: "W_xc_x_23"
  top: "W_xc_x_24"
  top: "W_xc_x_25"
  top: "W_xc_x_26"
  top: "W_xc_x_27"
  top: "W_xc_x_28"
  top: "W_xc_x_29"
  top: "W_xc_x_30"
  top: "W_xc_x_31"
  top: "W_xc_x_32"
  top: "W_xc_x_33"
  top: "W_xc_x_34"
  top: "W_xc_x_35"
  top: "W_xc_x_36"
  top: "W_xc_x_37"
  top: "W_xc_x_38"
  top: "W_xc_x_39"
  top: "W_xc_x_40"
  top: "W_xc_x_41"
  top: "W_xc_x_42"
  top: "W_xc_x_43"
  top: "W_xc_x_44"
  slice_param {
    axis: 0
  }
}
layer {
  name: "LSTM_h_conted_0"
  type: "Scale"
  bottom: "h_0"
  bottom: "cont_1"
  top: "h_conted_0"
  scale_param {
    axis: 0
  }
}
layer {
  name: "LSTM_transform_1"
  type: "InnerProduct"
  bottom: "h_conted_0"
  top: "W_hc_h_0"
  param {
    name: "W_hc"
  }
  inner_product_param {
    num_output: 160
    bias_term: false
    weight_filler {
      type: "gaussian"
      std: 0.1
    }
    axis: 2
  }
}
layer {
  name: "LSTM_gate_input_1"
  type: "Eltwise"
  bottom: "W_hc_h_0"
  bottom: "W_xc_x_1"
  top: "gate_input_1"
  eltwise_param {
    operation: SUM
  }
}
layer {
  name: "LSTM_unit_1"
  type: "LSTMUnit"
  bottom: "c_0"
  bottom: "gate_input_1"
  bottom: "cont_1"
  top: "c_1"
  top: "h_1"
}
layer {
  name: "LSTM_h_conted_1"
  type: "Scale"
  bottom: "h_1"
  bottom: "cont_2"
  top: "h_conted_1"
  scale_param {
    axis: 0
  }
}
layer {
  name: "LSTM_transform_2"
  type: "InnerProduct"
  bottom: "h_conted_1"
  top: "W_hc_h_1"
  param {
    name: "W_hc"
  }
  inner_product_param {
    num_output: 160
    bias_term: false
    weight_filler {
      type: "gaussian"
      std: 0.1
    }
    axis: 2
  }
}
layer {
  name: "LSTM_gate_input_2"
  type: "Eltwise"
  bottom: "W_hc_h_1"
  bottom: "W_xc_x_2"
  top: "gate_input_2"
  eltwise_param {
    operation: SUM
  }
}
layer {
  name: "LSTM_unit_2"
  type: "LSTMUnit"
  bottom: "c_1"
  bottom: "gate_input_2"
  bottom: "cont_2"
  top: "c_2"
  top: "h_2"
}
layer {
  name: "LSTM_h_conted_2"
  type: "Scale"
  bottom: "h_2"
  bottom: "cont_3"
  top: "h_conted_2"
  scale_param {
    axis: 0
  }
}
layer {
  name: "LSTM_transform_3"
  type: "InnerProduct"
  bottom: "h_conted_2"
  top: "W_hc_h_2"
  param {
    name: "W_hc"
  }
  inner_product_param {
    num_output: 160
    bias_term: false
    weight_filler {
      type: "gaussian"
      std: 0.1
    }
    axis: 2
  }
}
layer {
  name: "LSTM_gate_input_3"
  type: "Eltwise"
  bottom: "W_hc_h_2"
  bottom: "W_xc_x_3"
  top: "gate_input_3"
  eltwise_param {
    operation: SUM
  }
}
layer {
  name: "LSTM_unit_3"
  type: "LSTMUnit"
  bottom: "c_2"
  bottom: "gate_input_3"
  bottom: "cont_3"
  top: "c_3"
  top: "h_3"
}
layer {
  name: "LSTM_h_conted_3"
  type: "Scale"
  bottom: "h_3"
  bottom: "cont_4"
  top: "h_conted_3"
  scale_param {
    axis: 0
  }
}
layer {
  name: "LSTM_transform_4"
  type: "InnerProduct"
  bottom: "h_conted_3"
  top: "W_hc_h_3"
  param {
    name: "W_hc"
  }
  inner_product_param {
    num_output: 160
    bias_term: false
    weight_filler {
      type: "gaussian"
      std: 0.1
    }
    axis: 2
  }
}
layer {
  name: "LSTM_gate_input_4"
  type: "Eltwise"
  bottom: "W_hc_h_3"
  bottom: "W_xc_x_4"
  top: "gate_input_4"
  eltwise_param {
    operation: SUM
  }
}
layer {
  name: "LSTM_unit_4"
  type: "LSTMUnit"
  bottom: "c_3"
  bottom: "gate_input_4"
  bottom: "cont_4"
  top: "c_4"
  top: "h_4"
}
layer {
  name: "LSTM_h_conted_4"
  type: "Scale"
  bottom: "h_4"
  bottom: "cont_5"
  top: "h_conted_4"
  scale_param {
    axis: 0
  }
}
layer {
  name: "LSTM_transform_5"
  type: "InnerProduct"
  bottom: "h_conted_4"
  top: "W_hc_h_4"
  param {
    name: "W_hc"
  }
  inner_product_param {
    num_output: 160
    bias_term: false
    weight_filler {
      type: "gaussian"
      std: 0.1
    }
    axis: 2
  }
}
layer {
  name: "LSTM_gate_input_5"
  type: "Eltwise"
  bottom: "W_hc_h_4"
  bottom: "W_xc_x_5"
  top: "gate_input_5"
  eltwise_param {
    operation: SUM
  }
}
layer {
  name: "LSTM_unit_5"
  type: "LSTMUnit"
  bottom: "c_4"
  bottom: "gate_input_5"
  bottom: "cont_5"
  top: "c_5"
  top: "h_5"
}
layer {
  name: "LSTM_h_conted_5"
  type: "Scale"
  bottom: "h_5"
  bottom: "cont_6"
  top: "h_conted_5"
  scale_param {
    axis: 0
  }
}
layer {
  name: "LSTM_transform_6"
  type: "InnerProduct"
  bottom: "h_conted_5"
  top: "W_hc_h_5"
  param {
    name: "W_hc"
  }
  inner_product_param {
    num_output: 160
    bias_term: false
    weight_filler {
      type: "gaussian"
      std: 0.1
    }
    axis: 2
  }
}
layer {
  name: "LSTM_gate_input_6"
  type: "Eltwise"
  bottom: "W_hc_h_5"
  bottom: "W_xc_x_6"
  top: "gate_input_6"
  eltwise_param {
    operation: SUM
  }
}
layer {
  name: "LSTM_unit_6"
  type: "LSTMUnit"
  bottom: "c_5"
  bottom: "gate_input_6"
  bottom: "cont_6"
  top: "c_6"
  top: "h_6"
}
layer {
  name: "LSTM_h_conted_6"
  type: "Scale"
  bottom: "h_6"
  bottom: "cont_7"
  top: "h_conted_6"
  scale_param {
    axis: 0
  }
}
layer {
  name: "LSTM_transform_7"
  type: "InnerProduct"
  bottom: "h_conted_6"
  top: "W_hc_h_6"
  param {
    name: "W_hc"
  }
  inner_product_param {
    num_output: 160
    bias_term: false
    weight_filler {
      type: "gaussian"
      std: 0.1
    }
    axis: 2
  }
}
layer {
  name: "LSTM_gate_input_7"
  type: "Eltwise"
  bottom: "W_hc_h_6"
  bottom: "W_xc_x_7"
  top: "gate_input_7"
  eltwise_param {
    operation: SUM
  }
}
layer {
  name: "LSTM_unit_7"
  type: "LSTMUnit"
  bottom: "c_6"
  bottom: "gate_input_7"
  bottom: "cont_7"
  top: "c_7"
  top: "h_7"
}
layer {
  name: "LSTM_h_conted_7"
  type: "Scale"
  bottom: "h_7"
  bottom: "cont_8"
  top: "h_conted_7"
  scale_param {
    axis: 0
  }
}
layer {
  name: "LSTM_transform_8"
  type: "InnerProduct"
  bottom: "h_conted_7"
  top: "W_hc_h_7"
  param {
    name: "W_hc"
  }
  inner_product_param {
    num_output: 160
    bias_term: false
    weight_filler {
      type: "gaussian"
      std: 0.1
    }
    axis: 2
  }
}
layer {
  name: "LSTM_gate_input_8"
  type: "Eltwise"
  bottom: "W_hc_h_7"
  bottom: "W_xc_x_8"
  top: "gate_input_8"
  eltwise_param {
    operation: SUM
  }
}
layer {
  name: "LSTM_unit_8"
  type: "LSTMUnit"
  bottom: "c_7"
  bottom: "gate_input_8"
  bottom: "cont_8"
  top: "c_8"
  top: "h_8"
}
layer {
  name: "LSTM_h_conted_8"
  type: "Scale"
  bottom: "h_8"
  bottom: "cont_9"
  top: "h_conted_8"
  scale_param {
    axis: 0
  }
}
layer {
  name: "LSTM_transform_9"
  type: "InnerProduct"
  bottom: "h_conted_8"
  top: "W_hc_h_8"
  param {
    name: "W_hc"
  }
  inner_product_param {
    num_output: 160
    bias_term: false
    weight_filler {
      type: "gaussian"
      std: 0.1
    }
    axis: 2
  }
}
layer {
  name: "LSTM_gate_input_9"
  type: "Eltwise"
  bottom: "W_hc_h_8"
  bottom: "W_xc_x_9"
  top: "gate_input_9"
  eltwise_param {
    operation: SUM
  }
}
layer {
  name: "LSTM_unit_9"
  type: "LSTMUnit"
  bottom: "c_8"
  bottom: "gate_input_9"
  bottom: "cont_9"
  top: "c_9"
  top: "h_9"
}
layer {
  name: "LSTM_h_conted_9"
  type: "Scale"
  bottom: "h_9"
  bottom: "cont_10"
  top: "h_conted_9"
  scale_param {
    axis: 0
  }
}
layer {
  name: "LSTM_transform_10"
  type: "InnerProduct"
  bottom: "h_conted_9"
  top: "W_hc_h_9"
  param {
    name: "W_hc"
  }
  inner_product_param {
    num_output: 160
    bias_term: false
    weight_filler {
      type: "gaussian"
      std: 0.1
    }
    axis: 2
  }
}
layer {
  name: "LSTM_gate_input_10"
  type: "Eltwise"
  bottom: "W_hc_h_9"
  bottom: "W_xc_x_10"
  top: "gate_input_10"
  eltwise_param {
    operation: SUM
  }
}
layer {
  name: "LSTM_unit_10"
  type: "LSTMUnit"
  bottom: "c_9"
  bottom: "gate_input_10"
  bottom: "cont_10"
  top: "c_10"
  top: "h_10"
}
layer {
  name: "LSTM_h_conted_10"
  type: "Scale"
  bottom: "h_10"
  bottom: "cont_11"
  top: "h_conted_10"
  scale_param {
    axis: 0
  }
}
layer {
  name: "LSTM_transform_11"
  type: "InnerProduct"
  bottom: "h_conted_10"
  top: "W_hc_h_10"
  param {
    name: "W_hc"
  }
  inner_product_param {
    num_output: 160
    bias_term: false
    weight_filler {
      type: "gaussian"
      std: 0.1
    }
    axis: 2
  }
}
layer {
  name: "LSTM_gate_input_11"
  type: "Eltwise"
  bottom: "W_hc_h_10"
  bottom: "W_xc_x_11"
  top: "gate_input_11"
  eltwise_param {
    operation: SUM
  }
}
layer {
  name: "LSTM_unit_11"
  type: "LSTMUnit"
  bottom: "c_10"
  bottom: "gate_input_11"
  bottom: "cont_11"
  top: "c_11"
  top: "h_11"
}
layer {
  name: "LSTM_h_conted_11"
  type: "Scale"
  bottom: "h_11"
  bottom: "cont_12"
  top: "h_conted_11"
  scale_param {
    axis: 0
  }
}
layer {
  name: "LSTM_transform_12"
  type: "InnerProduct"
  bottom: "h_conted_11"
  top: "W_hc_h_11"
  param {
    name: "W_hc"
  }
  inner_product_param {
    num_output: 160
    bias_term: false
    weight_filler {
      type: "gaussian"
      std: 0.1
    }
    axis: 2
  }
}
layer {
  name: "LSTM_gate_input_12"
  type: "Eltwise"
  bottom: "W_hc_h_11"
  bottom: "W_xc_x_12"
  top: "gate_input_12"
  eltwise_param {
    operation: SUM
  }
}
layer {
  name: "LSTM_unit_12"
  type: "LSTMUnit"
  bottom: "c_11"
  bottom: "gate_input_12"
  bottom: "cont_12"
  top: "c_12"
  top: "h_12"
}
layer {
  name: "LSTM_h_conted_12"
  type: "Scale"
  bottom: "h_12"
  bottom: "cont_13"
  top: "h_conted_12"
  scale_param {
    axis: 0
  }
}
layer {
  name: "LSTM_transform_13"
  type: "InnerProduct"
  bottom: "h_conted_12"
  top: "W_hc_h_12"
  param {
    name: "W_hc"
  }
  inner_product_param {
    num_output: 160
    bias_term: false
    weight_filler {
      type: "gaussian"
      std: 0.1
    }
    axis: 2
  }
}
layer {
  name: "LSTM_gate_input_13"
  type: "Eltwise"
  bottom: "W_hc_h_12"
  bottom: "W_xc_x_13"
  top: "gate_input_13"
  eltwise_param {
    operation: SUM
  }
}
layer {
  name: "LSTM_unit_13"
  type: "LSTMUnit"
  bottom: "c_12"
  bottom: "gate_input_13"
  bottom: "cont_13"
  top: "c_13"
  top: "h_13"
}
layer {
  name: "LSTM_h_conted_13"
  type: "Scale"
  bottom: "h_13"
  bottom: "cont_14"
  top: "h_conted_13"
  scale_param {
    axis: 0
  }
}
layer {
  name: "LSTM_transform_14"
  type: "InnerProduct"
  bottom: "h_conted_13"
  top: "W_hc_h_13"
  param {
    name: "W_hc"
  }
  inner_product_param {
    num_output: 160
    bias_term: false
    weight_filler {
      type: "gaussian"
      std: 0.1
    }
    axis: 2
  }
}
layer {
  name: "LSTM_gate_input_14"
  type: "Eltwise"
  bottom: "W_hc_h_13"
  bottom: "W_xc_x_14"
  top: "gate_input_14"
  eltwise_param {
    operation: SUM
  }
}
layer {
  name: "LSTM_unit_14"
  type: "LSTMUnit"
  bottom: "c_13"
  bottom: "gate_input_14"
  bottom: "cont_14"
  top: "c_14"
  top: "h_14"
}
layer {
  name: "LSTM_h_conted_14"
  type: "Scale"
  bottom: "h_14"
  bottom: "cont_15"
  top: "h_conted_14"
  scale_param {
    axis: 0
  }
}
layer {
  name: "LSTM_transform_15"
  type: "InnerProduct"
  bottom: "h_conted_14"
  top: "W_hc_h_14"
  param {
    name: "W_hc"
  }
  inner_product_param {
    num_output: 160
    bias_term: false
    weight_filler {
      type: "gaussian"
      std: 0.1
    }
    axis: 2
  }
}
layer {
  name: "LSTM_gate_input_15"
  type: "Eltwise"
  bottom: "W_hc_h_14"
  bottom: "W_xc_x_15"
  top: "gate_input_15"
  eltwise_param {
    operation: SUM
  }
}
layer {
  name: "LSTM_unit_15"
  type: "LSTMUnit"
  bottom: "c_14"
  bottom: "gate_input_15"
  bottom: "cont_15"
  top: "c_15"
  top: "h_15"
}
layer {
  name: "LSTM_h_conted_15"
  type: "Scale"
  bottom: "h_15"
  bottom: "cont_16"
  top: "h_conted_15"
  scale_param {
    axis: 0
  }
}
layer {
  name: "LSTM_transform_16"
  type: "InnerProduct"
  bottom: "h_conted_15"
  top: "W_hc_h_15"
  param {
    name: "W_hc"
  }
  inner_product_param {
    num_output: 160
    bias_term: false
    weight_filler {
      type: "gaussian"
      std: 0.1
    }
    axis: 2
  }
}
layer {
  name: "LSTM_gate_input_16"
  type: "Eltwise"
  bottom: "W_hc_h_15"
  bottom: "W_xc_x_16"
  top: "gate_input_16"
  eltwise_param {
    operation: SUM
  }
}
layer {
  name: "LSTM_unit_16"
  type: "LSTMUnit"
  bottom: "c_15"
  bottom: "gate_input_16"
  bottom: "cont_16"
  top: "c_16"
  top: "h_16"
}
layer {
  name: "LSTM_h_conted_16"
  type: "Scale"
  bottom: "h_16"
  bottom: "cont_17"
  top: "h_conted_16"
  scale_param {
    axis: 0
  }
}
layer {
  name: "LSTM_transform_17"
  type: "InnerProduct"
  bottom: "h_conted_16"
  top: "W_hc_h_16"
  param {
    name: "W_hc"
  }
  inner_product_param {
    num_output: 160
    bias_term: false
    weight_filler {
      type: "gaussian"
      std: 0.1
    }
    axis: 2
  }
}
layer {
  name: "LSTM_gate_input_17"
  type: "Eltwise"
  bottom: "W_hc_h_16"
  bottom: "W_xc_x_17"
  top: "gate_input_17"
  eltwise_param {
    operation: SUM
  }
}
layer {
  name: "LSTM_unit_17"
  type: "LSTMUnit"
  bottom: "c_16"
  bottom: "gate_input_17"
  bottom: "cont_17"
  top: "c_17"
  top: "h_17"
}
layer {
  name: "LSTM_h_conted_17"
  type: "Scale"
  bottom: "h_17"
  bottom: "cont_18"
  top: "h_conted_17"
  scale_param {
    axis: 0
  }
}
layer {
  name: "LSTM_transform_18"
  type: "InnerProduct"
  bottom: "h_conted_17"
  top: "W_hc_h_17"
  param {
    name: "W_hc"
  }
  inner_product_param {
    num_output: 160
    bias_term: false
    weight_filler {
      type: "gaussian"
      std: 0.1
    }
    axis: 2
  }
}
layer {
  name: "LSTM_gate_input_18"
  type: "Eltwise"
  bottom: "W_hc_h_17"
  bottom: "W_xc_x_18"
  top: "gate_input_18"
  eltwise_param {
    operation: SUM
  }
}
layer {
  name: "LSTM_unit_18"
  type: "LSTMUnit"
  bottom: "c_17"
  bottom: "gate_input_18"
  bottom: "cont_18"
  top: "c_18"
  top: "h_18"
}
layer {
  name: "LSTM_h_conted_18"
  type: "Scale"
  bottom: "h_18"
  bottom: "cont_19"
  top: "h_conted_18"
  scale_param {
    axis: 0
  }
}
layer {
  name: "LSTM_transform_19"
  type: "InnerProduct"
  bottom: "h_conted_18"
  top: "W_hc_h_18"
  param {
    name: "W_hc"
  }
  inner_product_param {
    num_output: 160
    bias_term: false
    weight_filler {
      type: "gaussian"
      std: 0.1
    }
    axis: 2
  }
}
layer {
  name: "LSTM_gate_input_19"
  type: "Eltwise"
  bottom: "W_hc_h_18"
  bottom: "W_xc_x_19"
  top: "gate_input_19"
  eltwise_param {
    operation: SUM
  }
}
layer {
  name: "LSTM_unit_19"
  type: "LSTMUnit"
  bottom: "c_18"
  bottom: "gate_input_19"
  bottom: "cont_19"
  top: "c_19"
  top: "h_19"
}
layer {
  name: "LSTM_h_conted_19"
  type: "Scale"
  bottom: "h_19"
  bottom: "cont_20"
  top: "h_conted_19"
  scale_param {
    axis: 0
  }
}
layer {
  name: "LSTM_transform_20"
  type: "InnerProduct"
  bottom: "h_conted_19"
  top: "W_hc_h_19"
  param {
    name: "W_hc"
  }
  inner_product_param {
    num_output: 160
    bias_term: false
    weight_filler {
      type: "gaussian"
      std: 0.1
    }
    axis: 2
  }
}
layer {
  name: "LSTM_gate_input_20"
  type: "Eltwise"
  bottom: "W_hc_h_19"
  bottom: "W_xc_x_20"
  top: "gate_input_20"
  eltwise_param {
    operation: SUM
  }
}
layer {
  name: "LSTM_unit_20"
  type: "LSTMUnit"
  bottom: "c_19"
  bottom: "gate_input_20"
  bottom: "cont_20"
  top: "c_20"
  top: "h_20"
}
layer {
  name: "LSTM_h_conted_20"
  type: "Scale"
  bottom: "h_20"
  bottom: "cont_21"
  top: "h_conted_20"
  scale_param {
    axis: 0
  }
}
layer {
  name: "LSTM_transform_21"
  type: "InnerProduct"
  bottom: "h_conted_20"
  top: "W_hc_h_20"
  param {
    name: "W_hc"
  }
  inner_product_param {
    num_output: 160
    bias_term: false
    weight_filler {
      type: "gaussian"
      std: 0.1
    }
    axis: 2
  }
}
layer {
  name: "LSTM_gate_input_21"
  type: "Eltwise"
  bottom: "W_hc_h_20"
  bottom: "W_xc_x_21"
  top: "gate_input_21"
  eltwise_param {
    operation: SUM
  }
}
layer {
  name: "LSTM_unit_21"
  type: "LSTMUnit"
  bottom: "c_20"
  bottom: "gate_input_21"
  bottom: "cont_21"
  top: "c_21"
  top: "h_21"
}
layer {
  name: "LSTM_h_conted_21"
  type: "Scale"
  bottom: "h_21"
  bottom: "cont_22"
  top: "h_conted_21"
  scale_param {
    axis: 0
  }
}
layer {
  name: "LSTM_transform_22"
  type: "InnerProduct"
  bottom: "h_conted_21"
  top: "W_hc_h_21"
  param {
    name: "W_hc"
  }
  inner_product_param {
    num_output: 160
    bias_term: false
    weight_filler {
      type: "gaussian"
      std: 0.1
    }
    axis: 2
  }
}
layer {
  name: "LSTM_gate_input_22"
  type: "Eltwise"
  bottom: "W_hc_h_21"
  bottom: "W_xc_x_22"
  top: "gate_input_22"
  eltwise_param {
    operation: SUM
  }
}
layer {
  name: "LSTM_unit_22"
  type: "LSTMUnit"
  bottom: "c_21"
  bottom: "gate_input_22"
  bottom: "cont_22"
  top: "c_22"
  top: "h_22"
}
layer {
  name: "LSTM_h_conted_22"
  type: "Scale"
  bottom: "h_22"
  bottom: "cont_23"
  top: "h_conted_22"
  scale_param {
    axis: 0
  }
}
layer {
  name: "LSTM_transform_23"
  type: "InnerProduct"
  bottom: "h_conted_22"
  top: "W_hc_h_22"
  param {
    name: "W_hc"
  }
  inner_product_param {
    num_output: 160
    bias_term: false
    weight_filler {
      type: "gaussian"
      std: 0.1
    }
    axis: 2
  }
}
layer {
  name: "LSTM_gate_input_23"
  type: "Eltwise"
  bottom: "W_hc_h_22"
  bottom: "W_xc_x_23"
  top: "gate_input_23"
  eltwise_param {
    operation: SUM
  }
}
layer {
  name: "LSTM_unit_23"
  type: "LSTMUnit"
  bottom: "c_22"
  bottom: "gate_input_23"
  bottom: "cont_23"
  top: "c_23"
  top: "h_23"
}
layer {
  name: "LSTM_h_conted_23"
  type: "Scale"
  bottom: "h_23"
  bottom: "cont_24"
  top: "h_conted_23"
  scale_param {
    axis: 0
  }
}
layer {
  name: "LSTM_transform_24"
  type: "InnerProduct"
  bottom: "h_conted_23"
  top: "W_hc_h_23"
  param {
    name: "W_hc"
  }
  inner_product_param {
    num_output: 160
    bias_term: false
    weight_filler {
      type: "gaussian"
      std: 0.1
    }
    axis: 2
  }
}
layer {
  name: "LSTM_gate_input_24"
  type: "Eltwise"
  bottom: "W_hc_h_23"
  bottom: "W_xc_x_24"
  top: "gate_input_24"
  eltwise_param {
    operation: SUM
  }
}
layer {
  name: "LSTM_unit_24"
  type: "LSTMUnit"
  bottom: "c_23"
  bottom: "gate_input_24"
  bottom: "cont_24"
  top: "c_24"
  top: "h_24"
}
layer {
  name: "LSTM_h_conted_24"
  type: "Scale"
  bottom: "h_24"
  bottom: "cont_25"
  top: "h_conted_24"
  scale_param {
    axis: 0
  }
}
layer {
  name: "LSTM_transform_25"
  type: "InnerProduct"
  bottom: "h_conted_24"
  top: "W_hc_h_24"
  param {
    name: "W_hc"
  }
  inner_product_param {
    num_output: 160
    bias_term: false
    weight_filler {
      type: "gaussian"
      std: 0.1
    }
    axis: 2
  }
}
layer {
  name: "LSTM_gate_input_25"
  type: "Eltwise"
  bottom: "W_hc_h_24"
  bottom: "W_xc_x_25"
  top: "gate_input_25"
  eltwise_param {
    operation: SUM
  }
}
layer {
  name: "LSTM_unit_25"
  type: "LSTMUnit"
  bottom: "c_24"
  bottom: "gate_input_25"
  bottom: "cont_25"
  top: "c_25"
  top: "h_25"
}
layer {
  name: "LSTM_h_conted_25"
  type: "Scale"
  bottom: "h_25"
  bottom: "cont_26"
  top: "h_conted_25"
  scale_param {
    axis: 0
  }
}
layer {
  name: "LSTM_transform_26"
  type: "InnerProduct"
  bottom: "h_conted_25"
  top: "W_hc_h_25"
  param {
    name: "W_hc"
  }
  inner_product_param {
    num_output: 160
    bias_term: false
    weight_filler {
      type: "gaussian"
      std: 0.1
    }
    axis: 2
  }
}
layer {
  name: "LSTM_gate_input_26"
  type: "Eltwise"
  bottom: "W_hc_h_25"
  bottom: "W_xc_x_26"
  top: "gate_input_26"
  eltwise_param {
    operation: SUM
  }
}
layer {
  name: "LSTM_unit_26"
  type: "LSTMUnit"
  bottom: "c_25"
  bottom: "gate_input_26"
  bottom: "cont_26"
  top: "c_26"
  top: "h_26"
}
layer {
  name: "LSTM_h_conted_26"
  type: "Scale"
  bottom: "h_26"
  bottom: "cont_27"
  top: "h_conted_26"
  scale_param {
    axis: 0
  }
}
layer {
  name: "LSTM_transform_27"
  type: "InnerProduct"
  bottom: "h_conted_26"
  top: "W_hc_h_26"
  param {
    name: "W_hc"
  }
  inner_product_param {
    num_output: 160
    bias_term: false
    weight_filler {
      type: "gaussian"
      std: 0.1
    }
    axis: 2
  }
}
layer {
  name: "LSTM_gate_input_27"
  type: "Eltwise"
  bottom: "W_hc_h_26"
  bottom: "W_xc_x_27"
  top: "gate_input_27"
  eltwise_param {
    operation: SUM
  }
}
layer {
  name: "LSTM_unit_27"
  type: "LSTMUnit"
  bottom: "c_26"
  bottom: "gate_input_27"
  bottom: "cont_27"
  top: "c_27"
  top: "h_27"
}
layer {
  name: "LSTM_h_conted_27"
  type: "Scale"
  bottom: "h_27"
  bottom: "cont_28"
  top: "h_conted_27"
  scale_param {
    axis: 0
  }
}
layer {
  name: "LSTM_transform_28"
  type: "InnerProduct"
  bottom: "h_conted_27"
  top: "W_hc_h_27"
  param {
    name: "W_hc"
  }
  inner_product_param {
    num_output: 160
    bias_term: false
    weight_filler {
      type: "gaussian"
      std: 0.1
    }
    axis: 2
  }
}
layer {
  name: "LSTM_gate_input_28"
  type: "Eltwise"
  bottom: "W_hc_h_27"
  bottom: "W_xc_x_28"
  top: "gate_input_28"
  eltwise_param {
    operation: SUM
  }
}
layer {
  name: "LSTM_unit_28"
  type: "LSTMUnit"
  bottom: "c_27"
  bottom: "gate_input_28"
  bottom: "cont_28"
  top: "c_28"
  top: "h_28"
}
layer {
  name: "LSTM_h_conted_28"
  type: "Scale"
  bottom: "h_28"
  bottom: "cont_29"
  top: "h_conted_28"
  scale_param {
    axis: 0
  }
}
layer {
  name: "LSTM_transform_29"
  type: "InnerProduct"
  bottom: "h_conted_28"
  top: "W_hc_h_28"
  param {
    name: "W_hc"
  }
  inner_product_param {
    num_output: 160
    bias_term: false
    weight_filler {
      type: "gaussian"
      std: 0.1
    }
    axis: 2
  }
}
layer {
  name: "LSTM_gate_input_29"
  type: "Eltwise"
  bottom: "W_hc_h_28"
  bottom: "W_xc_x_29"
  top: "gate_input_29"
  eltwise_param {
    operation: SUM
  }
}
layer {
  name: "LSTM_unit_29"
  type: "LSTMUnit"
  bottom: "c_28"
  bottom: "gate_input_29"
  bottom: "cont_29"
  top: "c_29"
  top: "h_29"
}
layer {
  name: "LSTM_h_conted_29"
  type: "Scale"
  bottom: "h_29"
  bottom: "cont_30"
  top: "h_conted_29"
  scale_param {
    axis: 0
  }
}
layer {
  name: "LSTM_transform_30"
  type: "InnerProduct"
  bottom: "h_conted_29"
  top: "W_hc_h_29"
  param {
    name: "W_hc"
  }
  inner_product_param {
    num_output: 160
    bias_term: false
    weight_filler {
      type: "gaussian"
      std: 0.1
    }
    axis: 2
  }
}
layer {
  name: "LSTM_gate_input_30"
  type: "Eltwise"
  bottom: "W_hc_h_29"
  bottom: "W_xc_x_30"
  top: "gate_input_30"
  eltwise_param {
    operation: SUM
  }
}
layer {
  name: "LSTM_unit_30"
  type: "LSTMUnit"
  bottom: "c_29"
  bottom: "gate_input_30"
  bottom: "cont_30"
  top: "c_30"
  top: "h_30"
}
layer {
  name: "LSTM_h_conted_30"
  type: "Scale"
  bottom: "h_30"
  bottom: "cont_31"
  top: "h_conted_30"
  scale_param {
    axis: 0
  }
}
layer {
  name: "LSTM_transform_31"
  type: "InnerProduct"
  bottom: "h_conted_30"
  top: "W_hc_h_30"
  param {
    name: "W_hc"
  }
  inner_product_param {
    num_output: 160
    bias_term: false
    weight_filler {
      type: "gaussian"
      std: 0.1
    }
    axis: 2
  }
}
layer {
  name: "LSTM_gate_input_31"
  type: "Eltwise"
  bottom: "W_hc_h_30"
  bottom: "W_xc_x_31"
  top: "gate_input_31"
  eltwise_param {
    operation: SUM
  }
}
layer {
  name: "LSTM_unit_31"
  type: "LSTMUnit"
  bottom: "c_30"
  bottom: "gate_input_31"
  bottom: "cont_31"
  top: "c_31"
  top: "h_31"
}
layer {
  name: "LSTM_h_conted_31"
  type: "Scale"
  bottom: "h_31"
  bottom: "cont_32"
  top: "h_conted_31"
  scale_param {
    axis: 0
  }
}
layer {
  name: "LSTM_transform_32"
  type: "InnerProduct"
  bottom: "h_conted_31"
  top: "W_hc_h_31"
  param {
    name: "W_hc"
  }
  inner_product_param {
    num_output: 160
    bias_term: false
    weight_filler {
      type: "gaussian"
      std: 0.1
    }
    axis: 2
  }
}
layer {
  name: "LSTM_gate_input_32"
  type: "Eltwise"
  bottom: "W_hc_h_31"
  bottom: "W_xc_x_32"
  top: "gate_input_32"
  eltwise_param {
    operation: SUM
  }
}
layer {
  name: "LSTM_unit_32"
  type: "LSTMUnit"
  bottom: "c_31"
  bottom: "gate_input_32"
  bottom: "cont_32"
  top: "c_32"
  top: "h_32"
}
layer {
  name: "LSTM_h_conted_32"
  type: "Scale"
  bottom: "h_32"
  bottom: "cont_33"
  top: "h_conted_32"
  scale_param {
    axis: 0
  }
}
layer {
  name: "LSTM_transform_33"
  type: "InnerProduct"
  bottom: "h_conted_32"
  top: "W_hc_h_32"
  param {
    name: "W_hc"
  }
  inner_product_param {
    num_output: 160
    bias_term: false
    weight_filler {
      type: "gaussian"
      std: 0.1
    }
    axis: 2
  }
}
layer {
  name: "LSTM_gate_input_33"
  type: "Eltwise"
  bottom: "W_hc_h_32"
  bottom: "W_xc_x_33"
  top: "gate_input_33"
  eltwise_param {
    operation: SUM
  }
}
layer {
  name: "LSTM_unit_33"
  type: "LSTMUnit"
  bottom: "c_32"
  bottom: "gate_input_33"
  bottom: "cont_33"
  top: "c_33"
  top: "h_33"
}
layer {
  name: "LSTM_h_conted_33"
  type: "Scale"
  bottom: "h_33"
  bottom: "cont_34"
  top: "h_conted_33"
  scale_param {
    axis: 0
  }
}
layer {
  name: "LSTM_transform_34"
  type: "InnerProduct"
  bottom: "h_conted_33"
  top: "W_hc_h_33"
  param {
    name: "W_hc"
  }
  inner_product_param {
    num_output: 160
    bias_term: false
    weight_filler {
      type: "gaussian"
      std: 0.1
    }
    axis: 2
  }
}
layer {
  name: "LSTM_gate_input_34"
  type: "Eltwise"
  bottom: "W_hc_h_33"
  bottom: "W_xc_x_34"
  top: "gate_input_34"
  eltwise_param {
    operation: SUM
  }
}
layer {
  name: "LSTM_unit_34"
  type: "LSTMUnit"
  bottom: "c_33"
  bottom: "gate_input_34"
  bottom: "cont_34"
  top: "c_34"
  top: "h_34"
}
layer {
  name: "LSTM_h_conted_34"
  type: "Scale"
  bottom: "h_34"
  bottom: "cont_35"
  top: "h_conted_34"
  scale_param {
    axis: 0
  }
}
layer {
  name: "LSTM_transform_35"
  type: "InnerProduct"
  bottom: "h_conted_34"
  top: "W_hc_h_34"
  param {
    name: "W_hc"
  }
  inner_product_param {
    num_output: 160
    bias_term: false
    weight_filler {
      type: "gaussian"
      std: 0.1
    }
    axis: 2
  }
}
layer {
  name: "LSTM_gate_input_35"
  type: "Eltwise"
  bottom: "W_hc_h_34"
  bottom: "W_xc_x_35"
  top: "gate_input_35"
  eltwise_param {
    operation: SUM
  }
}
layer {
  name: "LSTM_unit_35"
  type: "LSTMUnit"
  bottom: "c_34"
  bottom: "gate_input_35"
  bottom: "cont_35"
  top: "c_35"
  top: "h_35"
}
layer {
  name: "LSTM_h_conted_35"
  type: "Scale"
  bottom: "h_35"
  bottom: "cont_36"
  top: "h_conted_35"
  scale_param {
    axis: 0
  }
}
layer {
  name: "LSTM_transform_36"
  type: "InnerProduct"
  bottom: "h_conted_35"
  top: "W_hc_h_35"
  param {
    name: "W_hc"
  }
  inner_product_param {
    num_output: 160
    bias_term: false
    weight_filler {
      type: "gaussian"
      std: 0.1
    }
    axis: 2
  }
}
layer {
  name: "LSTM_gate_input_36"
  type: "Eltwise"
  bottom: "W_hc_h_35"
  bottom: "W_xc_x_36"
  top: "gate_input_36"
  eltwise_param {
    operation: SUM
  }
}
layer {
  name: "LSTM_unit_36"
  type: "LSTMUnit"
  bottom: "c_35"
  bottom: "gate_input_36"
  bottom: "cont_36"
  top: "c_36"
  top: "h_36"
}
layer {
  name: "LSTM_h_conted_36"
  type: "Scale"
  bottom: "h_36"
  bottom: "cont_37"
  top: "h_conted_36"
  scale_param {
    axis: 0
  }
}
layer {
  name: "LSTM_transform_37"
  type: "InnerProduct"
  bottom: "h_conted_36"
  top: "W_hc_h_36"
  param {
    name: "W_hc"
  }
  inner_product_param {
    num_output: 160
    bias_term: false
    weight_filler {
      type: "gaussian"
      std: 0.1
    }
    axis: 2
  }
}
layer {
  name: "LSTM_gate_input_37"
  type: "Eltwise"
  bottom: "W_hc_h_36"
  bottom: "W_xc_x_37"
  top: "gate_input_37"
  eltwise_param {
    operation: SUM
  }
}
layer {
  name: "LSTM_unit_37"
  type: "LSTMUnit"
  bottom: "c_36"
  bottom: "gate_input_37"
  bottom: "cont_37"
  top: "c_37"
  top: "h_37"
}
layer {
  name: "LSTM_h_conted_37"
  type: "Scale"
  bottom: "h_37"
  bottom: "cont_38"
  top: "h_conted_37"
  scale_param {
    axis: 0
  }
}
layer {
  name: "LSTM_transform_38"
  type: "InnerProduct"
  bottom: "h_conted_37"
  top: "W_hc_h_37"
  param {
    name: "W_hc"
  }
  inner_product_param {
    num_output: 160
    bias_term: false
    weight_filler {
      type: "gaussian"
      std: 0.1
    }
    axis: 2
  }
}
layer {
  name: "LSTM_gate_input_38"
  type: "Eltwise"
  bottom: "W_hc_h_37"
I0717 14:21:15.039276 27687 layer_factory.hpp:77] Creating layer LSTM_
I0717 14:21:15.039294 27687 net.cpp:86] Creating Layer LSTM_
I0717 14:21:15.039301 27687 net.cpp:382] LSTM_ -> x
I0717 14:21:15.039316 27687 net.cpp:382] LSTM_ -> cont
I0717 14:21:15.039368 27687 net.cpp:124] Setting up LSTM_
I0717 14:21:15.039379 27687 net.cpp:131] Top shape: 44 40 40 (70400)
I0717 14:21:15.039386 27687 net.cpp:131] Top shape: 44 40 (1760)
I0717 14:21:15.039391 27687 net.cpp:139] Memory required for data: 288640
I0717 14:21:15.039397 27687 layer_factory.hpp:77] Creating layer LSTM_
I0717 14:21:15.039405 27687 net.cpp:86] Creating Layer LSTM_
I0717 14:21:15.039412 27687 net.cpp:382] LSTM_ -> c_0
I0717 14:21:15.039422 27687 net.cpp:382] LSTM_ -> h_0
I0717 14:21:15.039458 27687 net.cpp:124] Setting up LSTM_
I0717 14:21:15.039465 27687 net.cpp:131] Top shape: 1 40 40 (1600)
I0717 14:21:15.039471 27687 net.cpp:131] Top shape: 1 40 40 (1600)
I0717 14:21:15.039476 27687 net.cpp:139] Memory required for data: 301440
I0717 14:21:15.039481 27687 layer_factory.hpp:77] Creating layer LSTM_cont_slice
I0717 14:21:15.039499 27687 net.cpp:86] Creating Layer LSTM_cont_slice
I0717 14:21:15.039505 27687 net.cpp:408] LSTM_cont_slice <- cont
I0717 14:21:15.039515 27687 net.cpp:382] LSTM_cont_slice -> cont_1
I0717 14:21:15.039530 27687 net.cpp:382] LSTM_cont_slice -> cont_2
…
I0717 14:21:15.039961 27687 net.cpp:382] LSTM_cont_slice -> cont_37
I0717 14:21:15.039979 27687 net.cpp:382] LSTM_cont_slice -> cont_38
I0717 14:21:15.039999 27687 net.cpp:382] LSTM_cont_slice -> cont_39
I0717 14:21:15.040011 27687 net.cpp:382] LSTM_cont_slice -> cont_40
I0717 14:21:15.040024 27687 net.cpp:382] LSTM_cont_slice -> cont_41
I0717 14:21:15.040035 27687 net.cpp:382] LSTM_cont_slice -> cont_42
I0717 14:21:15.040046 27687 net.cpp:382] LSTM_cont_slice -> cont_43
I0717 14:21:15.040058 27687 net.cpp:382] LSTM_cont_slice -> cont_44
I0717 14:21:15.040545 27687 net.cpp:124] Setting up LSTM_cont_slice
I0717 14:21:15.040558 27687 net.cpp:131] Top shape: 1 40 (40)
I0717 14:21:15.040565 27687 net.cpp:131] Top shape: 1 40 (40)
I0717 14:21:15.040570 27687 net.cpp:131] Top shape: 1 40 (40)
I0717 14:21:15.040575 27687 net.cpp:131] Top shape: 1 40 (40)
I0717 14:21:15.040581 27687 net.cpp:131] Top shape: 1 40 (40)
I0717 14:21:15.040587 27687 net.cpp:131] Top shape: 1 40 (40)
I0717 14:21:15.040593 27687 net.cpp:131] Top shape: 1 40 (40)
I0717 14:21:15.040598 27687 net.cpp:131] Top shape: 1 40 (40)
I0717 14:21:15.040604 27687 net.cpp:131] Top shape: 1 40 (40)
I0717 14:21:15.040609 27687 net.cpp:131] Top shape: 1 40 (40)
I0717 14:21:15.040616 27687 net.cpp:131] Top shape: 1 40 (40)
I0717 14:21:15.040621 27687 net.cpp:131] Top shape: 1 40 (40)
I0717 14:21:15.040627 27687 net.cpp:131] Top shape: 1 40 (40)
I0717 14:21:15.040632 27687 net.cpp:131] Top shape: 1 40 (40)
I0717 14:21:15.040637 27687 net.cpp:131] Top shape: 1 40 (40)
I0717 14:21:15.040643 27687 net.cpp:131] Top shape: 1 40 (40)
I0717 14:21:15.040648 27687 net.cpp:131] Top shape: 1 40 (40)
I0717 14:21:15.040653 27687 net.cpp:131] Top shape: 1 40 (40)
I0717 14:21:15.040659 27687 net.cpp:131] Top shape: 1 40 (40)
I0717 14:21:15.040664 27687 net.cpp:131] Top shape: 1 40 (40)
I0717 14:21:15.040670 27687 net.cpp:131] Top shape: 1 40 (40)
I0717 14:21:15.040675 27687 net.cpp:131] Top shape: 1 40 (40)
I0717 14:21:15.040681 27687 net.cpp:131] Top shape: 1 40 (40)
I0717 14:21:15.040686 27687 net.cpp:131] Top shape: 1 40 (40)
I0717 14:21:15.040693 27687 net.cpp:131] Top shape: 1 40 (40)
I0717 14:21:15.040697 27687 net.cpp:131] Top shape: 1 40 (40)
I0717 14:21:15.040704 27687 net.cpp:131] Top shape: 1 40 (40)
I0717 14:21:15.040709 27687 net.cpp:131] Top shape: 1 40 (40)
I0717 14:21:15.040714 27687 net.cpp:131] Top shape: 1 40 (40)
I0717 14:21:15.040719 27687 net.cpp:131] Top shape: 1 40 (40)
I0717 14:21:15.040725 27687 net.cpp:131] Top shape: 1 40 (40)
I0717 14:21:15.040730 27687 net.cpp:131] Top shape: 1 40 (40)
I0717 14:21:15.040736 27687 net.cpp:131] Top shape: 1 40 (40)
I0717 14:21:15.040741 27687 net.cpp:131] Top shape: 1 40 (40)
I0717 14:21:15.040747 27687 net.cpp:131] Top shape: 1 40 (40)
I0717 14:21:15.040752 27687 net.cpp:131] Top shape: 1 40 (40)
I0717 14:21:15.040757 27687 net.cpp:131] Top shape: 1 40 (40)
I0717 14:21:15.040763 27687 net.cpp:131] Top shape: 1 40 (40)
I0717 14:21:15.040768 27687 net.cpp:131] Top shape: 1 40 (40)
I0717 14:21:15.040774 27687 net.cpp:131] Top shape: 1 40 (40)
I0717 14:21:15.040779 27687 net.cpp:131] Top shape: 1 40 (40)
I0717 14:21:15.040786 27687 net.cpp:131] Top shape: 1 40 (40)
I0717 14:21:15.040791 27687 net.cpp:131] Top shape: 1 40 (40)
I0717 14:21:15.040796 27687 net.cpp:131] Top shape: 1 40 (40)
I0717 14:21:15.040801 27687 net.cpp:139] Memory required for data: 308480
I0717 14:21:15.040805 27687 layer_factory.hpp:77] Creating layer cont_1_LSTM_cont_slice_0_split
I0717 14:21:15.040813 27687 net.cpp:86] Creating Layer cont_1_LSTM_cont_slice_0_split
I0717 14:21:15.040819 27687 net.cpp:408] cont_1_LSTM_cont_slice_0_split <- cont_1
I0717 14:21:15.040827 27687 net.cpp:382] cont_1_LSTM_cont_slice_0_split -> cont_1_LSTM_cont_slice_0_split_0
I0717 14:21:15.040837 27687 net.cpp:382] cont_1_LSTM_cont_slice_0_split -> cont_1_LSTM_cont_slice_0_split_1
I0717 14:21:15.040879 27687 net.cpp:124] Setting up cont_1_LSTM_cont_slice_0_split
I0717 14:21:15.040887 27687 net.cpp:131] Top shape: 1 40 (40)
I0717 14:21:15.040894 27687 net.cpp:131] Top shape: 1 40 (40)
I0717 14:21:15.040899 27687 net.cpp:139] Memory required for data: 308800
I0717 14:21:15.040907 27687 layer_factory.hpp:77] Creating layer cont_2_LSTM_cont_slice_1_split
I0717 14:21:15.040921 27687 net.cpp:86] Creating Layer cont_2_LSTM_cont_slice_1_split
I0717 14:21:15.040927 27687 net.cpp:408] cont_2_LSTM_cont_slice_1_split <- cont_2
I0717 14:21:15.040936 27687 net.cpp:382] cont_2_LSTM_cont_slice_1_split -> cont_2_LSTM_cont_slice_1_split_0
I0717 14:21:15.040946 27687 net.cpp:382] cont_2_LSTM_cont_slice_1_split -> cont_2_LSTM_cont_slice_1_split_1
I0717 14:21:15.040982 27687 net.cpp:124] Setting up cont_2_LSTM_cont_slice_1_split
I0717 14:21:15.040990 27687 net.cpp:131] Top shape: 1 40 (40)
I0717 14:21:15.040995 27687 net.cpp:131] Top shape: 1 40 (40)
I0717 14:21:15.041000 27687 net.cpp:139] Memory required for data: 309120
I0717 14:21:15.041005 27687 layer_factory.hpp:77] Creating layer cont_3_LSTM_cont_slice_2_split
I0717 14:21:15.041012 27687 net.cpp:86] Creating Layer cont_3_LSTM_cont_slice_2_split
I0717 14:21:15.041016 27687 net.cpp:408] cont_3_LSTM_cont_slice_2_split <- cont_3
I0717 14:21:15.041026 27687 net.cpp:382] cont_3_LSTM_cont_slice_2_split -> cont_3_LSTM_cont_slice_2_split_0
I0717 14:21:15.041034 27687 net.cpp:382] cont_3_LSTM_cont_slice_2_split -> cont_3_LSTM_cont_slice_2_split_1
I0717 14:21:15.041067 27687 net.cpp:124] Setting up cont_3_LSTM_cont_slice_2_split
I0717 14:21:15.041075 27687 net.cpp:131] Top shape: 1 40 (40)
I0717 14:21:15.041084 27687 net.cpp:131] Top shape: 1 40 (40)
I0717 14:21:15.041088 27687 net.cpp:139] Memory required for data: 309440
I0717 14:21:15.041092 27687 layer_factory.hpp:77] Creating layer cont_4_LSTM_cont_slice_3_split
I0717 14:21:15.041098 27687 net.cpp:86] Creating Layer cont_4_LSTM_cont_slice_3_split
I0717 14:21:15.041105 27687 net.cpp:408] cont_4_LSTM_cont_slice_3_split <- cont_4
I0717 14:21:15.041110 27687 net.cpp:382] cont_4_LSTM_cont_slice_3_split -> cont_4_LSTM_cont_slice_3_split_0
I0717 14:21:15.041119 27687 net.cpp:382] cont_4_LSTM_cont_slice_3_split -> cont_4_LSTM_cont_slice_3_split_1
I0717 14:21:15.041154 27687 net.cpp:124] Setting up cont_4_LSTM_cont_slice_3_split
I0717 14:21:15.041162 27687 net.cpp:131] Top shape: 1 40 (40)
I0717 14:21:15.041168 27687 net.cpp:131] Top shape: 1 40 (40)
I0717 14:21:15.041172 27687 net.cpp:139] Memory required for data: 309760
I0717 14:21:15.041177 27687 layer_factory.hpp:77] Creating layer cont_5_LSTM_cont_slice_4_split
I0717 14:21:15.041183 27687 net.cpp:86] Creating Layer cont_5_LSTM_cont_slice_4_split
I0717 14:21:15.041188 27687 net.cpp:408] cont_5_LSTM_cont_slice_4_split <- cont_5
I0717 14:21:15.041198 27687 net.cpp:382] cont_5_LSTM_cont_slice_4_split -> cont_5_LSTM_cont_slice_4_split_0
I0717 14:21:15.041206 27687 net.cpp:382] cont_5_LSTM_cont_slice_4_split -> cont_5_LSTM_cont_slice_4_split_1
I0717 14:21:15.041239 27687 net.cpp:124] Setting up cont_5_LSTM_cont_slice_4_split
I0717 14:21:15.041246 27687 net.cpp:131] Top shape: 1 40 (40)
I0717 14:21:15.041260 27687 net.cpp:131] Top shape: 1 40 (40)
I0717 14:21:15.041265 27687 net.cpp:139] Memory required for data: 310080
I0717 14:21:15.041270 27687 layer_factory.hpp:77] Creating layer cont_6_LSTM_cont_slice_5_split
I0717 14:21:15.041280 27687 net.cpp:86] Creating Layer cont_6_LSTM_cont_slice_5_split
I0717 14:21:15.041285 27687 net.cpp:408] cont_6_LSTM_cont_slice_5_split <- cont_6
I0717 14:21:15.041292 27687 net.cpp:382] cont_6_LSTM_cont_slice_5_split -> cont_6_LSTM_cont_slice_5_split_0
I0717 14:21:15.041301 27687 net.cpp:382] cont_6_LSTM_cont_slice_5_split -> cont_6_LSTM_cont_slice_5_split_1
I0717 14:21:15.041337 27687 net.cpp:124] Setting up cont_6_LSTM_cont_slice_5_split
I0717 14:21:15.041345 27687 net.cpp:131] Top shape: 1 40 (40)
I0717 14:21:15.041352 27687 net.cpp:131] Top shape: 1 40 (40)
I0717 14:21:15.041355 27687 net.cpp:139] Memory required for data: 310400
I0717 14:21:15.041360 27687 layer_factory.hpp:77] Creating layer cont_7_LSTM_cont_slice_6_split
I0717 14:21:15.041366 27687 net.cpp:86] Creating Layer cont_7_LSTM_cont_slice_6_split
I0717 14:21:15.041371 27687 net.cpp:408] cont_7_LSTM_cont_slice_6_split <- cont_7
I0717 14:21:15.041383 27687 net.cpp:382] cont_7_LSTM_cont_slice_6_split -> cont_7_LSTM_cont_slice_6_split_0
I0717 14:21:15.041399 27687 net.cpp:382] cont_7_LSTM_cont_slice_6_split -> cont_7_LSTM_cont_slice_6_split_1
I0717 14:21:15.041432 27687 net.cpp:124] Setting up cont_7_LSTM_cont_slice_6_split
I0717 14:21:15.041440 27687 net.cpp:131] Top shape: 1 40 (40)
I0717 14:21:15.041446 27687 net.cpp:131] Top shape: 1 40 (40)
I0717 14:21:15.041451 27687 net.cpp:139] Memory required for data: 310720
I0717 14:21:15.041455 27687 layer_factory.hpp:77] Creating layer cont_8_LSTM_cont_slice_7_split
I0717 14:21:15.041461 27687 net.cpp:86] Creating Layer cont_8_LSTM_cont_slice_7_split
I0717 14:21:15.041466 27687 net.cpp:408] cont_8_LSTM_cont_slice_7_split <- cont_8
I0717 14:21:15.041473 27687 net.cpp:382] cont_8_LSTM_cont_slice_7_split -> cont_8_LSTM_cont_slice_7_split_0
I0717 14:21:15.041483 27687 net.cpp:382] cont_8_LSTM_cont_slice_7_split -> cont_8_LSTM_cont_slice_7_split_1
I0717 14:21:15.041515 27687 net.cpp:124] Setting up cont_8_LSTM_cont_slice_7_split
I0717 14:21:15.041523 27687 net.cpp:131] Top shape: 1 40 (40)
I0717 14:21:15.041528 27687 net.cpp:131] Top shape: 1 40 (40)
I0717 14:21:15.041533 27687 net.cpp:139] Memory required for data: 311040
I0717 14:21:15.041538 27687 layer_factory.hpp:77] Creating layer cont_9_LSTM_cont_slice_8_split
I0717 14:21:15.041546 27687 net.cpp:86] Creating Layer cont_9_LSTM_cont_slice_8_split
I0717 14:21:15.041551 27687 net.cpp:408] cont_9_LSTM_cont_slice_8_split <- cont_9
I0717 14:21:15.041558 27687 net.cpp:382] cont_9_LSTM_cont_slice_8_split -> cont_9_LSTM_cont_slice_8_split_0
I0717 14:21:15.041571 27687 net.cpp:382] cont_9_LSTM_cont_slice_8_split -> cont_9_LSTM_cont_slice_8_split_1
I0717 14:21:15.041607 27687 net.cpp:124] Setting up cont_9_LSTM_cont_slice_8_split
I0717 14:21:15.041615 27687 net.cpp:131] Top shape: 1 40 (40)
I0717 14:21:15.041621 27687 net.cpp:131] Top shape: 1 40 (40)
I0717 14:21:15.041626 27687 net.cpp:139] Memory required for data: 311360
I0717 14:21:15.041631 27687 layer_factory.hpp:77] Creating layer cont_10_LSTM_cont_slice_9_split
I0717 14:21:15.041637 27687 net.cpp:86] Creating Layer cont_10_LSTM_cont_slice_9_split
I0717 14:21:15.041642 27687 net.cpp:408] cont_10_LSTM_cont_slice_9_split <- cont_10
I0717 14:21:15.041649 27687 net.cpp:382] cont_10_LSTM_cont_slice_9_split -> cont_10_LSTM_cont_slice_9_split_0
I0717 14:21:15.041659 27687 net.cpp:382] cont_10_LSTM_cont_slice_9_split -> cont_10_LSTM_cont_slice_9_split_1
I0717 14:21:15.041692 27687 net.cpp:124] Setting up cont_10_LSTM_cont_slice_9_split
I0717 14:21:15.041698 27687 net.cpp:131] Top shape: 1 40 (40)
I0717 14:21:15.041704 27687 net.cpp:131] Top shape: 1 40 (40)
I0717 14:21:15.041709 27687 net.cpp:139] Memory required for data: 311680
I0717 14:21:15.041713 27687 layer_factory.hpp:77] Creating layer cont_11_LSTM_cont_slice_10_split
I0717 14:21:15.041721 27687 net.cpp:86] Creating Layer cont_11_LSTM_cont_slice_10_split
I0717 14:21:15.041728 27687 net.cpp:408] cont_11_LSTM_cont_slice_10_split <- cont_11
I0717 14:21:15.041734 27687 net.cpp:382] cont_11_LSTM_cont_slice_10_split -> cont_11_LSTM_cont_slice_10_split_0
I0717 14:21:15.041743 27687 net.cpp:382] cont_11_LSTM_cont_slice_10_split -> cont_11_LSTM_cont_slice_10_split_1
I0717 14:21:15.041779 27687 net.cpp:124] Setting up cont_11_LSTM_cont_slice_10_split
I0717 14:21:15.041786 27687 net.cpp:131] Top shape: 1 40 (40)
I0717 14:21:15.041792 27687 net.cpp:131] Top shape: 1 40 (40)
I0717 14:21:15.041797 27687 net.cpp:139] Memory required for data: 312000
I0717 14:21:15.041801 27687 layer_factory.hpp:77] Creating layer cont_12_LSTM_cont_slice_11_split
I0717 14:21:15.041807 27687 net.cpp:86] Creating Layer cont_12_LSTM_cont_slice_11_split
I0717 14:21:15.041813 27687 net.cpp:408] cont_12_LSTM_cont_slice_11_split <- cont_12
I0717 14:21:15.041821 27687 net.cpp:382] cont_12_LSTM_cont_slice_11_split -> cont_12_LSTM_cont_slice_11_split_0
I0717 14:21:15.041828 27687 net.cpp:382] cont_12_LSTM_cont_slice_11_split -> cont_12_LSTM_cont_slice_11_split_1
I0717 14:21:15.041860 27687 net.cpp:124] Setting up cont_12_LSTM_cont_slice_11_split
I0717 14:21:15.041878 27687 net.cpp:131] Top shape: 1 40 (40)
I0717 14:21:15.041884 27687 net.cpp:131] Top shape: 1 40 (40)
I0717 14:21:15.041888 27687 net.cpp:139] Memory required for data: 312320
I0717 14:21:15.041893 27687 layer_factory.hpp:77] Creating layer cont_13_LSTM_cont_slice_12_split
I0717 14:21:15.041899 27687 net.cpp:86] Creating Layer cont_13_LSTM_cont_slice_12_split
I0717 14:21:15.041904 27687 net.cpp:408] cont_13_LSTM_cont_slice_12_split <- cont_13
I0717 14:21:15.041911 27687 net.cpp:382] cont_13_LSTM_cont_slice_12_split -> cont_13_LSTM_cont_slice_12_split_0
I0717 14:21:15.041919 27687 net.cpp:382] cont_13_LSTM_cont_slice_12_split -> cont_13_LSTM_cont_slice_12_split_1
I0717 14:21:15.041951 27687 net.cpp:124] Setting up cont_13_LSTM_cont_slice_12_split
I0717 14:21:15.041960 27687 net.cpp:131] Top shape: 1 40 (40)
I0717 14:21:15.041965 27687 net.cpp:131] Top shape: 1 40 (40)
I0717 14:21:15.041970 27687 net.cpp:139] Memory required for data: 312640
I0717 14:21:15.041975 27687 layer_factory.hpp:77] Creating layer cont_14_LSTM_cont_slice_13_split
I0717 14:21:15.041981 27687 net.cpp:86] Creating Layer cont_14_LSTM_cont_slice_13_split
I0717 14:21:15.041987 27687 net.cpp:408] cont_14_LSTM_cont_slice_13_split <- cont_14
I0717 14:21:15.041996 27687 net.cpp:382] cont_14_LSTM_cont_slice_13_split -> cont_14_LSTM_cont_slice_13_split_0
I0717 14:21:15.042004 27687 net.cpp:382] cont_14_LSTM_cont_slice_13_split -> cont_14_LSTM_cont_slice_13_split_1
I0717 14:21:15.042034 27687 net.cpp:124] Setting up cont_14_LSTM_cont_slice_13_split
I0717 14:21:15.042042 27687 net.cpp:131] Top shape: 1 40 (40)
I0717 14:21:15.042048 27687 net.cpp:131] Top shape: 1 40 (40)
I0717 14:21:15.042052 27687 net.cpp:139] Memory required for data: 312960
I0717 14:21:15.042057 27687 layer_factory.hpp:77] Creating layer cont_15_LSTM_cont_slice_14_split
I0717 14:21:15.042065 27687 net.cpp:86] Creating Layer cont_15_LSTM_cont_slice_14_split
I0717 14:21:15.042071 27687 net.cpp:408] cont_15_LSTM_cont_slice_14_split <- cont_15
I0717 14:21:15.042078 27687 net.cpp:382] cont_15_LSTM_cont_slice_14_split -> cont_15_LSTM_cont_slice_14_split_0
I0717 14:21:15.042086 27687 net.cpp:382] cont_15_LSTM_cont_slice_14_split -> cont_15_LSTM_cont_slice_14_split_1
I0717 14:21:15.042119 27687 net.cpp:124] Setting up cont_15_LSTM_cont_slice_14_split
I0717 14:21:15.042126 27687 net.cpp:131] Top shape: 1 40 (40)
I0717 14:21:15.042132 27687 net.cpp:131] Top shape: 1 40 (40)
I0717 14:21:15.042136 27687 net.cpp:139] Memory required for data: 313280
I0717 14:21:15.042141 27687 layer_factory.hpp:77] Creating layer cont_16_LSTM_cont_slice_15_split
I0717 14:21:15.042147 27687 net.cpp:86] Creating Layer cont_16_LSTM_cont_slice_15_split
I0717 14:21:15.042152 27687 net.cpp:408] cont_16_LSTM_cont_slice_15_split <- cont_16
I0717 14:21:15.042160 27687 net.cpp:382] cont_16_LSTM_cont_slice_15_split -> cont_16_LSTM_cont_slice_15_split_0
I0717 14:21:15.042167 27687 net.cpp:382] cont_16_LSTM_cont_slice_15_split -> cont_16_LSTM_cont_slice_15_split_1
I0717 14:21:15.042199 27687 net.cpp:124] Setting up cont_16_LSTM_cont_slice_15_split
I0717 14:21:15.042207 27687 net.cpp:131] Top shape: 1 40 (40)
I0717 14:21:15.042213 27687 net.cpp:131] Top shape: 1 40 (40)
I0717 14:21:15.042217 27687 net.cpp:139] Memory required for data: 313600
I0717 14:21:15.042222 27687 layer_factory.hpp:77] Creating layer cont_17_LSTM_cont_slice_16_split
I0717 14:21:15.042228 27687 net.cpp:86] Creating Layer cont_17_LSTM_cont_slice_16_split
I0717 14:21:15.042233 27687 net.cpp:408] cont_17_LSTM_cont_slice_16_split <- cont_17
I0717 14:21:15.042243 27687 net.cpp:382] cont_17_LSTM_cont_slice_16_split -> cont_17_LSTM_cont_slice_16_split_0
I0717 14:21:15.042251 27687 net.cpp:382] cont_17_LSTM_cont_slice_16_split -> cont_17_LSTM_cont_slice_16_split_1
I0717 14:21:15.042281 27687 net.cpp:124] Setting up cont_17_LSTM_cont_slice_16_split
I0717 14:21:15.042289 27687 net.cpp:131] Top shape: 1 40 (40)
I0717 14:21:15.042295 27687 net.cpp:131] Top shape: 1 40 (40)
I0717 14:21:15.042299 27687 net.cpp:139] Memory required for data: 313920
I0717 14:21:15.042315 27687 layer_factory.hpp:77] Creating layer cont_18_LSTM_cont_slice_17_split
I0717 14:21:15.042322 27687 net.cpp:86] Creating Layer cont_18_LSTM_cont_slice_17_split
I0717 14:21:15.042327 27687 net.cpp:408] cont_18_LSTM_cont_slice_17_split <- cont_18
I0717 14:21:15.042335 27687 net.cpp:382] cont_18_LSTM_cont_slice_17_split -> cont_18_LSTM_cont_slice_17_split_0
I0717 14:21:15.042343 27687 net.cpp:382] cont_18_LSTM_cont_slice_17_split -> cont_18_LSTM_cont_slice_17_split_1
I0717 14:21:15.042376 27687 net.cpp:124] Setting up cont_18_LSTM_cont_slice_17_split
I0717 14:21:15.042384 27687 net.cpp:131] Top shape: 1 40 (40)
I0717 14:21:15.042389 27687 net.cpp:131] Top shape: 1 40 (40)
I0717 14:21:15.042394 27687 net.cpp:139] Memory required for data: 314240
I0717 14:21:15.042399 27687 layer_factory.hpp:77] Creating layer cont_19_LSTM_cont_slice_18_split
I0717 14:21:15.042404 27687 net.cpp:86] Creating Layer cont_19_LSTM_cont_slice_18_split
I0717 14:21:15.042410 27687 net.cpp:408] cont_19_LSTM_cont_slice_18_split <- cont_19
I0717 14:21:15.042417 27687 net.cpp:382] cont_19_LSTM_cont_slice_18_split -> cont_19_LSTM_cont_slice_18_split_0
I0717 14:21:15.042425 27687 net.cpp:382] cont_19_LSTM_cont_slice_18_split -> cont_19_LSTM_cont_slice_18_split_1
I0717 14:21:15.042459 27687 net.cpp:124] Setting up cont_19_LSTM_cont_slice_18_split
I0717 14:21:15.042466 27687 net.cpp:131] Top shape: 1 40 (40)
I0717 14:21:15.042471 27687 net.cpp:131] Top shape: 1 40 (40)
I0717 14:21:15.042476 27687 net.cpp:139] Memory required for data: 314560
I0717 14:21:15.042481 27687 layer_factory.hpp:77] Creating layer cont_20_LSTM_cont_slice_19_split
I0717 14:21:15.042486 27687 net.cpp:86] Creating Layer cont_20_LSTM_cont_slice_19_split
I0717 14:21:15.042492 27687 net.cpp:408] cont_20_LSTM_cont_slice_19_split <- cont_20
I0717 14:21:15.042498 27687 net.cpp:382] cont_20_LSTM_cont_slice_19_split -> cont_20_LSTM_cont_slice_19_split_0
I0717 14:21:15.042507 27687 net.cpp:382] cont_20_LSTM_cont_slice_19_split -> cont_20_LSTM_cont_slice_19_split_1
I0717 14:21:15.042539 27687 net.cpp:124] Setting up cont_20_LSTM_cont_slice_19_split
I0717 14:21:15.042547 27687 net.cpp:131] Top shape: 1 40 (40)
I0717 14:21:15.042553 27687 net.cpp:131] Top shape: 1 40 (40)
I0717 14:21:15.042557 27687 net.cpp:139] Memory required for data: 314880
I0717 14:21:15.042562 27687 layer_factory.hpp:77] Creating layer cont_21_LSTM_cont_slice_20_split
I0717 14:21:15.042568 27687 net.cpp:86] Creating Layer cont_21_LSTM_cont_slice_20_split
I0717 14:21:15.042573 27687 net.cpp:408] cont_21_LSTM_cont_slice_20_split <- cont_21
I0717 14:21:15.042582 27687 net.cpp:382] cont_21_LSTM_cont_slice_20_split -> cont_21_LSTM_cont_slice_20_split_0
I0717 14:21:15.042590 27687 net.cpp:382] cont_21_LSTM_cont_slice_20_split -> cont_21_LSTM_cont_slice_20_split_1
I0717 14:21:15.042620 27687 net.cpp:124] Setting up cont_21_LSTM_cont_slice_20_split
I0717 14:21:15.042629 27687 net.cpp:131] Top shape: 1 40 (40)
I0717 14:21:15.042634 27687 net.cpp:131] Top shape: 1 40 (40)
I0717 14:21:15.042639 27687 net.cpp:139] Memory required for data: 315200
I0717 14:21:15.042644 27687 layer_factory.hpp:77] Creating layer cont_22_LSTM_cont_slice_21_split
I0717 14:21:15.042651 27687 net.cpp:86] Creating Layer cont_22_LSTM_cont_slice_21_split
I0717 14:21:15.042656 27687 net.cpp:408] cont_22_LSTM_cont_slice_21_split <- cont_22
I0717 14:21:15.042664 27687 net.cpp:382] cont_22_LSTM_cont_slice_21_split -> cont_22_LSTM_cont_slice_21_split_0
I0717 14:21:15.042671 27687 net.cpp:382] cont_22_LSTM_cont_slice_21_split -> cont_22_LSTM_cont_slice_21_split_1
I0717 14:21:15.042704 27687 net.cpp:124] Setting up cont_22_LSTM_cont_slice_21_split
I0717 14:21:15.042712 27687 net.cpp:131] Top shape: 1 40 (40)
I0717 14:21:15.042718 27687 net.cpp:131] Top shape: 1 40 (40)
I0717 14:21:15.042722 27687 net.cpp:139] Memory required for data: 315520
I0717 14:21:15.042727 27687 layer_factory.hpp:77] Creating layer cont_23_LSTM_cont_slice_22_split
I0717 14:21:15.042733 27687 net.cpp:86] Creating Layer cont_23_LSTM_cont_slice_22_split
I0717 14:21:15.042742 27687 net.cpp:408] cont_23_LSTM_cont_slice_22_split <- cont_23
I0717 14:21:15.042755 27687 net.cpp:382] cont_23_LSTM_cont_slice_22_split -> cont_23_LSTM_cont_slice_22_split_0
I0717 14:21:15.042763 27687 net.cpp:382] cont_23_LSTM_cont_slice_22_split -> cont_23_LSTM_cont_slice_22_split_1
I0717 14:21:15.042796 27687 net.cpp:124] Setting up cont_23_LSTM_cont_slice_22_split
I0717 14:21:15.042805 27687 net.cpp:131] Top shape: 1 40 (40)
I0717 14:21:15.042810 27687 net.cpp:131] Top shape: 1 40 (40)
I0717 14:21:15.042815 27687 net.cpp:139] Memory required for data: 315840
I0717 14:21:15.042820 27687 layer_factory.hpp:77] Creating layer cont_24_LSTM_cont_slice_23_split
I0717 14:21:15.042826 27687 net.cpp:86] Creating Layer cont_24_LSTM_cont_slice_23_split
I0717 14:21:15.042831 27687 net.cpp:408] cont_24_LSTM_cont_slice_23_split <- cont_24
I0717 14:21:15.042837 27687 net.cpp:382] cont_24_LSTM_cont_slice_23_split -> cont_24_LSTM_cont_slice_23_split_0
I0717 14:21:15.042851 27687 net.cpp:382] cont_24_LSTM_cont_slice_23_split -> cont_24_LSTM_cont_slice_23_split_1
I0717 14:21:15.042882 27687 net.cpp:124] Setting up cont_24_LSTM_cont_slice_23_split
I0717 14:21:15.042891 27687 net.cpp:131] Top shape: 1 40 (40)
I0717 14:21:15.042896 27687 net.cpp:131] Top shape: 1 40 (40)
I0717 14:21:15.042901 27687 net.cpp:139] Memory required for data: 316160
I0717 14:21:15.042904 27687 layer_factory.hpp:77] Creating layer cont_25_LSTM_cont_slice_24_split
I0717 14:21:15.042913 27687 net.cpp:86] Creating Layer cont_25_LSTM_cont_slice_24_split
I0717 14:21:15.042918 27687 net.cpp:408] cont_25_LSTM_cont_slice_24_split <- cont_25
I0717 14:21:15.042925 27687 net.cpp:382] cont_25_LSTM_cont_slice_24_split -> cont_25_LSTM_cont_slice_24_split_0
I0717 14:21:15.042933 27687 net.cpp:382] cont_25_LSTM_cont_slice_24_split -> cont_25_LSTM_cont_slice_24_split_1
I0717 14:21:15.042964 27687 net.cpp:124] Setting up cont_25_LSTM_cont_slice_24_split
I0717 14:21:15.042973 27687 net.cpp:131] Top shape: 1 40 (40)
I0717 14:21:15.042979 27687 net.cpp:131] Top shape: 1 40 (40)
I0717 14:21:15.042982 27687 net.cpp:139] Memory required for data: 316480
I0717 14:21:15.042987 27687 layer_factory.hpp:77] Creating layer cont_26_LSTM_cont_slice_25_split
I0717 14:21:15.042994 27687 net.cpp:86] Creating Layer cont_26_LSTM_cont_slice_25_split
I0717 14:21:15.042999 27687 net.cpp:408] cont_26_LSTM_cont_slice_25_split <- cont_26
I0717 14:21:15.043005 27687 net.cpp:382] cont_26_LSTM_cont_slice_25_split -> cont_26_LSTM_cont_slice_25_split_0
I0717 14:21:15.043014 27687 net.cpp:382] cont_26_LSTM_cont_slice_25_split -> cont_26_LSTM_cont_slice_25_split_1
I0717 14:21:15.043045 27687 net.cpp:124] Setting up cont_26_LSTM_cont_slice_25_split
I0717 14:21:15.043053 27687 net.cpp:131] Top shape: 1 40 (40)
I0717 14:21:15.043059 27687 net.cpp:131] Top shape: 1 40 (40)
I0717 14:21:15.043063 27687 net.cpp:139] Memory required for data: 316800
I0717 14:21:15.043068 27687 layer_factory.hpp:77] Creating layer cont_27_LSTM_cont_slice_26_split
I0717 14:21:15.043074 27687 net.cpp:86] Creating Layer cont_27_LSTM_cont_slice_26_split
I0717 14:21:15.043079 27687 net.cpp:408] cont_27_LSTM_cont_slice_26_split <- cont_27
I0717 14:21:15.043087 27687 net.cpp:382] cont_27_LSTM_cont_slice_26_split -> cont_27_LSTM_cont_slice_26_split_0
I0717 14:21:15.043094 27687 net.cpp:382] cont_27_LSTM_cont_slice_26_split -> cont_27_LSTM_cont_slice_26_split_1
I0717 14:21:15.043126 27687 net.cpp:124] Setting up cont_27_LSTM_cont_slice_26_split
I0717 14:21:15.043134 27687 net.cpp:131] Top shape: 1 40 (40)
I0717 14:21:15.043140 27687 net.cpp:131] Top shape: 1 40 (40)
I0717 14:21:15.043145 27687 net.cpp:139] Memory required for data: 317120
I0717 14:21:15.043149 27687 layer_factory.hpp:77] Creating layer cont_28_LSTM_cont_slice_27_split
I0717 14:21:15.043155 27687 net.cpp:86] Creating Layer cont_28_LSTM_cont_slice_27_split
I0717 14:21:15.043160 27687 net.cpp:408] cont_28_LSTM_cont_slice_27_split <- cont_28
I0717 14:21:15.043169 27687 net.cpp:382] cont_28_LSTM_cont_slice_27_split -> cont_28_LSTM_cont_slice_27_split_0
I0717 14:21:15.043182 27687 net.cpp:382] cont_28_LSTM_cont_slice_27_split -> cont_28_LSTM_cont_slice_27_split_1
I0717 14:21:15.043221 27687 net.cpp:124] Setting up cont_28_LSTM_cont_slice_27_split
I0717 14:21:15.043229 27687 net.cpp:131] Top shape: 1 40 (40)
I0717 14:21:15.043236 27687 net.cpp:131] Top shape: 1 40 (40)
I0717 14:21:15.043239 27687 net.cpp:139] Memory required for data: 317440
I0717 14:21:15.043244 27687 layer_factory.hpp:77] Creating layer cont_29_LSTM_cont_slice_28_split
I0717 14:21:15.043252 27687 net.cpp:86] Creating Layer cont_29_LSTM_cont_slice_28_split
I0717 14:21:15.043258 27687 net.cpp:408] cont_29_LSTM_cont_slice_28_split <- cont_29
I0717 14:21:15.043264 27687 net.cpp:382] cont_29_LSTM_cont_slice_28_split -> cont_29_LSTM_cont_slice_28_split_0
I0717 14:21:15.043273 27687 net.cpp:382] cont_29_LSTM_cont_slice_28_split -> cont_29_LSTM_cont_slice_28_split_1
I0717 14:21:15.043306 27687 net.cpp:124] Setting up cont_29_LSTM_cont_slice_28_split
I0717 14:21:15.043314 27687 net.cpp:131] Top shape: 1 40 (40)
I0717 14:21:15.043319 27687 net.cpp:131] Top shape: 1 40 (40)
I0717 14:21:15.043324 27687 net.cpp:139] Memory required for data: 317760
I0717 14:21:15.043329 27687 layer_factory.hpp:77] Creating layer cont_30_LSTM_cont_slice_29_split
I0717 14:21:15.043337 27687 net.cpp:86] Creating Layer cont_30_LSTM_cont_slice_29_split
I0717 14:21:15.043344 27687 net.cpp:408] cont_30_LSTM_cont_slice_29_split <- cont_30
I0717 14:21:15.043350 27687 net.cpp:382] cont_30_LSTM_cont_slice_29_split -> cont_30_LSTM_cont_slice_29_split_0
I0717 14:21:15.043359 27687 net.cpp:382] cont_30_LSTM_cont_slice_29_split -> cont_30_LSTM_cont_slice_29_split_1
I0717 14:21:15.043391 27687 net.cpp:124] Setting up cont_30_LSTM_cont_slice_29_split
I0717 14:21:15.043400 27687 net.cpp:131] Top shape: 1 40 (40)
I0717 14:21:15.043406 27687 net.cpp:131] Top shape: 1 40 (40)
I0717 14:21:15.043409 27687 net.cpp:139] Memory required for data: 318080
I0717 14:21:15.043414 27687 layer_factory.hpp:77] Creating layer cont_31_LSTM_cont_slice_30_split
I0717 14:21:15.043421 27687 net.cpp:86] Creating Layer cont_31_LSTM_cont_slice_30_split
I0717 14:21:15.043426 27687 net.cpp:408] cont_31_LSTM_cont_slice_30_split <- cont_31
I0717 14:21:15.043434 27687 net.cpp:382] cont_31_LSTM_cont_slice_30_split -> cont_31_LSTM_cont_slice_30_split_0
I0717 14:21:15.043442 27687 net.cpp:382] cont_31_LSTM_cont_slice_30_split -> cont_31_LSTM_cont_slice_30_split_1
I0717 14:21:15.043473 27687 net.cpp:124] Setting up cont_31_LSTM_cont_slice_30_split
I0717 14:21:15.043480 27687 net.cpp:131] Top shape: 1 40 (40)
I0717 14:21:15.043486 27687 net.cpp:131] Top shape: 1 40 (40)
I0717 14:21:15.043490 27687 net.cpp:139] Memory required for data: 318400
I0717 14:21:15.043495 27687 layer_factory.hpp:77] Creating layer cont_32_LSTM_cont_slice_31_split
I0717 14:21:15.043503 27687 net.cpp:86] Creating Layer cont_32_LSTM_cont_slice_31_split
I0717 14:21:15.043509 27687 net.cpp:408] cont_32_LSTM_cont_slice_31_split <- cont_32
I0717 14:21:15.043515 27687 net.cpp:382] cont_32_LSTM_cont_slice_31_split -> cont_32_LSTM_cont_slice_31_split_0
I0717 14:21:15.043524 27687 net.cpp:382] cont_32_LSTM_cont_slice_31_split -> cont_32_LSTM_cont_slice_31_split_1
I0717 14:21:15.043555 27687 net.cpp:124] Setting up cont_32_LSTM_cont_slice_31_split
I0717 14:21:15.043563 27687 net.cpp:131] Top shape: 1 40 (40)
I0717 14:21:15.043570 27687 net.cpp:131] Top shape: 1 40 (40)
I0717 14:21:15.043575 27687 net.cpp:139] Memory required for data: 318720
I0717 14:21:15.043578 27687 layer_factory.hpp:77] Creating layer cont_33_LSTM_cont_slice_32_split
I0717 14:21:15.043584 27687 net.cpp:86] Creating Layer cont_33_LSTM_cont_slice_32_split
I0717 14:21:15.043589 27687 net.cpp:408] cont_33_LSTM_cont_slice_32_split <- cont_33
I0717 14:21:15.043596 27687 net.cpp:382] cont_33_LSTM_cont_slice_32_split -> cont_33_LSTM_cont_slice_32_split_0
I0717 14:21:15.043604 27687 net.cpp:382] cont_33_LSTM_cont_slice_32_split -> cont_33_LSTM_cont_slice_32_split_1
I0717 14:21:15.043637 27687 net.cpp:124] Setting up cont_33_LSTM_cont_slice_32_split
I0717 14:21:15.043649 27687 net.cpp:131] Top shape: 1 40 (40)
I0717 14:21:15.043660 27687 net.cpp:131] Top shape: 1 40 (40)
I0717 14:21:15.043665 27687 net.cpp:139] Memory required for data: 319040
I0717 14:21:15.043670 27687 layer_factory.hpp:77] Creating layer cont_34_LSTM_cont_slice_33_split
I0717 14:21:15.043676 27687 net.cpp:86] Creating Layer cont_34_LSTM_cont_slice_33_split
I0717 14:21:15.043681 27687 net.cpp:408] cont_34_LSTM_cont_slice_33_split <- cont_34
I0717 14:21:15.043689 27687 net.cpp:382] cont_34_LSTM_cont_slice_33_split -> cont_34_LSTM_cont_slice_33_split_0
I0717 14:21:15.043699 27687 net.cpp:382] cont_34_LSTM_cont_slice_33_split -> cont_34_LSTM_cont_slice_33_split_1
I0717 14:21:15.043730 27687 net.cpp:124] Setting up cont_34_LSTM_cont_slice_33_split
I0717 14:21:15.043736 27687 net.cpp:131] Top shape: 1 40 (40)
I0717 14:21:15.043742 27687 net.cpp:131] Top shape: 1 40 (40)
I0717 14:21:15.043747 27687 net.cpp:139] Memory required for data: 319360
I0717 14:21:15.043751 27687 layer_factory.hpp:77] Creating layer cont_35_LSTM_cont_slice_34_split
I0717 14:21:15.043759 27687 net.cpp:86] Creating Layer cont_35_LSTM_cont_slice_34_split
I0717 14:21:15.043766 27687 net.cpp:408] cont_35_LSTM_cont_slice_34_split <- cont_35
I0717 14:21:15.043772 27687 net.cpp:382] cont_35_LSTM_cont_slice_34_split -> cont_35_LSTM_cont_slice_34_split_0
I0717 14:21:15.043781 27687 net.cpp:382] cont_35_LSTM_cont_slice_34_split -> cont_35_LSTM_cont_slice_34_split_1
I0717 14:21:15.043812 27687 net.cpp:124] Setting up cont_35_LSTM_cont_slice_34_split
I0717 14:21:15.043820 27687 net.cpp:131] Top shape: 1 40 (40)
I0717 14:21:15.043825 27687 net.cpp:131] Top shape: 1 40 (40)
I0717 14:21:15.043830 27687 net.cpp:139] Memory required for data: 319680
I0717 14:21:15.043835 27687 layer_factory.hpp:77] Creating layer cont_36_LSTM_cont_slice_35_split
I0717 14:21:15.043840 27687 net.cpp:86] Creating Layer cont_36_LSTM_cont_slice_35_split
I0717 14:21:15.043846 27687 net.cpp:408] cont_36_LSTM_cont_slice_35_split <- cont_36
I0717 14:21:15.043853 27687 net.cpp:382] cont_36_LSTM_cont_slice_35_split -> cont_36_LSTM_cont_slice_35_split_0
I0717 14:21:15.043860 27687 net.cpp:382] cont_36_LSTM_cont_slice_35_split -> cont_36_LSTM_cont_slice_35_split_1
I0717 14:21:15.043895 27687 net.cpp:124] Setting up cont_36_LSTM_cont_slice_35_split
I0717 14:21:15.043903 27687 net.cpp:131] Top shape: 1 40 (40)
I0717 14:21:15.043908 27687 net.cpp:131] Top shape: 1 40 (40)
I0717 14:21:15.043913 27687 net.cpp:139] Memory required for data: 320000
I0717 14:21:15.043918 27687 layer_factory.hpp:77] Creating layer cont_37_LSTM_cont_slice_36_split
I0717 14:21:15.043923 27687 net.cpp:86] Creating Layer cont_37_LSTM_cont_slice_36_split
I0717 14:21:15.043929 27687 net.cpp:408] cont_37_LSTM_cont_slice_36_split <- cont_37
I0717 14:21:15.043936 27687 net.cpp:382] cont_37_LSTM_cont_slice_36_split -> cont_37_LSTM_cont_slice_36_split_0
I0717 14:21:15.043944 27687 net.cpp:382] cont_37_LSTM_cont_slice_36_split -> cont_37_LSTM_cont_slice_36_split_1
I0717 14:21:15.043977 27687 net.cpp:124] Setting up cont_37_LSTM_cont_slice_36_split
I0717 14:21:15.043985 27687 net.cpp:131] Top shape: 1 40 (40)
I0717 14:21:15.043992 27687 net.cpp:131] Top shape: 1 40 (40)
I0717 14:21:15.043997 27687 net.cpp:139] Memory required for data: 320320
I0717 14:21:15.044000 27687 layer_factory.hpp:77] Creating layer cont_38_LSTM_cont_slice_37_split
I0717 14:21:15.044006 27687 net.cpp:86] Creating Layer cont_38_LSTM_cont_slice_37_split
I0717 14:21:15.044011 27687 net.cpp:408] cont_38_LSTM_cont_slice_37_split <- cont_38
I0717 14:21:15.044020 27687 net.cpp:382] cont_38_LSTM_cont_slice_37_split -> cont_38_LSTM_cont_slice_37_split_0
I0717 14:21:15.044029 27687 net.cpp:382] cont_38_LSTM_cont_slice_37_split -> cont_38_LSTM_cont_slice_37_split_1
I0717 14:21:15.044060 27687 net.cpp:124] Setting up cont_38_LSTM_cont_slice_37_split
I0717 14:21:15.044068 27687 net.cpp:131] Top shape: 1 40 (40)
I0717 14:21:15.044075 27687 net.cpp:131] Top shape: 1 40 (40)
I0717 14:21:15.044078 27687 net.cpp:139] Memory required for data: 320640
I0717 14:21:15.044087 27687 layer_factory.hpp:77] Creating layer cont_39_LSTM_cont_slice_38_split
I0717 14:21:15.044101 27687 net.cpp:86] Creating Layer cont_39_LSTM_cont_slice_38_split
I0717 14:21:15.044107 27687 net.cpp:408] cont_39_LSTM_cont_slice_38_split <- cont_39
I0717 14:21:15.044114 27687 net.cpp:382] cont_39_LSTM_cont_slice_38_split -> cont_39_LSTM_cont_slice_38_split_0
I0717 14:21:15.044122 27687 net.cpp:382] cont_39_LSTM_cont_slice_38_split -> cont_39_LSTM_cont_slice_38_split_1
I0717 14:21:15.044157 27687 net.cpp:124] Setting up cont_39_LSTM_cont_slice_38_split
I0717 14:21:15.044165 27687 net.cpp:131] Top shape: 1 40 (40)
I0717 14:21:15.044170 27687 net.cpp:131] Top shape: 1 40 (40)
I0717 14:21:15.044175 27687 net.cpp:139] Memory required for data: 320960
I0717 14:21:15.044180 27687 layer_factory.hpp:77] Creating layer cont_40_LSTM_cont_slice_39_split
I0717 14:21:15.044186 27687 net.cpp:86] Creating Layer cont_40_LSTM_cont_slice_39_split
I0717 14:21:15.044191 27687 net.cpp:408] cont_40_LSTM_cont_slice_39_split <- cont_40
I0717 14:21:15.044198 27687 net.cpp:382] cont_40_LSTM_cont_slice_39_split -> cont_40_LSTM_cont_slice_39_split_0
I0717 14:21:15.044206 27687 net.cpp:382] cont_40_LSTM_cont_slice_39_split -> cont_40_LSTM_cont_slice_39_split_1
I0717 14:21:15.044239 27687 net.cpp:124] Setting up cont_40_LSTM_cont_slice_39_split
I0717 14:21:15.044246 27687 net.cpp:131] Top shape: 1 40 (40)
I0717 14:21:15.044252 27687 net.cpp:131] Top shape: 1 40 (40)
I0717 14:21:15.044256 27687 net.cpp:139] Memory required for data: 321280
I0717 14:21:15.044261 27687 layer_factory.hpp:77] Creating layer cont_41_LSTM_cont_slice_40_split
I0717 14:21:15.044267 27687 net.cpp:86] Creating Layer cont_41_LSTM_cont_slice_40_split
I0717 14:21:15.044272 27687 net.cpp:408] cont_41_LSTM_cont_slice_40_split <- cont_41
I0717 14:21:15.044279 27687 net.cpp:382] cont_41_LSTM_cont_slice_40_split -> cont_41_LSTM_cont_slice_40_split_0
I0717 14:21:15.044298 27687 net.cpp:382] cont_41_LSTM_cont_slice_40_split -> cont_41_LSTM_cont_slice_40_split_1
I0717 14:21:15.044333 27687 net.cpp:124] Setting up cont_41_LSTM_cont_slice_40_split
I0717 14:21:15.044342 27687 net.cpp:131] Top shape: 1 40 (40)
I0717 14:21:15.044348 27687 net.cpp:131] Top shape: 1 40 (40)
I0717 14:21:15.044353 27687 net.cpp:139] Memory required for data: 321600
I0717 14:21:15.044358 27687 layer_factory.hpp:77] Creating layer cont_42_LSTM_cont_slice_41_split
I0717 14:21:15.044364 27687 net.cpp:86] Creating Layer cont_42_LSTM_cont_slice_41_split
I0717 14:21:15.044369 27687 net.cpp:408] cont_42_LSTM_cont_slice_41_split <- cont_42
I0717 14:21:15.044378 27687 net.cpp:382] cont_42_LSTM_cont_slice_41_split -> cont_42_LSTM_cont_slice_41_split_0
I0717 14:21:15.044387 27687 net.cpp:382] cont_42_LSTM_cont_slice_41_split -> cont_42_LSTM_cont_slice_41_split_1
I0717 14:21:15.044419 27687 net.cpp:124] Setting up cont_42_LSTM_cont_slice_41_split
I0717 14:21:15.044426 27687 net.cpp:131] Top shape: 1 40 (40)
I0717 14:21:15.044431 27687 net.cpp:131] Top shape: 1 40 (40)
I0717 14:21:15.044436 27687 net.cpp:139] Memory required for data: 321920
I0717 14:21:15.044441 27687 layer_factory.hpp:77] Creating layer cont_43_LSTM_cont_slice_42_split
I0717 14:21:15.044452 27687 net.cpp:86] Creating Layer cont_43_LSTM_cont_slice_42_split
I0717 14:21:15.044457 27687 net.cpp:408] cont_43_LSTM_cont_slice_42_split <- cont_43
I0717 14:21:15.044464 27687 net.cpp:382] cont_43_LSTM_cont_slice_42_split -> cont_43_LSTM_cont_slice_42_split_0
I0717 14:21:15.044472 27687 net.cpp:382] cont_43_LSTM_cont_slice_42_split -> cont_43_LSTM_cont_slice_42_split_1
I0717 14:21:15.044504 27687 net.cpp:124] Setting up cont_43_LSTM_cont_slice_42_split
I0717 14:21:15.044512 27687 net.cpp:131] Top shape: 1 40 (40)
I0717 14:21:15.044518 27687 net.cpp:131] Top shape: 1 40 (40)
I0717 14:21:15.044523 27687 net.cpp:139] Memory required for data: 322240
I0717 14:21:15.044528 27687 layer_factory.hpp:77] Creating layer cont_44_LSTM_cont_slice_43_split
I0717 14:21:15.044533 27687 net.cpp:86] Creating Layer cont_44_LSTM_cont_slice_43_split
I0717 14:21:15.044543 27687 net.cpp:408] cont_44_LSTM_cont_slice_43_split <- cont_44
I0717 14:21:15.044556 27687 net.cpp:382] cont_44_LSTM_cont_slice_43_split -> cont_44_LSTM_cont_slice_43_split_0
I0717 14:21:15.044565 27687 net.cpp:382] cont_44_LSTM_cont_slice_43_split -> cont_44_LSTM_cont_slice_43_split_1
I0717 14:21:15.044598 27687 net.cpp:124] Setting up cont_44_LSTM_cont_slice_43_split
I0717 14:21:15.044607 27687 net.cpp:131] Top shape: 1 40 (40)
I0717 14:21:15.044612 27687 net.cpp:131] Top shape: 1 40 (40)
I0717 14:21:15.044617 27687 net.cpp:139] Memory required for data: 322560
I0717 14:21:15.044622 27687 layer_factory.hpp:77] Creating layer LSTM_x_transform
I0717 14:21:15.044631 27687 net.cpp:86] Creating Layer LSTM_x_transform
I0717 14:21:15.044636 27687 net.cpp:408] LSTM_x_transform <- x
I0717 14:21:15.044646 27687 net.cpp:382] LSTM_x_transform -> W_xc_x
I0717 14:21:15.046630 27687 net.cpp:124] Setting up LSTM_x_transform
I0717 14:21:15.046649 27687 net.cpp:131] Top shape: 44 40 160 (281600)
I0717 14:21:15.046655 27687 net.cpp:139] Memory required for data: 1448960
I0717 14:21:15.046670 27687 layer_factory.hpp:77] Creating layer LSTM_W_xc_x_slice
I0717 14:21:15.046684 27687 net.cpp:86] Creating Layer LSTM_W_xc_x_slice
I0717 14:21:15.046689 27687 net.cpp:408] LSTM_W_xc_x_slice <- W_xc_x
I0717 14:21:15.046701 27687 net.cpp:382] LSTM_W_xc_x_slice -> W_xc_x_1
I0717 14:21:15.046716 27687 net.cpp:382] LSTM_W_xc_x_slice -> W_xc_x_2
…
I0717 14:21:15.047158 27687 net.cpp:382] LSTM_W_xc_x_slice -> W_xc_x_38
I0717 14:21:15.047171 27687 net.cpp:382] LSTM_W_xc_x_slice -> W_xc_x_39
I0717 14:21:15.047188 27687 net.cpp:382] LSTM_W_xc_x_slice -> W_xc_x_40
I0717 14:21:15.047209 27687 net.cpp:382] LSTM_W_xc_x_slice -> W_xc_x_41
I0717 14:21:15.047221 27687 net.cpp:382] LSTM_W_xc_x_slice -> W_xc_x_42
I0717 14:21:15.047233 27687 net.cpp:382] LSTM_W_xc_x_slice -> W_xc_x_43
I0717 14:21:15.047245 27687 net.cpp:382] LSTM_W_xc_x_slice -> W_xc_x_44
I0717 14:21:15.047744 27687 net.cpp:124] Setting up LSTM_W_xc_x_slice
I0717 14:21:15.047755 27687 net.cpp:131] Top shape: 1 40 160 (6400)
I0717 14:21:15.047760 27687 net.cpp:131] Top shape: 1 40 160 (6400)
I0717 14:21:15.047766 27687 net.cpp:131] Top shape: 1 40 160 (6400)
I0717 14:21:15.047772 27687 net.cpp:131] Top shape: 1 40 160 (6400)
I0717 14:21:15.047778 27687 net.cpp:131] Top shape: 1 40 160 (6400)
I0717 14:21:15.047783 27687 net.cpp:131] Top shape: 1 40 160 (6400)
I0717 14:21:15.047790 27687 net.cpp:131] Top shape: 1 40 160 (6400)
I0717 14:21:15.047794 27687 net.cpp:131] Top shape: 1 40 160 (6400)
I0717 14:21:15.047801 27687 net.cpp:131] Top shape: 1 40 160 (6400)
I0717 14:21:15.047806 27687 net.cpp:131] Top shape: 1 40 160 (6400)
I0717 14:21:15.047811 27687 net.cpp:131] Top shape: 1 40 160 (6400)
I0717 14:21:15.047816 27687 net.cpp:131] Top shape: 1 40 160 (6400)
I0717 14:21:15.047821 27687 net.cpp:131] Top shape: 1 40 160 (6400)
I0717 14:21:15.047827 27687 net.cpp:131] Top shape: 1 40 160 (6400)
I0717 14:21:15.047832 27687 net.cpp:131] Top shape: 1 40 160 (6400)
I0717 14:21:15.047838 27687 net.cpp:131] Top shape: 1 40 160 (6400)
I0717 14:21:15.047843 27687 net.cpp:131] Top shape: 1 40 160 (6400)
I0717 14:21:15.047849 27687 net.cpp:131] Top shape: 1 40 160 (6400)
I0717 14:21:15.047854 27687 net.cpp:131] Top shape: 1 40 160 (6400)
I0717 14:21:15.047860 27687 net.cpp:131] Top shape: 1 40 160 (6400)
I0717 14:21:15.047865 27687 net.cpp:131] Top shape: 1 40 160 (6400)
I0717 14:21:15.047871 27687 net.cpp:131] Top shape: 1 40 160 (6400)
I0717 14:21:15.047876 27687 net.cpp:131] Top shape: 1 40 160 (6400)
I0717 14:21:15.047883 27687 net.cpp:131] Top shape: 1 40 160 (6400)
I0717 14:21:15.047888 27687 net.cpp:131] Top shape: 1 40 160 (6400)
I0717 14:21:15.047893 27687 net.cpp:131] Top shape: 1 40 160 (6400)
I0717 14:21:15.047899 27687 net.cpp:131] Top shape: 1 40 160 (6400)
I0717 14:21:15.047904 27687 net.cpp:131] Top shape: 1 40 160 (6400)
I0717 14:21:15.047909 27687 net.cpp:131] Top shape: 1 40 160 (6400)
I0717 14:21:15.047914 27687 net.cpp:131] Top shape: 1 40 160 (6400)
I0717 14:21:15.047920 27687 net.cpp:131] Top shape: 1 40 160 (6400)
I0717 14:21:15.047925 27687 net.cpp:131] Top shape: 1 40 160 (6400)
I0717 14:21:15.047930 27687 net.cpp:131] Top shape: 1 40 160 (6400)
I0717 14:21:15.047936 27687 net.cpp:131] Top shape: 1 40 160 (6400)
I0717 14:21:15.047941 27687 net.cpp:131] Top shape: 1 40 160 (6400)
I0717 14:21:15.047947 27687 net.cpp:131] Top shape: 1 40 160 (6400)
I0717 14:21:15.047952 27687 net.cpp:131] Top shape: 1 40 160 (6400)
I0717 14:21:15.047958 27687 net.cpp:131] Top shape: 1 40 160 (6400)
I0717 14:21:15.047963 27687 net.cpp:131] Top shape: 1 40 160 (6400)
I0717 14:21:15.047969 27687 net.cpp:131] Top shape: 1 40 160 (6400)
I0717 14:21:15.047974 27687 net.cpp:131] Top shape: 1 40 160 (6400)
I0717 14:21:15.047979 27687 net.cpp:131] Top shape: 1 40 160 (6400)
I0717 14:21:15.047986 27687 net.cpp:131] Top shape: 1 40 160 (6400)
I0717 14:21:15.047991 27687 net.cpp:131] Top shape: 1 40 160 (6400)
I0717 14:21:15.047996 27687 net.cpp:139] Memory required for data: 2575360
I0717 14:21:15.048001 27687 layer_factory.hpp:77] Creating layer LSTM_h_conted_0
I0717 14:21:15.048008 27687 net.cpp:86] Creating Layer LSTM_h_conted_0
I0717 14:21:15.048014 27687 net.cpp:408] LSTM_h_conted_0 <- h_0
I0717 14:21:15.048022 27687 net.cpp:408] LSTM_h_conted_0 <- cont_1_LSTM_cont_slice_0_split_0
I0717 14:21:15.048032 27687 net.cpp:382] LSTM_h_conted_0 -> h_conted_0
I0717 14:21:15.048105 27687 net.cpp:124] Setting up LSTM_h_conted_0
I0717 14:21:15.048115 27687 net.cpp:131] Top shape: 1 40 40 (1600)
I0717 14:21:15.048118 27687 net.cpp:139] Memory required for data: 2581760
I0717 14:21:15.048127 27687 layer_factory.hpp:77] Creating layer LSTM_transform_1
I0717 14:21:15.048143 27687 net.cpp:86] Creating Layer LSTM_transform_1
I0717 14:21:15.048149 27687 net.cpp:408] LSTM_transform_1 <- h_conted_0
I0717 14:21:15.048159 27687 net.cpp:382] LSTM_transform_1 -> W_hc_h_0
I0717 14:21:15.048424 27687 net.cpp:124] Setting up LSTM_transform_1
I0717 14:21:15.048434 27687 net.cpp:131] Top shape: 1 40 160 (6400)
I0717 14:21:15.048439 27687 net.cpp:139] Memory required for data: 2607360
I0717 14:21:15.048447 27687 layer_factory.hpp:77] Creating layer LSTM_gate_input_1
I0717 14:21:15.048462 27687 net.cpp:86] Creating Layer LSTM_gate_input_1
I0717 14:21:15.048468 27687 net.cpp:408] LSTM_gate_input_1 <- W_hc_h_0
I0717 14:21:15.048475 27687 net.cpp:408] LSTM_gate_input_1 <- W_xc_x_1
I0717 14:21:15.048482 27687 net.cpp:382] LSTM_gate_input_1 -> gate_input_1
I0717 14:21:15.048517 27687 net.cpp:124] Setting up LSTM_gate_input_1
I0717 14:21:15.048527 27687 net.cpp:131] Top shape: 1 40 160 (6400)
I0717 14:21:15.048532 27687 net.cpp:139] Memory required for data: 2632960
I0717 14:21:15.048537 27687 layer_factory.hpp:77] Creating layer LSTM_unit_1
I0717 14:21:15.048547 27687 net.cpp:86] Creating Layer LSTM_unit_1
I0717 14:21:15.048552 27687 net.cpp:408] LSTM_unit_1 <- c_0
I0717 14:21:15.048560 27687 net.cpp:408] LSTM_unit_1 <- gate_input_1
I0717 14:21:15.048569 27687 net.cpp:408] LSTM_unit_1 <- cont_1_LSTM_cont_slice_0_split_1
I0717 14:21:15.048576 27687 net.cpp:382] LSTM_unit_1 -> c_1
I0717 14:21:15.048586 27687 net.cpp:382] LSTM_unit_1 -> h_1
I0717 14:21:15.048635 27687 net.cpp:124] Setting up LSTM_unit_1
I0717 14:21:15.048645 27687 net.cpp:131] Top shape: 1 40 40 (1600)
I0717 14:21:15.048650 27687 net.cpp:131] Top shape: 1 40 40 (1600)
I0717 14:21:15.048655 27687 net.cpp:139] Memory required for data: 2645760
I0717 14:21:15.048660 27687 layer_factory.hpp:77] Creating layer h_1_LSTM_unit_1_1_split
I0717 14:21:15.048669 27687 net.cpp:86] Creating Layer h_1_LSTM_unit_1_1_split
I0717 14:21:15.048674 27687 net.cpp:408] h_1_LSTM_unit_1_1_split <- h_1
I0717 14:21:15.048681 27687 net.cpp:382] h_1_LSTM_unit_1_1_split -> h_1_LSTM_unit_1_1_split_0
I0717 14:21:15.048691 27687 net.cpp:382] h_1_LSTM_unit_1_1_split -> h_1_LSTM_unit_1_1_split_1
I0717 14:21:15.048727 27687 net.cpp:124] Setting up h_1_LSTM_unit_1_1_split
I0717 14:21:15.048734 27687 net.cpp:131] Top shape: 1 40 40 (1600)
I0717 14:21:15.048740 27687 net.cpp:131] Top shape: 1 40 40 (1600)
I0717 14:21:15.048745 27687 net.cpp:139] Memory required for data: 2658560
I0717 14:21:15.048750 27687 layer_factory.hpp:77] Creating layer LSTM_h_conted_1
I0717 14:21:15.048758 27687 net.cpp:86] Creating Layer LSTM_h_conted_1
I0717 14:21:15.048763 27687 net.cpp:408] LSTM_h_conted_1 <- h_1_LSTM_unit_1_1_split_0
I0717 14:21:15.048769 27687 net.cpp:408] LSTM_h_conted_1 <- cont_2_LSTM_cont_slice_1_split_0
I0717 14:21:15.048777 27687 net.cpp:382] LSTM_h_conted_1 -> h_conted_1
I0717 14:21:15.048837 27687 net.cpp:124] Setting up LSTM_h_conted_1
I0717 14:21:15.048846 27687 net.cpp:131] Top shape: 1 40 40 (1600)
I0717 14:21:15.048851 27687 net.cpp:139] Memory required for data: 2664960
I0717 14:21:15.048856 27687 layer_factory.hpp:77] Creating layer LSTM_transform_2
I0717 14:21:15.048862 27687 net.cpp:86] Creating Layer LSTM_transform_2
I0717 14:21:15.048868 27687 net.cpp:408] LSTM_transform_2 <- h_conted_1
I0717 14:21:15.048877 27687 net.cpp:382] LSTM_transform_2 -> W_hc_h_1
I0717 14:21:15.049139 27687 net.cpp:124] Setting up LSTM_transform_2
I0717 14:21:15.049149 27687 net.cpp:131] Top shape: 1 40 160 (6400)
I0717 14:21:15.049152 27687 net.cpp:139] Memory required for data: 2690560
I0717 14:21:15.049159 27687 net.cpp:467] Sharing parameters 'W_hc' owned by layer 'LSTM_transform_1', param index 0
I0717 14:21:15.049165 27687 layer_factory.hpp:77] Creating layer LSTM_gate_input_2
I0717 14:21:15.049173 27687 net.cpp:86] Creating Layer LSTM_gate_input_2
I0717 14:21:15.049178 27687 net.cpp:408] LSTM_gate_input_2 <- W_hc_h_1
I0717 14:21:15.049185 27687 net.cpp:408] LSTM_gate_input_2 <- W_xc_x_2
I0717 14:21:15.049199 27687 net.cpp:382] LSTM_gate_input_2 -> gate_input_2
I0717 14:21:15.049232 27687 net.cpp:124] Setting up LSTM_gate_input_2
I0717 14:21:15.049240 27687 net.cpp:131] Top shape: 1 40 160 (6400)
I0717 14:21:15.049245 27687 net.cpp:139] Memory required for data: 2716160
I0717 14:21:15.049257 27687 layer_factory.hpp:77] Creating layer LSTM_unit_2
I0717 14:21:15.049265 27687 net.cpp:86] Creating Layer LSTM_unit_2
I0717 14:21:15.049271 27687 net.cpp:408] LSTM_unit_2 <- c_1
I0717 14:21:15.049280 27687 net.cpp:408] LSTM_unit_2 <- gate_input_2
I0717 14:21:15.049288 27687 net.cpp:408] LSTM_unit_2 <- cont_2_LSTM_cont_slice_1_split_1
I0717 14:21:15.049295 27687 net.cpp:382] LSTM_unit_2 -> c_2
I0717 14:21:15.049304 27687 net.cpp:382] LSTM_unit_2 -> h_2
I0717 14:21:15.049351 27687 net.cpp:124] Setting up LSTM_unit_2
I0717 14:21:15.049360 27687 net.cpp:131] Top shape: 1 40 40 (1600)
I0717 14:21:15.049365 27687 net.cpp:131] Top shape: 1 40 40 (1600)
I0717 14:21:15.049371 27687 net.cpp:139] Memory required for data: 2728960
I0717 14:21:15.049376 27687 layer_factory.hpp:77] Creating layer h_2_LSTM_unit_2_1_split
I0717 14:21:15.049381 27687 net.cpp:86] Creating Layer h_2_LSTM_unit_2_1_split
I0717 14:21:15.049387 27687 net.cpp:408] h_2_LSTM_unit_2_1_split <- h_2
I0717 14:21:15.049394 27687 net.cpp:382] h_2_LSTM_unit_2_1_split -> h_2_LSTM_unit_2_1_split_0
I0717 14:21:15.049403 27687 net.cpp:382] h_2_LSTM_unit_2_1_split -> h_2_LSTM_unit_2_1_split_1
I0717 14:21:15.049438 27687 net.cpp:124] Setting up h_2_LSTM_unit_2_1_split
I0717 14:21:15.049446 27687 net.cpp:131] Top shape: 1 40 40 (1600)
I0717 14:21:15.049453 27687 net.cpp:131] Top shape: 1 40 40 (1600)
I0717 14:21:15.049458 27687 net.cpp:139] Memory required for data: 2741760
I0717 14:21:15.049463 27687 layer_factory.hpp:77] Creating layer LSTM_h_conted_2
I0717 14:21:15.049471 27687 net.cpp:86] Creating Layer LSTM_h_conted_2
I0717 14:21:15.049477 27687 net.cpp:408] LSTM_h_conted_2 <- h_2_LSTM_unit_2_1_split_0
I0717 14:21:15.049484 27687 net.cpp:408] LSTM_h_conted_2 <- cont_3_LSTM_cont_slice_2_split_0
I0717 14:21:15.049491 27687 net.cpp:382] LSTM_h_conted_2 -> h_conted_2
I0717 14:21:15.049554 27687 net.cpp:124] Setting up LSTM_h_conted_2
I0717 14:21:15.049563 27687 net.cpp:131] Top shape: 1 40 40 (1600)
I0717 14:21:15.049568 27687 net.cpp:139] Memory required for data: 2748160
I0717 14:21:15.049573 27687 layer_factory.hpp:77] Creating layer LSTM_transform_3
I0717 14:21:15.049582 27687 net.cpp:86] Creating Layer LSTM_transform_3
I0717 14:21:15.049588 27687 net.cpp:408] LSTM_transform_3 <- h_conted_2
I0717 14:21:15.049595 27687 net.cpp:382] LSTM_transform_3 -> W_hc_h_2
I0717 14:21:15.049855 27687 net.cpp:124] Setting up LSTM_transform_3
I0717 14:21:15.049865 27687 net.cpp:131] Top shape: 1 40 160 (6400)
I0717 14:21:15.049870 27687 net.cpp:139] Memory required for data: 2773760
I0717 14:21:15.049877 27687 net.cpp:467] Sharing parameters 'W_hc' owned by layer 'LSTM_transform_1', param index 0
I0717 14:21:15.049883 27687 layer_factory.hpp:77] Creating layer LSTM_gate_input_3
I0717 14:21:15.049890 27687 net.cpp:86] Creating Layer LSTM_gate_input_3
I0717 14:21:15.049896 27687 net.cpp:408] LSTM_gate_input_3 <- W_hc_h_2
I0717 14:21:15.049903 27687 net.cpp:408] LSTM_gate_input_3 <- W_xc_x_3
I0717 14:21:15.049912 27687 net.cpp:382] LSTM_gate_input_3 -> gate_input_3
I0717 14:21:15.049938 27687 net.cpp:124] Setting up LSTM_gate_input_3
I0717 14:21:15.049947 27687 net.cpp:131] Top shape: 1 40 160 (6400)
I0717 14:21:15.049952 27687 net.cpp:139] Memory required for data: 2799360
I0717 14:21:15.049957 27687 layer_factory.hpp:77] Creating layer LSTM_unit_3
I0717 14:21:15.049963 27687 net.cpp:86] Creating Layer LSTM_unit_3
I0717 14:21:15.049968 27687 net.cpp:408] LSTM_unit_3 <- c_2
I0717 14:21:15.049975 27687 net.cpp:408] LSTM_unit_3 <- gate_input_3
I0717 14:21:15.049981 27687 net.cpp:408] LSTM_unit_3 <- cont_3_LSTM_cont_slice_2_split_1
I0717 14:21:15.049989 27687 net.cpp:382] LSTM_unit_3 -> c_3
I0717 14:21:15.049998 27687 net.cpp:382] LSTM_unit_3 -> h_3
I0717 14:21:15.050043 27687 net.cpp:124] Setting up LSTM_unit_3
I0717 14:21:15.050056 27687 net.cpp:131] Top shape: 1 40 40 (1600)
I0717 14:21:15.050070 27687 net.cpp:131] Top shape: 1 40 40 (1600)
I0717 14:21:15.050074 27687 net.cpp:139] Memory required for data: 2812160
I0717 14:21:15.050079 27687 layer_factory.hpp:77] Creating layer h_3_LSTM_unit_3_1_split
I0717 14:21:15.050086 27687 net.cpp:86] Creating Layer h_3_LSTM_unit_3_1_split
I0717 14:21:15.050091 27687 net.cpp:408] h_3_LSTM_unit_3_1_split <- h_3
I0717 14:21:15.050098 27687 net.cpp:382] h_3_LSTM_unit_3_1_split -> h_3_LSTM_unit_3_1_split_0
I0717 14:21:15.050107 27687 net.cpp:382] h_3_LSTM_unit_3_1_split -> h_3_LSTM_unit_3_1_split_1
I0717 14:21:15.050144 27687 net.cpp:124] Setting up h_3_LSTM_unit_3_1_split
I0717 14:21:15.050153 27687 net.cpp:131] Top shape: 1 40 40 (1600)
I0717 14:21:15.050159 27687 net.cpp:131] Top shape: 1 40 40 (1600)
I0717 14:21:15.050163 27687 net.cpp:139] Memory required for data: 2824960
I0717 14:21:15.050168 27687 layer_factory.hpp:77] Creating layer LSTM_h_conted_3
I0717 14:21:15.050182 27687 net.cpp:86] Creating Layer LSTM_h_conted_3
I0717 14:21:15.050189 27687 net.cpp:408] LSTM_h_conted_3 <- h_3_LSTM_unit_3_1_split_0
I0717 14:21:15.050195 27687 net.cpp:408] LSTM_h_conted_3 <- cont_4_LSTM_cont_slice_3_split_0
I0717 14:21:15.050204 27687 net.cpp:382] LSTM_h_conted_3 -> h_conted_3
I0717 14:21:15.050264 27687 net.cpp:124] Setting up LSTM_h_conted_3
I0717 14:21:15.050273 27687 net.cpp:131] Top shape: 1 40 40 (1600)
I0717 14:21:15.050277 27687 net.cpp:139] Memory required for data: 2831360
I0717 14:21:15.050283 27687 layer_factory.hpp:77] Creating layer LSTM_transform_4
I0717 14:21:15.050292 27687 net.cpp:86] Creating Layer LSTM_transform_4
I0717 14:21:15.050298 27687 net.cpp:408] LSTM_transform_4 <- h_conted_3
I0717 14:21:15.050307 27687 net.cpp:382] LSTM_transform_4 -> W_hc_h_3
I0717 14:21:15.050565 27687 net.cpp:124] Setting up LSTM_transform_4
I0717 14:21:15.050575 27687 net.cpp:131] Top shape: 1 40 160 (6400)
I0717 14:21:15.050580 27687 net.cpp:139] Memory required for data: 2856960
I0717 14:21:15.050585 27687 net.cpp:467] Sharing parameters 'W_hc' owned by layer 'LSTM_transform_1', param index 0
I0717 14:21:15.050590 27687 layer_factory.hpp:77] Creating layer LSTM_gate_input_4
I0717 14:21:15.050597 27687 net.cpp:86] Creating Layer LSTM_gate_input_4
I0717 14:21:15.050602 27687 net.cpp:408] LSTM_gate_input_4 <- W_hc_h_3
I0717 14:21:15.050609 27687 net.cpp:408] LSTM_gate_input_4 <- W_xc_x_4
I0717 14:21:15.050619 27687 net.cpp:382] LSTM_gate_input_4 -> gate_input_4
I0717 14:21:15.050644 27687 net.cpp:124] Setting up LSTM_gate_input_4
I0717 14:21:15.050655 27687 net.cpp:131] Top shape: 1 40 160 (6400)
I0717 14:21:15.050660 27687 net.cpp:139] Memory required for data: 2882560
I0717 14:21:15.050664 27687 layer_factory.hpp:77] Creating layer LSTM_unit_4
I0717 14:21:15.050671 27687 net.cpp:86] Creating Layer LSTM_unit_4
I0717 14:21:15.050678 27687 net.cpp:408] LSTM_unit_4 <- c_3
I0717 14:21:15.050684 27687 net.cpp:408] LSTM_unit_4 <- gate_input_4
I0717 14:21:15.050690 27687 net.cpp:408] LSTM_unit_4 <- cont_4_LSTM_cont_slice_3_split_1
I0717 14:21:15.050698 27687 net.cpp:382] LSTM_unit_4 -> c_4
I0717 14:21:15.050706 27687 net.cpp:382] LSTM_unit_4 -> h_4
I0717 14:21:15.050755 27687 net.cpp:124] Setting up LSTM_unit_4
I0717 14:21:15.050762 27687 net.cpp:131] Top shape: 1 40 40 (1600)
I0717 14:21:15.050768 27687 net.cpp:131] Top shape: 1 40 40 (1600)
I0717 14:21:15.050773 27687 net.cpp:139] Memory required for data: 2895360
I0717 14:21:15.050778 27687 layer_factory.hpp:77] Creating layer h_4_LSTM_unit_4_1_split
I0717 14:21:15.050784 27687 net.cpp:86] Creating Layer h_4_LSTM_unit_4_1_split
I0717 14:21:15.050791 27687 net.cpp:408] h_4_LSTM_unit_4_1_split <- h_4
I0717 14:21:15.050797 27687 net.cpp:382] h_4_LSTM_unit_4_1_split -> h_4_LSTM_unit_4_1_split_0
I0717 14:21:15.050806 27687 net.cpp:382] h_4_LSTM_unit_4_1_split -> h_4_LSTM_unit_4_1_split_1
I0717 14:21:15.050840 27687 net.cpp:124] Setting up h_4_LSTM_unit_4_1_split
I0717 14:21:15.050849 27687 net.cpp:131] Top shape: 1 40 40 (1600)
I0717 14:21:15.050859 27687 net.cpp:131] Top shape: 1 40 40 (1600)
I0717 14:21:15.050871 27687 net.cpp:139] Memory required for data: 2908160
I0717 14:21:15.050876 27687 layer_factory.hpp:77] Creating layer LSTM_h_conted_4
I0717 14:21:15.050884 27687 net.cpp:86] Creating Layer LSTM_h_conted_4
I0717 14:21:15.050889 27687 net.cpp:408] LSTM_h_conted_4 <- h_4_LSTM_unit_4_1_split_0
I0717 14:21:15.050896 27687 net.cpp:408] LSTM_h_conted_4 <- cont_5_LSTM_cont_slice_4_split_0
I0717 14:21:15.050904 27687 net.cpp:382] LSTM_h_conted_4 -> h_conted_4
I0717 14:21:15.050966 27687 net.cpp:124] Setting up LSTM_h_conted_4
I0717 14:21:15.050976 27687 net.cpp:131] Top shape: 1 40 40 (1600)
I0717 14:21:15.050979 27687 net.cpp:139] Memory required for data: 2914560
I0717 14:21:15.050984 27687 layer_factory.hpp:77] Creating layer LSTM_transform_5
I0717 14:21:15.050992 27687 net.cpp:86] Creating Layer LSTM_transform_5
I0717 14:21:15.050998 27687 net.cpp:408] LSTM_transform_5 <- h_conted_4
I0717 14:21:15.051007 27687 net.cpp:382] LSTM_transform_5 -> W_hc_h_4
I0717 14:21:15.051267 27687 net.cpp:124] Setting up LSTM_transform_5
I0717 14:21:15.051277 27687 net.cpp:131] Top shape: 1 40 160 (6400)
I0717 14:21:15.051282 27687 net.cpp:139] Memory required for data: 2940160
I0717 14:21:15.051287 27687 net.cpp:467] Sharing parameters 'W_hc' owned by layer 'LSTM_transform_1', param index 0
I0717 14:21:15.051293 27687 layer_factory.hpp:77] Creating layer LSTM_gate_input_5
I0717 14:21:15.051301 27687 net.cpp:86] Creating Layer LSTM_gate_input_5
I0717 14:21:15.051306 27687 net.cpp:408] LSTM_gate_input_5 <- W_hc_h_4
I0717 14:21:15.051312 27687 net.cpp:408] LSTM_gate_input_5 <- W_xc_x_5
I0717 14:21:15.051319 27687 net.cpp:382] LSTM_gate_input_5 -> gate_input_5
I0717 14:21:15.051344 27687 net.cpp:124] Setting up LSTM_gate_input_5
I0717 14:21:15.051352 27687 net.cpp:131] Top shape: 1 40 160 (6400)
I0717 14:21:15.051357 27687 net.cpp:139] Memory required for data: 2965760
I0717 14:21:15.051362 27687 layer_factory.hpp:77] Creating layer LSTM_unit_5
I0717 14:21:15.051374 27687 net.cpp:86] Creating Layer LSTM_unit_5
I0717 14:21:15.051380 27687 net.cpp:408] LSTM_unit_5 <- c_4
I0717 14:21:15.051388 27687 net.cpp:408] LSTM_unit_5 <- gate_input_5
I0717 14:21:15.051393 27687 net.cpp:408] LSTM_unit_5 <- cont_5_LSTM_cont_slice_4_split_1
I0717 14:21:15.051401 27687 net.cpp:382] LSTM_unit_5 -> c_5
I0717 14:21:15.051410 27687 net.cpp:382] LSTM_unit_5 -> h_5
I0717 14:21:15.051456 27687 net.cpp:124] Setting up LSTM_unit_5
I0717 14:21:15.051465 27687 net.cpp:131] Top shape: 1 40 40 (1600)
I0717 14:21:15.051470 27687 net.cpp:131] Top shape: 1 40 40 (1600)
I0717 14:21:15.051476 27687 net.cpp:139] Memory required for data: 2978560
I0717 14:21:15.051481 27687 layer_factory.hpp:77] Creating layer h_5_LSTM_unit_5_1_split
I0717 14:21:15.051486 27687 net.cpp:86] Creating Layer h_5_LSTM_unit_5_1_split
I0717 14:21:15.051492 27687 net.cpp:408] h_5_LSTM_unit_5_1_split <- h_5
I0717 14:21:15.051501 27687 net.cpp:382] h_5_LSTM_unit_5_1_split -> h_5_LSTM_unit_5_1_split_0
I0717 14:21:15.051509 27687 net.cpp:382] h_5_LSTM_unit_5_1_split -> h_5_LSTM_unit_5_1_split_1
I0717 14:21:15.051543 27687 net.cpp:124] Setting up h_5_LSTM_unit_5_1_split
I0717 14:21:15.051551 27687 net.cpp:131] Top shape: 1 40 40 (1600)
I0717 14:21:15.051558 27687 net.cpp:131] Top shape: 1 40 40 (1600)
I0717 14:21:15.051561 27687 net.cpp:139] Memory required for data: 2991360
I0717 14:21:15.051566 27687 layer_factory.hpp:77] Creating layer LSTM_h_conted_5
I0717 14:21:15.051575 27687 net.cpp:86] Creating Layer LSTM_h_conted_5
I0717 14:21:15.051581 27687 net.cpp:408] LSTM_h_conted_5 <- h_5_LSTM_unit_5_1_split_0
I0717 14:21:15.051587 27687 net.cpp:408] LSTM_h_conted_5 <- cont_6_LSTM_cont_slice_5_split_0
I0717 14:21:15.051596 27687 net.cpp:382] LSTM_h_conted_5 -> h_conted_5
I0717 14:21:15.051656 27687 net.cpp:124] Setting up LSTM_h_conted_5
I0717 14:21:15.051663 27687 net.cpp:131] Top shape: 1 40 40 (1600)
I0717 14:21:15.051668 27687 net.cpp:139] Memory required for data: 2997760
I0717 14:21:15.051673 27687 layer_factory.hpp:77] Creating layer LSTM_transform_6
I0717 14:21:15.051686 27687 net.cpp:86] Creating Layer LSTM_transform_6
I0717 14:21:15.051697 27687 net.cpp:408] LSTM_transform_6 <- h_conted_5
I0717 14:21:15.051705 27687 net.cpp:382] LSTM_transform_6 -> W_hc_h_5
I0717 14:21:15.051964 27687 net.cpp:124] Setting up LSTM_transform_6
I0717 14:21:15.051973 27687 net.cpp:131] Top shape: 1 40 160 (6400)
I0717 14:21:15.051978 27687 net.cpp:139] Memory required for data: 3023360
I0717 14:21:15.051983 27687 net.cpp:467] Sharing parameters 'W_hc' owned by layer 'LSTM_transform_1', param index 0
I0717 14:21:15.051990 27687 layer_factory.hpp:77] Creating layer LSTM_gate_input_6
I0717 14:21:15.051998 27687 net.cpp:86] Creating Layer LSTM_gate_input_6
I0717 14:21:15.052004 27687 net.cpp:408] LSTM_gate_input_6 <- W_hc_h_5
I0717 14:21:15.052011 27687 net.cpp:408] LSTM_gate_input_6 <- W_xc_x_6
I0717 14:21:15.052018 27687 net.cpp:382] LSTM_gate_input_6 -> gate_input_6
I0717 14:21:15.052043 27687 net.cpp:124] Setting up LSTM_gate_input_6
I0717 14:21:15.052052 27687 net.cpp:131] Top shape: 1 40 160 (6400)
I0717 14:21:15.052057 27687 net.cpp:139] Memory required for data: 3048960
I0717 14:21:15.052062 27687 layer_factory.hpp:77] Creating layer LSTM_unit_6
I0717 14:21:15.052067 27687 net.cpp:86] Creating Layer LSTM_unit_6
I0717 14:21:15.052073 27687 net.cpp:408] LSTM_unit_6 <- c_5
I0717 14:21:15.052080 27687 net.cpp:408] LSTM_unit_6 <- gate_input_6
I0717 14:21:15.052086 27687 net.cpp:408] LSTM_unit_6 <- cont_6_LSTM_cont_slice_5_split_1
I0717 14:21:15.052096 27687 net.cpp:382] LSTM_unit_6 -> c_6
I0717 14:21:15.052105 27687 net.cpp:382] LSTM_unit_6 -> h_6
I0717 14:21:15.052151 27687 net.cpp:124] Setting up LSTM_unit_6
I0717 14:21:15.052160 27687 net.cpp:131] Top shape: 1 40 40 (1600)
I0717 14:21:15.052165 27687 net.cpp:131] Top shape: 1 40 40 (1600)
I0717 14:21:15.052170 27687 net.cpp:139] Memory required for data: 3061760
I0717 14:21:15.052175 27687 layer_factory.hpp:77] Creating layer h_6_LSTM_unit_6_1_split
I0717 14:21:15.052181 27687 net.cpp:86] Creating Layer h_6_LSTM_unit_6_1_split
I0717 14:21:15.052187 27687 net.cpp:408] h_6_LSTM_unit_6_1_split <- h_6
I0717 14:21:15.052194 27687 net.cpp:382] h_6_LSTM_unit_6_1_split -> h_6_LSTM_unit_6_1_split_0
I0717 14:21:15.052202 27687 net.cpp:382] h_6_LSTM_unit_6_1_split -> h_6_LSTM_unit_6_1_split_1
I0717 14:21:15.052238 27687 net.cpp:124] Setting up h_6_LSTM_unit_6_1_split
I0717 14:21:15.052247 27687 net.cpp:131] Top shape: 1 40 40 (1600)
I0717 14:21:15.052253 27687 net.cpp:131] Top shape: 1 40 40 (1600)
I0717 14:21:15.052256 27687 net.cpp:139] Memory required for data: 3074560
I0717 14:21:15.052261 27687 layer_factory.hpp:77] Creating layer LSTM_h_conted_6
I0717 14:21:15.052268 27687 net.cpp:86] Creating Layer LSTM_h_conted_6
I0717 14:21:15.052274 27687 net.cpp:408] LSTM_h_conted_6 <- h_6_LSTM_unit_6_1_split_0
I0717 14:21:15.052280 27687 net.cpp:408] LSTM_h_conted_6 <- cont_7_LSTM_cont_slice_6_split_0
I0717 14:21:15.052291 27687 net.cpp:382] LSTM_h_conted_6 -> h_conted_6
I0717 14:21:15.052351 27687 net.cpp:124] Setting up LSTM_h_conted_6
I0717 14:21:15.052361 27687 net.cpp:131] Top shape: 1 40 40 (1600)
I0717 14:21:15.052366 27687 net.cpp:139] Memory required for data: 3080960
I0717 14:21:15.052371 27687 layer_factory.hpp:77] Creating layer LSTM_transform_7
I0717 14:21:15.052379 27687 net.cpp:86] Creating Layer LSTM_transform_7
I0717 14:21:15.052386 27687 net.cpp:408] LSTM_transform_7 <- h_conted_6
I0717 14:21:15.052393 27687 net.cpp:382] LSTM_transform_7 -> W_hc_h_6
I0717 14:21:15.052652 27687 net.cpp:124] Setting up LSTM_transform_7
I0717 14:21:15.052661 27687 net.cpp:131] Top shape: 1 40 160 (6400)
I0717 14:21:15.052666 27687 net.cpp:139] Memory required for data: 3106560
I0717 14:21:15.052673 27687 net.cpp:467] Sharing parameters 'W_hc' owned by layer 'LSTM_transform_1', param index 0
I0717 14:21:15.052680 27687 layer_factory.hpp:77] Creating layer LSTM_gate_input_7
I0717 14:21:15.052687 27687 net.cpp:86] Creating Layer LSTM_gate_input_7
I0717 14:21:15.052692 27687 net.cpp:408] LSTM_gate_input_7 <- W_hc_h_6
I0717 14:21:15.052705 27687 net.cpp:408] LSTM_gate_input_7 <- W_xc_x_7
I0717 14:21:15.052718 27687 net.cpp:382] LSTM_gate_input_7 -> gate_input_7
I0717 14:21:15.052747 27687 net.cpp:124] Setting up LSTM_gate_input_7
I0717 14:21:15.052755 27687 net.cpp:131] Top shape: 1 40 160 (6400)
I0717 14:21:15.052760 27687 net.cpp:139] Memory required for data: 3132160
I0717 14:21:15.052764 27687 layer_factory.hpp:77] Creating layer LSTM_unit_7
I0717 14:21:15.052772 27687 net.cpp:86] Creating Layer LSTM_unit_7
I0717 14:21:15.052778 27687 net.cpp:408] LSTM_unit_7 <- c_6
I0717 14:21:15.052784 27687 net.cpp:408] LSTM_unit_7 <- gate_input_7
I0717 14:21:15.052790 27687 net.cpp:408] LSTM_unit_7 <- cont_7_LSTM_cont_slice_6_split_1
I0717 14:21:15.052798 27687 net.cpp:382] LSTM_unit_7 -> c_7
I0717 14:21:15.052806 27687 net.cpp:382] LSTM_unit_7 -> h_7
I0717 14:21:15.052852 27687 net.cpp:124] Setting up LSTM_unit_7
I0717 14:21:15.052862 27687 net.cpp:131] Top shape: 1 40 40 (1600)
I0717 14:21:15.052868 27687 net.cpp:131] Top shape: 1 40 40 (1600)
I0717 14:21:15.052873 27687 net.cpp:139] Memory required for data: 3144960
I0717 14:21:15.052878 27687 layer_factory.hpp:77] Creating layer h_7_LSTM_unit_7_1_split
I0717 14:21:15.052884 27687 net.cpp:86] Creating Layer h_7_LSTM_unit_7_1_split
I0717 14:21:15.052889 27687 net.cpp:408] h_7_LSTM_unit_7_1_split <- h_7
I0717 14:21:15.052896 27687 net.cpp:382] h_7_LSTM_unit_7_1_split -> h_7_LSTM_unit_7_1_split_0
I0717 14:21:15.052906 27687 net.cpp:382] h_7_LSTM_unit_7_1_split -> h_7_LSTM_unit_7_1_split_1
I0717 14:21:15.052939 27687 net.cpp:124] Setting up h_7_LSTM_unit_7_1_split
I0717 14:21:15.052947 27687 net.cpp:131] Top shape: 1 40 40 (1600)
I0717 14:21:15.052953 27687 net.cpp:131] Top shape: 1 40 40 (1600)
I0717 14:21:15.052958 27687 net.cpp:139] Memory required for data: 3157760
I0717 14:21:15.052963 27687 layer_factory.hpp:77] Creating layer LSTM_h_conted_7
I0717 14:21:15.052969 27687 net.cpp:86] Creating Layer LSTM_h_conted_7
I0717 14:21:15.052975 27687 net.cpp:408] LSTM_h_conted_7 <- h_7_LSTM_unit_7_1_split_0
I0717 14:21:15.052981 27687 net.cpp:408] LSTM_h_conted_7 <- cont_8_LSTM_cont_slice_7_split_0
I0717 14:21:15.052989 27687 net.cpp:382] LSTM_h_conted_7 -> h_conted_7
I0717 14:21:15.053048 27687 net.cpp:124] Setting up LSTM_h_conted_7
I0717 14:21:15.053057 27687 net.cpp:131] Top shape: 1 40 40 (1600)
I0717 14:21:15.053062 27687 net.cpp:139] Memory required for data: 3164160
I0717 14:21:15.053066 27687 layer_factory.hpp:77] Creating layer LSTM_transform_8
I0717 14:21:15.053074 27687 net.cpp:86] Creating Layer LSTM_transform_8
I0717 14:21:15.053081 27687 net.cpp:408] LSTM_transform_8 <- h_conted_7
I0717 14:21:15.053089 27687 net.cpp:382] LSTM_transform_8 -> W_hc_h_7
I0717 14:21:15.053356 27687 net.cpp:124] Setting up LSTM_transform_8
I0717 14:21:15.053367 27687 net.cpp:131] Top shape: 1 40 160 (6400)
I0717 14:21:15.053372 27687 net.cpp:139] Memory required for data: 3189760
I0717 14:21:15.053377 27687 net.cpp:467] Sharing parameters 'W_hc' owned by layer 'LSTM_transform_1', param index 0
I0717 14:21:15.053383 27687 layer_factory.hpp:77] Creating layer LSTM_gate_input_8
I0717 14:21:15.053390 27687 net.cpp:86] Creating Layer LSTM_gate_input_8
I0717 14:21:15.053396 27687 net.cpp:408] LSTM_gate_input_8 <- W_hc_h_7
I0717 14:21:15.053402 27687 net.cpp:408] LSTM_gate_input_8 <- W_xc_x_8
I0717 14:21:15.053411 27687 net.cpp:382] LSTM_gate_input_8 -> gate_input_8
I0717 14:21:15.053436 27687 net.cpp:124] Setting up LSTM_gate_input_8
I0717 14:21:15.053443 27687 net.cpp:131] Top shape: 1 40 160 (6400)
I0717 14:21:15.053448 27687 net.cpp:139] Memory required for data: 3215360
I0717 14:21:15.053453 27687 layer_factory.hpp:77] Creating layer LSTM_unit_8
I0717 14:21:15.053462 27687 net.cpp:86] Creating Layer LSTM_unit_8
I0717 14:21:15.053468 27687 net.cpp:408] LSTM_unit_8 <- c_7
I0717 14:21:15.053475 27687 net.cpp:408] LSTM_unit_8 <- gate_input_8
I0717 14:21:15.053483 27687 net.cpp:408] LSTM_unit_8 <- cont_8_LSTM_cont_slice_7_split_1
I0717 14:21:15.053489 27687 net.cpp:382] LSTM_unit_8 -> c_8
I0717 14:21:15.053498 27687 net.cpp:382] LSTM_unit_8 -> h_8
I0717 14:21:15.053550 27687 net.cpp:124] Setting up LSTM_unit_8
I0717 14:21:15.053565 27687 net.cpp:131] Top shape: 1 40 40 (1600)
I0717 14:21:15.053572 27687 net.cpp:131] Top shape: 1 40 40 (1600)
I0717 14:21:15.053576 27687 net.cpp:139] Memory required for data: 3228160
I0717 14:21:15.053581 27687 layer_factory.hpp:77] Creating layer h_8_LSTM_unit_8_1_split
I0717 14:21:15.053588 27687 net.cpp:86] Creating Layer h_8_LSTM_unit_8_1_split
I0717 14:21:15.053593 27687 net.cpp:408] h_8_LSTM_unit_8_1_split <- h_8
I0717 14:21:15.053606 27687 net.cpp:382] h_8_LSTM_unit_8_1_split -> h_8_LSTM_unit_8_1_split_0
I0717 14:21:15.053616 27687 net.cpp:382] h_8_LSTM_unit_8_1_split -> h_8_LSTM_unit_8_1_split_1
I0717 14:21:15.053648 27687 net.cpp:124] Setting up h_8_LSTM_unit_8_1_split
I0717 14:21:15.053656 27687 net.cpp:131] Top shape: 1 40 40 (1600)
I0717 14:21:15.053663 27687 net.cpp:131] Top shape: 1 40 40 (1600)
I0717 14:21:15.053666 27687 net.cpp:139] Memory required for data: 3240960
I0717 14:21:15.053671 27687 layer_factory.hpp:77] Creating layer LSTM_h_conted_8
I0717 14:21:15.053680 27687 net.cpp:86] Creating Layer LSTM_h_conted_8
I0717 14:21:15.053686 27687 net.cpp:408] LSTM_h_conted_8 <- h_8_LSTM_unit_8_1_split_0
I0717 14:21:15.053692 27687 net.cpp:408] LSTM_h_conted_8 <- cont_9_LSTM_cont_slice_8_split_0
I0717 14:21:15.053702 27687 net.cpp:382] LSTM_h_conted_8 -> h_conted_8
I0717 14:21:15.053763 27687 net.cpp:124] Setting up LSTM_h_conted_8
I0717 14:21:15.053772 27687 net.cpp:131] Top shape: 1 40 40 (1600)
I0717 14:21:15.053776 27687 net.cpp:139] Memory required for data: 3247360
I0717 14:21:15.053781 27687 layer_factory.hpp:77] Creating layer LSTM_transform_9
I0717 14:21:15.053788 27687 net.cpp:86] Creating Layer LSTM_transform_9
I0717 14:21:15.053794 27687 net.cpp:408] LSTM_transform_9 <- h_conted_8
I0717 14:21:15.053802 27687 net.cpp:382] LSTM_transform_9 -> W_hc_h_8
I0717 14:21:15.054060 27687 net.cpp:124] Setting up LSTM_transform_9
I0717 14:21:15.054070 27687 net.cpp:131] Top shape: 1 40 160 (6400)
I0717 14:21:15.054075 27687 net.cpp:139] Memory required for data: 3272960
I0717 14:21:15.054080 27687 net.cpp:467] Sharing parameters 'W_hc' owned by layer 'LSTM_transform_1', param index 0
I0717 14:21:15.054085 27687 layer_factory.hpp:77] Creating layer LSTM_gate_input_9
I0717 14:21:15.054092 27687 net.cpp:86] Creating Layer LSTM_gate_input_9
I0717 14:21:15.054098 27687 net.cpp:408] LSTM_gate_input_9 <- W_hc_h_8
I0717 14:21:15.054105 27687 net.cpp:408] LSTM_gate_input_9 <- W_xc_x_9
I0717 14:21:15.054116 27687 net.cpp:382] LSTM_gate_input_9 -> gate_input_9
I0717 14:21:15.054141 27687 net.cpp:124] Setting up LSTM_gate_input_9
I0717 14:21:15.054150 27687 net.cpp:131] Top shape: 1 40 160 (6400)
I0717 14:21:15.054155 27687 net.cpp:139] Memory required for data: 3298560
I0717 14:21:15.054159 27687 layer_factory.hpp:77] Creating layer LSTM_unit_9
I0717 14:21:15.054167 27687 net.cpp:86] Creating Layer LSTM_unit_9
I0717 14:21:15.054172 27687 net.cpp:408] LSTM_unit_9 <- c_8
I0717 14:21:15.054178 27687 net.cpp:408] LSTM_unit_9 <- gate_input_9
I0717 14:21:15.054185 27687 net.cpp:408] LSTM_unit_9 <- cont_9_LSTM_cont_slice_8_split_1
I0717 14:21:15.054193 27687 net.cpp:382] LSTM_unit_9 -> c_9
I0717 14:21:15.054204 27687 net.cpp:382] LSTM_unit_9 -> h_9
I0717 14:21:15.054251 27687 net.cpp:124] Setting up LSTM_unit_9
I0717 14:21:15.054260 27687 net.cpp:131] Top shape: 1 40 40 (1600)
I0717 14:21:15.054265 27687 net.cpp:131] Top shape: 1 40 40 (1600)
I0717 14:21:15.054270 27687 net.cpp:139] Memory required for data: 3311360
I0717 14:21:15.054275 27687 layer_factory.hpp:77] Creating layer h_9_LSTM_unit_9_1_split
I0717 14:21:15.054281 27687 net.cpp:86] Creating Layer h_9_LSTM_unit_9_1_split
I0717 14:21:15.054286 27687 net.cpp:408] h_9_LSTM_unit_9_1_split <- h_9
I0717 14:21:15.054293 27687 net.cpp:382] h_9_LSTM_unit_9_1_split -> h_9_LSTM_unit_9_1_split_0
I0717 14:21:15.054302 27687 net.cpp:382] h_9_LSTM_unit_9_1_split -> h_9_LSTM_unit_9_1_split_1
I0717 14:21:15.054338 27687 net.cpp:124] Setting up h_9_LSTM_unit_9_1_split
I0717 14:21:15.054352 27687 net.cpp:131] Top shape: 1 40 40 (1600)
I0717 14:21:15.054363 27687 net.cpp:131] Top shape: 1 40 40 (1600)
I0717 14:21:15.054368 27687 net.cpp:139] Memory required for data: 3324160
I0717 14:21:15.054373 27687 layer_factory.hpp:77] Creating layer LSTM_h_conted_9
I0717 14:21:15.054380 27687 net.cpp:86] Creating Layer LSTM_h_conted_9
I0717 14:21:15.054386 27687 net.cpp:408] LSTM_h_conted_9 <- h_9_LSTM_unit_9_1_split_0
I0717 14:21:15.054394 27687 net.cpp:408] LSTM_h_conted_9 <- cont_10_LSTM_cont_slice_9_split_0
I0717 14:21:15.054404 27687 net.cpp:382] LSTM_h_conted_9 -> h_conted_9
I0717 14:21:15.054463 27687 net.cpp:124] Setting up LSTM_h_conted_9
I0717 14:21:15.054471 27687 net.cpp:131] Top shape: 1 40 40 (1600)
I0717 14:21:15.054476 27687 net.cpp:139] Memory required for data: 3330560
I0717 14:21:15.054481 27687 layer_factory.hpp:77] Creating layer LSTM_transform_10
I0717 14:21:15.054488 27687 net.cpp:86] Creating Layer LSTM_transform_10
I0717 14:21:15.054494 27687 net.cpp:408] LSTM_transform_10 <- h_conted_9
I0717 14:21:15.054504 27687 net.cpp:382] LSTM_transform_10 -> W_hc_h_9
I0717 14:21:15.054762 27687 net.cpp:124] Setting up LSTM_transform_10
I0717 14:21:15.054772 27687 net.cpp:131] Top shape: 1 40 160 (6400)
I0717 14:21:15.054777 27687 net.cpp:139] Memory required for data: 3356160
I0717 14:21:15.054782 27687 net.cpp:467] Sharing parameters 'W_hc' owned by layer 'LSTM_transform_1', param index 0
I0717 14:21:15.054787 27687 layer_factory.hpp:77] Creating layer LSTM_gate_input_10
I0717 14:21:15.054795 27687 net.cpp:86] Creating Layer LSTM_gate_input_10
I0717 14:21:15.054800 27687 net.cpp:408] LSTM_gate_input_10 <- W_hc_h_9
I0717 14:21:15.054806 27687 net.cpp:408] LSTM_gate_input_10 <- W_xc_x_10
I0717 14:21:15.054814 27687 net.cpp:382] LSTM_gate_input_10 -> gate_input_10
I0717 14:21:15.054841 27687 net.cpp:124] Setting up LSTM_gate_input_10
I0717 14:21:15.054849 27687 net.cpp:131] Top shape: 1 40 160 (6400)
I0717 14:21:15.054854 27687 net.cpp:139] Memory required for data: 3381760
I0717 14:21:15.054859 27687 layer_factory.hpp:77] Creating layer LSTM_unit_10
I0717 14:21:15.054867 27687 net.cpp:86] Creating Layer LSTM_unit_10
I0717 14:21:15.054872 27687 net.cpp:408] LSTM_unit_10 <- c_9
I0717 14:21:15.054878 27687 net.cpp:408] LSTM_unit_10 <- gate_input_10
I0717 14:21:15.054885 27687 net.cpp:408] LSTM_unit_10 <- cont_10_LSTM_cont_slice_9_split_1
I0717 14:21:15.054893 27687 net.cpp:382] LSTM_unit_10 -> c_10
I0717 14:21:15.054901 27687 net.cpp:382] LSTM_unit_10 -> h_10
I0717 14:21:15.054947 27687 net.cpp:124] Setting up LSTM_unit_10
I0717 14:21:15.054956 27687 net.cpp:131] Top shape: 1 40 40 (1600)
I0717 14:21:15.054962 27687 net.cpp:131] Top shape: 1 40 40 (1600)
I0717 14:21:15.054966 27687 net.cpp:139] Memory required for data: 3394560
I0717 14:21:15.054971 27687 layer_factory.hpp:77] Creating layer h_10_LSTM_unit_10_1_split
I0717 14:21:15.054980 27687 net.cpp:86] Creating Layer h_10_LSTM_unit_10_1_split
I0717 14:21:15.054986 27687 net.cpp:408] h_10_LSTM_unit_10_1_split <- h_10
I0717 14:21:15.054992 27687 net.cpp:382] h_10_LSTM_unit_10_1_split -> h_10_LSTM_unit_10_1_split_0
I0717 14:21:15.055001 27687 net.cpp:382] h_10_LSTM_unit_10_1_split -> h_10_LSTM_unit_10_1_split_1
I0717 14:21:15.055037 27687 net.cpp:124] Setting up h_10_LSTM_unit_10_1_split
I0717 14:21:15.055045 27687 net.cpp:131] Top shape: 1 40 40 (1600)
I0717 14:21:15.055052 27687 net.cpp:131] Top shape: 1 40 40 (1600)
I0717 14:21:15.055055 27687 net.cpp:139] Memory required for data: 3407360
I0717 14:21:15.055060 27687 layer_factory.hpp:77] Creating layer LSTM_h_conted_10
I0717 14:21:15.055068 27687 net.cpp:86] Creating Layer LSTM_h_conted_10
I0717 14:21:15.055073 27687 net.cpp:408] LSTM_h_conted_10 <- h_10_LSTM_unit_10_1_split_0
I0717 14:21:15.055080 27687 net.cpp:408] LSTM_h_conted_10 <- cont_11_LSTM_cont_slice_10_split_0
I0717 14:21:15.055088 27687 net.cpp:382] LSTM_h_conted_10 -> h_conted_10
I0717 14:21:15.055146 27687 net.cpp:124] Setting up LSTM_h_conted_10
I0717 14:21:15.055155 27687 net.cpp:131] Top shape: 1 40 40 (1600)
I0717 14:21:15.055164 27687 net.cpp:139] Memory required for data: 3413760
I0717 14:21:15.055176 27687 layer_factory.hpp:77] Creating layer LSTM_transform_11
I0717 14:21:15.055183 27687 net.cpp:86] Creating Layer LSTM_transform_11
I0717 14:21:15.055189 27687 net.cpp:408] LSTM_transform_11 <- h_conted_10
I0717 14:21:15.055197 27687 net.cpp:382] LSTM_transform_11 -> W_hc_h_10
I0717 14:21:15.055457 27687 net.cpp:124] Setting up LSTM_transform_11
I0717 14:21:15.055467 27687 net.cpp:131] Top shape: 1 40 160 (6400)
I0717 14:21:15.055472 27687 net.cpp:139] Memory required for data: 3439360
I0717 14:21:15.055477 27687 net.cpp:467] Sharing parameters 'W_hc' owned by layer 'LSTM_transform_1', param index 0
I0717 14:21:15.055482 27687 layer_factory.hpp:77] Creating layer LSTM_gate_input_11
I0717 14:21:15.055493 27687 net.cpp:86] Creating Layer LSTM_gate_input_11
I0717 14:21:15.055500 27687 net.cpp:408] LSTM_gate_input_11 <- W_hc_h_10
I0717 14:21:15.055505 27687 net.cpp:408] LSTM_gate_input_11 <- W_xc_x_11
I0717 14:21:15.055513 27687 net.cpp:382] LSTM_gate_input_11 -> gate_input_11
I0717 14:21:15.055537 27687 net.cpp:124] Setting up LSTM_gate_input_11
I0717 14:21:15.055546 27687 net.cpp:131] Top shape: 1 40 160 (6400)
I0717 14:21:15.055552 27687 net.cpp:139] Memory required for data: 3464960
I0717 14:21:15.055557 27687 layer_factory.hpp:77] Creating layer LSTM_unit_11
I0717 14:21:15.055562 27687 net.cpp:86] Creating Layer LSTM_unit_11
I0717 14:21:15.055568 27687 net.cpp:408] LSTM_unit_11 <- c_10
I0717 14:21:15.055575 27687 net.cpp:408] LSTM_unit_11 <- gate_input_11
I0717 14:21:15.055583 27687 net.cpp:408] LSTM_unit_11 <- cont_11_LSTM_cont_slice_10_split_1
I0717 14:21:15.055591 27687 net.cpp:382] LSTM_unit_11 -> c_11
I0717 14:21:15.055601 27687 net.cpp:382] LSTM_unit_11 -> h_11
I0717 14:21:15.055647 27687 net.cpp:124] Setting up LSTM_unit_11
I0717 14:21:15.055655 27687 net.cpp:131] Top shape: 1 40 40 (1600)
I0717 14:21:15.055661 27687 net.cpp:131] Top shape: 1 40 40 (1600)
I0717 14:21:15.055666 27687 net.cpp:139] Memory required for data: 3477760
I0717 14:21:15.055671 27687 layer_factory.hpp:77] Creating layer h_11_LSTM_unit_11_1_split
I0717 14:21:15.055677 27687 net.cpp:86] Creating Layer h_11_LSTM_unit_11_1_split
I0717 14:21:15.055683 27687 net.cpp:408] h_11_LSTM_unit_11_1_split <- h_11
I0717 14:21:15.055691 27687 net.cpp:382] h_11_LSTM_unit_11_1_split -> h_11_LSTM_unit_11_1_split_0
I0717 14:21:15.055721 27687 net.cpp:382] h_11_LSTM_unit_11_1_split -> h_11_LSTM_unit_11_1_split_1
I0717 14:21:15.055759 27687 net.cpp:124] Setting up h_11_LSTM_unit_11_1_split
I0717 14:21:15.055768 27687 net.cpp:131] Top shape: 1 40 40 (1600)
I0717 14:21:15.055774 27687 net.cpp:131] Top shape: 1 40 40 (1600)
I0717 14:21:15.055779 27687 net.cpp:139] Memory required for data: 3490560
I0717 14:21:15.055784 27687 layer_factory.hpp:77] Creating layer LSTM_h_conted_11
I0717 14:21:15.055791 27687 net.cpp:86] Creating Layer LSTM_h_conted_11
I0717 14:21:15.055799 27687 net.cpp:408] LSTM_h_conted_11 <- h_11_LSTM_unit_11_1_split_0
I0717 14:21:15.055805 27687 net.cpp:408] LSTM_h_conted_11 <- cont_12_LSTM_cont_slice_11_split_0
I0717 14:21:15.055815 27687 net.cpp:382] LSTM_h_conted_11 -> h_conted_11
I0717 14:21:15.055878 27687 net.cpp:124] Setting up LSTM_h_conted_11
I0717 14:21:15.055887 27687 net.cpp:131] Top shape: 1 40 40 (1600)
I0717 14:21:15.055892 27687 net.cpp:139] Memory required for data: 3496960
I0717 14:21:15.055897 27687 layer_factory.hpp:77] Creating layer LSTM_transform_12
I0717 14:21:15.055904 27687 net.cpp:86] Creating Layer LSTM_transform_12
I0717 14:21:15.055910 27687 net.cpp:408] LSTM_transform_12 <- h_conted_11
I0717 14:21:15.055920 27687 net.cpp:382] LSTM_transform_12 -> W_hc_h_11
I0717 14:21:15.056180 27687 net.cpp:124] Setting up LSTM_transform_12
I0717 14:21:15.056190 27687 net.cpp:131] Top shape: 1 40 160 (6400)
I0717 14:21:15.056195 27687 net.cpp:139] Memory required for data: 3522560
I0717 14:21:15.056200 27687 net.cpp:467] Sharing parameters 'W_hc' owned by layer 'LSTM_transform_1', param index 0
I0717 14:21:15.056205 27687 layer_factory.hpp:77] Creating layer LSTM_gate_input_12
I0717 14:21:15.056216 27687 net.cpp:86] Creating Layer LSTM_gate_input_12
I0717 14:21:15.056229 27687 net.cpp:408] LSTM_gate_input_12 <- W_hc_h_11
I0717 14:21:15.056236 27687 net.cpp:408] LSTM_gate_input_12 <- W_xc_x_12
I0717 14:21:15.056243 27687 net.cpp:382] LSTM_gate_input_12 -> gate_input_12
I0717 14:21:15.056270 27687 net.cpp:124] Setting up LSTM_gate_input_12
I0717 14:21:15.056279 27687 net.cpp:131] Top shape: 1 40 160 (6400)
I0717 14:21:15.056284 27687 net.cpp:139] Memory required for data: 3548160
I0717 14:21:15.056289 27687 layer_factory.hpp:77] Creating layer LSTM_unit_12
I0717 14:21:15.056295 27687 net.cpp:86] Creating Layer LSTM_unit_12
I0717 14:21:15.056301 27687 net.cpp:408] LSTM_unit_12 <- c_11
I0717 14:21:15.056308 27687 net.cpp:408] LSTM_unit_12 <- gate_input_12
I0717 14:21:15.056314 27687 net.cpp:408] LSTM_unit_12 <- cont_12_LSTM_cont_slice_11_split_1
I0717 14:21:15.056324 27687 net.cpp:382] LSTM_unit_12 -> c_12
I0717 14:21:15.056334 27687 net.cpp:382] LSTM_unit_12 -> h_12
I0717 14:21:15.056380 27687 net.cpp:124] Setting up LSTM_unit_12
I0717 14:21:15.056388 27687 net.cpp:131] Top shape: 1 40 40 (1600)
I0717 14:21:15.056394 27687 net.cpp:131] Top shape: 1 40 40 (1600)
I0717 14:21:15.056399 27687 net.cpp:139] Memory required for data: 3560960
I0717 14:21:15.056403 27687 layer_factory.hpp:77] Creating layer h_12_LSTM_unit_12_1_split
I0717 14:21:15.056412 27687 net.cpp:86] Creating Layer h_12_LSTM_unit_12_1_split
I0717 14:21:15.056418 27687 net.cpp:408] h_12_LSTM_unit_12_1_split <- h_12
I0717 14:21:15.056426 27687 net.cpp:382] h_12_LSTM_unit_12_1_split -> h_12_LSTM_unit_12_1_split_0
I0717 14:21:15.056434 27687 net.cpp:382] h_12_LSTM_unit_12_1_split -> h_12_LSTM_unit_12_1_split_1
I0717 14:21:15.056469 27687 net.cpp:124] Setting up h_12_LSTM_unit_12_1_split
I0717 14:21:15.056478 27687 net.cpp:131] Top shape: 1 40 40 (1600)
I0717 14:21:15.056483 27687 net.cpp:131] Top shape: 1 40 40 (1600)
I0717 14:21:15.056488 27687 net.cpp:139] Memory required for data: 3573760
I0717 14:21:15.056493 27687 layer_factory.hpp:77] Creating layer LSTM_h_conted_12
I0717 14:21:15.056499 27687 net.cpp:86] Creating Layer LSTM_h_conted_12
I0717 14:21:15.056506 27687 net.cpp:408] LSTM_h_conted_12 <- h_12_LSTM_unit_12_1_split_0
I0717 14:21:15.056512 27687 net.cpp:408] LSTM_h_conted_12 <- cont_13_LSTM_cont_slice_12_split_0
I0717 14:21:15.056520 27687 net.cpp:382] LSTM_h_conted_12 -> h_conted_12
I0717 14:21:15.056579 27687 net.cpp:124] Setting up LSTM_h_conted_12
I0717 14:21:15.056588 27687 net.cpp:131] Top shape: 1 40 40 (1600)
I0717 14:21:15.056593 27687 net.cpp:139] Memory required for data: 3580160
I0717 14:21:15.056597 27687 layer_factory.hpp:77] Creating layer LSTM_transform_13
I0717 14:21:15.056605 27687 net.cpp:86] Creating Layer LSTM_transform_13
I0717 14:21:15.056612 27687 net.cpp:408] LSTM_transform_13 <- h_conted_12
I0717 14:21:15.056618 27687 net.cpp:382] LSTM_transform_13 -> W_hc_h_12
I0717 14:21:15.056876 27687 net.cpp:124] Setting up LSTM_transform_13
I0717 14:21:15.056886 27687 net.cpp:131] Top shape: 1 40 160 (6400)
I0717 14:21:15.056891 27687 net.cpp:139] Memory required for data: 3605760
I0717 14:21:15.056896 27687 net.cpp:467] Sharing parameters 'W_hc' owned by layer 'LSTM_transform_1', param index 0
I0717 14:21:15.056902 27687 layer_factory.hpp:77] Creating layer LSTM_gate_input_13
I0717 14:21:15.056911 27687 net.cpp:86] Creating Layer LSTM_gate_input_13
I0717 14:21:15.056917 27687 net.cpp:408] LSTM_gate_input_13 <- W_hc_h_12
I0717 14:21:15.056923 27687 net.cpp:408] LSTM_gate_input_13 <- W_xc_x_13
I0717 14:21:15.056931 27687 net.cpp:382] LSTM_gate_input_13 -> gate_input_13
I0717 14:21:15.056955 27687 net.cpp:124] Setting up LSTM_gate_input_13
I0717 14:21:15.056964 27687 net.cpp:131] Top shape: 1 40 160 (6400)
I0717 14:21:15.056969 27687 net.cpp:139] Memory required for data: 3631360
I0717 14:21:15.056973 27687 layer_factory.hpp:77] Creating layer LSTM_unit_13
I0717 14:21:15.056980 27687 net.cpp:86] Creating Layer LSTM_unit_13
I0717 14:21:15.056987 27687 net.cpp:408] LSTM_unit_13 <- c_12
I0717 14:21:15.056998 27687 net.cpp:408] LSTM_unit_13 <- gate_input_13
I0717 14:21:15.057010 27687 net.cpp:408] LSTM_unit_13 <- cont_13_LSTM_cont_slice_12_split_1
I0717 14:21:15.057021 27687 net.cpp:382] LSTM_unit_13 -> c_13
I0717 14:21:15.057031 27687 net.cpp:382] LSTM_unit_13 -> h_13
I0717 14:21:15.057077 27687 net.cpp:124] Setting up LSTM_unit_13
I0717 14:21:15.057086 27687 net.cpp:131] Top shape: 1 40 40 (1600)
I0717 14:21:15.057092 27687 net.cpp:131] Top shape: 1 40 40 (1600)
I0717 14:21:15.057097 27687 net.cpp:139] Memory required for data: 3644160
I0717 14:21:15.057102 27687 layer_factory.hpp:77] Creating layer h_13_LSTM_unit_13_1_split
I0717 14:21:15.057108 27687 net.cpp:86] Creating Layer h_13_LSTM_unit_13_1_split
I0717 14:21:15.057114 27687 net.cpp:408] h_13_LSTM_unit_13_1_split <- h_13
I0717 14:21:15.057121 27687 net.cpp:382] h_13_LSTM_unit_13_1_split -> h_13_LSTM_unit_13_1_split_0
I0717 14:21:15.057130 27687 net.cpp:382] h_13_LSTM_unit_13_1_split -> h_13_LSTM_unit_13_1_split_1
I0717 14:21:15.057165 27687 net.cpp:124] Setting up h_13_LSTM_unit_13_1_split
I0717 14:21:15.057173 27687 net.cpp:131] Top shape: 1 40 40 (1600)
I0717 14:21:15.057179 27687 net.cpp:131] Top shape: 1 40 40 (1600)
I0717 14:21:15.057184 27687 net.cpp:139] Memory required for data: 3656960
I0717 14:21:15.057189 27687 layer_factory.hpp:77] Creating layer LSTM_h_conted_13
I0717 14:21:15.057198 27687 net.cpp:86] Creating Layer LSTM_h_conted_13
I0717 14:21:15.057204 27687 net.cpp:408] LSTM_h_conted_13 <- h_13_LSTM_unit_13_1_split_0
I0717 14:21:15.057210 27687 net.cpp:408] LSTM_h_conted_13 <- cont_14_LSTM_cont_slice_13_split_0
I0717 14:21:15.057219 27687 net.cpp:382] LSTM_h_conted_13 -> h_conted_13
I0717 14:21:15.057287 27687 net.cpp:124] Setting up LSTM_h_conted_13
I0717 14:21:15.057297 27687 net.cpp:131] Top shape: 1 40 40 (1600)
I0717 14:21:15.057302 27687 net.cpp:139] Memory required for data: 3663360
I0717 14:21:15.057307 27687 layer_factory.hpp:77] Creating layer LSTM_transform_14
I0717 14:21:15.057317 27687 net.cpp:86] Creating Layer LSTM_transform_14
I0717 14:21:15.057323 27687 net.cpp:408] LSTM_transform_14 <- h_conted_13
I0717 14:21:15.057332 27687 net.cpp:382] LSTM_transform_14 -> W_hc_h_13
I0717 14:21:15.057590 27687 net.cpp:124] Setting up LSTM_transform_14
I0717 14:21:15.057600 27687 net.cpp:131] Top shape: 1 40 160 (6400)
I0717 14:21:15.057605 27687 net.cpp:139] Memory required for data: 3688960
I0717 14:21:15.057610 27687 net.cpp:467] Sharing parameters 'W_hc' owned by layer 'LSTM_transform_1', param index 0
I0717 14:21:15.057615 27687 layer_factory.hpp:77] Creating layer LSTM_gate_input_14
I0717 14:21:15.057623 27687 net.cpp:86] Creating Layer LSTM_gate_input_14
I0717 14:21:15.057628 27687 net.cpp:408] LSTM_gate_input_14 <- W_hc_h_13
I0717 14:21:15.057636 27687 net.cpp:408] LSTM_gate_input_14 <- W_xc_x_14
I0717 14:21:15.057642 27687 net.cpp:382] LSTM_gate_input_14 -> gate_input_14
I0717 14:21:15.057669 27687 net.cpp:124] Setting up LSTM_gate_input_14
I0717 14:21:15.057678 27687 net.cpp:131] Top shape: 1 40 160 (6400)
I0717 14:21:15.057683 27687 net.cpp:139] Memory required for data: 3714560
I0717 14:21:15.057687 27687 layer_factory.hpp:77] Creating layer LSTM_unit_14
I0717 14:21:15.057694 27687 net.cpp:86] Creating Layer LSTM_unit_14
I0717 14:21:15.057700 27687 net.cpp:408] LSTM_unit_14 <- c_13
I0717 14:21:15.057708 27687 net.cpp:408] LSTM_unit_14 <- gate_input_14
I0717 14:21:15.057714 27687 net.cpp:408] LSTM_unit_14 <- cont_14_LSTM_cont_slice_13_split_1
I0717 14:21:15.057721 27687 net.cpp:382] LSTM_unit_14 -> c_14
I0717 14:21:15.057730 27687 net.cpp:382] LSTM_unit_14 -> h_14
I0717 14:21:15.057778 27687 net.cpp:124] Setting up LSTM_unit_14
I0717 14:21:15.057787 27687 net.cpp:131] Top shape: 1 40 40 (1600)
I0717 14:21:15.057793 27687 net.cpp:131] Top shape: 1 40 40 (1600)
I0717 14:21:15.057797 27687 net.cpp:139] Memory required for data: 3727360
I0717 14:21:15.057802 27687 layer_factory.hpp:77] Creating layer h_14_LSTM_unit_14_1_split
I0717 14:21:15.057808 27687 net.cpp:86] Creating Layer h_14_LSTM_unit_14_1_split
I0717 14:21:15.057818 27687 net.cpp:408] h_14_LSTM_unit_14_1_split <- h_14
I0717 14:21:15.057833 27687 net.cpp:382] h_14_LSTM_unit_14_1_split -> h_14_LSTM_unit_14_1_split_0
I0717 14:21:15.057842 27687 net.cpp:382] h_14_LSTM_unit_14_1_split -> h_14_LSTM_unit_14_1_split_1
I0717 14:21:15.057878 27687 net.cpp:124] Setting up h_14_LSTM_unit_14_1_split
I0717 14:21:15.057888 27687 net.cpp:131] Top shape: 1 40 40 (1600)
I0717 14:21:15.057893 27687 net.cpp:131] Top shape: 1 40 40 (1600)
I0717 14:21:15.057898 27687 net.cpp:139] Memory required for data: 3740160
I0717 14:21:15.057902 27687 layer_factory.hpp:77] Creating layer LSTM_h_conted_14
I0717 14:21:15.057909 27687 net.cpp:86] Creating Layer LSTM_h_conted_14
I0717 14:21:15.057915 27687 net.cpp:408] LSTM_h_conted_14 <- h_14_LSTM_unit_14_1_split_0
I0717 14:21:15.057921 27687 net.cpp:408] LSTM_h_conted_14 <- cont_15_LSTM_cont_slice_14_split_0
I0717 14:21:15.057929 27687 net.cpp:382] LSTM_h_conted_14 -> h_conted_14
I0717 14:21:15.057989 27687 net.cpp:124] Setting up LSTM_h_conted_14
I0717 14:21:15.057998 27687 net.cpp:131] Top shape: 1 40 40 (1600)
I0717 14:21:15.058003 27687 net.cpp:139] Memory required for data: 3746560
I0717 14:21:15.058007 27687 layer_factory.hpp:77] Creating layer LSTM_transform_15
I0717 14:21:15.058015 27687 net.cpp:86] Creating Layer LSTM_transform_15
I0717 14:21:15.058020 27687 net.cpp:408] LSTM_transform_15 <- h_conted_14
I0717 14:21:15.058030 27687 net.cpp:382] LSTM_transform_15 -> W_hc_h_14
I0717 14:21:15.058295 27687 net.cpp:124] Setting up LSTM_transform_15
I0717 14:21:15.058305 27687 net.cpp:131] Top shape: 1 40 160 (6400)
I0717 14:21:15.058310 27687 net.cpp:139] Memory required for data: 3772160
I0717 14:21:15.058317 27687 net.cpp:467] Sharing parameters 'W_hc' owned by layer 'LSTM_transform_1', param index 0
I0717 14:21:15.058323 27687 layer_factory.hpp:77] Creating layer LSTM_gate_input_15
I0717 14:21:15.058331 27687 net.cpp:86] Creating Layer LSTM_gate_input_15
I0717 14:21:15.058336 27687 net.cpp:408] LSTM_gate_input_15 <- W_hc_h_14
I0717 14:21:15.058342 27687 net.cpp:408] LSTM_gate_input_15 <- W_xc_x_15
I0717 14:21:15.058351 27687 net.cpp:382] LSTM_gate_input_15 -> gate_input_15
I0717 14:21:15.058378 27687 net.cpp:124] Setting up LSTM_gate_input_15
I0717 14:21:15.058387 27687 net.cpp:131] Top shape: 1 40 160 (6400)
I0717 14:21:15.058393 27687 net.cpp:139] Memory required for data: 3797760
I0717 14:21:15.058396 27687 layer_factory.hpp:77] Creating layer LSTM_unit_15
I0717 14:21:15.058403 27687 net.cpp:86] Creating Layer LSTM_unit_15
I0717 14:21:15.058409 27687 net.cpp:408] LSTM_unit_15 <- c_14
I0717 14:21:15.058416 27687 net.cpp:408] LSTM_unit_15 <- gate_input_15
I0717 14:21:15.058423 27687 net.cpp:408] LSTM_unit_15 <- cont_15_LSTM_cont_slice_14_split_1
I0717 14:21:15.058430 27687 net.cpp:382] LSTM_unit_15 -> c_15
I0717 14:21:15.058439 27687 net.cpp:382] LSTM_unit_15 -> h_15
I0717 14:21:15.058486 27687 net.cpp:124] Setting up LSTM_unit_15
I0717 14:21:15.058495 27687 net.cpp:131] Top shape: 1 40 40 (1600)
I0717 14:21:15.058501 27687 net.cpp:131] Top shape: 1 40 40 (1600)
I0717 14:21:15.058506 27687 net.cpp:139] Memory required for data: 3810560
I0717 14:21:15.058509 27687 layer_factory.hpp:77] Creating layer h_15_LSTM_unit_15_1_split
I0717 14:21:15.058518 27687 net.cpp:86] Creating Layer h_15_LSTM_unit_15_1_split
I0717 14:21:15.058523 27687 net.cpp:408] h_15_LSTM_unit_15_1_split <- h_15
I0717 14:21:15.058531 27687 net.cpp:382] h_15_LSTM_unit_15_1_split -> h_15_LSTM_unit_15_1_split_0
I0717 14:21:15.058539 27687 net.cpp:382] h_15_LSTM_unit_15_1_split -> h_15_LSTM_unit_15_1_split_1
I0717 14:21:15.058575 27687 net.cpp:124] Setting up h_15_LSTM_unit_15_1_split
I0717 14:21:15.058583 27687 net.cpp:131] Top shape: 1 40 40 (1600)
I0717 14:21:15.058589 27687 net.cpp:131] Top shape: 1 40 40 (1600)
I0717 14:21:15.058594 27687 net.cpp:139] Memory required for data: 3823360
I0717 14:21:15.058598 27687 layer_factory.hpp:77] Creating layer LSTM_h_conted_15
I0717 14:21:15.058605 27687 net.cpp:86] Creating Layer LSTM_h_conted_15
I0717 14:21:15.058614 27687 net.cpp:408] LSTM_h_conted_15 <- h_15_LSTM_unit_15_1_split_0
I0717 14:21:15.058624 27687 net.cpp:408] LSTM_h_conted_15 <- cont_16_LSTM_cont_slice_15_split_0
I0717 14:21:15.058639 27687 net.cpp:382] LSTM_h_conted_15 -> h_conted_15
I0717 14:21:15.058701 27687 net.cpp:124] Setting up LSTM_h_conted_15
I0717 14:21:15.058709 27687 net.cpp:131] Top shape: 1 40 40 (1600)
I0717 14:21:15.058714 27687 net.cpp:139] Memory required for data: 3829760
I0717 14:21:15.058719 27687 layer_factory.hpp:77] Creating layer LSTM_transform_16
I0717 14:21:15.058727 27687 net.cpp:86] Creating Layer LSTM_transform_16
I0717 14:21:15.058732 27687 net.cpp:408] LSTM_transform_16 <- h_conted_15
I0717 14:21:15.058740 27687 net.cpp:382] LSTM_transform_16 -> W_hc_h_15
I0717 14:21:15.059001 27687 net.cpp:124] Setting up LSTM_transform_16
I0717 14:21:15.059010 27687 net.cpp:131] Top shape: 1 40 160 (6400)
I0717 14:21:15.059015 27687 net.cpp:139] Memory required for data: 3855360
I0717 14:21:15.059020 27687 net.cpp:467] Sharing parameters 'W_hc' owned by layer 'LSTM_transform_1', param index 0
I0717 14:21:15.059026 27687 layer_factory.hpp:77] Creating layer LSTM_gate_input_16
I0717 14:21:15.059036 27687 net.cpp:86] Creating Layer LSTM_gate_input_16
I0717 14:21:15.059041 27687 net.cpp:408] LSTM_gate_input_16 <- W_hc_h_15
I0717 14:21:15.059047 27687 net.cpp:408] LSTM_gate_input_16 <- W_xc_x_16
I0717 14:21:15.059056 27687 net.cpp:382] LSTM_gate_input_16 -> gate_input_16
I0717 14:21:15.059079 27687 net.cpp:124] Setting up LSTM_gate_input_16
I0717 14:21:15.059088 27687 net.cpp:131] Top shape: 1 40 160 (6400)
I0717 14:21:15.059093 27687 net.cpp:139] Memory required for data: 3880960
I0717 14:21:15.059098 27687 layer_factory.hpp:77] Creating layer LSTM_unit_16
I0717 14:21:15.059104 27687 net.cpp:86] Creating Layer LSTM_unit_16
I0717 14:21:15.059110 27687 net.cpp:408] LSTM_unit_16 <- c_15
I0717 14:21:15.059118 27687 net.cpp:408] LSTM_unit_16 <- gate_input_16
I0717 14:21:15.059123 27687 net.cpp:408] LSTM_unit_16 <- cont_16_LSTM_cont_slice_15_split_1
I0717 14:21:15.059134 27687 net.cpp:382] LSTM_unit_16 -> c_16
I0717 14:21:15.059142 27687 net.cpp:382] LSTM_unit_16 -> h_16
I0717 14:21:15.059190 27687 net.cpp:124] Setting up LSTM_unit_16
I0717 14:21:15.059198 27687 net.cpp:131] Top shape: 1 40 40 (1600)
I0717 14:21:15.059204 27687 net.cpp:131] Top shape: 1 40 40 (1600)
I0717 14:21:15.059208 27687 net.cpp:139] Memory required for data: 3893760
I0717 14:21:15.059213 27687 layer_factory.hpp:77] Creating layer h_16_LSTM_unit_16_1_split
I0717 14:21:15.059231 27687 net.cpp:86] Creating Layer h_16_LSTM_unit_16_1_split
I0717 14:21:15.059237 27687 net.cpp:408] h_16_LSTM_unit_16_1_split <- h_16
I0717 14:21:15.059244 27687 net.cpp:382] h_16_LSTM_unit_16_1_split -> h_16_LSTM_unit_16_1_split_0
I0717 14:21:15.059253 27687 net.cpp:382] h_16_LSTM_unit_16_1_split -> h_16_LSTM_unit_16_1_split_1
I0717 14:21:15.059291 27687 net.cpp:124] Setting up h_16_LSTM_unit_16_1_split
I0717 14:21:15.059300 27687 net.cpp:131] Top shape: 1 40 40 (1600)
I0717 14:21:15.059306 27687 net.cpp:131] Top shape: 1 40 40 (1600)
I0717 14:21:15.059310 27687 net.cpp:139] Memory required for data: 3906560
I0717 14:21:15.059316 27687 layer_factory.hpp:77] Creating layer LSTM_h_conted_16
I0717 14:21:15.059324 27687 net.cpp:86] Creating Layer LSTM_h_conted_16
I0717 14:21:15.059329 27687 net.cpp:408] LSTM_h_conted_16 <- h_16_LSTM_unit_16_1_split_0
I0717 14:21:15.059335 27687 net.cpp:408] LSTM_h_conted_16 <- cont_17_LSTM_cont_slice_16_split_0
I0717 14:21:15.059345 27687 net.cpp:382] LSTM_h_conted_16 -> h_conted_16
I0717 14:21:15.059406 27687 net.cpp:124] Setting up LSTM_h_conted_16
I0717 14:21:15.059414 27687 net.cpp:131] Top shape: 1 40 40 (1600)
I0717 14:21:15.059419 27687 net.cpp:139] Memory required for data: 3912960
I0717 14:21:15.059424 27687 layer_factory.hpp:77] Creating layer LSTM_transform_17
I0717 14:21:15.059432 27687 net.cpp:86] Creating Layer LSTM_transform_17
I0717 14:21:15.059437 27687 net.cpp:408] LSTM_transform_17 <- h_conted_16
I0717 14:21:15.059448 27687 net.cpp:382] LSTM_transform_17 -> W_hc_h_16
I0717 14:21:15.059707 27687 net.cpp:124] Setting up LSTM_transform_17
I0717 14:21:15.059721 27687 net.cpp:131] Top shape: 1 40 160 (6400)
I0717 14:21:15.059732 27687 net.cpp:139] Memory required for data: 3938560
I0717 14:21:15.059738 27687 net.cpp:467] Sharing parameters 'W_hc' owned by layer 'LSTM_transform_1', param index 0
I0717 14:21:15.059743 27687 layer_factory.hpp:77] Creating layer LSTM_gate_input_17
I0717 14:21:15.059751 27687 net.cpp:86] Creating Layer LSTM_gate_input_17
I0717 14:21:15.059756 27687 net.cpp:408] LSTM_gate_input_17 <- W_hc_h_16
I0717 14:21:15.059763 27687 net.cpp:408] LSTM_gate_input_17 <- W_xc_x_17
I0717 14:21:15.059770 27687 net.cpp:382] LSTM_gate_input_17 -> gate_input_17
I0717 14:21:15.059798 27687 net.cpp:124] Setting up LSTM_gate_input_17
I0717 14:21:15.059808 27687 net.cpp:131] Top shape: 1 40 160 (6400)
I0717 14:21:15.059811 27687 net.cpp:139] Memory required for data: 3964160
I0717 14:21:15.059816 27687 layer_factory.hpp:77] Creating layer LSTM_unit_17
I0717 14:21:15.059823 27687 net.cpp:86] Creating Layer LSTM_unit_17
I0717 14:21:15.059828 27687 net.cpp:408] LSTM_unit_17 <- c_16
I0717 14:21:15.059835 27687 net.cpp:408] LSTM_unit_17 <- gate_input_17
I0717 14:21:15.059842 27687 net.cpp:408] LSTM_unit_17 <- cont_17_LSTM_cont_slice_16_split_1
I0717 14:21:15.059849 27687 net.cpp:382] LSTM_unit_17 -> c_17
I0717 14:21:15.059859 27687 net.cpp:382] LSTM_unit_17 -> h_17
I0717 14:21:15.059904 27687 net.cpp:124] Setting up LSTM_unit_17
I0717 14:21:15.059913 27687 net.cpp:131] Top shape: 1 40 40 (1600)
I0717 14:21:15.059919 27687 net.cpp:131] Top shape: 1 40 40 (1600)
I0717 14:21:15.059924 27687 net.cpp:139] Memory required for data: 3976960
I0717 14:21:15.059929 27687 layer_factory.hpp:77] Creating layer h_17_LSTM_unit_17_1_split
I0717 14:21:15.059939 27687 net.cpp:86] Creating Layer h_17_LSTM_unit_17_1_split
I0717 14:21:15.059945 27687 net.cpp:408] h_17_LSTM_unit_17_1_split <- h_17
I0717 14:21:15.059952 27687 net.cpp:382] h_17_LSTM_unit_17_1_split -> h_17_LSTM_unit_17_1_split_0
I0717 14:21:15.059962 27687 net.cpp:382] h_17_LSTM_unit_17_1_split -> h_17_LSTM_unit_17_1_split_1
I0717 14:21:15.059998 27687 net.cpp:124] Setting up h_17_LSTM_unit_17_1_split
I0717 14:21:15.060006 27687 net.cpp:131] Top shape: 1 40 40 (1600)
I0717 14:21:15.060012 27687 net.cpp:131] Top shape: 1 40 40 (1600)
I0717 14:21:15.060017 27687 net.cpp:139] Memory required for data: 3989760
I0717 14:21:15.060021 27687 layer_factory.hpp:77] Creating layer LSTM_h_conted_17
I0717 14:21:15.060029 27687 net.cpp:86] Creating Layer LSTM_h_conted_17
I0717 14:21:15.060034 27687 net.cpp:408] LSTM_h_conted_17 <- h_17_LSTM_unit_17_1_split_0
I0717 14:21:15.060041 27687 net.cpp:408] LSTM_h_conted_17 <- cont_18_LSTM_cont_slice_17_split_0
I0717 14:21:15.060050 27687 net.cpp:382] LSTM_h_conted_17 -> h_conted_17
I0717 14:21:15.060109 27687 net.cpp:124] Setting up LSTM_h_conted_17
I0717 14:21:15.060118 27687 net.cpp:131] Top shape: 1 40 40 (1600)
I0717 14:21:15.060122 27687 net.cpp:139] Memory required for data: 3996160
I0717 14:21:15.060127 27687 layer_factory.hpp:77] Creating layer LSTM_transform_18
I0717 14:21:15.060135 27687 net.cpp:86] Creating Layer LSTM_transform_18
I0717 14:21:15.060140 27687 net.cpp:408] LSTM_transform_18 <- h_conted_17
I0717 14:21:15.060148 27687 net.cpp:382] LSTM_transform_18 -> W_hc_h_17
I0717 14:21:15.060407 27687 net.cpp:124] Setting up LSTM_transform_18
I0717 14:21:15.060416 27687 net.cpp:131] Top shape: 1 40 160 (6400)
I0717 14:21:15.060421 27687 net.cpp:139] Memory required for data: 4021760
I0717 14:21:15.060426 27687 net.cpp:467] Sharing parameters 'W_hc' owned by layer 'LSTM_transform_1', param index 0
I0717 14:21:15.060432 27687 layer_factory.hpp:77] Creating layer LSTM_gate_input_18
I0717 14:21:15.060441 27687 net.cpp:86] Creating Layer LSTM_gate_input_18
I0717 14:21:15.060447 27687 net.cpp:408] LSTM_gate_input_18 <- W_hc_h_17
I0717 14:21:15.060453 27687 net.cpp:408] LSTM_gate_input_18 <- W_xc_x_18
I0717 14:21:15.060461 27687 net.cpp:382] LSTM_gate_input_18 -> gate_input_18
I0717 14:21:15.060485 27687 net.cpp:124] Setting up LSTM_gate_input_18
I0717 14:21:15.060499 27687 net.cpp:131] Top shape: 1 40 160 (6400)
I0717 14:21:15.060509 27687 net.cpp:139] Memory required for data: 4047360
I0717 14:21:15.060514 27687 layer_factory.hpp:77] Creating layer LSTM_unit_18
I0717 14:21:15.060521 27687 net.cpp:86] Creating Layer LSTM_unit_18
I0717 14:21:15.060528 27687 net.cpp:408] LSTM_unit_18 <- c_17
I0717 14:21:15.060534 27687 net.cpp:408] LSTM_unit_18 <- gate_input_18
I0717 14:21:15.060540 27687 net.cpp:408] LSTM_unit_18 <- cont_18_LSTM_cont_slice_17_split_1
I0717 14:21:15.060552 27687 net.cpp:382] LSTM_unit_18 -> c_18
I0717 14:21:15.060562 27687 net.cpp:382] LSTM_unit_18 -> h_18
I0717 14:21:15.060611 27687 net.cpp:124] Setting up LSTM_unit_18
I0717 14:21:15.060618 27687 net.cpp:131] Top shape: 1 40 40 (1600)
I0717 14:21:15.060624 27687 net.cpp:131] Top shape: 1 40 40 (1600)
I0717 14:21:15.060629 27687 net.cpp:139] Memory required for data: 4060160
I0717 14:21:15.060634 27687 layer_factory.hpp:77] Creating layer h_18_LSTM_unit_18_1_split
I0717 14:21:15.060641 27687 net.cpp:86] Creating Layer h_18_LSTM_unit_18_1_split
I0717 14:21:15.060647 27687 net.cpp:408] h_18_LSTM_unit_18_1_split <- h_18
I0717 14:21:15.060653 27687 net.cpp:382] h_18_LSTM_unit_18_1_split -> h_18_LSTM_unit_18_1_split_0
I0717 14:21:15.060662 27687 net.cpp:382] h_18_LSTM_unit_18_1_split -> h_18_LSTM_unit_18_1_split_1
I0717 14:21:15.060698 27687 net.cpp:124] Setting up h_18_LSTM_unit_18_1_split
I0717 14:21:15.060706 27687 net.cpp:131] Top shape: 1 40 40 (1600)
I0717 14:21:15.060712 27687 net.cpp:131] Top shape: 1 40 40 (1600)
I0717 14:21:15.060717 27687 net.cpp:139] Memory required for data: 4072960
I0717 14:21:15.060721 27687 layer_factory.hpp:77] Creating layer LSTM_h_conted_18
I0717 14:21:15.060729 27687 net.cpp:86] Creating Layer LSTM_h_conted_18
I0717 14:21:15.060734 27687 net.cpp:408] LSTM_h_conted_18 <- h_18_LSTM_unit_18_1_split_0
I0717 14:21:15.060744 27687 net.cpp:408] LSTM_h_conted_18 <- cont_19_LSTM_cont_slice_18_split_0
I0717 14:21:15.060751 27687 net.cpp:382] LSTM_h_conted_18 -> h_conted_18
I0717 14:21:15.060812 27687 net.cpp:124] Setting up LSTM_h_conted_18
I0717 14:21:15.060822 27687 net.cpp:131] Top shape: 1 40 40 (1600)
I0717 14:21:15.060827 27687 net.cpp:139] Memory required for data: 4079360
I0717 14:21:15.060832 27687 layer_factory.hpp:77] Creating layer LSTM_transform_19
I0717 14:21:15.060840 27687 net.cpp:86] Creating Layer LSTM_transform_19
I0717 14:21:15.060847 27687 net.cpp:408] LSTM_transform_19 <- h_conted_18
I0717 14:21:15.060854 27687 net.cpp:382] LSTM_transform_19 -> W_hc_h_18
I0717 14:21:15.061116 27687 net.cpp:124] Setting up LSTM_transform_19
I0717 14:21:15.061125 27687 net.cpp:131] Top shape: 1 40 160 (6400)
I0717 14:21:15.061131 27687 net.cpp:139] Memory required for data: 4104960
I0717 14:21:15.061136 27687 net.cpp:467] Sharing parameters 'W_hc' owned by layer 'LSTM_transform_1', param index 0
I0717 14:21:15.061141 27687 layer_factory.hpp:77] Creating layer LSTM_gate_input_19
I0717 14:21:15.061148 27687 net.cpp:86] Creating Layer LSTM_gate_input_19
I0717 14:21:15.061154 27687 net.cpp:408] LSTM_gate_input_19 <- W_hc_h_18
I0717 14:21:15.061161 27687 net.cpp:408] LSTM_gate_input_19 <- W_xc_x_19
I0717 14:21:15.061167 27687 net.cpp:382] LSTM_gate_input_19 -> gate_input_19
I0717 14:21:15.061194 27687 net.cpp:124] Setting up LSTM_gate_input_19
I0717 14:21:15.061203 27687 net.cpp:131] Top shape: 1 40 160 (6400)
I0717 14:21:15.061208 27687 net.cpp:139] Memory required for data: 4130560
I0717 14:21:15.061213 27687 layer_factory.hpp:77] Creating layer LSTM_unit_19
I0717 14:21:15.061219 27687 net.cpp:86] Creating Layer LSTM_unit_19
I0717 14:21:15.061225 27687 net.cpp:408] LSTM_unit_19 <- c_18
I0717 14:21:15.061233 27687 net.cpp:408] LSTM_unit_19 <- gate_input_19
I0717 14:21:15.061239 27687 net.cpp:408] LSTM_unit_19 <- cont_19_LSTM_cont_slice_18_split_1
I0717 14:21:15.061246 27687 net.cpp:382] LSTM_unit_19 -> c_19
I0717 14:21:15.061261 27687 net.cpp:382] LSTM_unit_19 -> h_19
I0717 14:21:15.061311 27687 net.cpp:124] Setting up LSTM_unit_19
I0717 14:21:15.061319 27687 net.cpp:131] Top shape: 1 40 40 (1600)
I0717 14:21:15.061329 27687 net.cpp:131] Top shape: 1 40 40 (1600)
I0717 14:21:15.061342 27687 net.cpp:139] Memory required for data: 4143360
I0717 14:21:15.061347 27687 layer_factory.hpp:77] Creating layer h_19_LSTM_unit_19_1_split
I0717 14:21:15.061354 27687 net.cpp:86] Creating Layer h_19_LSTM_unit_19_1_split
I0717 14:21:15.061360 27687 net.cpp:408] h_19_LSTM_unit_19_1_split <- h_19
I0717 14:21:15.061367 27687 net.cpp:382] h_19_LSTM_unit_19_1_split -> h_19_LSTM_unit_19_1_split_0
I0717 14:21:15.061377 27687 net.cpp:382] h_19_LSTM_unit_19_1_split -> h_19_LSTM_unit_19_1_split_1
I0717 14:21:15.061411 27687 net.cpp:124] Setting up h_19_LSTM_unit_19_1_split
I0717 14:21:15.061420 27687 net.cpp:131] Top shape: 1 40 40 (1600)
I0717 14:21:15.061426 27687 net.cpp:131] Top shape: 1 40 40 (1600)
I0717 14:21:15.061430 27687 net.cpp:139] Memory required for data: 4156160
I0717 14:21:15.061435 27687 layer_factory.hpp:77] Creating layer LSTM_h_conted_19
I0717 14:21:15.061442 27687 net.cpp:86] Creating Layer LSTM_h_conted_19
I0717 14:21:15.061449 27687 net.cpp:408] LSTM_h_conted_19 <- h_19_LSTM_unit_19_1_split_0
I0717 14:21:15.061455 27687 net.cpp:408] LSTM_h_conted_19 <- cont_20_LSTM_cont_slice_19_split_0
I0717 14:21:15.061462 27687 net.cpp:382] LSTM_h_conted_19 -> h_conted_19
I0717 14:21:15.061522 27687 net.cpp:124] Setting up LSTM_h_conted_19
I0717 14:21:15.061532 27687 net.cpp:131] Top shape: 1 40 40 (1600)
I0717 14:21:15.061535 27687 net.cpp:139] Memory required for data: 4162560
I0717 14:21:15.061540 27687 layer_factory.hpp:77] Creating layer LSTM_transform_20
I0717 14:21:15.061548 27687 net.cpp:86] Creating Layer LSTM_transform_20
I0717 14:21:15.061553 27687 net.cpp:408] LSTM_transform_20 <- h_conted_19
I0717 14:21:15.061564 27687 net.cpp:382] LSTM_transform_20 -> W_hc_h_19
I0717 14:21:15.061825 27687 net.cpp:124] Setting up LSTM_transform_20
I0717 14:21:15.061835 27687 net.cpp:131] Top shape: 1 40 160 (6400)
I0717 14:21:15.061839 27687 net.cpp:139] Memory required for data: 4188160
I0717 14:21:15.061846 27687 net.cpp:467] Sharing parameters 'W_hc' owned by layer 'LSTM_transform_1', param index 0
I0717 14:21:15.061851 27687 layer_factory.hpp:77] Creating layer LSTM_gate_input_20
I0717 14:21:15.061857 27687 net.cpp:86] Creating Layer LSTM_gate_input_20
I0717 14:21:15.061863 27687 net.cpp:408] LSTM_gate_input_20 <- W_hc_h_19
I0717 14:21:15.061869 27687 net.cpp:408] LSTM_gate_input_20 <- W_xc_x_20
I0717 14:21:15.061877 27687 net.cpp:382] LSTM_gate_input_20 -> gate_input_20
I0717 14:21:15.061902 27687 net.cpp:124] Setting up LSTM_gate_input_20
I0717 14:21:15.061910 27687 net.cpp:131] Top shape: 1 40 160 (6400)
I0717 14:21:15.061914 27687 net.cpp:139] Memory required for data: 4213760
I0717 14:21:15.061919 27687 layer_factory.hpp:77] Creating layer LSTM_unit_20
I0717 14:21:15.061928 27687 net.cpp:86] Creating Layer LSTM_unit_20
I0717 14:21:15.061934 27687 net.cpp:408] LSTM_unit_20 <- c_19
I0717 14:21:15.061940 27687 net.cpp:408] LSTM_unit_20 <- gate_input_20
I0717 14:21:15.061946 27687 net.cpp:408] LSTM_unit_20 <- cont_20_LSTM_cont_slice_19_split_1
I0717 14:21:15.061954 27687 net.cpp:382] LSTM_unit_20 -> c_20
I0717 14:21:15.061964 27687 net.cpp:382] LSTM_unit_20 -> h_20
I0717 14:21:15.062010 27687 net.cpp:124] Setting up LSTM_unit_20
I0717 14:21:15.062018 27687 net.cpp:131] Top shape: 1 40 40 (1600)
I0717 14:21:15.062024 27687 net.cpp:131] Top shape: 1 40 40 (1600)
I0717 14:21:15.062029 27687 net.cpp:139] Memory required for data: 4226560
I0717 14:21:15.062033 27687 layer_factory.hpp:77] Creating layer h_20_LSTM_unit_20_1_split
I0717 14:21:15.062041 27687 net.cpp:86] Creating Layer h_20_LSTM_unit_20_1_split
I0717 14:21:15.062046 27687 net.cpp:408] h_20_LSTM_unit_20_1_split <- h_20
I0717 14:21:15.062054 27687 net.cpp:382] h_20_LSTM_unit_20_1_split -> h_20_LSTM_unit_20_1_split_0
I0717 14:21:15.062064 27687 net.cpp:382] h_20_LSTM_unit_20_1_split -> h_20_LSTM_unit_20_1_split_1
I0717 14:21:15.062098 27687 net.cpp:124] Setting up h_20_LSTM_unit_20_1_split
I0717 14:21:15.062105 27687 net.cpp:131] Top shape: 1 40 40 (1600)
I0717 14:21:15.062116 27687 net.cpp:131] Top shape: 1 40 40 (1600)
I0717 14:21:15.062127 27687 net.cpp:139] Memory required for data: 4239360
I0717 14:21:15.062132 27687 layer_factory.hpp:77] Creating layer LSTM_h_conted_20
I0717 14:21:15.062141 27687 net.cpp:86] Creating Layer LSTM_h_conted_20
I0717 14:21:15.062147 27687 net.cpp:408] LSTM_h_conted_20 <- h_20_LSTM_unit_20_1_split_0
I0717 14:21:15.062155 27687 net.cpp:408] LSTM_h_conted_20 <- cont_21_LSTM_cont_slice_20_split_0
I0717 14:21:15.062165 27687 net.cpp:382] LSTM_h_conted_20 -> h_conted_20
I0717 14:21:15.062227 27687 net.cpp:124] Setting up LSTM_h_conted_20
I0717 14:21:15.062235 27687 net.cpp:131] Top shape: 1 40 40 (1600)
I0717 14:21:15.062240 27687 net.cpp:139] Memory required for data: 4245760
I0717 14:21:15.062244 27687 layer_factory.hpp:77] Creating layer LSTM_transform_21
I0717 14:21:15.062252 27687 net.cpp:86] Creating Layer LSTM_transform_21
I0717 14:21:15.062258 27687 net.cpp:408] LSTM_transform_21 <- h_conted_20
I0717 14:21:15.062265 27687 net.cpp:382] LSTM_transform_21 -> W_hc_h_20
I0717 14:21:15.062525 27687 net.cpp:124] Setting up LSTM_transform_21
I0717 14:21:15.062536 27687 net.cpp:131] Top shape: 1 40 160 (6400)
I0717 14:21:15.062541 27687 net.cpp:139] Memory required for data: 4271360
I0717 14:21:15.062546 27687 net.cpp:467] Sharing parameters 'W_hc' owned by layer 'LSTM_transform_1', param index 0
I0717 14:21:15.062551 27687 layer_factory.hpp:77] Creating layer LSTM_gate_input_21
I0717 14:21:15.062558 27687 net.cpp:86] Creating Layer LSTM_gate_input_21
I0717 14:21:15.062563 27687 net.cpp:408] LSTM_gate_input_21 <- W_hc_h_20
I0717 14:21:15.062571 27687 net.cpp:408] LSTM_gate_input_21 <- W_xc_x_21
I0717 14:21:15.062579 27687 net.cpp:382] LSTM_gate_input_21 -> gate_input_21
I0717 14:21:15.062604 27687 net.cpp:124] Setting up LSTM_gate_input_21
I0717 14:21:15.062613 27687 net.cpp:131] Top shape: 1 40 160 (6400)
I0717 14:21:15.062618 27687 net.cpp:139] Memory required for data: 4296960
I0717 14:21:15.062623 27687 layer_factory.hpp:77] Creating layer LSTM_unit_21
I0717 14:21:15.062629 27687 net.cpp:86] Creating Layer LSTM_unit_21
I0717 14:21:15.062634 27687 net.cpp:408] LSTM_unit_21 <- c_20
I0717 14:21:15.062641 27687 net.cpp:408] LSTM_unit_21 <- gate_input_21
I0717 14:21:15.062647 27687 net.cpp:408] LSTM_unit_21 <- cont_21_LSTM_cont_slice_20_split_1
I0717 14:21:15.062654 27687 net.cpp:382] LSTM_unit_21 -> c_21
I0717 14:21:15.062666 27687 net.cpp:382] LSTM_unit_21 -> h_21
I0717 14:21:15.062714 27687 net.cpp:124] Setting up LSTM_unit_21
I0717 14:21:15.062723 27687 net.cpp:131] Top shape: 1 40 40 (1600)
I0717 14:21:15.062729 27687 net.cpp:131] Top shape: 1 40 40 (1600)
I0717 14:21:15.062733 27687 net.cpp:139] Memory required for data: 4309760
I0717 14:21:15.062738 27687 layer_factory.hpp:77] Creating layer h_21_LSTM_unit_21_1_split
I0717 14:21:15.062746 27687 net.cpp:86] Creating Layer h_21_LSTM_unit_21_1_split
I0717 14:21:15.062750 27687 net.cpp:408] h_21_LSTM_unit_21_1_split <- h_21
I0717 14:21:15.062757 27687 net.cpp:382] h_21_LSTM_unit_21_1_split -> h_21_LSTM_unit_21_1_split_0
I0717 14:21:15.062767 27687 net.cpp:382] h_21_LSTM_unit_21_1_split -> h_21_LSTM_unit_21_1_split_1
I0717 14:21:15.062801 27687 net.cpp:124] Setting up h_21_LSTM_unit_21_1_split
I0717 14:21:15.062810 27687 net.cpp:131] Top shape: 1 40 40 (1600)
I0717 14:21:15.062815 27687 net.cpp:131] Top shape: 1 40 40 (1600)
I0717 14:21:15.062820 27687 net.cpp:139] Memory required for data: 4322560
I0717 14:21:15.062825 27687 layer_factory.hpp:77] Creating layer LSTM_h_conted_21
I0717 14:21:15.062831 27687 net.cpp:86] Creating Layer LSTM_h_conted_21
I0717 14:21:15.062837 27687 net.cpp:408] LSTM_h_conted_21 <- h_21_LSTM_unit_21_1_split_0
I0717 14:21:15.062844 27687 net.cpp:408] LSTM_h_conted_21 <- cont_22_LSTM_cont_slice_21_split_0
I0717 14:21:15.062857 27687 net.cpp:382] LSTM_h_conted_21 -> h_conted_21
I0717 14:21:15.062918 27687 net.cpp:124] Setting up LSTM_h_conted_21
I0717 14:21:15.062928 27687 net.cpp:131] Top shape: 1 40 40 (1600)
I0717 14:21:15.062933 27687 net.cpp:139] Memory required for data: 4328960
I0717 14:21:15.062942 27687 layer_factory.hpp:77] Creating layer LSTM_transform_22
I0717 14:21:15.062958 27687 net.cpp:86] Creating Layer LSTM_transform_22
I0717 14:21:15.062963 27687 net.cpp:408] LSTM_transform_22 <- h_conted_21
I0717 14:21:15.062973 27687 net.cpp:382] LSTM_transform_22 -> W_hc_h_21
I0717 14:21:15.063235 27687 net.cpp:124] Setting up LSTM_transform_22
I0717 14:21:15.063244 27687 net.cpp:131] Top shape: 1 40 160 (6400)
I0717 14:21:15.063249 27687 net.cpp:139] Memory required for data: 4354560
I0717 14:21:15.063254 27687 net.cpp:467] Sharing parameters 'W_hc' owned by layer 'LSTM_transform_1', param index 0
I0717 14:21:15.063259 27687 layer_factory.hpp:77] Creating layer LSTM_gate_input_22
I0717 14:21:15.063267 27687 net.cpp:86] Creating Layer LSTM_gate_input_22
I0717 14:21:15.063272 27687 net.cpp:408] LSTM_gate_input_22 <- W_hc_h_21
I0717 14:21:15.063279 27687 net.cpp:408] LSTM_gate_input_22 <- W_xc_x_22
I0717 14:21:15.063287 27687 net.cpp:382] LSTM_gate_input_22 -> gate_input_22
I0717 14:21:15.063313 27687 net.cpp:124] Setting up LSTM_gate_input_22
I0717 14:21:15.063321 27687 net.cpp:131] Top shape: 1 40 160 (6400)
I0717 14:21:15.063326 27687 net.cpp:139] Memory required for data: 4380160
I0717 14:21:15.063331 27687 layer_factory.hpp:77] Creating layer LSTM_unit_22
I0717 14:21:15.063338 27687 net.cpp:86] Creating Layer LSTM_unit_22
I0717 14:21:15.063344 27687 net.cpp:408] LSTM_unit_22 <- c_21
I0717 14:21:15.063350 27687 net.cpp:408] LSTM_unit_22 <- gate_input_22
I0717 14:21:15.063356 27687 net.cpp:408] LSTM_unit_22 <- cont_22_LSTM_cont_slice_21_split_1
I0717 14:21:15.063364 27687 net.cpp:382] LSTM_unit_22 -> c_22
I0717 14:21:15.063374 27687 net.cpp:382] LSTM_unit_22 -> h_22
I0717 14:21:15.063419 27687 net.cpp:124] Setting up LSTM_unit_22
I0717 14:21:15.063428 27687 net.cpp:131] Top shape: 1 40 40 (1600)
I0717 14:21:15.063434 27687 net.cpp:131] Top shape: 1 40 40 (1600)
I0717 14:21:15.063439 27687 net.cpp:139] Memory required for data: 4392960
I0717 14:21:15.063443 27687 layer_factory.hpp:77] Creating layer h_22_LSTM_unit_22_1_split
I0717 14:21:15.063452 27687 net.cpp:86] Creating Layer h_22_LSTM_unit_22_1_split
I0717 14:21:15.063457 27687 net.cpp:408] h_22_LSTM_unit_22_1_split <- h_22
I0717 14:21:15.063464 27687 net.cpp:382] h_22_LSTM_unit_22_1_split -> h_22_LSTM_unit_22_1_split_0
I0717 14:21:15.063473 27687 net.cpp:382] h_22_LSTM_unit_22_1_split -> h_22_LSTM_unit_22_1_split_1
I0717 14:21:15.063509 27687 net.cpp:124] Setting up h_22_LSTM_unit_22_1_split
I0717 14:21:15.063518 27687 net.cpp:131] Top shape: 1 40 40 (1600)
I0717 14:21:15.063524 27687 net.cpp:131] Top shape: 1 40 40 (1600)
I0717 14:21:15.063529 27687 net.cpp:139] Memory required for data: 4405760
I0717 14:21:15.063532 27687 layer_factory.hpp:77] Creating layer LSTM_h_conted_22
I0717 14:21:15.063539 27687 net.cpp:86] Creating Layer LSTM_h_conted_22
I0717 14:21:15.063545 27687 net.cpp:408] LSTM_h_conted_22 <- h_22_LSTM_unit_22_1_split_0
I0717 14:21:15.063552 27687 net.cpp:408] LSTM_h_conted_22 <- cont_23_LSTM_cont_slice_22_split_0
I0717 14:21:15.063560 27687 net.cpp:382] LSTM_h_conted_22 -> h_conted_22
I0717 14:21:15.063621 27687 net.cpp:124] Setting up LSTM_h_conted_22
I0717 14:21:15.063628 27687 net.cpp:131] Top shape: 1 40 40 (1600)
I0717 14:21:15.063633 27687 net.cpp:139] Memory required for data: 4412160
I0717 14:21:15.063638 27687 layer_factory.hpp:77] Creating layer LSTM_transform_23
I0717 14:21:15.063645 27687 net.cpp:86] Creating Layer LSTM_transform_23
I0717 14:21:15.063652 27687 net.cpp:408] LSTM_transform_23 <- h_conted_22
I0717 14:21:15.063659 27687 net.cpp:382] LSTM_transform_23 -> W_hc_h_22
I0717 14:21:15.063920 27687 net.cpp:124] Setting up LSTM_transform_23
I0717 14:21:15.063930 27687 net.cpp:131] Top shape: 1 40 160 (6400)
…
I0717 14:21:15.068462 27687 net.cpp:408] LSTM_h_conted_29 <- cont_30_LSTM_cont_slice_29_split_0
I0717 14:21:15.068470 27687 net.cpp:382] LSTM_h_conted_29 -> h_conted_29
I0717 14:21:15.068531 27687 net.cpp:124] Setting up LSTM_h_conted_29
I0717 14:21:15.068539 27687 net.cpp:131] Top shape: 1 40 40 (1600)
I0717 14:21:15.068544 27687 net.cpp:139] Memory required for data: 4994560
I0717 14:21:15.068549 27687 layer_factory.hpp:77] Creating layer LSTM_transform_30
I0717 14:21:15.068557 27687 net.cpp:86] Creating Layer LSTM_transform_30
I0717 14:21:15.068562 27687 net.cpp:408] LSTM_transform_30 <- h_conted_29
I0717 14:21:15.068572 27687 net.cpp:382] LSTM_transform_30 -> W_hc_h_29
I0717 14:21:15.068832 27687 net.cpp:124] Setting up LSTM_transform_30
I0717 14:21:15.068841 27687 net.cpp:131] Top shape: 1 40 160 (6400)
I0717 14:21:15.068846 27687 net.cpp:139] Memory required for data: 5020160
I0717 14:21:15.068851 27687 net.cpp:467] Sharing parameters 'W_hc' owned by layer 'LSTM_transform_1', param index 0
I0717 14:21:15.068857 27687 layer_factory.hpp:77] Creating layer LSTM_gate_input_30
I0717 14:21:15.068864 27687 net.cpp:86] Creating Layer LSTM_gate_input_30
I0717 14:21:15.068871 27687 net.cpp:408] LSTM_gate_input_30 <- W_hc_h_29
I0717 14:21:15.068876 27687 net.cpp:408] LSTM_gate_input_30 <- W_xc_x_30
I0717 14:21:15.068883 27687 net.cpp:382] LSTM_gate_input_30 -> gate_input_30
I0717 14:21:15.068908 27687 net.cpp:124] Setting up LSTM_gate_input_30
I0717 14:21:15.068917 27687 net.cpp:131] Top shape: 1 40 160 (6400)
I0717 14:21:15.068922 27687 net.cpp:139] Memory required for data: 5045760
I0717 14:21:15.068927 27687 layer_factory.hpp:77] Creating layer LSTM_unit_30
I0717 14:21:15.068935 27687 net.cpp:86] Creating Layer LSTM_unit_30
I0717 14:21:15.068941 27687 net.cpp:408] LSTM_unit_30 <- c_29
I0717 14:21:15.068948 27687 net.cpp:408] LSTM_unit_30 <- gate_input_30
I0717 14:21:15.068954 27687 net.cpp:408] LSTM_unit_30 <- cont_30_LSTM_cont_slice_29_split_1
I0717 14:21:15.068961 27687 net.cpp:382] LSTM_unit_30 -> c_30
I0717 14:21:15.068970 27687 net.cpp:382] LSTM_unit_30 -> h_30
I0717 14:21:15.069017 27687 net.cpp:124] Setting up LSTM_unit_30
I0717 14:21:15.069026 27687 net.cpp:131] Top shape: 1 40 40 (1600)
I0717 14:21:15.069036 27687 net.cpp:131] Top shape: 1 40 40 (1600)
I0717 14:21:15.069047 27687 net.cpp:139] Memory required for data: 5058560
I0717 14:21:15.069052 27687 layer_factory.hpp:77] Creating layer h_30_LSTM_unit_30_1_split
I0717 14:21:15.069058 27687 net.cpp:86] Creating Layer h_30_LSTM_unit_30_1_split
I0717 14:21:15.069064 27687 net.cpp:408] h_30_LSTM_unit_30_1_split <- h_30
I0717 14:21:15.069077 27687 net.cpp:382] h_30_LSTM_unit_30_1_split -> h_30_LSTM_unit_30_1_split_0
I0717 14:21:15.069087 27687 net.cpp:382] h_30_LSTM_unit_30_1_split -> h_30_LSTM_unit_30_1_split_1
I0717 14:21:15.069120 27687 net.cpp:124] Setting up h_30_LSTM_unit_30_1_split
I0717 14:21:15.069128 27687 net.cpp:131] Top shape: 1 40 40 (1600)
I0717 14:21:15.069134 27687 net.cpp:131] Top shape: 1 40 40 (1600)
I0717 14:21:15.069139 27687 net.cpp:139] Memory required for data: 5071360
I0717 14:21:15.069144 27687 layer_factory.hpp:77] Creating layer LSTM_h_conted_30
I0717 14:21:15.069154 27687 net.cpp:86] Creating Layer LSTM_h_conted_30
I0717 14:21:15.069159 27687 net.cpp:408] LSTM_h_conted_30 <- h_30_LSTM_unit_30_1_split_0
I0717 14:21:15.069166 27687 net.cpp:408] LSTM_h_conted_30 <- cont_31_LSTM_cont_slice_30_split_0
I0717 14:21:15.069175 27687 net.cpp:382] LSTM_h_conted_30 -> h_conted_30
I0717 14:21:15.069238 27687 net.cpp:124] Setting up LSTM_h_conted_30
I0717 14:21:15.069247 27687 net.cpp:131] Top shape: 1 40 40 (1600)
I0717 14:21:15.069258 27687 net.cpp:139] Memory required for data: 5077760
I0717 14:21:15.069263 27687 layer_factory.hpp:77] Creating layer LSTM_transform_31
I0717 14:21:15.069272 27687 net.cpp:86] Creating Layer LSTM_transform_31
I0717 14:21:15.069278 27687 net.cpp:408] LSTM_transform_31 <- h_conted_30
I0717 14:21:15.069284 27687 net.cpp:382] LSTM_transform_31 -> W_hc_h_30
I0717 14:21:15.069547 27687 net.cpp:124] Setting up LSTM_transform_31
I0717 14:21:15.069557 27687 net.cpp:131] Top shape: 1 40 160 (6400)
I0717 14:21:15.069562 27687 net.cpp:139] Memory required for data: 5103360
I0717 14:21:15.069573 27687 net.cpp:467] Sharing parameters 'W_hc' owned by layer 'LSTM_transform_1', param index 0
I0717 14:21:15.069579 27687 layer_factory.hpp:77] Creating layer LSTM_gate_input_31
I0717 14:21:15.069587 27687 net.cpp:86] Creating Layer LSTM_gate_input_31
I0717 14:21:15.069592 27687 net.cpp:408] LSTM_gate_input_31 <- W_hc_h_30
I0717 14:21:15.069599 27687 net.cpp:408] LSTM_gate_input_31 <- W_xc_x_31
I0717 14:21:15.069607 27687 net.cpp:382] LSTM_gate_input_31 -> gate_input_31
I0717 14:21:15.069633 27687 net.cpp:124] Setting up LSTM_gate_input_31
I0717 14:21:15.069641 27687 net.cpp:131] Top shape: 1 40 160 (6400)
I0717 14:21:15.069645 27687 net.cpp:139] Memory required for data: 5128960
I0717 14:21:15.069650 27687 layer_factory.hpp:77] Creating layer LSTM_unit_31
I0717 14:21:15.069659 27687 net.cpp:86] Creating Layer LSTM_unit_31
I0717 14:21:15.069665 27687 net.cpp:408] LSTM_unit_31 <- c_30
I0717 14:21:15.069672 27687 net.cpp:408] LSTM_unit_31 <- gate_input_31
I0717 14:21:15.069679 27687 net.cpp:408] LSTM_unit_31 <- cont_31_LSTM_cont_slice_30_split_1
I0717 14:21:15.069686 27687 net.cpp:382] LSTM_unit_31 -> c_31
I0717 14:21:15.069695 27687 net.cpp:382] LSTM_unit_31 -> h_31
I0717 14:21:15.069742 27687 net.cpp:124] Setting up LSTM_unit_31
I0717 14:21:15.069751 27687 net.cpp:131] Top shape: 1 40 40 (1600)
I0717 14:21:15.069756 27687 net.cpp:131] Top shape: 1 40 40 (1600)
I0717 14:21:15.069761 27687 net.cpp:139] Memory required for data: 5141760
I0717 14:21:15.069766 27687 layer_factory.hpp:77] Creating layer h_31_LSTM_unit_31_1_split
I0717 14:21:15.069772 27687 net.cpp:86] Creating Layer h_31_LSTM_unit_31_1_split
I0717 14:21:15.069778 27687 net.cpp:408] h_31_LSTM_unit_31_1_split <- h_31
I0717 14:21:15.069787 27687 net.cpp:382] h_31_LSTM_unit_31_1_split -> h_31_LSTM_unit_31_1_split_0
I0717 14:21:15.069797 27687 net.cpp:382] h_31_LSTM_unit_31_1_split -> h_31_LSTM_unit_31_1_split_1
I0717 14:21:15.069829 27687 net.cpp:124] Setting up h_31_LSTM_unit_31_1_split
I0717 14:21:15.069839 27687 net.cpp:131] Top shape: 1 40 40 (1600)
I0717 14:21:15.069844 27687 net.cpp:131] Top shape: 1 40 40 (1600)
I0717 14:21:15.069854 27687 net.cpp:139] Memory required for data: 5154560
I0717 14:21:15.069865 27687 layer_factory.hpp:77] Creating layer LSTM_h_conted_31
I0717 14:21:15.069877 27687 net.cpp:86] Creating Layer LSTM_h_conted_31
I0717 14:21:15.069885 27687 net.cpp:408] LSTM_h_conted_31 <- h_31_LSTM_unit_31_1_split_0
I0717 14:21:15.069890 27687 net.cpp:408] LSTM_h_conted_31 <- cont_32_LSTM_cont_slice_31_split_0
I0717 14:21:15.069900 27687 net.cpp:382] LSTM_h_conted_31 -> h_conted_31
I0717 14:21:15.069963 27687 net.cpp:124] Setting up LSTM_h_conted_31
I0717 14:21:15.069973 27687 net.cpp:131] Top shape: 1 40 40 (1600)
I0717 14:21:15.069977 27687 net.cpp:139] Memory required for data: 5160960
I0717 14:21:15.069983 27687 layer_factory.hpp:77] Creating layer LSTM_transform_32
I0717 14:21:15.069990 27687 net.cpp:86] Creating Layer LSTM_transform_32
I0717 14:21:15.069996 27687 net.cpp:408] LSTM_transform_32 <- h_conted_31
I0717 14:21:15.070003 27687 net.cpp:382] LSTM_transform_32 -> W_hc_h_31
I0717 14:21:15.070266 27687 net.cpp:124] Setting up LSTM_transform_32
I0717 14:21:15.070274 27687 net.cpp:131] Top shape: 1 40 160 (6400)
I0717 14:21:15.070279 27687 net.cpp:139] Memory required for data: 5186560
I0717 14:21:15.070286 27687 net.cpp:467] Sharing parameters 'W_hc' owned by layer 'LSTM_transform_1', param index 0
I0717 14:21:15.070291 27687 layer_factory.hpp:77] Creating layer LSTM_gate_input_32
I0717 14:21:15.070298 27687 net.cpp:86] Creating Layer LSTM_gate_input_32
I0717 14:21:15.070303 27687 net.cpp:408] LSTM_gate_input_32 <- W_hc_h_31
I0717 14:21:15.070310 27687 net.cpp:408] LSTM_gate_input_32 <- W_xc_x_32
I0717 14:21:15.070319 27687 net.cpp:382] LSTM_gate_input_32 -> gate_input_32
I0717 14:21:15.070344 27687 net.cpp:124] Setting up LSTM_gate_input_32
I0717 14:21:15.070353 27687 net.cpp:131] Top shape: 1 40 160 (6400)
I0717 14:21:15.070358 27687 net.cpp:139] Memory required for data: 5212160
I0717 14:21:15.070363 27687 layer_factory.hpp:77] Creating layer LSTM_unit_32
I0717 14:21:15.070369 27687 net.cpp:86] Creating Layer LSTM_unit_32
I0717 14:21:15.070374 27687 net.cpp:408] LSTM_unit_32 <- c_31
I0717 14:21:15.070381 27687 net.cpp:408] LSTM_unit_32 <- gate_input_32
I0717 14:21:15.070387 27687 net.cpp:408] LSTM_unit_32 <- cont_32_LSTM_cont_slice_31_split_1
I0717 14:21:15.070395 27687 net.cpp:382] LSTM_unit_32 -> c_32
I0717 14:21:15.070406 27687 net.cpp:382] LSTM_unit_32 -> h_32
I0717 14:21:15.070453 27687 net.cpp:124] Setting up LSTM_unit_32
I0717 14:21:15.070462 27687 net.cpp:131] Top shape: 1 40 40 (1600)
I0717 14:21:15.070468 27687 net.cpp:131] Top shape: 1 40 40 (1600)
I0717 14:21:15.070472 27687 net.cpp:139] Memory required for data: 5224960
I0717 14:21:15.070477 27687 layer_factory.hpp:77] Creating layer h_32_LSTM_unit_32_1_split
I0717 14:21:15.070484 27687 net.cpp:86] Creating Layer h_32_LSTM_unit_32_1_split
I0717 14:21:15.070490 27687 net.cpp:408] h_32_LSTM_unit_32_1_split <- h_32
I0717 14:21:15.070497 27687 net.cpp:382] h_32_LSTM_unit_32_1_split -> h_32_LSTM_unit_32_1_split_0
I0717 14:21:15.070507 27687 net.cpp:382] h_32_LSTM_unit_32_1_split -> h_32_LSTM_unit_32_1_split_1
I0717 14:21:15.070543 27687 net.cpp:124] Setting up h_32_LSTM_unit_32_1_split
I0717 14:21:15.070550 27687 net.cpp:131] Top shape: 1 40 40 (1600)
I0717 14:21:15.070556 27687 net.cpp:131] Top shape: 1 40 40 (1600)
I0717 14:21:15.070561 27687 net.cpp:139] Memory required for data: 5237760
I0717 14:21:15.070566 27687 layer_factory.hpp:77] Creating layer LSTM_h_conted_32
I0717 14:21:15.070572 27687 net.cpp:86] Creating Layer LSTM_h_conted_32
I0717 14:21:15.070578 27687 net.cpp:408] LSTM_h_conted_32 <- h_32_LSTM_unit_32_1_split_0
I0717 14:21:15.070585 27687 net.cpp:408] LSTM_h_conted_32 <- cont_33_LSTM_cont_slice_32_split_0
I0717 14:21:15.070595 27687 net.cpp:382] LSTM_h_conted_32 -> h_conted_32
I0717 14:21:15.070655 27687 net.cpp:124] Setting up LSTM_h_conted_32
I0717 14:21:15.070664 27687 net.cpp:131] Top shape: 1 40 40 (1600)
I0717 14:21:15.070669 27687 net.cpp:139] Memory required for data: 5244160
I0717 14:21:15.070678 27687 layer_factory.hpp:77] Creating layer LSTM_transform_33
I0717 14:21:15.070693 27687 net.cpp:86] Creating Layer LSTM_transform_33
I0717 14:21:15.070698 27687 net.cpp:408] LSTM_transform_33 <- h_conted_32
I0717 14:21:15.070708 27687 net.cpp:382] LSTM_transform_33 -> W_hc_h_32
I0717 14:21:15.070968 27687 net.cpp:124] Setting up LSTM_transform_33
I0717 14:21:15.070978 27687 net.cpp:131] Top shape: 1 40 160 (6400)
I0717 14:21:15.070983 27687 net.cpp:139] Memory required for data: 5269760
I0717 14:21:15.070988 27687 net.cpp:467] Sharing parameters 'W_hc' owned by layer 'LSTM_transform_1', param index 0
I0717 14:21:15.070994 27687 layer_factory.hpp:77] Creating layer LSTM_gate_input_33
I0717 14:21:15.071002 27687 net.cpp:86] Creating Layer LSTM_gate_input_33
I0717 14:21:15.071007 27687 net.cpp:408] LSTM_gate_input_33 <- W_hc_h_32
I0717 14:21:15.071013 27687 net.cpp:408] LSTM_gate_input_33 <- W_xc_x_33
I0717 14:21:15.071020 27687 net.cpp:382] LSTM_gate_input_33 -> gate_input_33
I0717 14:21:15.071048 27687 net.cpp:124] Setting up LSTM_gate_input_33
I0717 14:21:15.071056 27687 net.cpp:131] Top shape: 1 40 160 (6400)
I0717 14:21:15.071061 27687 net.cpp:139] Memory required for data: 5295360
I0717 14:21:15.071065 27687 layer_factory.hpp:77] Creating layer LSTM_unit_33
I0717 14:21:15.071072 27687 net.cpp:86] Creating Layer LSTM_unit_33
I0717 14:21:15.071079 27687 net.cpp:408] LSTM_unit_33 <- c_32
I0717 14:21:15.071085 27687 net.cpp:408] LSTM_unit_33 <- gate_input_33
I0717 14:21:15.071091 27687 net.cpp:408] LSTM_unit_33 <- cont_33_LSTM_cont_slice_32_split_1
I0717 14:21:15.071099 27687 net.cpp:382] LSTM_unit_33 -> c_33
I0717 14:21:15.071107 27687 net.cpp:382] LSTM_unit_33 -> h_33
I0717 14:21:15.071154 27687 net.cpp:124] Setting up LSTM_unit_33
I0717 14:21:15.071163 27687 net.cpp:131] Top shape: 1 40 40 (1600)
I0717 14:21:15.071169 27687 net.cpp:131] Top shape: 1 40 40 (1600)
I0717 14:21:15.071174 27687 net.cpp:139] Memory required for data: 5308160
I0717 14:21:15.071179 27687 layer_factory.hpp:77] Creating layer h_33_LSTM_unit_33_1_split
I0717 14:21:15.071188 27687 net.cpp:86] Creating Layer h_33_LSTM_unit_33_1_split
I0717 14:21:15.071194 27687 net.cpp:408] h_33_LSTM_unit_33_1_split <- h_33
I0717 14:21:15.071202 27687 net.cpp:382] h_33_LSTM_unit_33_1_split -> h_33_LSTM_unit_33_1_split_0
I0717 14:21:15.071211 27687 net.cpp:382] h_33_LSTM_unit_33_1_split -> h_33_LSTM_unit_33_1_split_1
I0717 14:21:15.071247 27687 net.cpp:124] Setting up h_33_LSTM_unit_33_1_split
I0717 14:21:15.071255 27687 net.cpp:131] Top shape: 1 40 40 (1600)
I0717 14:21:15.071261 27687 net.cpp:131] Top shape: 1 40 40 (1600)
I0717 14:21:15.071266 27687 net.cpp:139] Memory required for data: 5320960
I0717 14:21:15.071270 27687 layer_factory.hpp:77] Creating layer LSTM_h_conted_33
I0717 14:21:15.071277 27687 net.cpp:86] Creating Layer LSTM_h_conted_33
I0717 14:21:15.071283 27687 net.cpp:408] LSTM_h_conted_33 <- h_33_LSTM_unit_33_1_split_0
I0717 14:21:15.071290 27687 net.cpp:408] LSTM_h_conted_33 <- cont_34_LSTM_cont_slice_33_split_0
I0717 14:21:15.071298 27687 net.cpp:382] LSTM_h_conted_33 -> h_conted_33
I0717 14:21:15.071359 27687 net.cpp:124] Setting up LSTM_h_conted_33
I0717 14:21:15.071368 27687 net.cpp:131] Top shape: 1 40 40 (1600)
I0717 14:21:15.071373 27687 net.cpp:139] Memory required for data: 5327360
I0717 14:21:15.071378 27687 layer_factory.hpp:77] Creating layer LSTM_transform_34
I0717 14:21:15.071385 27687 net.cpp:86] Creating Layer LSTM_transform_34
I0717 14:21:15.071391 27687 net.cpp:408] LSTM_transform_34 <- h_conted_33
I0717 14:21:15.071399 27687 net.cpp:382] LSTM_transform_34 -> W_hc_h_33
I0717 14:21:15.071658 27687 net.cpp:124] Setting up LSTM_transform_34
I0717 14:21:15.071668 27687 net.cpp:131] Top shape: 1 40 160 (6400)
I0717 14:21:15.071673 27687 net.cpp:139] Memory required for data: 5352960
I0717 14:21:15.071678 27687 net.cpp:467] Sharing parameters 'W_hc' owned by layer 'LSTM_transform_1', param index 0
I0717 14:21:15.071684 27687 layer_factory.hpp:77] Creating layer LSTM_gate_input_34
I0717 14:21:15.071693 27687 net.cpp:86] Creating Layer LSTM_gate_input_34
I0717 14:21:15.071703 27687 net.cpp:408] LSTM_gate_input_34 <- W_hc_h_33
I0717 14:21:15.071715 27687 net.cpp:408] LSTM_gate_input_34 <- W_xc_x_34
I0717 14:21:15.071723 27687 net.cpp:382] LSTM_gate_input_34 -> gate_input_34
I0717 14:21:15.071749 27687 net.cpp:124] Setting up LSTM_gate_input_34
I0717 14:21:15.071758 27687 net.cpp:131] Top shape: 1 40 160 (6400)
I0717 14:21:15.071763 27687 net.cpp:139] Memory required for data: 5378560
I0717 14:21:15.071768 27687 layer_factory.hpp:77] Creating layer LSTM_unit_34
I0717 14:21:15.071774 27687 net.cpp:86] Creating Layer LSTM_unit_34
I0717 14:21:15.071779 27687 net.cpp:408] LSTM_unit_34 <- c_33
I0717 14:21:15.071786 27687 net.cpp:408] LSTM_unit_34 <- gate_input_34
I0717 14:21:15.071792 27687 net.cpp:408] LSTM_unit_34 <- cont_34_LSTM_cont_slice_33_split_1
I0717 14:21:15.071802 27687 net.cpp:382] LSTM_unit_34 -> c_34
I0717 14:21:15.071811 27687 net.cpp:382] LSTM_unit_34 -> h_34
I0717 14:21:15.071858 27687 net.cpp:124] Setting up LSTM_unit_34
I0717 14:21:15.071867 27687 net.cpp:131] Top shape: 1 40 40 (1600)
I0717 14:21:15.071873 27687 net.cpp:131] Top shape: 1 40 40 (1600)
I0717 14:21:15.071877 27687 net.cpp:139] Memory required for data: 5391360
I0717 14:21:15.071882 27687 layer_factory.hpp:77] Creating layer h_34_LSTM_unit_34_1_split
I0717 14:21:15.071889 27687 net.cpp:86] Creating Layer h_34_LSTM_unit_34_1_split
I0717 14:21:15.071894 27687 net.cpp:408] h_34_LSTM_unit_34_1_split <- h_34
I0717 14:21:15.071902 27687 net.cpp:382] h_34_LSTM_unit_34_1_split -> h_34_LSTM_unit_34_1_split_0
I0717 14:21:15.071910 27687 net.cpp:382] h_34_LSTM_unit_34_1_split -> h_34_LSTM_unit_34_1_split_1
I0717 14:21:15.071946 27687 net.cpp:124] Setting up h_34_LSTM_unit_34_1_split
I0717 14:21:15.071954 27687 net.cpp:131] Top shape: 1 40 40 (1600)
I0717 14:21:15.071960 27687 net.cpp:131] Top shape: 1 40 40 (1600)
I0717 14:21:15.071965 27687 net.cpp:139] Memory required for data: 5404160
I0717 14:21:15.071969 27687 layer_factory.hpp:77] Creating layer LSTM_h_conted_34
I0717 14:21:15.071979 27687 net.cpp:86] Creating Layer LSTM_h_conted_34
I0717 14:21:15.071985 27687 net.cpp:408] LSTM_h_conted_34 <- h_34_LSTM_unit_34_1_split_0
I0717 14:21:15.071991 27687 net.cpp:408] LSTM_h_conted_34 <- cont_35_LSTM_cont_slice_34_split_0
I0717 14:21:15.072000 27687 net.cpp:382] LSTM_h_conted_34 -> h_conted_34
I0717 14:21:15.072062 27687 net.cpp:124] Setting up LSTM_h_conted_34
I0717 14:21:15.072072 27687 net.cpp:131] Top shape: 1 40 40 (1600)
I0717 14:21:15.072077 27687 net.cpp:139] Memory required for data: 5410560
I0717 14:21:15.072082 27687 layer_factory.hpp:77] Creating layer LSTM_transform_35
I0717 14:21:15.072091 27687 net.cpp:86] Creating Layer LSTM_transform_35
I0717 14:21:15.072096 27687 net.cpp:408] LSTM_transform_35 <- h_conted_34
I0717 14:21:15.072104 27687 net.cpp:382] LSTM_transform_35 -> W_hc_h_34
I0717 14:21:15.072369 27687 net.cpp:124] Setting up LSTM_transform_35
I0717 14:21:15.072379 27687 net.cpp:131] Top shape: 1 40 160 (6400)
I0717 14:21:15.072384 27687 net.cpp:139] Memory required for data: 5436160
I0717 14:21:15.072389 27687 net.cpp:467] Sharing parameters 'W_hc' owned by layer 'LSTM_transform_1', param index 0
I0717 14:21:15.072394 27687 layer_factory.hpp:77] Creating layer LSTM_gate_input_35
I0717 14:21:15.072402 27687 net.cpp:86] Creating Layer LSTM_gate_input_35
I0717 14:21:15.072407 27687 net.cpp:408] LSTM_gate_input_35 <- W_hc_h_34
I0717 14:21:15.072414 27687 net.cpp:408] LSTM_gate_input_35 <- W_xc_x_35
I0717 14:21:15.072423 27687 net.cpp:382] LSTM_gate_input_35 -> gate_input_35
I0717 14:21:15.072448 27687 net.cpp:124] Setting up LSTM_gate_input_35
I0717 14:21:15.072456 27687 net.cpp:131] Top shape: 1 40 160 (6400)
I0717 14:21:15.072461 27687 net.cpp:139] Memory required for data: 5461760
I0717 14:21:15.072466 27687 layer_factory.hpp:77] Creating layer LSTM_unit_35
I0717 14:21:15.072473 27687 net.cpp:86] Creating Layer LSTM_unit_35
I0717 14:21:15.072479 27687 net.cpp:408] LSTM_unit_35 <- c_34
I0717 14:21:15.072485 27687 net.cpp:408] LSTM_unit_35 <- gate_input_35
I0717 14:21:15.072496 27687 net.cpp:408] LSTM_unit_35 <- cont_35_LSTM_cont_slice_34_split_1
I0717 14:21:15.072510 27687 net.cpp:382] LSTM_unit_35 -> c_35
I0717 14:21:15.072520 27687 net.cpp:382] LSTM_unit_35 -> h_35
I0717 14:21:15.072568 27687 net.cpp:124] Setting up LSTM_unit_35
I0717 14:21:15.072577 27687 net.cpp:131] Top shape: 1 40 40 (1600)
I0717 14:21:15.072583 27687 net.cpp:131] Top shape: 1 40 40 (1600)
I0717 14:21:15.072587 27687 net.cpp:139] Memory required for data: 5474560
I0717 14:21:15.072592 27687 layer_factory.hpp:77] Creating layer h_35_LSTM_unit_35_1_split
I0717 14:21:15.072599 27687 net.cpp:86] Creating Layer h_35_LSTM_unit_35_1_split
I0717 14:21:15.072604 27687 net.cpp:408] h_35_LSTM_unit_35_1_split <- h_35
I0717 14:21:15.072612 27687 net.cpp:382] h_35_LSTM_unit_35_1_split -> h_35_LSTM_unit_35_1_split_0
I0717 14:21:15.072620 27687 net.cpp:382] h_35_LSTM_unit_35_1_split -> h_35_LSTM_unit_35_1_split_1
I0717 14:21:15.072655 27687 net.cpp:124] Setting up h_35_LSTM_unit_35_1_split
I0717 14:21:15.072664 27687 net.cpp:131] Top shape: 1 40 40 (1600)
I0717 14:21:15.072669 27687 net.cpp:131] Top shape: 1 40 40 (1600)
I0717 14:21:15.072674 27687 net.cpp:139] Memory required for data: 5487360
I0717 14:21:15.072679 27687 layer_factory.hpp:77] Creating layer LSTM_h_conted_35
I0717 14:21:15.072685 27687 net.cpp:86] Creating Layer LSTM_h_conted_35
I0717 14:21:15.072691 27687 net.cpp:408] LSTM_h_conted_35 <- h_35_LSTM_unit_35_1_split_0
I0717 14:21:15.072698 27687 net.cpp:408] LSTM_h_conted_35 <- cont_36_LSTM_cont_slice_35_split_0
I0717 14:21:15.072706 27687 net.cpp:382] LSTM_h_conted_35 -> h_conted_35
I0717 14:21:15.072767 27687 net.cpp:124] Setting up LSTM_h_conted_35
I0717 14:21:15.072775 27687 net.cpp:131] Top shape: 1 40 40 (1600)
I0717 14:21:15.072780 27687 net.cpp:139] Memory required for data: 5493760
I0717 14:21:15.072784 27687 layer_factory.hpp:77] Creating layer LSTM_transform_36
I0717 14:21:15.072793 27687 net.cpp:86] Creating Layer LSTM_transform_36
I0717 14:21:15.072798 27687 net.cpp:408] LSTM_transform_36 <- h_conted_35
I0717 14:21:15.072808 27687 net.cpp:382] LSTM_transform_36 -> W_hc_h_35
I0717 14:21:15.073068 27687 net.cpp:124] Setting up LSTM_transform_36
I0717 14:21:15.073077 27687 net.cpp:131] Top shape: 1 40 160 (6400)
I0717 14:21:15.073082 27687 net.cpp:139] Memory required for data: 5519360
I0717 14:21:15.073087 27687 net.cpp:467] Sharing parameters 'W_hc' owned by layer 'LSTM_transform_1', param index 0
I0717 14:21:15.073093 27687 layer_factory.hpp:77] Creating layer LSTM_gate_input_36
I0717 14:21:15.073101 27687 net.cpp:86] Creating Layer LSTM_gate_input_36
I0717 14:21:15.073107 27687 net.cpp:408] LSTM_gate_input_36 <- W_hc_h_35
I0717 14:21:15.073112 27687 net.cpp:408] LSTM_gate_input_36 <- W_xc_x_36
I0717 14:21:15.073119 27687 net.cpp:382] LSTM_gate_input_36 -> gate_input_36
I0717 14:21:15.073144 27687 net.cpp:124] Setting up LSTM_gate_input_36
I0717 14:21:15.073153 27687 net.cpp:131] Top shape: 1 40 160 (6400)
I0717 14:21:15.073158 27687 net.cpp:139] Memory required for data: 5544960
I0717 14:21:15.073163 27687 layer_factory.hpp:77] Creating layer LSTM_unit_36
I0717 14:21:15.073171 27687 net.cpp:86] Creating Layer LSTM_unit_36
I0717 14:21:15.073177 27687 net.cpp:408] LSTM_unit_36 <- c_35
I0717 14:21:15.073184 27687 net.cpp:408] LSTM_unit_36 <- gate_input_36
I0717 14:21:15.073190 27687 net.cpp:408] LSTM_unit_36 <- cont_36_LSTM_cont_slice_35_split_1
I0717 14:21:15.073197 27687 net.cpp:382] LSTM_unit_36 -> c_36
I0717 14:21:15.073206 27687 net.cpp:382] LSTM_unit_36 -> h_36
I0717 14:21:15.073259 27687 net.cpp:124] Setting up LSTM_unit_36
I0717 14:21:15.073269 27687 net.cpp:131] Top shape: 1 40 40 (1600)
I0717 14:21:15.073276 27687 net.cpp:131] Top shape: 1 40 40 (1600)
I0717 14:21:15.073279 27687 net.cpp:139] Memory required for data: 5557760
I0717 14:21:15.073284 27687 layer_factory.hpp:77] Creating layer h_36_LSTM_unit_36_1_split
I0717 14:21:15.073292 27687 net.cpp:86] Creating Layer h_36_LSTM_unit_36_1_split
I0717 14:21:15.073297 27687 net.cpp:408] h_36_LSTM_unit_36_1_split <- h_36
I0717 14:21:15.073310 27687 net.cpp:382] h_36_LSTM_unit_36_1_split -> h_36_LSTM_unit_36_1_split_0
I0717 14:21:15.073328 27687 net.cpp:382] h_36_LSTM_unit_36_1_split -> h_36_LSTM_unit_36_1_split_1
I0717 14:21:15.073364 27687 net.cpp:124] Setting up h_36_LSTM_unit_36_1_split
I0717 14:21:15.073372 27687 net.cpp:131] Top shape: 1 40 40 (1600)
I0717 14:21:15.073379 27687 net.cpp:131] Top shape: 1 40 40 (1600)
I0717 14:21:15.073384 27687 net.cpp:139] Memory required for data: 5570560
I0717 14:21:15.073387 27687 layer_factory.hpp:77] Creating layer LSTM_h_conted_36
I0717 14:21:15.073397 27687 net.cpp:86] Creating Layer LSTM_h_conted_36
I0717 14:21:15.073403 27687 net.cpp:408] LSTM_h_conted_36 <- h_36_LSTM_unit_36_1_split_0
I0717 14:21:15.073411 27687 net.cpp:408] LSTM_h_conted_36 <- cont_37_LSTM_cont_slice_36_split_0
I0717 14:21:15.073421 27687 net.cpp:382] LSTM_h_conted_36 -> h_conted_36
I0717 14:21:15.073482 27687 net.cpp:124] Setting up LSTM_h_conted_36
I0717 14:21:15.073490 27687 net.cpp:131] Top shape: 1 40 40 (1600)
I0717 14:21:15.073495 27687 net.cpp:139] Memory required for data: 5576960
I0717 14:21:15.073500 27687 layer_factory.hpp:77] Creating layer LSTM_transform_37
I0717 14:21:15.073508 27687 net.cpp:86] Creating Layer LSTM_transform_37
I0717 14:21:15.073513 27687 net.cpp:408] LSTM_transform_37 <- h_conted_36
I0717 14:21:15.073521 27687 net.cpp:382] LSTM_transform_37 -> W_hc_h_36
I0717 14:21:15.073781 27687 net.cpp:124] Setting up LSTM_transform_37
I0717 14:21:15.073789 27687 net.cpp:131] Top shape: 1 40 160 (6400)
I0717 14:21:15.073794 27687 net.cpp:139] Memory required for data: 5602560
I0717 14:21:15.073799 27687 net.cpp:467] Sharing parameters 'W_hc' owned by layer 'LSTM_transform_1', param index 0
I0717 14:21:15.073806 27687 layer_factory.hpp:77] Creating layer LSTM_gate_input_37
I0717 14:21:15.073812 27687 net.cpp:86] Creating Layer LSTM_gate_input_37
I0717 14:21:15.073817 27687 net.cpp:408] LSTM_gate_input_37 <- W_hc_h_36
I0717 14:21:15.073827 27687 net.cpp:408] LSTM_gate_input_37 <- W_xc_x_37
I0717 14:21:15.073833 27687 net.cpp:382] LSTM_gate_input_37 -> gate_input_37
I0717 14:21:15.073858 27687 net.cpp:124] Setting up LSTM_gate_input_37
I0717 14:21:15.073866 27687 net.cpp:131] Top shape: 1 40 160 (6400)
I0717 14:21:15.073871 27687 net.cpp:139] Memory required for data: 5628160
I0717 14:21:15.073876 27687 layer_factory.hpp:77] Creating layer LSTM_unit_37
I0717 14:21:15.073882 27687 net.cpp:86] Creating Layer LSTM_unit_37
I0717 14:21:15.073889 27687 net.cpp:408] LSTM_unit_37 <- c_36
I0717 14:21:15.073894 27687 net.cpp:408] LSTM_unit_37 <- gate_input_37
I0717 14:21:15.073901 27687 net.cpp:408] LSTM_unit_37 <- cont_37_LSTM_cont_slice_36_split_1
I0717 14:21:15.073910 27687 net.cpp:382] LSTM_unit_37 -> c_37
I0717 14:21:15.073920 27687 net.cpp:382] LSTM_unit_37 -> h_37
I0717 14:21:15.073966 27687 net.cpp:124] Setting up LSTM_unit_37
I0717 14:21:15.073976 27687 net.cpp:131] Top shape: 1 40 40 (1600)
I0717 14:21:15.073982 27687 net.cpp:131] Top shape: 1 40 40 (1600)
I0717 14:21:15.073987 27687 net.cpp:139] Memory required for data: 5640960
I0717 14:21:15.073990 27687 layer_factory.hpp:77] Creating layer h_37_LSTM_unit_37_1_split
I0717 14:21:15.073997 27687 net.cpp:86] Creating Layer h_37_LSTM_unit_37_1_split
I0717 14:21:15.074002 27687 net.cpp:408] h_37_LSTM_unit_37_1_split <- h_37
I0717 14:21:15.074009 27687 net.cpp:382] h_37_LSTM_unit_37_1_split -> h_37_LSTM_unit_37_1_split_0
I0717 14:21:15.074019 27687 net.cpp:382] h_37_LSTM_unit_37_1_split -> h_37_LSTM_unit_37_1_split_1
I0717 14:21:15.074054 27687 net.cpp:124] Setting up h_37_LSTM_unit_37_1_split
I0717 14:21:15.074062 27687 net.cpp:131] Top shape: 1 40 40 (1600)
I0717 14:21:15.074069 27687 net.cpp:131] Top shape: 1 40 40 (1600)
I0717 14:21:15.074074 27687 net.cpp:139] Memory required for data: 5653760
I0717 14:21:15.074079 27687 layer_factory.hpp:77] Creating layer LSTM_h_conted_37
I0717 14:21:15.074084 27687 net.cpp:86] Creating Layer LSTM_h_conted_37
I0717 14:21:15.074090 27687 net.cpp:408] LSTM_h_conted_37 <- h_37_LSTM_unit_37_1_split_0
I0717 14:21:15.074098 27687 net.cpp:408] LSTM_h_conted_37 <- cont_38_LSTM_cont_slice_37_split_0
I0717 14:21:15.074117 27687 net.cpp:382] LSTM_h_conted_37 -> h_conted_37
I0717 14:21:15.074182 27687 net.cpp:124] Setting up LSTM_h_conted_37
I0717 14:21:15.074192 27687 net.cpp:131] Top shape: 1 40 40 (1600)
I0717 14:21:15.074196 27687 net.cpp:139] Memory required for data: 5660160
I0717 14:21:15.074200 27687 layer_factory.hpp:77] Creating layer LSTM_transform_38
I0717 14:21:15.074211 27687 net.cpp:86] Creating Layer LSTM_transform_38
I0717 14:21:15.074218 27687 net.cpp:408] LSTM_transform_38 <- h_conted_37
I0717 14:21:15.074225 27687 net.cpp:382] LSTM_transform_38 -> W_hc_h_37
I0717 14:21:15.074486 27687 net.cpp:124] Setting up LSTM_transform_38
I0717 14:21:15.074496 27687 net.cpp:131] Top shape: 1 40 160 (6400)
I0717 14:21:15.074501 27687 net.cpp:139] Memory required for data: 5685760
I0717 14:21:15.074506 27687 net.cpp:467] Sharing parameters 'W_hc' owned by layer 'LSTM_transform_1', param index 0
I0717 14:21:15.074512 27687 layer_factory.hpp:77] Creating layer LSTM_gate_input_38
I0717 14:21:15.074518 27687 net.cpp:86] Creating Layer LSTM_gate_input_38
I0717 14:21:15.074524 27687 net.cpp:408] LSTM_gate_input_38 <- W_hc_h_37
I0717 14:21:15.074530 27687 net.cpp:408] LSTM_gate_input_38 <- W_xc_x_38
I0717 14:21:15.074538 27687 net.cpp:382] LSTM_gate_input_38 -> gate_input_38
I0717 14:21:15.074565 27687 net.cpp:124] Setting up LSTM_gate_input_38
I0717 14:21:15.074574 27687 net.cpp:131] Top shape: 1 40 160 (6400)
I0717 14:21:15.074579 27687 net.cpp:139] Memory required for data: 5711360
I0717 14:21:15.074584 27687 layer_factory.hpp:77] Creating layer LSTM_unit_38
I0717 14:21:15.074590 27687 net.cpp:86] Creating Layer LSTM_unit_38
I0717 14:21:15.074596 27687 net.cpp:408] LSTM_unit_38 <- c_37
I0717 14:21:15.074604 27687 net.cpp:408] LSTM_unit_38 <- gate_input_38
I0717 14:21:15.074610 27687 net.cpp:408] LSTM_unit_38 <- cont_38_LSTM_cont_slice_37_split_1
I0717 14:21:15.074617 27687 net.cpp:382] LSTM_unit_38 -> c_38
I0717 14:21:15.074626 27687 net.cpp:382] LSTM_unit_38 -> h_38
I0717 14:21:15.074674 27687 net.cpp:124] Setting up LSTM_unit_38
I0717 14:21:15.074683 27687 net.cpp:131] Top shape: 1 40 40 (1600)
I0717 14:21:15.074689 27687 net.cpp:131] Top shape: 1 40 40 (1600)
I0717 14:21:15.074694 27687 net.cpp:139] Memory required for data: 5724160
I0717 14:21:15.074698 27687 layer_factory.hpp:77] Creating layer h_38_LSTM_unit_38_1_split
I0717 14:21:15.074707 27687 net.cpp:86] Creating Layer h_38_LSTM_unit_38_1_split
I0717 14:21:15.074713 27687 net.cpp:408] h_38_LSTM_unit_38_1_split <- h_38
I0717 14:21:15.074720 27687 net.cpp:382] h_38_LSTM_unit_38_1_split -> h_38_LSTM_unit_38_1_split_0
I0717 14:21:15.074729 27687 net.cpp:382] h_38_LSTM_unit_38_1_split -> h_38_LSTM_unit_38_1_split_1
I0717 14:21:15.074765 27687 net.cpp:124] Setting up h_38_LSTM_unit_38_1_split
I0717 14:21:15.074774 27687 net.cpp:131] Top shape: 1 40 40 (1600)
I0717 14:21:15.074779 27687 net.cpp:131] Top shape: 1 40 40 (1600)
I0717 14:21:15.074784 27687 net.cpp:139] Memory required for data: 5736960
I0717 14:21:15.074789 27687 layer_factory.hpp:77] Creating layer LSTM_h_conted_38
I0717 14:21:15.074795 27687 net.cpp:86] Creating Layer LSTM_h_conted_38
I0717 14:21:15.074801 27687 net.cpp:408] LSTM_h_conted_38 <- h_38_LSTM_unit_38_1_split_0
I0717 14:21:15.074808 27687 net.cpp:408] LSTM_h_conted_38 <- cont_39_LSTM_cont_slice_38_split_0
I0717 14:21:15.074816 27687 net.cpp:382] LSTM_h_conted_38 -> h_conted_38
I0717 14:21:15.074877 27687 net.cpp:124] Setting up LSTM_h_conted_38
I0717 14:21:15.074887 27687 net.cpp:131] Top shape: 1 40 40 (1600)
I0717 14:21:15.074892 27687 net.cpp:139] Memory required for data: 5743360
I0717 14:21:15.074897 27687 layer_factory.hpp:77] Creating layer LSTM_transform_39
I0717 14:21:15.074903 27687 net.cpp:86] Creating Layer LSTM_transform_39
I0717 14:21:15.074909 27687 net.cpp:408] LSTM_transform_39 <- h_conted_38
I0717 14:21:15.074916 27687 net.cpp:382] LSTM_transform_39 -> W_hc_h_38
I0717 14:21:15.075178 27687 net.cpp:124] Setting up LSTM_transform_39
I0717 14:21:15.075188 27687 net.cpp:131] Top shape: 1 40 160 (6400)
I0717 14:21:15.075197 27687 net.cpp:139] Memory required for data: 5768960
I0717 14:21:15.075208 27687 net.cpp:467] Sharing parameters 'W_hc' owned by layer 'LSTM_transform_1', param index 0
I0717 14:21:15.075214 27687 layer_factory.hpp:77] Creating layer LSTM_gate_input_39
I0717 14:21:15.075225 27687 net.cpp:86] Creating Layer LSTM_gate_input_39
I0717 14:21:15.075232 27687 net.cpp:408] LSTM_gate_input_39 <- W_hc_h_38
I0717 14:21:15.075238 27687 net.cpp:408] LSTM_gate_input_39 <- W_xc_x_39
I0717 14:21:15.075245 27687 net.cpp:382] LSTM_gate_input_39 -> gate_input_39
I0717 14:21:15.075271 27687 net.cpp:124] Setting up LSTM_gate_input_39
I0717 14:21:15.075280 27687 net.cpp:131] Top shape: 1 40 160 (6400)
I0717 14:21:15.075285 27687 net.cpp:139] Memory required for data: 5794560
I0717 14:21:15.075289 27687 layer_factory.hpp:77] Creating layer LSTM_unit_39
I0717 14:21:15.075299 27687 net.cpp:86] Creating Layer LSTM_unit_39
I0717 14:21:15.075304 27687 net.cpp:408] LSTM_unit_39 <- c_38
I0717 14:21:15.075311 27687 net.cpp:408] LSTM_unit_39 <- gate_input_39
I0717 14:21:15.075318 27687 net.cpp:408] LSTM_unit_39 <- cont_39_LSTM_cont_slice_38_split_1
I0717 14:21:15.075325 27687 net.cpp:382] LSTM_unit_39 -> c_39
I0717 14:21:15.075335 27687 net.cpp:382] LSTM_unit_39 -> h_39
I0717 14:21:15.075382 27687 net.cpp:124] Setting up LSTM_unit_39
I0717 14:21:15.075392 27687 net.cpp:131] Top shape: 1 40 40 (1600)
I0717 14:21:15.075397 27687 net.cpp:131] Top shape: 1 40 40 (1600)
I0717 14:21:15.075402 27687 net.cpp:139] Memory required for data: 5807360
I0717 14:21:15.075407 27687 layer_factory.hpp:77] Creating layer h_39_LSTM_unit_39_1_split
I0717 14:21:15.075413 27687 net.cpp:86] Creating Layer h_39_LSTM_unit_39_1_split
I0717 14:21:15.075419 27687 net.cpp:408] h_39_LSTM_unit_39_1_split <- h_39
I0717 14:21:15.075426 27687 net.cpp:382] h_39_LSTM_unit_39_1_split -> h_39_LSTM_unit_39_1_split_0
I0717 14:21:15.075438 27687 net.cpp:382] h_39_LSTM_unit_39_1_split -> h_39_LSTM_unit_39_1_split_1
I0717 14:21:15.075471 27687 net.cpp:124] Setting up h_39_LSTM_unit_39_1_split
I0717 14:21:15.075479 27687 net.cpp:131] Top shape: 1 40 40 (1600)
I0717 14:21:15.075485 27687 net.cpp:131] Top shape: 1 40 40 (1600)
I0717 14:21:15.075489 27687 net.cpp:139] Memory required for data: 5820160
I0717 14:21:15.075495 27687 layer_factory.hpp:77] Creating layer LSTM_h_conted_39
I0717 14:21:15.075505 27687 net.cpp:86] Creating Layer LSTM_h_conted_39
I0717 14:21:15.075511 27687 net.cpp:408] LSTM_h_conted_39 <- h_39_LSTM_unit_39_1_split_0
I0717 14:21:15.075518 27687 net.cpp:408] LSTM_h_conted_39 <- cont_40_LSTM_cont_slice_39_split_0
I0717 14:21:15.075526 27687 net.cpp:382] LSTM_h_conted_39 -> h_conted_39
I0717 14:21:15.075589 27687 net.cpp:124] Setting up LSTM_h_conted_39
I0717 14:21:15.075598 27687 net.cpp:131] Top shape: 1 40 40 (1600)
I0717 14:21:15.075603 27687 net.cpp:139] Memory required for data: 5826560
I0717 14:21:15.075608 27687 layer_factory.hpp:77] Creating layer LSTM_transform_40
I0717 14:21:15.075618 27687 net.cpp:86] Creating Layer LSTM_transform_40
I0717 14:21:15.075623 27687 net.cpp:408] LSTM_transform_40 <- h_conted_39
I0717 14:21:15.075631 27687 net.cpp:382] LSTM_transform_40 -> W_hc_h_39
I0717 14:21:15.075891 27687 net.cpp:124] Setting up LSTM_transform_40
I0717 14:21:15.075901 27687 net.cpp:131] Top shape: 1 40 160 (6400)
I0717 14:21:15.075906 27687 net.cpp:139] Memory required for data: 5852160
I0717 14:21:15.075911 27687 net.cpp:467] Sharing parameters 'W_hc' owned by layer 'LSTM_transform_1', param index 0
I0717 14:21:15.075917 27687 layer_factory.hpp:77] Creating layer LSTM_gate_input_40
I0717 14:21:15.075924 27687 net.cpp:86] Creating Layer LSTM_gate_input_40
I0717 14:21:15.075929 27687 net.cpp:408] LSTM_gate_input_40 <- W_hc_h_39
I0717 14:21:15.075937 27687 net.cpp:408] LSTM_gate_input_40 <- W_xc_x_40
I0717 14:21:15.075945 27687 net.cpp:382] LSTM_gate_input_40 -> gate_input_40
I0717 14:21:15.075971 27687 net.cpp:124] Setting up LSTM_gate_input_40
I0717 14:21:15.075980 27687 net.cpp:131] Top shape: 1 40 160 (6400)
I0717 14:21:15.075989 27687 net.cpp:139] Memory required for data: 5877760
I0717 14:21:15.076000 27687 layer_factory.hpp:77] Creating layer LSTM_unit_40
I0717 14:21:15.076007 27687 net.cpp:86] Creating Layer LSTM_unit_40
I0717 14:21:15.076014 27687 net.cpp:408] LSTM_unit_40 <- c_39
I0717 14:21:15.076020 27687 net.cpp:408] LSTM_unit_40 <- gate_input_40
I0717 14:21:15.076026 27687 net.cpp:408] LSTM_unit_40 <- cont_40_LSTM_cont_slice_39_split_1
I0717 14:21:15.076033 27687 net.cpp:382] LSTM_unit_40 -> c_40
I0717 14:21:15.076043 27687 net.cpp:382] LSTM_unit_40 -> h_40
I0717 14:21:15.076092 27687 net.cpp:124] Setting up LSTM_unit_40
I0717 14:21:15.076100 27687 net.cpp:131] Top shape: 1 40 40 (1600)
I0717 14:21:15.076105 27687 net.cpp:131] Top shape: 1 40 40 (1600)
I0717 14:21:15.076110 27687 net.cpp:139] Memory required for data: 5890560
I0717 14:21:15.076115 27687 layer_factory.hpp:77] Creating layer h_40_LSTM_unit_40_1_split
I0717 14:21:15.076122 27687 net.cpp:86] Creating Layer h_40_LSTM_unit_40_1_split
I0717 14:21:15.076128 27687 net.cpp:408] h_40_LSTM_unit_40_1_split <- h_40
I0717 14:21:15.076133 27687 net.cpp:382] h_40_LSTM_unit_40_1_split -> h_40_LSTM_unit_40_1_split_0
I0717 14:21:15.076143 27687 net.cpp:382] h_40_LSTM_unit_40_1_split -> h_40_LSTM_unit_40_1_split_1
I0717 14:21:15.076179 27687 net.cpp:124] Setting up h_40_LSTM_unit_40_1_split
I0717 14:21:15.076187 27687 net.cpp:131] Top shape: 1 40 40 (1600)
I0717 14:21:15.076194 27687 net.cpp:131] Top shape: 1 40 40 (1600)
I0717 14:21:15.076197 27687 net.cpp:139] Memory required for data: 5903360
I0717 14:21:15.076202 27687 layer_factory.hpp:77] Creating layer LSTM_h_conted_40
I0717 14:21:15.076210 27687 net.cpp:86] Creating Layer LSTM_h_conted_40
I0717 14:21:15.076215 27687 net.cpp:408] LSTM_h_conted_40 <- h_40_LSTM_unit_40_1_split_0
I0717 14:21:15.076221 27687 net.cpp:408] LSTM_h_conted_40 <- cont_41_LSTM_cont_slice_40_split_0
I0717 14:21:15.076230 27687 net.cpp:382] LSTM_h_conted_40 -> h_conted_40
I0717 14:21:15.076289 27687 net.cpp:124] Setting up LSTM_h_conted_40
I0717 14:21:15.076298 27687 net.cpp:131] Top shape: 1 40 40 (1600)
I0717 14:21:15.076303 27687 net.cpp:139] Memory required for data: 5909760
I0717 14:21:15.076308 27687 layer_factory.hpp:77] Creating layer LSTM_transform_41
I0717 14:21:15.076315 27687 net.cpp:86] Creating Layer LSTM_transform_41
I0717 14:21:15.076320 27687 net.cpp:408] LSTM_transform_41 <- h_conted_40
I0717 14:21:15.076330 27687 net.cpp:382] LSTM_transform_41 -> W_hc_h_40
I0717 14:21:15.076591 27687 net.cpp:124] Setting up LSTM_transform_41
I0717 14:21:15.076601 27687 net.cpp:131] Top shape: 1 40 160 (6400)
I0717 14:21:15.076606 27687 net.cpp:139] Memory required for data: 5935360
I0717 14:21:15.076611 27687 net.cpp:467] Sharing parameters 'W_hc' owned by layer 'LSTM_transform_1', param index 0
I0717 14:21:15.076617 27687 layer_factory.hpp:77] Creating layer LSTM_gate_input_41
I0717 14:21:15.076623 27687 net.cpp:86] Creating Layer LSTM_gate_input_41
I0717 14:21:15.076628 27687 net.cpp:408] LSTM_gate_input_41 <- W_hc_h_40
I0717 14:21:15.076635 27687 net.cpp:408] LSTM_gate_input_41 <- W_xc_x_41
I0717 14:21:15.076642 27687 net.cpp:382] LSTM_gate_input_41 -> gate_input_41
I0717 14:21:15.076668 27687 net.cpp:124] Setting up LSTM_gate_input_41
I0717 14:21:15.076675 27687 net.cpp:131] Top shape: 1 40 160 (6400)
I0717 14:21:15.076680 27687 net.cpp:139] Memory required for data: 5960960
I0717 14:21:15.076685 27687 layer_factory.hpp:77] Creating layer LSTM_unit_41
I0717 14:21:15.076694 27687 net.cpp:86] Creating Layer LSTM_unit_41
I0717 14:21:15.076700 27687 net.cpp:408] LSTM_unit_41 <- c_40
I0717 14:21:15.076706 27687 net.cpp:408] LSTM_unit_41 <- gate_input_41
I0717 14:21:15.076714 27687 net.cpp:408] LSTM_unit_41 <- cont_41_LSTM_cont_slice_40_split_1
I0717 14:21:15.076723 27687 net.cpp:382] LSTM_unit_41 -> c_41
I0717 14:21:15.076732 27687 net.cpp:382] LSTM_unit_41 -> h_41
I0717 14:21:15.076781 27687 net.cpp:124] Setting up LSTM_unit_41
I0717 14:21:15.076788 27687 net.cpp:131] Top shape: 1 40 40 (1600)
I0717 14:21:15.076794 27687 net.cpp:131] Top shape: 1 40 40 (1600)
I0717 14:21:15.076803 27687 net.cpp:139] Memory required for data: 5973760
I0717 14:21:15.076814 27687 layer_factory.hpp:77] Creating layer h_41_LSTM_unit_41_1_split
I0717 14:21:15.076822 27687 net.cpp:86] Creating Layer h_41_LSTM_unit_41_1_split
I0717 14:21:15.076827 27687 net.cpp:408] h_41_LSTM_unit_41_1_split <- h_41
I0717 14:21:15.076835 27687 net.cpp:382] h_41_LSTM_unit_41_1_split -> h_41_LSTM_unit_41_1_split_0
I0717 14:21:15.076844 27687 net.cpp:382] h_41_LSTM_unit_41_1_split -> h_41_LSTM_unit_41_1_split_1
I0717 14:21:15.076879 27687 net.cpp:124] Setting up h_41_LSTM_unit_41_1_split
I0717 14:21:15.076887 27687 net.cpp:131] Top shape: 1 40 40 (1600)
I0717 14:21:15.076894 27687 net.cpp:131] Top shape: 1 40 40 (1600)
I0717 14:21:15.076898 27687 net.cpp:139] Memory required for data: 5986560
I0717 14:21:15.076902 27687 layer_factory.hpp:77] Creating layer LSTM_h_conted_41
I0717 14:21:15.076911 27687 net.cpp:86] Creating Layer LSTM_h_conted_41
I0717 14:21:15.076917 27687 net.cpp:408] LSTM_h_conted_41 <- h_41_LSTM_unit_41_1_split_0
I0717 14:21:15.076925 27687 net.cpp:408] LSTM_h_conted_41 <- cont_42_LSTM_cont_slice_41_split_0
I0717 14:21:15.076937 27687 net.cpp:382] LSTM_h_conted_41 -> h_conted_41
I0717 14:21:15.076999 27687 net.cpp:124] Setting up LSTM_h_conted_41
I0717 14:21:15.077008 27687 net.cpp:131] Top shape: 1 40 40 (1600)
I0717 14:21:15.077013 27687 net.cpp:139] Memory required for data: 5992960
I0717 14:21:15.077018 27687 layer_factory.hpp:77] Creating layer LSTM_transform_42
I0717 14:21:15.077024 27687 net.cpp:86] Creating Layer LSTM_transform_42
I0717 14:21:15.077030 27687 net.cpp:408] LSTM_transform_42 <- h_conted_41
I0717 14:21:15.077039 27687 net.cpp:382] LSTM_transform_42 -> W_hc_h_41
I0717 14:21:15.077307 27687 net.cpp:124] Setting up LSTM_transform_42
I0717 14:21:15.077317 27687 net.cpp:131] Top shape: 1 40 160 (6400)
I0717 14:21:15.077322 27687 net.cpp:139] Memory required for data: 6018560
I0717 14:21:15.077328 27687 net.cpp:467] Sharing parameters 'W_hc' owned by layer 'LSTM_transform_1', param index 0
I0717 14:21:15.077333 27687 layer_factory.hpp:77] Creating layer LSTM_gate_input_42
I0717 14:21:15.077359 27687 net.cpp:86] Creating Layer LSTM_gate_input_42
I0717 14:21:15.077366 27687 net.cpp:408] LSTM_gate_input_42 <- W_hc_h_41
I0717 14:21:15.077373 27687 net.cpp:408] LSTM_gate_input_42 <- W_xc_x_42
I0717 14:21:15.077381 27687 net.cpp:382] LSTM_gate_input_42 -> gate_input_42
I0717 14:21:15.077410 27687 net.cpp:124] Setting up LSTM_gate_input_42
I0717 14:21:15.077419 27687 net.cpp:131] Top shape: 1 40 160 (6400)
I0717 14:21:15.077425 27687 net.cpp:139] Memory required for data: 6044160
I0717 14:21:15.077430 27687 layer_factory.hpp:77] Creating layer LSTM_unit_42
I0717 14:21:15.077436 27687 net.cpp:86] Creating Layer LSTM_unit_42
I0717 14:21:15.077442 27687 net.cpp:408] LSTM_unit_42 <- c_41
I0717 14:21:15.077450 27687 net.cpp:408] LSTM_unit_42 <- gate_input_42
I0717 14:21:15.077455 27687 net.cpp:408] LSTM_unit_42 <- cont_42_LSTM_cont_slice_41_split_1
I0717 14:21:15.077463 27687 net.cpp:382] LSTM_unit_42 -> c_42
I0717 14:21:15.077472 27687 net.cpp:382] LSTM_unit_42 -> h_42
I0717 14:21:15.077520 27687 net.cpp:124] Setting up LSTM_unit_42
I0717 14:21:15.077528 27687 net.cpp:131] Top shape: 1 40 40 (1600)
I0717 14:21:15.077534 27687 net.cpp:131] Top shape: 1 40 40 (1600)
I0717 14:21:15.077539 27687 net.cpp:139] Memory required for data: 6056960
I0717 14:21:15.077544 27687 layer_factory.hpp:77] Creating layer h_42_LSTM_unit_42_1_split
I0717 14:21:15.077553 27687 net.cpp:86] Creating Layer h_42_LSTM_unit_42_1_split
I0717 14:21:15.077558 27687 net.cpp:408] h_42_LSTM_unit_42_1_split <- h_42
I0717 14:21:15.077565 27687 net.cpp:382] h_42_LSTM_unit_42_1_split -> h_42_LSTM_unit_42_1_split_0
I0717 14:21:15.077574 27687 net.cpp:382] h_42_LSTM_unit_42_1_split -> h_42_LSTM_unit_42_1_split_1
I0717 14:21:15.077612 27687 net.cpp:124] Setting up h_42_LSTM_unit_42_1_split
I0717 14:21:15.077621 27687 net.cpp:131] Top shape: 1 40 40 (1600)
I0717 14:21:15.077627 27687 net.cpp:131] Top shape: 1 40 40 (1600)
I0717 14:21:15.077636 27687 net.cpp:139] Memory required for data: 6069760
I0717 14:21:15.077647 27687 layer_factory.hpp:77] Creating layer LSTM_h_conted_42
I0717 14:21:15.077654 27687 net.cpp:86] Creating Layer LSTM_h_conted_42
I0717 14:21:15.077661 27687 net.cpp:408] LSTM_h_conted_42 <- h_42_LSTM_unit_42_1_split_0
I0717 14:21:15.077667 27687 net.cpp:408] LSTM_h_conted_42 <- cont_43_LSTM_cont_slice_42_split_0
I0717 14:21:15.077675 27687 net.cpp:382] LSTM_h_conted_42 -> h_conted_42
I0717 14:21:15.077736 27687 net.cpp:124] Setting up LSTM_h_conted_42
I0717 14:21:15.077745 27687 net.cpp:131] Top shape: 1 40 40 (1600)
I0717 14:21:15.077749 27687 net.cpp:139] Memory required for data: 6076160
I0717 14:21:15.077754 27687 layer_factory.hpp:77] Creating layer LSTM_transform_43
I0717 14:21:15.077764 27687 net.cpp:86] Creating Layer LSTM_transform_43
I0717 14:21:15.077769 27687 net.cpp:408] LSTM_transform_43 <- h_conted_42
I0717 14:21:15.077777 27687 net.cpp:382] LSTM_transform_43 -> W_hc_h_42
I0717 14:21:15.078039 27687 net.cpp:124] Setting up LSTM_transform_43
I0717 14:21:15.078049 27687 net.cpp:131] Top shape: 1 40 160 (6400)
I0717 14:21:15.078054 27687 net.cpp:139] Memory required for data: 6101760
I0717 14:21:15.078059 27687 net.cpp:467] Sharing parameters 'W_hc' owned by layer 'LSTM_transform_1', param index 0
I0717 14:21:15.078065 27687 layer_factory.hpp:77] Creating layer LSTM_gate_input_43
I0717 14:21:15.078074 27687 net.cpp:86] Creating Layer LSTM_gate_input_43
I0717 14:21:15.078080 27687 net.cpp:408] LSTM_gate_input_43 <- W_hc_h_42
I0717 14:21:15.078086 27687 net.cpp:408] LSTM_gate_input_43 <- W_xc_x_43
I0717 14:21:15.078094 27687 net.cpp:382] LSTM_gate_input_43 -> gate_input_43
I0717 14:21:15.078119 27687 net.cpp:124] Setting up LSTM_gate_input_43
I0717 14:21:15.078128 27687 net.cpp:131] Top shape: 1 40 160 (6400)
I0717 14:21:15.078132 27687 net.cpp:139] Memory required for data: 6127360
I0717 14:21:15.078137 27687 layer_factory.hpp:77] Creating layer LSTM_unit_43
I0717 14:21:15.078145 27687 net.cpp:86] Creating Layer LSTM_unit_43
I0717 14:21:15.078150 27687 net.cpp:408] LSTM_unit_43 <- c_42
I0717 14:21:15.078156 27687 net.cpp:408] LSTM_unit_43 <- gate_input_43
I0717 14:21:15.078162 27687 net.cpp:408] LSTM_unit_43 <- cont_43_LSTM_cont_slice_42_split_1
I0717 14:21:15.078173 27687 net.cpp:382] LSTM_unit_43 -> c_43
I0717 14:21:15.078183 27687 net.cpp:382] LSTM_unit_43 -> h_43
I0717 14:21:15.078230 27687 net.cpp:124] Setting up LSTM_unit_43
I0717 14:21:15.078239 27687 net.cpp:131] Top shape: 1 40 40 (1600)
I0717 14:21:15.078245 27687 net.cpp:131] Top shape: 1 40 40 (1600)
I0717 14:21:15.078250 27687 net.cpp:139] Memory required for data: 6140160
I0717 14:21:15.078254 27687 layer_factory.hpp:77] Creating layer h_43_LSTM_unit_43_1_split
I0717 14:21:15.078261 27687 net.cpp:86] Creating Layer h_43_LSTM_unit_43_1_split
I0717 14:21:15.078268 27687 net.cpp:408] h_43_LSTM_unit_43_1_split <- h_43
I0717 14:21:15.078274 27687 net.cpp:382] h_43_LSTM_unit_43_1_split -> h_43_LSTM_unit_43_1_split_0
I0717 14:21:15.078284 27687 net.cpp:382] h_43_LSTM_unit_43_1_split -> h_43_LSTM_unit_43_1_split_1
I0717 14:21:15.078320 27687 net.cpp:124] Setting up h_43_LSTM_unit_43_1_split
I0717 14:21:15.078327 27687 net.cpp:131] Top shape: 1 40 40 (1600)
I0717 14:21:15.078333 27687 net.cpp:131] Top shape: 1 40 40 (1600)
I0717 14:21:15.078338 27687 net.cpp:139] Memory required for data: 6152960
I0717 14:21:15.078342 27687 layer_factory.hpp:77] Creating layer LSTM_h_conted_43
I0717 14:21:15.078351 27687 net.cpp:86] Creating Layer LSTM_h_conted_43
I0717 14:21:15.078357 27687 net.cpp:408] LSTM_h_conted_43 <- h_43_LSTM_unit_43_1_split_0
I0717 14:21:15.078364 27687 net.cpp:408] LSTM_h_conted_43 <- cont_44_LSTM_cont_slice_43_split_0
I0717 14:21:15.078372 27687 net.cpp:382] LSTM_h_conted_43 -> h_conted_43
I0717 14:21:15.078434 27687 net.cpp:124] Setting up LSTM_h_conted_43
I0717 14:21:15.078444 27687 net.cpp:131] Top shape: 1 40 40 (1600)
I0717 14:21:15.078449 27687 net.cpp:139] Memory required for data: 6159360
I0717 14:21:15.078452 27687 layer_factory.hpp:77] Creating layer LSTM_transform_44
I0717 14:21:15.078467 27687 net.cpp:86] Creating Layer LSTM_transform_44
I0717 14:21:15.078480 27687 net.cpp:408] LSTM_transform_44 <- h_conted_43
I0717 14:21:15.078488 27687 net.cpp:382] LSTM_transform_44 -> W_hc_h_43
I0717 14:21:15.078750 27687 net.cpp:124] Setting up LSTM_transform_44
I0717 14:21:15.078760 27687 net.cpp:131] Top shape: 1 40 160 (6400)
I0717 14:21:15.078765 27687 net.cpp:139] Memory required for data: 6184960
I0717 14:21:15.078770 27687 net.cpp:467] Sharing parameters 'W_hc' owned by layer 'LSTM_transform_1', param index 0
I0717 14:21:15.078776 27687 layer_factory.hpp:77] Creating layer LSTM_gate_input_44
I0717 14:21:15.078783 27687 net.cpp:86] Creating Layer LSTM_gate_input_44
I0717 14:21:15.078789 27687 net.cpp:408] LSTM_gate_input_44 <- W_hc_h_43
I0717 14:21:15.078795 27687 net.cpp:408] LSTM_gate_input_44 <- W_xc_x_44
I0717 14:21:15.078804 27687 net.cpp:382] LSTM_gate_input_44 -> gate_input_44
I0717 14:21:15.078830 27687 net.cpp:124] Setting up LSTM_gate_input_44
I0717 14:21:15.078840 27687 net.cpp:131] Top shape: 1 40 160 (6400)
I0717 14:21:15.078845 27687 net.cpp:139] Memory required for data: 6210560
I0717 14:21:15.078848 27687 layer_factory.hpp:77] Creating layer LSTM_unit_44
I0717 14:21:15.078855 27687 net.cpp:86] Creating Layer LSTM_unit_44
I0717 14:21:15.078862 27687 net.cpp:408] LSTM_unit_44 <- c_43
I0717 14:21:15.078868 27687 net.cpp:408] LSTM_unit_44 <- gate_input_44
I0717 14:21:15.078876 27687 net.cpp:408] LSTM_unit_44 <- cont_44_LSTM_cont_slice_43_split_1
I0717 14:21:15.078883 27687 net.cpp:382] LSTM_unit_44 -> c_44
I0717 14:21:15.078892 27687 net.cpp:382] LSTM_unit_44 -> h_44
I0717 14:21:15.078941 27687 net.cpp:124] Setting up LSTM_unit_44
I0717 14:21:15.078950 27687 net.cpp:131] Top shape: 1 40 40 (1600)
I0717 14:21:15.078956 27687 net.cpp:131] Top shape: 1 40 40 (1600)
I0717 14:21:15.078960 27687 net.cpp:139] Memory required for data: 6223360
I0717 14:21:15.078965 27687 layer_factory.hpp:77] Creating layer LSTM_
I0717 14:21:15.078971 27687 net.cpp:86] Creating Layer LSTM_
I0717 14:21:15.078977 27687 net.cpp:408] LSTM_ <- c_44
I0717 14:21:15.078984 27687 net.cpp:382] LSTM_ -> c_T
I0717 14:21:15.079007 27687 net.cpp:124] Setting up LSTM_
I0717 14:21:15.079015 27687 net.cpp:131] Top shape: 1 40 40 (1600)
I0717 14:21:15.079020 27687 net.cpp:139] Memory required for data: 6229760
I0717 14:21:15.079025 27687 layer_factory.hpp:77] Creating layer LSTM_h_concat
I0717 14:21:15.079041 27687 net.cpp:86] Creating Layer LSTM_h_concat
I0717 14:21:15.079047 27687 net.cpp:408] LSTM_h_concat <- h_1_LSTM_unit_1_1_split_1
I0717 14:21:15.079054 27687 net.cpp:408] LSTM_h_concat <- h_2_LSTM_unit_2_1_split_1
…
