…
  top: "data"
  include {
    phase: TRAIN
  }
  dummy_data_param {
    data_filler {
      type: "constant"
    }
    shape {
      dim: 44
      dim: 40
      dim: 40
    }
  }
}
layer {
  name: "cont"
  type: "DummyData"
  top: "cont"
  dummy_data_param {
    data_filler {
      type: "constant"
    }
    shape {
      dim: 44
      dim: 40
    }
  }
}
layer {
  name: "y_train"
  type: "DummyData"
  top: "label"
  include {
    phase: TRAIN
  }
  dummy_data_param {
    data_filler {
      type: "constant"
    }
    shape {
      dim: 44
      dim: 40
    }
  }
}
layer {
  name: "LSTM"
  type: "LSTM"
  bottom: "data"
  bottom: "cont"
  top: "ip1"
  recurrent_param {
    num_output: 40
    weight_filler {
      type: "gaussian"
      std: 0.1
    }
    bias_filler {
      type: "constant"
    }
  }
}
layer {
  name: "SOFTMAX"
  type: "SoftmaxWithLoss"
  bottom: "ip1"
  bottom: "label"
  top: "loss"
}
I0718 14:46:40.569155 31838 layer_factory.hpp:77] Creating layer x_train
I0718 14:46:40.569178 31838 net.cpp:86] Creating Layer x_train
I0718 14:46:40.569188 31838 net.cpp:382] x_train -> data
I0718 14:46:40.606087 31838 net.cpp:124] Setting up x_train
I0718 14:46:40.606139 31838 net.cpp:131] Top shape: 44 40 40 (70400)
I0718 14:46:40.606147 31838 net.cpp:139] Memory required for data: 281600
I0718 14:46:40.606158 31838 layer_factory.hpp:77] Creating layer cont
I0718 14:46:40.606180 31838 net.cpp:86] Creating Layer cont
I0718 14:46:40.606190 31838 net.cpp:382] cont -> cont
I0718 14:46:40.607478 31838 net.cpp:124] Setting up cont
I0718 14:46:40.607499 31838 net.cpp:131] Top shape: 44 40 (1760)
I0718 14:46:40.607506 31838 net.cpp:139] Memory required for data: 288640
I0718 14:46:40.607512 31838 layer_factory.hpp:77] Creating layer y_train
I0718 14:46:40.607523 31838 net.cpp:86] Creating Layer y_train
I0718 14:46:40.607532 31838 net.cpp:382] y_train -> label
I0718 14:46:40.607586 31838 net.cpp:124] Setting up y_train
I0718 14:46:40.607597 31838 net.cpp:131] Top shape: 44 40 (1760)
I0718 14:46:40.607602 31838 net.cpp:139] Memory required for data: 295680
I0718 14:46:40.607609 31838 layer_factory.hpp:77] Creating layer LSTM
I0718 14:46:40.607623 31838 net.cpp:86] Creating Layer LSTM
I0718 14:46:40.607632 31838 net.cpp:408] LSTM <- data
I0718 14:46:40.607645 31838 net.cpp:408] LSTM <- cont
I0718 14:46:40.607656 31838 net.cpp:382] LSTM -> ip1
I0718 14:46:40.607673 31838 recurrent_layer.cpp:20] Initializing recurrent layer: assuming input batch contains 44 timesteps of 40 independent streams.
I0718 14:46:40.609434 31838 net.cpp:53] Initializing net from parameters: 
layer {
  name: "LSTM_"
  type: "Input"
  top: "x"
  top: "cont"
  input_param {
    shape {
      dim: 44
      dim: 40
      dim: 40
    }
    shape {
      dim: 44
      dim: 40
    }
  }
}
layer {
  name: "LSTM_"
  type: "Input"
  top: "c_0"
  top: "h_0"
  input_param {
    shape {
      dim: 1
      dim: 40
      dim: 40
    }
    shape {
      dim: 1
      dim: 40
      dim: 40
    }
  }
}
layer {
  name: "LSTM_cont_slice"
  type: "Slice"
  bottom: "cont"
  top: "cont_1"
  top: "cont_2"
  top: "cont_3"
  top: "cont_4"
  top: "cont_5"
  top: "cont_6"
  top: "cont_7"
  top: "cont_8"
  top: "cont_9"
  top: "cont_10"
  top: "cont_11"
  top: "cont_12"
  top: "cont_13"
  top: "cont_14"
  top: "cont_15"
  top: "cont_16"
  top: "cont_17"
  top: "cont_18"
  top: "cont_19"
  top: "cont_20"
  top: "cont_21"
  top: "cont_22"
  top: "cont_23"
  top: "cont_24"
  top: "cont_25"
  top: "cont_26"
  top: "cont_27"
  top: "cont_28"
  top: "cont_29"
  top: "cont_30"
  top: "cont_31"
  top: "cont_32"
  top: "cont_33"
  top: "cont_34"
  top: "cont_35"
  top: "cont_36"
  top: "cont_37"
  top: "cont_38"
  top: "cont_39"
  top: "cont_40"
  top: "cont_41"
  top: "cont_42"
  top: "cont_43"
  top: "cont_44"
  slice_param {
    axis: 0
  }
}
layer {
  name: "LSTM_x_transform"
  type: "InnerProduct"
  bottom: "x"
  top: "W_xc_x"
  param {
    name: "W_xc"
  }
  param {
    name: "b_c"
  }
  propagate_down: true
  inner_product_param {
    num_output: 160
    bias_term: true
    weight_filler {
      type: "gaussian"
      std: 0.1
    }
    bias_filler {
      type: "constant"
    }
    axis: 2
  }
}
layer {
  name: "LSTM_W_xc_x_slice"
  type: "Slice"
  bottom: "W_xc_x"
  top: "W_xc_x_1"
  top: "W_xc_x_2"
  top: "W_xc_x_3"
  top: "W_xc_x_4"
  top: "W_xc_x_5"
  top: "W_xc_x_6"
  top: "W_xc_x_7"
  top: "W_xc_x_8"
  top: "W_xc_x_9"
  top: "W_xc_x_10"
  top: "W_xc_x_11"
  top: "W_xc_x_12"
  top: "W_xc_x_13"
  top: "W_xc_x_14"
  top: "W_xc_x_15"
  top: "W_xc_x_16"
  top: "W_xc_x_17"
  top: "W_xc_x_18"
  top: "W_xc_x_19"
  top: "W_xc_x_20"
  top: "W_xc_x_21"
  top: "W_xc_x_22"
  top: "W_xc_x_23"
  top: "W_xc_x_24"
  top: "W_xc_x_25"
  top: "W_xc_x_26"
  top: "W_xc_x_27"
  top: "W_xc_x_28"
  top: "W_xc_x_29"
  top: "W_xc_x_30"
  top: "W_xc_x_31"
  top: "W_xc_x_32"
  top: "W_xc_x_33"
  top: "W_xc_x_34"
  top: "W_xc_x_35"
  top: "W_xc_x_36"
  top: "W_xc_x_37"
  top: "W_xc_x_38"
  top: "W_xc_x_39"
  top: "W_xc_x_40"
  top: "W_xc_x_41"
  top: "W_xc_x_42"
  top: "W_xc_x_43"
  top: "W_xc_x_44"
  slice_param {
    axis: 0
  }
}
layer {
  name: "LSTM_h_conted_0"
  type: "Scale"
  bottom: "h_0"
  bottom: "cont_1"
  top: "h_conted_0"
  scale_param {
    axis: 0
  }
}
layer {
  name: "LSTM_transform_1"
  type: "InnerProduct"
  bottom: "h_conted_0"
  top: "W_hc_h_0"
  param {
    name: "W_hc"
  }
  inner_product_param {
    num_output: 160
    bias_term: false
    weight_filler {
      type: "gaussian"
      std: 0.1
    }
    axis: 2
  }
}
layer {
  name: "LSTM_gate_input_1"
  type: "Eltwise"
  bottom: "W_hc_h_0"
  bottom: "W_xc_x_1"
  top: "gate_input_1"
  eltwise_param {
    operation: SUM
  }
}
layer {
  name: "LSTM_unit_1"
  type: "LSTMUnit"
  bottom: "c_0"
  bottom: "gate_input_1"
  bottom: "cont_1"
  top: "c_1"
  top: "h_1"
}
layer {
  name: "LSTM_h_conted_1"
  type: "Scale"
  bottom: "h_1"
  bottom: "cont_2"
  top: "h_conted_1"
  scale_param {
    axis: 0
  }
}
layer {
  name: "LSTM_transform_2"
  type: "InnerProduct"
  bottom: "h_conted_1"
  top: "W_hc_h_1"
  param {
    name: "W_hc"
  }
  inner_product_param {
    num_output: 160
    bias_term: false
    weight_filler {
      type: "gaussian"
      std: 0.1
    }
    axis: 2
  }
}
layer {
  name: "LSTM_gate_input_2"
  type: "Eltwise"
  bottom: "W_hc_h_1"
  bottom: "W_xc_x_2"
  top: "gate_input_2"
  eltwise_param {
    operation: SUM
  }
}
layer {
  name: "LSTM_unit_2"
  type: "LSTMUnit"
  bottom: "c_1"
  bottom: "gate_input_2"
  bottom: "cont_2"
  top: "c_2"
  top: "h_2"
}
layer {
  name: "LSTM_h_conted_2"
  type: "Scale"
  bottom: "h_2"
  bottom: "cont_3"
  top: "h_conted_2"
  scale_param {
    axis: 0
  }
}
layer {
  name: "LSTM_transform_3"
  type: "InnerProduct"
  bottom: "h_conted_2"
  top: "W_hc_h_2"
  param {
    name: "W_hc"
  }
  inner_product_param {
    num_output: 160
    bias_term: false
    weight_filler {
      type: "gaussian"
      std: 0.1
    }
    axis: 2
  }
}
layer {
  name: "LSTM_gate_input_3"
  type: "Eltwise"
  bottom: "W_hc_h_2"
  bottom: "W_xc_x_3"
  top: "gate_input_3"
  eltwise_param {
    operation: SUM
  }
}
layer {
  name: "LSTM_unit_3"
  type: "LSTMUnit"
  bottom: "c_2"
  bottom: "gate_input_3"
  bottom: "cont_3"
  top: "c_3"
  top: "h_3"
}
layer {
  name: "LSTM_h_conted_3"
  type: "Scale"
  bottom: "h_3"
  bottom: "cont_4"
  top: "h_conted_3"
  scale_param {
    axis: 0
  }
}
layer {
  name: "LSTM_transform_4"
  type: "InnerProduct"
  bottom: "h_conted_3"
  top: "W_hc_h_3"
  param {
    name: "W_hc"
  }
  inner_product_param {
    num_output: 160
    bias_term: false
    weight_filler {
      type: "gaussian"
      std: 0.1
    }
    axis: 2
  }
}
layer {
  name: "LSTM_gate_input_4"
  type: "Eltwise"
  bottom: "W_hc_h_3"
  bottom: "W_xc_x_4"
  top: "gate_input_4"
  eltwise_param {
    operation: SUM
  }
}
layer {
  name: "LSTM_unit_4"
  type: "LSTMUnit"
  bottom: "c_3"
  bottom: "gate_input_4"
  bottom: "cont_4"
  top: "c_4"
  top: "h_4"
}
layer {
  name: "LSTM_h_conted_4"
  type: "Scale"
  bottom: "h_4"
  bottom: "cont_5"
  top: "h_conted_4"
  scale_param {
    axis: 0
  }
}
layer {
  name: "LSTM_transform_5"
  type: "InnerProduct"
  bottom: "h_conted_4"
  top: "W_hc_h_4"
  param {
    name: "W_hc"
  }
  inner_product_param {
    num_output: 160
    bias_term: false
    weight_filler {
      type: "gaussian"
      std: 0.1
    }
    axis: 2
  }
}
layer {
  name: "LSTM_gate_input_5"
  type: "Eltwise"
  bottom: "W_hc_h_4"
  bottom: "W_xc_x_5"
  top: "gate_input_5"
  eltwise_param {
    operation: SUM
  }
}
layer {
  name: "LSTM_unit_5"
  type: "LSTMUnit"
  bottom: "c_4"
  bottom: "gate_input_5"
  bottom: "cont_5"
  top: "c_5"
  top: "h_5"
}
layer {
  name: "LSTM_h_conted_5"
  type: "Scale"
  bottom: "h_5"
  bottom: "cont_6"
  top: "h_conted_5"
  scale_param {
    axis: 0
  }
}
layer {
  name: "LSTM_transform_6"
  type: "InnerProduct"
  bottom: "h_conted_5"
  top: "W_hc_h_5"
  param {
    name: "W_hc"
  }
  inner_product_param {
    num_output: 160
    bias_term: false
    weight_filler {
      type: "gaussian"
      std: 0.1
    }
    axis: 2
  }
}
layer {
  name: "LSTM_gate_input_6"
  type: "Eltwise"
  bottom: "W_hc_h_5"
  bottom: "W_xc_x_6"
  top: "gate_input_6"
  eltwise_param {
    operation: SUM
  }
}
layer {
  name: "LSTM_unit_6"
  type: "LSTMUnit"
  bottom: "c_5"
  bottom: "gate_input_6"
  bottom: "cont_6"
  top: "c_6"
  top: "h_6"
}
layer {
  name: "LSTM_h_conted_6"
  type: "Scale"
  bottom: "h_6"
  bottom: "cont_7"
  top: "h_conted_6"
  scale_param {
    axis: 0
  }
}
layer {
  name: "LSTM_transform_7"
  type: "InnerProduct"
  bottom: "h_conted_6"
  top: "W_hc_h_6"
  param {
    name: "W_hc"
  }
  inner_product_param {
    num_output: 160
    bias_term: false
    weight_filler {
      type: "gaussian"
      std: 0.1
    }
    axis: 2
  }
}
layer {
  name: "LSTM_gate_input_7"
  type: "Eltwise"
  bottom: "W_hc_h_6"
  bottom: "W_xc_x_7"
  top: "gate_input_7"
  eltwise_param {
    operation: SUM
  }
}
layer {
  name: "LSTM_unit_7"
  type: "LSTMUnit"
  bottom: "c_6"
  bottom: "gate_input_7"
  bottom: "cont_7"
  top: "c_7"
  top: "h_7"
}
layer {
  name: "LSTM_h_conted_7"
  type: "Scale"
  bottom: "h_7"
  bottom: "cont_8"
  top: "h_conted_7"
  scale_param {
    axis: 0
  }
}
layer {
  name: "LSTM_transform_8"
  type: "InnerProduct"
  bottom: "h_conted_7"
  top: "W_hc_h_7"
  param {
    name: "W_hc"
  }
  inner_product_param {
    num_output: 160
    bias_term: false
    weight_filler {
      type: "gaussian"
      std: 0.1
    }
    axis: 2
  }
}
layer {
  name: "LSTM_gate_input_8"
  type: "Eltwise"
  bottom: "W_hc_h_7"
  bottom: "W_xc_x_8"
  top: "gate_input_8"
  eltwise_param {
    operation: SUM
  }
}
layer {
  name: "LSTM_unit_8"
  type: "LSTMUnit"
  bottom: "c_7"
  bottom: "gate_input_8"
  bottom: "cont_8"
  top: "c_8"
  top: "h_8"
}
layer {
  name: "LSTM_h_conted_8"
  type: "Scale"
  bottom: "h_8"
  bottom: "cont_9"
  top: "h_conted_8"
  scale_param {
    axis: 0
  }
}
layer {
  name: "LSTM_transform_9"
  type: "InnerProduct"
  bottom: "h_conted_8"
  top: "W_hc_h_8"
  param {
    name: "W_hc"
  }
  inner_product_param {
    num_output: 160
    bias_term: false
    weight_filler {
      type: "gaussian"
      std: 0.1
    }
    axis: 2
  }
}
layer {
  name: "LSTM_gate_input_9"
  type: "Eltwise"
  bottom: "W_hc_h_8"
  bottom: "W_xc_x_9"
  top: "gate_input_9"
  eltwise_param {
    operation: SUM
  }
}
layer {
  name: "LSTM_unit_9"
  type: "LSTMUnit"
  bottom: "c_8"
  bottom: "gate_input_9"
  bottom: "cont_9"
  top: "c_9"
  top: "h_9"
}
layer {
  name: "LSTM_h_conted_9"
  type: "Scale"
  bottom: "h_9"
  bottom: "cont_10"
  top: "h_conted_9"
  scale_param {
    axis: 0
  }
}
layer {
  name: "LSTM_transform_10"
  type: "InnerProduct"
  bottom: "h_conted_9"
  top: "W_hc_h_9"
  param {
    name: "W_hc"
  }
  inner_product_param {
    num_output: 160
    bias_term: false
    weight_filler {
      type: "gaussian"
      std: 0.1
    }
    axis: 2
  }
}
layer {
  name: "LSTM_gate_input_10"
  type: "Eltwise"
  bottom: "W_hc_h_9"
  bottom: "W_xc_x_10"
  top: "gate_input_10"
  eltwise_param {
    operation: SUM
  }
}
layer {
  name: "LSTM_unit_10"
  type: "LSTMUnit"
  bottom: "c_9"
  bottom: "gate_input_10"
  bottom: "cont_10"
  top: "c_10"
  top: "h_10"
}
layer {
  name: "LSTM_h_conted_10"
  type: "Scale"
  bottom: "h_10"
  bottom: "cont_11"
  top: "h_conted_10"
  scale_param {
    axis: 0
  }
}
layer {
  name: "LSTM_transform_11"
  type: "InnerProduct"
  bottom: "h_conted_10"
  top: "W_hc_h_10"
  param {
    name: "W_hc"
  }
  inner_product_param {
    num_output: 160
    bias_term: false
    weight_filler {
      type: "gaussian"
      std: 0.1
    }
    axis: 2
  }
}
layer {
  name: "LSTM_gate_input_11"
  type: "Eltwise"
  bottom: "W_hc_h_10"
  bottom: "W_xc_x_11"
  top: "gate_input_11"
  eltwise_param {
    operation: SUM
  }
}
layer {
  name: "LSTM_unit_11"
  type: "LSTMUnit"
  bottom: "c_10"
  bottom: "gate_input_11"
  bottom: "cont_11"
  top: "c_11"
  top: "h_11"
}
layer {
  name: "LSTM_h_conted_11"
  type: "Scale"
  bottom: "h_11"
  bottom: "cont_12"
  top: "h_conted_11"
  scale_param {
    axis: 0
  }
}
layer {
  name: "LSTM_transform_12"
  type: "InnerProduct"
  bottom: "h_conted_11"
  top: "W_hc_h_11"
  param {
    name: "W_hc"
  }
  inner_product_param {
    num_output: 160
    bias_term: false
    weight_filler {
      type: "gaussian"
      std: 0.1
    }
    axis: 2
  }
}
layer {
  name: "LSTM_gate_input_12"
  type: "Eltwise"
  bottom: "W_hc_h_11"
  bottom: "W_xc_x_12"
  top: "gate_input_12"
  eltwise_param {
    operation: SUM
  }
}
layer {
  name: "LSTM_unit_12"
  type: "LSTMUnit"
  bottom: "c_11"
  bottom: "gate_input_12"
  bottom: "cont_12"
  top: "c_12"
  top: "h_12"
}
layer {
  name: "LSTM_h_conted_12"
  type: "Scale"
  bottom: "h_12"
  bottom: "cont_13"
  top: "h_conted_12"
  scale_param {
    axis: 0
  }
}
layer {
  name: "LSTM_transform_13"
  type: "InnerProduct"
  bottom: "h_conted_12"
  top: "W_hc_h_12"
  param {
    name: "W_hc"
  }
  inner_product_param {
    num_output: 160
    bias_term: false
    weight_filler {
      type: "gaussian"
      std: 0.1
    }
    axis: 2
  }
}
layer {
  name: "LSTM_gate_input_13"
  type: "Eltwise"
  bottom: "W_hc_h_12"
  bottom: "W_xc_x_13"
  top: "gate_input_13"
  eltwise_param {
    operation: SUM
  }
}
layer {
  name: "LSTM_unit_13"
  type: "LSTMUnit"
  bottom: "c_12"
  bottom: "gate_input_13"
  bottom: "cont_13"
  top: "c_13"
  top: "h_13"
}
layer {
  name: "LSTM_h_conted_13"
  type: "Scale"
  bottom: "h_13"
  bottom: "cont_14"
  top: "h_conted_13"
  scale_param {
    axis: 0
  }
}
layer {
  name: "LSTM_transform_14"
  type: "InnerProduct"
  bottom: "h_conted_13"
  top: "W_hc_h_13"
  param {
    name: "W_hc"
  }
  inner_product_param {
    num_output: 160
    bias_term: false
    weight_filler {
      type: "gaussian"
      std: 0.1
    }
    axis: 2
  }
}
layer {
  name: "LSTM_gate_input_14"
  type: "Eltwise"
  bottom: "W_hc_h_13"
  bottom: "W_xc_x_14"
  top: "gate_input_14"
  eltwise_param {
    operation: SUM
  }
}
layer {
  name: "LSTM_unit_14"
  type: "LSTMUnit"
  bottom: "c_13"
  bottom: "gate_input_14"
  bottom: "cont_14"
  top: "c_14"
  top: "h_14"
}
layer {
  name: "LSTM_h_conted_14"
  type: "Scale"
  bottom: "h_14"
  bottom: "cont_15"
  top: "h_conted_14"
  scale_param {
    axis: 0
  }
}
layer {
  name: "LSTM_transform_15"
  type: "InnerProduct"
  bottom: "h_conted_14"
  top: "W_hc_h_14"
  param {
    name: "W_hc"
  }
  inner_product_param {
    num_output: 160
    bias_term: false
    weight_filler {
      type: "gaussian"
      std: 0.1
    }
    axis: 2
  }
}
layer {
  name: "LSTM_gate_input_15"
  type: "Eltwise"
  bottom: "W_hc_h_14"
  bottom: "W_xc_x_15"
  top: "gate_input_15"
  eltwise_param {
    operation: SUM
  }
}
layer {
  name: "LSTM_unit_15"
  type: "LSTMUnit"
  bottom: "c_14"
  bottom: "gate_input_15"
  bottom: "cont_15"
  top: "c_15"
  top: "h_15"
}
layer {
  name: "LSTM_h_conted_15"
  type: "Scale"
  bottom: "h_15"
  bottom: "cont_16"
  top: "h_conted_15"
  scale_param {
    axis: 0
  }
}
layer {
  name: "LSTM_transform_16"
  type: "InnerProduct"
  bottom: "h_conted_15"
  top: "W_hc_h_15"
  param {
    name: "W_hc"
  }
  inner_product_param {
    num_output: 160
    bias_term: false
    weight_filler {
      type: "gaussian"
      std: 0.1
    }
    axis: 2
  }
}
layer {
  name: "LSTM_gate_input_16"
  type: "Eltwise"
  bottom: "W_hc_h_15"
  bottom: "W_xc_x_16"
  top: "gate_input_16"
  eltwise_param {
    operation: SUM
  }
}
layer {
  name: "LSTM_unit_16"
  type: "LSTMUnit"
  bottom: "c_15"
  bottom: "gate_input_16"
  bottom: "cont_16"
  top: "c_16"
  top: "h_16"
}
layer {
  name: "LSTM_h_conted_16"
  type: "Scale"
  bottom: "h_16"
  bottom: "cont_17"
  top: "h_conted_16"
  scale_param {
    axis: 0
  }
}
layer {
  name: "LSTM_transform_17"
  type: "InnerProduct"
  bottom: "h_conted_16"
  top: "W_hc_h_16"
  param {
    name: "W_hc"
  }
  inner_product_param {
    num_output: 160
    bias_term: false
    weight_filler {
      type: "gaussian"
      std: 0.1
    }
    axis: 2
  }
}
layer {
  name: "LSTM_gate_input_17"
  type: "Eltwise"
  bottom: "W_hc_h_16"
  bottom: "W_xc_x_17"
  top: "gate_input_17"
  eltwise_param {
    operation: SUM
  }
}
layer {
  name: "LSTM_unit_17"
  type: "LSTMUnit"
  bottom: "c_16"
  bottom: "gate_input_17"
  bottom: "cont_17"
  top: "c_17"
  top: "h_17"
}
layer {
  name: "LSTM_h_conted_17"
  type: "Scale"
  bottom: "h_17"
  bottom: "cont_18"
  top: "h_conted_17"
  scale_param {
    axis: 0
  }
}
layer {
  name: "LSTM_transform_18"
  type: "InnerProduct"
  bottom: "h_conted_17"
  top: "W_hc_h_17"
  param {
    name: "W_hc"
  }
  inner_product_param {
    num_output: 160
    bias_term: false
    weight_filler {
      type: "gaussian"
      std: 0.1
    }
    axis: 2
  }
}
layer {
  name: "LSTM_gate_input_18"
  type: "Eltwise"
  bottom: "W_hc_h_17"
  bottom: "W_xc_x_18"
  top: "gate_input_18"
  eltwise_param {
    operation: SUM
  }
}
layer {
  name: "LSTM_unit_18"
  type: "LSTMUnit"
  bottom: "c_17"
  bottom: "gate_input_18"
  bottom: "cont_18"
  top: "c_18"
  top: "h_18"
}
layer {
  name: "LSTM_h_conted_18"
  type: "Scale"
  bottom: "h_18"
  bottom: "cont_19"
  top: "h_conted_18"
  scale_param {
    axis: 0
  }
}
layer {
  name: "LSTM_transform_19"
  type: "InnerProduct"
  bottom: "h_conted_18"
  top: "W_hc_h_18"
  param {
    name: "W_hc"
  }
  inner_product_param {
    num_output: 160
    bias_term: false
    weight_filler {
      type: "gaussian"
      std: 0.1
    }
    axis: 2
  }
}
layer {
  name: "LSTM_gate_input_19"
  type: "Eltwise"
  bottom: "W_hc_h_18"
  bottom: "W_xc_x_19"
  top: "gate_input_19"
  eltwise_param {
    operation: SUM
  }
}
layer {
  name: "LSTM_unit_19"
  type: "LSTMUnit"
  bottom: "c_18"
  bottom: "gate_input_19"
  bottom: "cont_19"
  top: "c_19"
  top: "h_19"
}
layer {
  name: "LSTM_h_conted_19"
  type: "Scale"
  bottom: "h_19"
  bottom: "cont_20"
  top: "h_conted_19"
  scale_param {
    axis: 0
  }
}
layer {
  name: "LSTM_transform_20"
  type: "InnerProduct"
  bottom: "h_conted_19"
  top: "W_hc_h_19"
  param {
    name: "W_hc"
  }
  inner_product_param {
    num_output: 160
    bias_term: false
    weight_filler {
      type: "gaussian"
      std: 0.1
    }
    axis: 2
  }
}
layer {
  name: "LSTM_gate_input_20"
  type: "Eltwise"
  bottom: "W_hc_h_19"
  bottom: "W_xc_x_20"
  top: "gate_input_20"
  eltwise_param {
    operation: SUM
  }
}
layer {
  name: "LSTM_unit_20"
  type: "LSTMUnit"
  bottom: "c_19"
  bottom: "gate_input_20"
  bottom: "cont_20"
  top: "c_20"
  top: "h_20"
}
layer {
  name: "LSTM_h_conted_20"
  type: "Scale"
  bottom: "h_20"
  bottom: "cont_21"
  top: "h_conted_20"
  scale_param {
    axis: 0
  }
}
layer {
  name: "LSTM_transform_21"
  type: "InnerProduct"
  bottom: "h_conted_20"
  top: "W_hc_h_20"
  param {
    name: "W_hc"
  }
  inner_product_param {
    num_output: 160
    bias_term: false
    weight_filler {
      type: "gaussian"
      std: 0.1
    }
    axis: 2
  }
}
layer {
  name: "LSTM_gate_input_21"
  type: "Eltwise"
  bottom: "W_hc_h_20"
  bottom: "W_xc_x_21"
  top: "gate_input_21"
  eltwise_param {
    operation: SUM
  }
}
layer {
  name: "LSTM_unit_21"
  type: "LSTMUnit"
  bottom: "c_20"
  bottom: "gate_input_21"
  bottom: "cont_21"
  top: "c_21"
  top: "h_21"
}
layer {
  name: "LSTM_h_conted_21"
  type: "Scale"
  bottom: "h_21"
  bottom: "cont_22"
  top: "h_conted_21"
  scale_param {
    axis: 0
  }
}
layer {
  name: "LSTM_transform_22"
  type: "InnerProduct"
  bottom: "h_conted_21"
  top: "W_hc_h_21"
  param {
    name: "W_hc"
  }
  inner_product_param {
    num_output: 160
    bias_term: false
    weight_filler {
      type: "gaussian"
      std: 0.1
    }
    axis: 2
  }
}
layer {
  name: "LSTM_gate_input_22"
  type: "Eltwise"
  bottom: "W_hc_h_21"
  bottom: "W_xc_x_22"
  top: "gate_input_22"
  eltwise_param {
    operation: SUM
  }
}
layer {
  name: "LSTM_unit_22"
  type: "LSTMUnit"
  bottom: "c_21"
  bottom: "gate_input_22"
  bottom: "cont_22"
  top: "c_22"
  top: "h_22"
}
layer {
  name: "LSTM_h_conted_22"
  type: "Scale"
  bottom: "h_22"
  bottom: "cont_23"
  top: "h_conted_22"
  scale_param {
    axis: 0
  }
}
layer {
  name: "LSTM_transform_23"
  type: "InnerProduct"
  bottom: "h_conted_22"
  top: "W_hc_h_22"
  param {
    name: "W_hc"
  }
  inner_product_param {
    num_output: 160
    bias_term: false
    weight_filler {
      type: "gaussian"
      std: 0.1
    }
    axis: 2
  }
}
layer {
  name: "LSTM_gate_input_23"
  type: "Eltwise"
  bottom: "W_hc_h_22"
  bottom: "W_xc_x_23"
  top: "gate_input_23"
  eltwise_param {
    operation: SUM
  }
}
layer {
  name: "LSTM_unit_23"
  type: "LSTMUnit"
  bottom: "c_22"
  bottom: "gate_input_23"
  bottom: "cont_23"
  top: "c_23"
  top: "h_23"
}
layer {
  name: "LSTM_h_conted_23"
  type: "Scale"
  bottom: "h_23"
  bottom: "cont_24"
  top: "h_conted_23"
  scale_param {
    axis: 0
  }
}
layer {
  name: "LSTM_transform_24"
  type: "InnerProduct"
  bottom: "h_conted_23"
  top: "W_hc_h_23"
  param {
    name: "W_hc"
  }
  inner_product_param {
    num_output: 160
    bias_term: false
    weight_filler {
      type: "gaussian"
      std: 0.1
    }
    axis: 2
  }
}
layer {
  name: "LSTM_gate_input_24"
  type: "Eltwise"
  bottom: "W_hc_h_23"
  bottom: "W_xc_x_24"
  top: "gate_input_24"
  eltwise_param {
    operation: SUM
  }
}
layer {
  name: "LSTM_unit_24"
  type: "LSTMUnit"
  bottom: "c_23"
  bottom: "gate_input_24"
  bottom: "cont_24"
  top: "c_24"
  top: "h_24"
}
layer {
  name: "LSTM_h_conted_24"
  type: "Scale"
  bottom: "h_24"
  bottom: "cont_25"
  top: "h_conted_24"
  scale_param {
    axis: 0
  }
}
layer {
  name: "LSTM_transform_25"
  type: "InnerProduct"
  bottom: "h_conted_24"
  top: "W_hc_h_24"
  param {
    name: "W_hc"
  }
  inner_product_param {
    num_output: 160
    bias_term: false
    weight_filler {
      type: "gaussian"
      std: 0.1
    }
    axis: 2
  }
}
layer {
  name: "LSTM_gate_input_25"
  type: "Eltwise"
  bottom: "W_hc_h_24"
  bottom: "W_xc_x_25"
  top: "gate_input_25"
  eltwise_param {
    operation: SUM
  }
}
layer {
  name: "LSTM_unit_25"
  type: "LSTMUnit"
  bottom: "c_24"
  bottom: "gate_input_25"
  bottom: "cont_25"
  top: "c_25"
  top: "h_25"
}
layer {
  name: "LSTM_h_conted_25"
  type: "Scale"
  bottom: "h_25"
  bottom: "cont_26"
  top: "h_conted_25"
  scale_param {
    axis: 0
  }
}
layer {
  name: "LSTM_transform_26"
  type: "InnerProduct"
  bottom: "h_conted_25"
  top: "W_hc_h_25"
  param {
    name: "W_hc"
  }
  inner_product_param {
    num_output: 160
    bias_term: false
    weight_filler {
      type: "gaussian"
      std: 0.1
    }
    axis: 2
  }
}
layer {
  name: "LSTM_gate_input_26"
  type: "Eltwise"
  bottom: "W_hc_h_25"
  bottom: "W_xc_x_26"
  top: "gate_input_26"
  eltwise_param {
    operation: SUM
  }
}
layer {
  name: "LSTM_unit_26"
  type: "LSTMUnit"
  bottom: "c_25"
  bottom: "gate_input_26"
  bottom: "cont_26"
  top: "c_26"
  top: "h_26"
}
layer {
  name: "LSTM_h_conted_26"
  type: "Scale"
  bottom: "h_26"
  bottom: "cont_27"
  top: "h_conted_26"
  scale_param {
    axis: 0
  }
}
layer {
  name: "LSTM_transform_27"
  type: "InnerProduct"
  bottom: "h_conted_26"
  top: "W_hc_h_26"
  param {
    name: "W_hc"
  }
  inner_product_param {
    num_output: 160
    bias_term: false
    weight_filler {
      type: "gaussian"
      std: 0.1
    }
    axis: 2
  }
}
layer {
  name: "LSTM_gate_input_27"
  type: "Eltwise"
  bottom: "W_hc_h_26"
  bottom: "W_xc_x_27"
  top: "gate_input_27"
  eltwise_param {
    operation: SUM
  }
}
layer {
  name: "LSTM_unit_27"
  type: "LSTMUnit"
  bottom: "c_26"
  bottom: "gate_input_27"
  bottom: "cont_27"
  top: "c_27"
  top: "h_27"
}
layer {
  name: "LSTM_h_conted_27"
  type: "Scale"
  bottom: "h_27"
  bottom: "cont_28"
  top: "h_conted_27"
  scale_param {
    axis: 0
  }
}
layer {
  name: "LSTM_transform_28"
  type: "InnerProduct"
  bottom: "h_conted_27"
  top: "W_hc_h_27"
  param {
    name: "W_hc"
  }
  inner_product_param {
    num_output: 160
    bias_term: false
    weight_filler {
      type: "gaussian"
      std: 0.1
    }
    axis: 2
  }
}
layer {
  name: "LSTM_gate_input_28"
  type: "Eltwise"
  bottom: "W_hc_h_27"
  bottom: "W_xc_x_28"
  top: "gate_input_28"
  eltwise_param {
    operation: SUM
  }
}
layer {
  name: "LSTM_unit_28"
  type: "LSTMUnit"
  bottom: "c_27"
  bottom: "gate_input_28"
  bottom: "cont_28"
  top: "c_28"
  top: "h_28"
}
layer {
  name: "LSTM_h_conted_28"
  type: "Scale"
  bottom: "h_28"
  bottom: "cont_29"
  top: "h_conted_28"
  scale_param {
    axis: 0
  }
}
layer {
  name: "LSTM_transform_29"
  type: "InnerProduct"
  bottom: "h_conted_28"
  top: "W_hc_h_28"
  param {
    name: "W_hc"
  }
  inner_product_param {
    num_output: 160
    bias_term: false
    weight_filler {
      type: "gaussian"
      std: 0.1
    }
    axis: 2
  }
}
layer {
  name: "LSTM_gate_input_29"
  type: "Eltwise"
  bottom: "W_hc_h_28"
  bottom: "W_xc_x_29"
  top: "gate_input_29"
  eltwise_param {
    operation: SUM
  }
}
layer {
  name: "LSTM_unit_29"
  type: "LSTMUnit"
  bottom: "c_28"
  bottom: "gate_input_29"
  bottom: "cont_29"
  top: "c_29"
  top: "h_29"
}
layer {
  name: "LSTM_h_conted_29"
  type: "Scale"
  bottom: "h_29"
  bottom: "cont_30"
  top: "h_conted_29"
  scale_param {
    axis: 0
  }
}
layer {
  name: "LSTM_transform_30"
  type: "InnerProduct"
  bottom: "h_conted_29"
  top: "W_hc_h_29"
  param {
    name: "W_hc"
  }
  inner_product_param {
    num_output: 160
    bias_term: false
    weight_filler {
      type: "gaussian"
      std: 0.1
    }
    axis: 2
  }
}
layer {
  name: "LSTM_gate_input_30"
  type: "Eltwise"
  bottom: "W_hc_h_29"
  bottom: "W_xc_x_30"
  top: "gate_input_30"
  eltwise_param {
    operation: SUM
  }
}
layer {
  name: "LSTM_unit_30"
  type: "LSTMUnit"
  bottom: "c_29"
  bottom: "gate_input_30"
  bottom: "cont_30"
  top: "c_30"
  top: "h_30"
}
layer {
  name: "LSTM_h_conted_30"
  type: "Scale"
  bottom: "h_30"
  bottom: "cont_31"
  top: "h_conted_30"
  scale_param {
    axis: 0
  }
}
layer {
  name: "LSTM_transform_31"
  type: "InnerProduct"
  bottom: "h_conted_30"
  top: "W_hc_h_30"
  param {
    name: "W_hc"
  }
  inner_product_param {
    num_output: 160
    bias_term: false
    weight_filler {
      type: "gaussian"
      std: 0.1
    }
    axis: 2
  }
}
layer {
  name: "LSTM_gate_input_31"
  type: "Eltwise"
  bottom: "W_hc_h_30"
  bottom: "W_xc_x_31"
  top: "gate_input_31"
  eltwise_param {
    operation: SUM
  }
}
layer {
  name: "LSTM_unit_31"
  type: "LSTMUnit"
  bottom: "c_30"
  bottom: "gate_input_31"
  bottom: "cont_31"
  top: "c_31"
  top: "h_31"
}
layer {
  name: "LSTM_h_conted_31"
  type: "Scale"
  bottom: "h_31"
  bottom: "cont_32"
  top: "h_conted_31"
  scale_param {
    axis: 0
  }
}
layer {
  name: "LSTM_transform_32"
  type: "InnerProduct"
  bottom: "h_conted_31"
  top: "W_hc_h_31"
  param {
    name: "W_hc"
  }
  inner_product_param {
    num_output: 160
    bias_term: false
    weight_filler {
      type: "gaussian"
      std: 0.1
    }
    axis: 2
  }
}
layer {
  name: "LSTM_gate_input_32"
  type: "Eltwise"
  bottom: "W_hc_h_31"
  bottom: "W_xc_x_32"
  top: "gate_input_32"
  eltwise_param {
    operation: SUM
  }
}
layer {
  name: "LSTM_unit_32"
  type: "LSTMUnit"
  bottom: "c_31"
  bottom: "gate_input_32"
  bottom: "cont_32"
  top: "c_32"
  top: "h_32"
}
layer {
  name: "LSTM_h_conted_32"
  type: "Scale"
  bottom: "h_32"
  bottom: "cont_33"
  top: "h_conted_32"
  scale_param {
    axis: 0
  }
}
layer {
  name: "LSTM_transform_33"
  type: "InnerProduct"
  bottom: "h_conted_32"
  top: "W_hc_h_32"
  param {
    name: "W_hc"
  }
  inner_product_param {
    num_output: 160
    bias_term: false
    weight_filler {
      type: "gaussian"
      std: 0.1
    }
    axis: 2
  }
}
layer {
  name: "LSTM_gate_input_33"
  type: "Eltwise"
  bottom: "W_hc_h_32"
  bottom: "W_xc_x_33"
  top: "gate_input_33"
  eltwise_param {
    operation: SUM
  }
}
layer {
  name: "LSTM_unit_33"
  type: "LSTMUnit"
  bottom: "c_32"
  bottom: "gate_input_33"
  bottom: "cont_33"
  top: "c_33"
  top: "h_33"
}
layer {
  name: "LSTM_h_conted_33"
  type: "Scale"
  bottom: "h_33"
  bottom: "cont_34"
  top: "h_conted_33"
  scale_param {
    axis: 0
  }
}
layer {
  name: "LSTM_transform_34"
  type: "InnerProduct"
  bottom: "h_conted_33"
  top: "W_hc_h_33"
  param {
    name: "W_hc"
  }
  inner_product_param {
    num_output: 160
    bias_term: false
    weight_filler {
      type: "gaussian"
      std: 0.1
    }
    axis: 2
  }
}
layer {
  name: "LSTM_gate_input_34"
  type: "Eltwise"
  bottom: "W_hc_h_33"
  bottom: "W_xc_x_34"
  top: "gate_input_34"
  eltwise_param {
    operation: SUM
  }
}
layer {
  name: "LSTM_unit_34"
  type: "LSTMUnit"
  bottom: "c_33"
  bottom: "gate_input_34"
  bottom: "cont_34"
  top: "c_34"
  top: "h_34"
}
layer {
  name: "LSTM_h_conted_34"
  type: "Scale"
  bottom: "h_34"
  bottom: "cont_35"
  top: "h_conted_34"
  scale_param {
    axis: 0
  }
}
layer {
  name: "LSTM_transform_35"
  type: "InnerProduct"
  bottom: "h_conted_34"
  top: "W_hc_h_34"
  param {
    name: "W_hc"
  }
  inner_product_param {
    num_output: 160
    bias_term: false
    weight_filler {
      type: "gaussian"
      std: 0.1
    }
    axis: 2
  }
}
layer {
  name: "LSTM_gate_input_35"
  type: "Eltwise"
  bottom: "W_hc_h_34"
  bottom: "W_xc_x_35"
  top: "gate_input_35"
  eltwise_param {
    operation: SUM
  }
}
layer {
  name: "LSTM_unit_35"
  type: "LSTMUnit"
  bottom: "c_34"
  bottom: "gate_input_35"
  bottom: "cont_35"
  top: "c_35"
  top: "h_35"
}
layer {
  name: "LSTM_h_conted_35"
  type: "Scale"
  bottom: "h_35"
  bottom: "cont_36"
  top: "h_conted_35"
  scale_param {
    axis: 0
  }
}
layer {
  name: "LSTM_transform_36"
  type: "InnerProduct"
  bottom: "h_conted_35"
  top: "W_hc_h_35"
  param {
    name: "W_hc"
  }
  inner_product_param {
    num_output: 160
    bias_term: false
    weight_filler {
      type: "gaussian"
      std: 0.1
    }
    axis: 2
  }
}
layer {
  name: "LSTM_gate_input_36"
  type: "Eltwise"
  bottom: "W_hc_h_35"
  bottom: "W_xc_x_36"
  top: "gate_input_36"
  eltwise_param {
    operation: SUM
  }
}
layer {
  name: "LSTM_unit_36"
  type: "LSTMUnit"
  bottom: "c_35"
  bottom: "gate_input_36"
  bottom: "cont_36"
  top: "c_36"
  top: "h_36"
}
layer {
  name: "LSTM_h_conted_36"
  type: "Scale"
  bottom: "h_36"
  bottom: "cont_37"
  top: "h_conted_36"
  scale_param {
    axis: 0
  }
}
layer {
  name: "LSTM_transform_37"
  type: "InnerProduct"
  bottom: "h_conted_36"
  top: "W_hc_h_36"
  param {
    name: "W_hc"
  }
  inner_product_param {
    num_output: 160
    bias_term: false
    weight_filler {
      type: "gaussian"
      std: 0.1
    }
    axis: 2
  }
}
layer {
  name: "LSTM_gate_input_37"
  type: "Eltwise"
  bottom: "W_hc_h_36"
  bottom: "W_xc_x_37"
  top: "gate_input_37"
  eltwise_param {
    operation: SUM
  }
}
layer {
  name: "LSTM_unit_37"
  type: "LSTMUnit"
  bottom: "c_36"
  bottom: "gate_input_37"
  bottom: "cont_37"
  top: "c_37"
  top: "h_37"
}
layer {
  name: "LSTM_h_conted_37"
  type: "Scale"
  bottom: "h_37"
  bottom: "cont_38"
  top: "h_conted_37"
  scale_param {
    axis: 0
  }
}
layer {
  name: "LSTM_transform_38"
  type: "InnerProduct"
  bottom: "h_conted_37"
  top: "W_hc_h_37"
  param {
    name: "W_hc"
  }
  inner_product_param {
    num_output: 160
    bias_term: false
    weight_filler {
      type: "gaussian"
      std: 0.1
    }
    axis: 2
  }
}
layer {
  name: "LSTM_gate_input_38"
  type: "Eltwise"
  bottom: "W_hc_h_37"
I0718 14:46:40.611070 31838 layer_factory.hpp:77] Creating layer LSTM_
I0718 14:46:40.611089 31838 net.cpp:86] Creating Layer LSTM_
I0718 14:46:40.611096 31838 net.cpp:382] LSTM_ -> x
I0718 14:46:40.611111 31838 net.cpp:382] LSTM_ -> cont
I0718 14:46:40.611165 31838 net.cpp:124] Setting up LSTM_
I0718 14:46:40.611176 31838 net.cpp:131] Top shape: 44 40 40 (70400)
I0718 14:46:40.611182 31838 net.cpp:131] Top shape: 44 40 (1760)
I0718 14:46:40.611187 31838 net.cpp:139] Memory required for data: 288640
I0718 14:46:40.611193 31838 layer_factory.hpp:77] Creating layer LSTM_
I0718 14:46:40.611202 31838 net.cpp:86] Creating Layer LSTM_
I0718 14:46:40.611207 31838 net.cpp:382] LSTM_ -> c_0
I0718 14:46:40.611217 31838 net.cpp:382] LSTM_ -> h_0
I0718 14:46:40.611254 31838 net.cpp:124] Setting up LSTM_
I0718 14:46:40.611263 31838 net.cpp:131] Top shape: 1 40 40 (1600)
I0718 14:46:40.611269 31838 net.cpp:131] Top shape: 1 40 40 (1600)
I0718 14:46:40.611274 31838 net.cpp:139] Memory required for data: 301440
I0718 14:46:40.611279 31838 layer_factory.hpp:77] Creating layer LSTM_cont_slice
I0718 14:46:40.611296 31838 net.cpp:86] Creating Layer LSTM_cont_slice
I0718 14:46:40.611302 31838 net.cpp:408] LSTM_cont_slice <- cont
I0718 14:46:40.611313 31838 net.cpp:382] LSTM_cont_slice -> cont_1
I0718 14:46:40.611326 31838 net.cpp:382] LSTM_cont_slice -> cont_2
…
I0718 14:46:40.611732 31838 net.cpp:382] LSTM_cont_slice -> cont_37
I0718 14:46:40.611749 31838 net.cpp:382] LSTM_cont_slice -> cont_38
I0718 14:46:40.611768 31838 net.cpp:382] LSTM_cont_slice -> cont_39
I0718 14:46:40.611780 31838 net.cpp:382] LSTM_cont_slice -> cont_40
I0718 14:46:40.611791 31838 net.cpp:382] LSTM_cont_slice -> cont_41
I0718 14:46:40.611802 31838 net.cpp:382] LSTM_cont_slice -> cont_42
I0718 14:46:40.611814 31838 net.cpp:382] LSTM_cont_slice -> cont_43
I0718 14:46:40.611824 31838 net.cpp:382] LSTM_cont_slice -> cont_44
I0718 14:46:40.612347 31838 net.cpp:124] Setting up LSTM_cont_slice
I0718 14:46:40.612360 31838 net.cpp:131] Top shape: 1 40 (40)
I0718 14:46:40.612365 31838 net.cpp:131] Top shape: 1 40 (40)
I0718 14:46:40.612371 31838 net.cpp:131] Top shape: 1 40 (40)
I0718 14:46:40.612376 31838 net.cpp:131] Top shape: 1 40 (40)
I0718 14:46:40.612383 31838 net.cpp:131] Top shape: 1 40 (40)
I0718 14:46:40.612388 31838 net.cpp:131] Top shape: 1 40 (40)
I0718 14:46:40.612395 31838 net.cpp:131] Top shape: 1 40 (40)
I0718 14:46:40.612401 31838 net.cpp:131] Top shape: 1 40 (40)
I0718 14:46:40.612406 31838 net.cpp:131] Top shape: 1 40 (40)
I0718 14:46:40.612411 31838 net.cpp:131] Top shape: 1 40 (40)
I0718 14:46:40.612416 31838 net.cpp:131] Top shape: 1 40 (40)
I0718 14:46:40.612422 31838 net.cpp:131] Top shape: 1 40 (40)
I0718 14:46:40.612428 31838 net.cpp:131] Top shape: 1 40 (40)
I0718 14:46:40.612433 31838 net.cpp:131] Top shape: 1 40 (40)
I0718 14:46:40.612439 31838 net.cpp:131] Top shape: 1 40 (40)
I0718 14:46:40.612444 31838 net.cpp:131] Top shape: 1 40 (40)
I0718 14:46:40.612450 31838 net.cpp:131] Top shape: 1 40 (40)
I0718 14:46:40.612455 31838 net.cpp:131] Top shape: 1 40 (40)
I0718 14:46:40.612462 31838 net.cpp:131] Top shape: 1 40 (40)
I0718 14:46:40.612467 31838 net.cpp:131] Top shape: 1 40 (40)
I0718 14:46:40.612473 31838 net.cpp:131] Top shape: 1 40 (40)
I0718 14:46:40.612478 31838 net.cpp:131] Top shape: 1 40 (40)
I0718 14:46:40.612483 31838 net.cpp:131] Top shape: 1 40 (40)
I0718 14:46:40.612488 31838 net.cpp:131] Top shape: 1 40 (40)
I0718 14:46:40.612494 31838 net.cpp:131] Top shape: 1 40 (40)
I0718 14:46:40.612500 31838 net.cpp:131] Top shape: 1 40 (40)
I0718 14:46:40.612505 31838 net.cpp:131] Top shape: 1 40 (40)
I0718 14:46:40.612511 31838 net.cpp:131] Top shape: 1 40 (40)
I0718 14:46:40.612516 31838 net.cpp:131] Top shape: 1 40 (40)
I0718 14:46:40.612522 31838 net.cpp:131] Top shape: 1 40 (40)
I0718 14:46:40.612529 31838 net.cpp:131] Top shape: 1 40 (40)
I0718 14:46:40.612534 31838 net.cpp:131] Top shape: 1 40 (40)
I0718 14:46:40.612540 31838 net.cpp:131] Top shape: 1 40 (40)
I0718 14:46:40.612545 31838 net.cpp:131] Top shape: 1 40 (40)
I0718 14:46:40.612550 31838 net.cpp:131] Top shape: 1 40 (40)
I0718 14:46:40.612555 31838 net.cpp:131] Top shape: 1 40 (40)
I0718 14:46:40.612561 31838 net.cpp:131] Top shape: 1 40 (40)
I0718 14:46:40.612567 31838 net.cpp:131] Top shape: 1 40 (40)
I0718 14:46:40.612572 31838 net.cpp:131] Top shape: 1 40 (40)
I0718 14:46:40.612578 31838 net.cpp:131] Top shape: 1 40 (40)
I0718 14:46:40.612583 31838 net.cpp:131] Top shape: 1 40 (40)
I0718 14:46:40.612589 31838 net.cpp:131] Top shape: 1 40 (40)
I0718 14:46:40.612594 31838 net.cpp:131] Top shape: 1 40 (40)
I0718 14:46:40.612601 31838 net.cpp:131] Top shape: 1 40 (40)
I0718 14:46:40.612606 31838 net.cpp:139] Memory required for data: 308480
I0718 14:46:40.612610 31838 layer_factory.hpp:77] Creating layer cont_1_LSTM_cont_slice_0_split
I0718 14:46:40.612620 31838 net.cpp:86] Creating Layer cont_1_LSTM_cont_slice_0_split
I0718 14:46:40.612627 31838 net.cpp:408] cont_1_LSTM_cont_slice_0_split <- cont_1
I0718 14:46:40.612634 31838 net.cpp:382] cont_1_LSTM_cont_slice_0_split -> cont_1_LSTM_cont_slice_0_split_0
I0718 14:46:40.612643 31838 net.cpp:382] cont_1_LSTM_cont_slice_0_split -> cont_1_LSTM_cont_slice_0_split_1
I0718 14:46:40.612684 31838 net.cpp:124] Setting up cont_1_LSTM_cont_slice_0_split
I0718 14:46:40.612691 31838 net.cpp:131] Top shape: 1 40 (40)
I0718 14:46:40.612697 31838 net.cpp:131] Top shape: 1 40 (40)
I0718 14:46:40.612702 31838 net.cpp:139] Memory required for data: 308800
I0718 14:46:40.612712 31838 layer_factory.hpp:77] Creating layer cont_2_LSTM_cont_slice_1_split
I0718 14:46:40.612728 31838 net.cpp:86] Creating Layer cont_2_LSTM_cont_slice_1_split
I0718 14:46:40.612735 31838 net.cpp:408] cont_2_LSTM_cont_slice_1_split <- cont_2
I0718 14:46:40.612742 31838 net.cpp:382] cont_2_LSTM_cont_slice_1_split -> cont_2_LSTM_cont_slice_1_split_0
I0718 14:46:40.612751 31838 net.cpp:382] cont_2_LSTM_cont_slice_1_split -> cont_2_LSTM_cont_slice_1_split_1
I0718 14:46:40.612787 31838 net.cpp:124] Setting up cont_2_LSTM_cont_slice_1_split
I0718 14:46:40.612795 31838 net.cpp:131] Top shape: 1 40 (40)
I0718 14:46:40.612802 31838 net.cpp:131] Top shape: 1 40 (40)
I0718 14:46:40.612807 31838 net.cpp:139] Memory required for data: 309120
I0718 14:46:40.612812 31838 layer_factory.hpp:77] Creating layer cont_3_LSTM_cont_slice_2_split
I0718 14:46:40.612818 31838 net.cpp:86] Creating Layer cont_3_LSTM_cont_slice_2_split
I0718 14:46:40.612823 31838 net.cpp:408] cont_3_LSTM_cont_slice_2_split <- cont_3
I0718 14:46:40.612830 31838 net.cpp:382] cont_3_LSTM_cont_slice_2_split -> cont_3_LSTM_cont_slice_2_split_0
I0718 14:46:40.612840 31838 net.cpp:382] cont_3_LSTM_cont_slice_2_split -> cont_3_LSTM_cont_slice_2_split_1
I0718 14:46:40.612875 31838 net.cpp:124] Setting up cont_3_LSTM_cont_slice_2_split
I0718 14:46:40.612884 31838 net.cpp:131] Top shape: 1 40 (40)
I0718 14:46:40.612890 31838 net.cpp:131] Top shape: 1 40 (40)
I0718 14:46:40.612893 31838 net.cpp:139] Memory required for data: 309440
I0718 14:46:40.612898 31838 layer_factory.hpp:77] Creating layer cont_4_LSTM_cont_slice_3_split
I0718 14:46:40.612905 31838 net.cpp:86] Creating Layer cont_4_LSTM_cont_slice_3_split
I0718 14:46:40.612910 31838 net.cpp:408] cont_4_LSTM_cont_slice_3_split <- cont_4
I0718 14:46:40.612920 31838 net.cpp:382] cont_4_LSTM_cont_slice_3_split -> cont_4_LSTM_cont_slice_3_split_0
I0718 14:46:40.612927 31838 net.cpp:382] cont_4_LSTM_cont_slice_3_split -> cont_4_LSTM_cont_slice_3_split_1
I0718 14:46:40.612963 31838 net.cpp:124] Setting up cont_4_LSTM_cont_slice_3_split
I0718 14:46:40.612972 31838 net.cpp:131] Top shape: 1 40 (40)
I0718 14:46:40.612977 31838 net.cpp:131] Top shape: 1 40 (40)
I0718 14:46:40.612982 31838 net.cpp:139] Memory required for data: 309760
I0718 14:46:40.612987 31838 layer_factory.hpp:77] Creating layer cont_5_LSTM_cont_slice_4_split
I0718 14:46:40.612993 31838 net.cpp:86] Creating Layer cont_5_LSTM_cont_slice_4_split
I0718 14:46:40.612998 31838 net.cpp:408] cont_5_LSTM_cont_slice_4_split <- cont_5
I0718 14:46:40.613008 31838 net.cpp:382] cont_5_LSTM_cont_slice_4_split -> cont_5_LSTM_cont_slice_4_split_0
I0718 14:46:40.613016 31838 net.cpp:382] cont_5_LSTM_cont_slice_4_split -> cont_5_LSTM_cont_slice_4_split_1
I0718 14:46:40.613050 31838 net.cpp:124] Setting up cont_5_LSTM_cont_slice_4_split
I0718 14:46:40.613059 31838 net.cpp:131] Top shape: 1 40 (40)
I0718 14:46:40.613064 31838 net.cpp:131] Top shape: 1 40 (40)
I0718 14:46:40.613068 31838 net.cpp:139] Memory required for data: 310080
I0718 14:46:40.613073 31838 layer_factory.hpp:77] Creating layer cont_6_LSTM_cont_slice_5_split
I0718 14:46:40.613080 31838 net.cpp:86] Creating Layer cont_6_LSTM_cont_slice_5_split
I0718 14:46:40.613086 31838 net.cpp:408] cont_6_LSTM_cont_slice_5_split <- cont_6
I0718 14:46:40.613092 31838 net.cpp:382] cont_6_LSTM_cont_slice_5_split -> cont_6_LSTM_cont_slice_5_split_0
I0718 14:46:40.613101 31838 net.cpp:382] cont_6_LSTM_cont_slice_5_split -> cont_6_LSTM_cont_slice_5_split_1
I0718 14:46:40.613134 31838 net.cpp:124] Setting up cont_6_LSTM_cont_slice_5_split
I0718 14:46:40.613142 31838 net.cpp:131] Top shape: 1 40 (40)
I0718 14:46:40.613148 31838 net.cpp:131] Top shape: 1 40 (40)
I0718 14:46:40.613153 31838 net.cpp:139] Memory required for data: 310400
I0718 14:46:40.613158 31838 layer_factory.hpp:77] Creating layer cont_7_LSTM_cont_slice_6_split
I0718 14:46:40.613164 31838 net.cpp:86] Creating Layer cont_7_LSTM_cont_slice_6_split
I0718 14:46:40.613169 31838 net.cpp:408] cont_7_LSTM_cont_slice_6_split <- cont_7
I0718 14:46:40.613183 31838 net.cpp:382] cont_7_LSTM_cont_slice_6_split -> cont_7_LSTM_cont_slice_6_split_0
I0718 14:46:40.613198 31838 net.cpp:382] cont_7_LSTM_cont_slice_6_split -> cont_7_LSTM_cont_slice_6_split_1
I0718 14:46:40.613230 31838 net.cpp:124] Setting up cont_7_LSTM_cont_slice_6_split
I0718 14:46:40.613239 31838 net.cpp:131] Top shape: 1 40 (40)
I0718 14:46:40.613243 31838 net.cpp:131] Top shape: 1 40 (40)
I0718 14:46:40.613248 31838 net.cpp:139] Memory required for data: 310720
I0718 14:46:40.613262 31838 layer_factory.hpp:77] Creating layer cont_8_LSTM_cont_slice_7_split
I0718 14:46:40.613271 31838 net.cpp:86] Creating Layer cont_8_LSTM_cont_slice_7_split
I0718 14:46:40.613277 31838 net.cpp:408] cont_8_LSTM_cont_slice_7_split <- cont_8
I0718 14:46:40.613284 31838 net.cpp:382] cont_8_LSTM_cont_slice_7_split -> cont_8_LSTM_cont_slice_7_split_0
I0718 14:46:40.613292 31838 net.cpp:382] cont_8_LSTM_cont_slice_7_split -> cont_8_LSTM_cont_slice_7_split_1
I0718 14:46:40.613328 31838 net.cpp:124] Setting up cont_8_LSTM_cont_slice_7_split
I0718 14:46:40.613337 31838 net.cpp:131] Top shape: 1 40 (40)
I0718 14:46:40.613343 31838 net.cpp:131] Top shape: 1 40 (40)
I0718 14:46:40.613348 31838 net.cpp:139] Memory required for data: 311040
I0718 14:46:40.613353 31838 layer_factory.hpp:77] Creating layer cont_9_LSTM_cont_slice_8_split
I0718 14:46:40.613358 31838 net.cpp:86] Creating Layer cont_9_LSTM_cont_slice_8_split
I0718 14:46:40.613364 31838 net.cpp:408] cont_9_LSTM_cont_slice_8_split <- cont_9
I0718 14:46:40.613370 31838 net.cpp:382] cont_9_LSTM_cont_slice_8_split -> cont_9_LSTM_cont_slice_8_split_0
I0718 14:46:40.613385 31838 net.cpp:382] cont_9_LSTM_cont_slice_8_split -> cont_9_LSTM_cont_slice_8_split_1
I0718 14:46:40.613420 31838 net.cpp:124] Setting up cont_9_LSTM_cont_slice_8_split
I0718 14:46:40.613427 31838 net.cpp:131] Top shape: 1 40 (40)
I0718 14:46:40.613433 31838 net.cpp:131] Top shape: 1 40 (40)
I0718 14:46:40.613438 31838 net.cpp:139] Memory required for data: 311360
I0718 14:46:40.613443 31838 layer_factory.hpp:77] Creating layer cont_10_LSTM_cont_slice_9_split
I0718 14:46:40.613452 31838 net.cpp:86] Creating Layer cont_10_LSTM_cont_slice_9_split
I0718 14:46:40.613458 31838 net.cpp:408] cont_10_LSTM_cont_slice_9_split <- cont_10
I0718 14:46:40.613466 31838 net.cpp:382] cont_10_LSTM_cont_slice_9_split -> cont_10_LSTM_cont_slice_9_split_0
I0718 14:46:40.613472 31838 net.cpp:382] cont_10_LSTM_cont_slice_9_split -> cont_10_LSTM_cont_slice_9_split_1
I0718 14:46:40.613507 31838 net.cpp:124] Setting up cont_10_LSTM_cont_slice_9_split
I0718 14:46:40.613514 31838 net.cpp:131] Top shape: 1 40 (40)
I0718 14:46:40.613520 31838 net.cpp:131] Top shape: 1 40 (40)
I0718 14:46:40.613525 31838 net.cpp:139] Memory required for data: 311680
I0718 14:46:40.613530 31838 layer_factory.hpp:77] Creating layer cont_11_LSTM_cont_slice_10_split
I0718 14:46:40.613536 31838 net.cpp:86] Creating Layer cont_11_LSTM_cont_slice_10_split
I0718 14:46:40.613543 31838 net.cpp:408] cont_11_LSTM_cont_slice_10_split <- cont_11
I0718 14:46:40.613549 31838 net.cpp:382] cont_11_LSTM_cont_slice_10_split -> cont_11_LSTM_cont_slice_10_split_0
I0718 14:46:40.613556 31838 net.cpp:382] cont_11_LSTM_cont_slice_10_split -> cont_11_LSTM_cont_slice_10_split_1
I0718 14:46:40.613591 31838 net.cpp:124] Setting up cont_11_LSTM_cont_slice_10_split
I0718 14:46:40.613600 31838 net.cpp:131] Top shape: 1 40 (40)
I0718 14:46:40.613605 31838 net.cpp:131] Top shape: 1 40 (40)
I0718 14:46:40.613610 31838 net.cpp:139] Memory required for data: 312000
I0718 14:46:40.613615 31838 layer_factory.hpp:77] Creating layer cont_12_LSTM_cont_slice_11_split
I0718 14:46:40.613620 31838 net.cpp:86] Creating Layer cont_12_LSTM_cont_slice_11_split
I0718 14:46:40.613626 31838 net.cpp:408] cont_12_LSTM_cont_slice_11_split <- cont_12
I0718 14:46:40.613632 31838 net.cpp:382] cont_12_LSTM_cont_slice_11_split -> cont_12_LSTM_cont_slice_11_split_0
I0718 14:46:40.613642 31838 net.cpp:382] cont_12_LSTM_cont_slice_11_split -> cont_12_LSTM_cont_slice_11_split_1
I0718 14:46:40.613674 31838 net.cpp:124] Setting up cont_12_LSTM_cont_slice_11_split
I0718 14:46:40.613694 31838 net.cpp:131] Top shape: 1 40 (40)
I0718 14:46:40.613700 31838 net.cpp:131] Top shape: 1 40 (40)
I0718 14:46:40.613705 31838 net.cpp:139] Memory required for data: 312320
I0718 14:46:40.613710 31838 layer_factory.hpp:77] Creating layer cont_13_LSTM_cont_slice_12_split
I0718 14:46:40.613719 31838 net.cpp:86] Creating Layer cont_13_LSTM_cont_slice_12_split
I0718 14:46:40.613724 31838 net.cpp:408] cont_13_LSTM_cont_slice_12_split <- cont_13
I0718 14:46:40.613731 31838 net.cpp:382] cont_13_LSTM_cont_slice_12_split -> cont_13_LSTM_cont_slice_12_split_0
I0718 14:46:40.613739 31838 net.cpp:382] cont_13_LSTM_cont_slice_12_split -> cont_13_LSTM_cont_slice_12_split_1
I0718 14:46:40.613775 31838 net.cpp:124] Setting up cont_13_LSTM_cont_slice_12_split
I0718 14:46:40.613782 31838 net.cpp:131] Top shape: 1 40 (40)
I0718 14:46:40.613788 31838 net.cpp:131] Top shape: 1 40 (40)
I0718 14:46:40.613792 31838 net.cpp:139] Memory required for data: 312640
I0718 14:46:40.613797 31838 layer_factory.hpp:77] Creating layer cont_14_LSTM_cont_slice_13_split
I0718 14:46:40.613806 31838 net.cpp:86] Creating Layer cont_14_LSTM_cont_slice_13_split
I0718 14:46:40.613811 31838 net.cpp:408] cont_14_LSTM_cont_slice_13_split <- cont_14
I0718 14:46:40.613817 31838 net.cpp:382] cont_14_LSTM_cont_slice_13_split -> cont_14_LSTM_cont_slice_13_split_0
I0718 14:46:40.613826 31838 net.cpp:382] cont_14_LSTM_cont_slice_13_split -> cont_14_LSTM_cont_slice_13_split_1
I0718 14:46:40.613862 31838 net.cpp:124] Setting up cont_14_LSTM_cont_slice_13_split
I0718 14:46:40.613870 31838 net.cpp:131] Top shape: 1 40 (40)
I0718 14:46:40.613876 31838 net.cpp:131] Top shape: 1 40 (40)
I0718 14:46:40.613880 31838 net.cpp:139] Memory required for data: 312960
I0718 14:46:40.613885 31838 layer_factory.hpp:77] Creating layer cont_15_LSTM_cont_slice_14_split
I0718 14:46:40.613891 31838 net.cpp:86] Creating Layer cont_15_LSTM_cont_slice_14_split
I0718 14:46:40.613898 31838 net.cpp:408] cont_15_LSTM_cont_slice_14_split <- cont_15
I0718 14:46:40.613903 31838 net.cpp:382] cont_15_LSTM_cont_slice_14_split -> cont_15_LSTM_cont_slice_14_split_0
I0718 14:46:40.613911 31838 net.cpp:382] cont_15_LSTM_cont_slice_14_split -> cont_15_LSTM_cont_slice_14_split_1
I0718 14:46:40.613945 31838 net.cpp:124] Setting up cont_15_LSTM_cont_slice_14_split
I0718 14:46:40.613953 31838 net.cpp:131] Top shape: 1 40 (40)
I0718 14:46:40.613960 31838 net.cpp:131] Top shape: 1 40 (40)
I0718 14:46:40.613965 31838 net.cpp:139] Memory required for data: 313280
I0718 14:46:40.613970 31838 layer_factory.hpp:77] Creating layer cont_16_LSTM_cont_slice_15_split
I0718 14:46:40.613976 31838 net.cpp:86] Creating Layer cont_16_LSTM_cont_slice_15_split
I0718 14:46:40.613981 31838 net.cpp:408] cont_16_LSTM_cont_slice_15_split <- cont_16
I0718 14:46:40.613989 31838 net.cpp:382] cont_16_LSTM_cont_slice_15_split -> cont_16_LSTM_cont_slice_15_split_0
I0718 14:46:40.613996 31838 net.cpp:382] cont_16_LSTM_cont_slice_15_split -> cont_16_LSTM_cont_slice_15_split_1
I0718 14:46:40.614028 31838 net.cpp:124] Setting up cont_16_LSTM_cont_slice_15_split
I0718 14:46:40.614035 31838 net.cpp:131] Top shape: 1 40 (40)
I0718 14:46:40.614042 31838 net.cpp:131] Top shape: 1 40 (40)
I0718 14:46:40.614047 31838 net.cpp:139] Memory required for data: 313600
I0718 14:46:40.614051 31838 layer_factory.hpp:77] Creating layer cont_17_LSTM_cont_slice_16_split
I0718 14:46:40.614059 31838 net.cpp:86] Creating Layer cont_17_LSTM_cont_slice_16_split
I0718 14:46:40.614065 31838 net.cpp:408] cont_17_LSTM_cont_slice_16_split <- cont_17
I0718 14:46:40.614071 31838 net.cpp:382] cont_17_LSTM_cont_slice_16_split -> cont_17_LSTM_cont_slice_16_split_0
I0718 14:46:40.614079 31838 net.cpp:382] cont_17_LSTM_cont_slice_16_split -> cont_17_LSTM_cont_slice_16_split_1
I0718 14:46:40.614114 31838 net.cpp:124] Setting up cont_17_LSTM_cont_slice_16_split
I0718 14:46:40.614121 31838 net.cpp:131] Top shape: 1 40 (40)
I0718 14:46:40.614126 31838 net.cpp:131] Top shape: 1 40 (40)
I0718 14:46:40.614131 31838 net.cpp:139] Memory required for data: 313920
I0718 14:46:40.614146 31838 layer_factory.hpp:77] Creating layer cont_18_LSTM_cont_slice_17_split
I0718 14:46:40.614153 31838 net.cpp:86] Creating Layer cont_18_LSTM_cont_slice_17_split
I0718 14:46:40.614158 31838 net.cpp:408] cont_18_LSTM_cont_slice_17_split <- cont_18
I0718 14:46:40.614166 31838 net.cpp:382] cont_18_LSTM_cont_slice_17_split -> cont_18_LSTM_cont_slice_17_split_0
I0718 14:46:40.614172 31838 net.cpp:382] cont_18_LSTM_cont_slice_17_split -> cont_18_LSTM_cont_slice_17_split_1
I0718 14:46:40.614207 31838 net.cpp:124] Setting up cont_18_LSTM_cont_slice_17_split
I0718 14:46:40.614214 31838 net.cpp:131] Top shape: 1 40 (40)
I0718 14:46:40.614220 31838 net.cpp:131] Top shape: 1 40 (40)
I0718 14:46:40.614225 31838 net.cpp:139] Memory required for data: 314240
I0718 14:46:40.614230 31838 layer_factory.hpp:77] Creating layer cont_19_LSTM_cont_slice_18_split
I0718 14:46:40.614236 31838 net.cpp:86] Creating Layer cont_19_LSTM_cont_slice_18_split
I0718 14:46:40.614241 31838 net.cpp:408] cont_19_LSTM_cont_slice_18_split <- cont_19
I0718 14:46:40.614253 31838 net.cpp:382] cont_19_LSTM_cont_slice_18_split -> cont_19_LSTM_cont_slice_18_split_0
I0718 14:46:40.614261 31838 net.cpp:382] cont_19_LSTM_cont_slice_18_split -> cont_19_LSTM_cont_slice_18_split_1
I0718 14:46:40.614293 31838 net.cpp:124] Setting up cont_19_LSTM_cont_slice_18_split
I0718 14:46:40.614300 31838 net.cpp:131] Top shape: 1 40 (40)
I0718 14:46:40.614306 31838 net.cpp:131] Top shape: 1 40 (40)
I0718 14:46:40.614311 31838 net.cpp:139] Memory required for data: 314560
I0718 14:46:40.614316 31838 layer_factory.hpp:77] Creating layer cont_20_LSTM_cont_slice_19_split
I0718 14:46:40.614325 31838 net.cpp:86] Creating Layer cont_20_LSTM_cont_slice_19_split
I0718 14:46:40.614331 31838 net.cpp:408] cont_20_LSTM_cont_slice_19_split <- cont_20
I0718 14:46:40.614337 31838 net.cpp:382] cont_20_LSTM_cont_slice_19_split -> cont_20_LSTM_cont_slice_19_split_0
I0718 14:46:40.614346 31838 net.cpp:382] cont_20_LSTM_cont_slice_19_split -> cont_20_LSTM_cont_slice_19_split_1
I0718 14:46:40.614379 31838 net.cpp:124] Setting up cont_20_LSTM_cont_slice_19_split
I0718 14:46:40.614388 31838 net.cpp:131] Top shape: 1 40 (40)
I0718 14:46:40.614394 31838 net.cpp:131] Top shape: 1 40 (40)
I0718 14:46:40.614398 31838 net.cpp:139] Memory required for data: 314880
I0718 14:46:40.614403 31838 layer_factory.hpp:77] Creating layer cont_21_LSTM_cont_slice_20_split
I0718 14:46:40.614409 31838 net.cpp:86] Creating Layer cont_21_LSTM_cont_slice_20_split
I0718 14:46:40.614415 31838 net.cpp:408] cont_21_LSTM_cont_slice_20_split <- cont_21
I0718 14:46:40.614423 31838 net.cpp:382] cont_21_LSTM_cont_slice_20_split -> cont_21_LSTM_cont_slice_20_split_0
I0718 14:46:40.614429 31838 net.cpp:382] cont_21_LSTM_cont_slice_20_split -> cont_21_LSTM_cont_slice_20_split_1
I0718 14:46:40.614464 31838 net.cpp:124] Setting up cont_21_LSTM_cont_slice_20_split
I0718 14:46:40.614471 31838 net.cpp:131] Top shape: 1 40 (40)
I0718 14:46:40.614477 31838 net.cpp:131] Top shape: 1 40 (40)
I0718 14:46:40.614481 31838 net.cpp:139] Memory required for data: 315200
I0718 14:46:40.614486 31838 layer_factory.hpp:77] Creating layer cont_22_LSTM_cont_slice_21_split
I0718 14:46:40.614492 31838 net.cpp:86] Creating Layer cont_22_LSTM_cont_slice_21_split
I0718 14:46:40.614498 31838 net.cpp:408] cont_22_LSTM_cont_slice_21_split <- cont_22
I0718 14:46:40.614506 31838 net.cpp:382] cont_22_LSTM_cont_slice_21_split -> cont_22_LSTM_cont_slice_21_split_0
I0718 14:46:40.614512 31838 net.cpp:382] cont_22_LSTM_cont_slice_21_split -> cont_22_LSTM_cont_slice_21_split_1
I0718 14:46:40.614547 31838 net.cpp:124] Setting up cont_22_LSTM_cont_slice_21_split
I0718 14:46:40.614554 31838 net.cpp:131] Top shape: 1 40 (40)
I0718 14:46:40.614559 31838 net.cpp:131] Top shape: 1 40 (40)
I0718 14:46:40.614564 31838 net.cpp:139] Memory required for data: 315520
I0718 14:46:40.614569 31838 layer_factory.hpp:77] Creating layer cont_23_LSTM_cont_slice_22_split
I0718 14:46:40.614575 31838 net.cpp:86] Creating Layer cont_23_LSTM_cont_slice_22_split
I0718 14:46:40.614585 31838 net.cpp:408] cont_23_LSTM_cont_slice_22_split <- cont_23
I0718 14:46:40.614600 31838 net.cpp:382] cont_23_LSTM_cont_slice_22_split -> cont_23_LSTM_cont_slice_22_split_0
I0718 14:46:40.614609 31838 net.cpp:382] cont_23_LSTM_cont_slice_22_split -> cont_23_LSTM_cont_slice_22_split_1
I0718 14:46:40.614641 31838 net.cpp:124] Setting up cont_23_LSTM_cont_slice_22_split
I0718 14:46:40.614650 31838 net.cpp:131] Top shape: 1 40 (40)
I0718 14:46:40.614655 31838 net.cpp:131] Top shape: 1 40 (40)
I0718 14:46:40.614660 31838 net.cpp:139] Memory required for data: 315840
I0718 14:46:40.614665 31838 layer_factory.hpp:77] Creating layer cont_24_LSTM_cont_slice_23_split
I0718 14:46:40.614672 31838 net.cpp:86] Creating Layer cont_24_LSTM_cont_slice_23_split
I0718 14:46:40.614678 31838 net.cpp:408] cont_24_LSTM_cont_slice_23_split <- cont_24
I0718 14:46:40.614686 31838 net.cpp:382] cont_24_LSTM_cont_slice_23_split -> cont_24_LSTM_cont_slice_23_split_0
I0718 14:46:40.614693 31838 net.cpp:382] cont_24_LSTM_cont_slice_23_split -> cont_24_LSTM_cont_slice_23_split_1
I0718 14:46:40.614728 31838 net.cpp:124] Setting up cont_24_LSTM_cont_slice_23_split
I0718 14:46:40.614737 31838 net.cpp:131] Top shape: 1 40 (40)
I0718 14:46:40.614742 31838 net.cpp:131] Top shape: 1 40 (40)
I0718 14:46:40.614747 31838 net.cpp:139] Memory required for data: 316160
I0718 14:46:40.614751 31838 layer_factory.hpp:77] Creating layer cont_25_LSTM_cont_slice_24_split
I0718 14:46:40.614758 31838 net.cpp:86] Creating Layer cont_25_LSTM_cont_slice_24_split
I0718 14:46:40.614763 31838 net.cpp:408] cont_25_LSTM_cont_slice_24_split <- cont_25
I0718 14:46:40.614769 31838 net.cpp:382] cont_25_LSTM_cont_slice_24_split -> cont_25_LSTM_cont_slice_24_split_0
I0718 14:46:40.614778 31838 net.cpp:382] cont_25_LSTM_cont_slice_24_split -> cont_25_LSTM_cont_slice_24_split_1
I0718 14:46:40.614811 31838 net.cpp:124] Setting up cont_25_LSTM_cont_slice_24_split
I0718 14:46:40.614820 31838 net.cpp:131] Top shape: 1 40 (40)
I0718 14:46:40.614825 31838 net.cpp:131] Top shape: 1 40 (40)
I0718 14:46:40.614830 31838 net.cpp:139] Memory required for data: 316480
I0718 14:46:40.614835 31838 layer_factory.hpp:77] Creating layer cont_26_LSTM_cont_slice_25_split
I0718 14:46:40.614840 31838 net.cpp:86] Creating Layer cont_26_LSTM_cont_slice_25_split
I0718 14:46:40.614845 31838 net.cpp:408] cont_26_LSTM_cont_slice_25_split <- cont_26
I0718 14:46:40.614852 31838 net.cpp:382] cont_26_LSTM_cont_slice_25_split -> cont_26_LSTM_cont_slice_25_split_0
I0718 14:46:40.614862 31838 net.cpp:382] cont_26_LSTM_cont_slice_25_split -> cont_26_LSTM_cont_slice_25_split_1
I0718 14:46:40.614894 31838 net.cpp:124] Setting up cont_26_LSTM_cont_slice_25_split
I0718 14:46:40.614902 31838 net.cpp:131] Top shape: 1 40 (40)
I0718 14:46:40.614908 31838 net.cpp:131] Top shape: 1 40 (40)
I0718 14:46:40.614913 31838 net.cpp:139] Memory required for data: 316800
I0718 14:46:40.614917 31838 layer_factory.hpp:77] Creating layer cont_27_LSTM_cont_slice_26_split
I0718 14:46:40.614926 31838 net.cpp:86] Creating Layer cont_27_LSTM_cont_slice_26_split
I0718 14:46:40.614931 31838 net.cpp:408] cont_27_LSTM_cont_slice_26_split <- cont_27
I0718 14:46:40.614938 31838 net.cpp:382] cont_27_LSTM_cont_slice_26_split -> cont_27_LSTM_cont_slice_26_split_0
I0718 14:46:40.614946 31838 net.cpp:382] cont_27_LSTM_cont_slice_26_split -> cont_27_LSTM_cont_slice_26_split_1
I0718 14:46:40.614980 31838 net.cpp:124] Setting up cont_27_LSTM_cont_slice_26_split
I0718 14:46:40.614989 31838 net.cpp:131] Top shape: 1 40 (40)
I0718 14:46:40.614994 31838 net.cpp:131] Top shape: 1 40 (40)
I0718 14:46:40.614998 31838 net.cpp:139] Memory required for data: 317120
I0718 14:46:40.615003 31838 layer_factory.hpp:77] Creating layer cont_28_LSTM_cont_slice_27_split
I0718 14:46:40.615010 31838 net.cpp:86] Creating Layer cont_28_LSTM_cont_slice_27_split
I0718 14:46:40.615015 31838 net.cpp:408] cont_28_LSTM_cont_slice_27_split <- cont_28
I0718 14:46:40.615021 31838 net.cpp:382] cont_28_LSTM_cont_slice_27_split -> cont_28_LSTM_cont_slice_27_split_0
I0718 14:46:40.615033 31838 net.cpp:382] cont_28_LSTM_cont_slice_27_split -> cont_28_LSTM_cont_slice_27_split_1
I0718 14:46:40.615077 31838 net.cpp:124] Setting up cont_28_LSTM_cont_slice_27_split
I0718 14:46:40.615085 31838 net.cpp:131] Top shape: 1 40 (40)
I0718 14:46:40.615092 31838 net.cpp:131] Top shape: 1 40 (40)
I0718 14:46:40.615095 31838 net.cpp:139] Memory required for data: 317440
I0718 14:46:40.615100 31838 layer_factory.hpp:77] Creating layer cont_29_LSTM_cont_slice_28_split
I0718 14:46:40.615108 31838 net.cpp:86] Creating Layer cont_29_LSTM_cont_slice_28_split
I0718 14:46:40.615113 31838 net.cpp:408] cont_29_LSTM_cont_slice_28_split <- cont_29
I0718 14:46:40.615119 31838 net.cpp:382] cont_29_LSTM_cont_slice_28_split -> cont_29_LSTM_cont_slice_28_split_0
I0718 14:46:40.615126 31838 net.cpp:382] cont_29_LSTM_cont_slice_28_split -> cont_29_LSTM_cont_slice_28_split_1
I0718 14:46:40.615160 31838 net.cpp:124] Setting up cont_29_LSTM_cont_slice_28_split
I0718 14:46:40.615170 31838 net.cpp:131] Top shape: 1 40 (40)
I0718 14:46:40.615175 31838 net.cpp:131] Top shape: 1 40 (40)
I0718 14:46:40.615180 31838 net.cpp:139] Memory required for data: 317760
I0718 14:46:40.615185 31838 layer_factory.hpp:77] Creating layer cont_30_LSTM_cont_slice_29_split
I0718 14:46:40.615195 31838 net.cpp:86] Creating Layer cont_30_LSTM_cont_slice_29_split
I0718 14:46:40.615201 31838 net.cpp:408] cont_30_LSTM_cont_slice_29_split <- cont_30
I0718 14:46:40.615208 31838 net.cpp:382] cont_30_LSTM_cont_slice_29_split -> cont_30_LSTM_cont_slice_29_split_0
I0718 14:46:40.615216 31838 net.cpp:382] cont_30_LSTM_cont_slice_29_split -> cont_30_LSTM_cont_slice_29_split_1
I0718 14:46:40.615250 31838 net.cpp:124] Setting up cont_30_LSTM_cont_slice_29_split
I0718 14:46:40.615258 31838 net.cpp:131] Top shape: 1 40 (40)
I0718 14:46:40.615264 31838 net.cpp:131] Top shape: 1 40 (40)
I0718 14:46:40.615269 31838 net.cpp:139] Memory required for data: 318080
I0718 14:46:40.615274 31838 layer_factory.hpp:77] Creating layer cont_31_LSTM_cont_slice_30_split
I0718 14:46:40.615280 31838 net.cpp:86] Creating Layer cont_31_LSTM_cont_slice_30_split
I0718 14:46:40.615286 31838 net.cpp:408] cont_31_LSTM_cont_slice_30_split <- cont_31
I0718 14:46:40.615293 31838 net.cpp:382] cont_31_LSTM_cont_slice_30_split -> cont_31_LSTM_cont_slice_30_split_0
I0718 14:46:40.615300 31838 net.cpp:382] cont_31_LSTM_cont_slice_30_split -> cont_31_LSTM_cont_slice_30_split_1
I0718 14:46:40.615334 31838 net.cpp:124] Setting up cont_31_LSTM_cont_slice_30_split
I0718 14:46:40.615341 31838 net.cpp:131] Top shape: 1 40 (40)
I0718 14:46:40.615347 31838 net.cpp:131] Top shape: 1 40 (40)
I0718 14:46:40.615352 31838 net.cpp:139] Memory required for data: 318400
I0718 14:46:40.615357 31838 layer_factory.hpp:77] Creating layer cont_32_LSTM_cont_slice_31_split
I0718 14:46:40.615363 31838 net.cpp:86] Creating Layer cont_32_LSTM_cont_slice_31_split
I0718 14:46:40.615368 31838 net.cpp:408] cont_32_LSTM_cont_slice_31_split <- cont_32
I0718 14:46:40.615375 31838 net.cpp:382] cont_32_LSTM_cont_slice_31_split -> cont_32_LSTM_cont_slice_31_split_0
I0718 14:46:40.615382 31838 net.cpp:382] cont_32_LSTM_cont_slice_31_split -> cont_32_LSTM_cont_slice_31_split_1
I0718 14:46:40.615417 31838 net.cpp:124] Setting up cont_32_LSTM_cont_slice_31_split
I0718 14:46:40.615424 31838 net.cpp:131] Top shape: 1 40 (40)
I0718 14:46:40.615430 31838 net.cpp:131] Top shape: 1 40 (40)
I0718 14:46:40.615434 31838 net.cpp:139] Memory required for data: 318720
I0718 14:46:40.615439 31838 layer_factory.hpp:77] Creating layer cont_33_LSTM_cont_slice_32_split
I0718 14:46:40.615447 31838 net.cpp:86] Creating Layer cont_33_LSTM_cont_slice_32_split
I0718 14:46:40.615452 31838 net.cpp:408] cont_33_LSTM_cont_slice_32_split <- cont_33
I0718 14:46:40.615460 31838 net.cpp:382] cont_33_LSTM_cont_slice_32_split -> cont_33_LSTM_cont_slice_32_split_0
I0718 14:46:40.615468 31838 net.cpp:382] cont_33_LSTM_cont_slice_32_split -> cont_33_LSTM_cont_slice_32_split_1
I0718 14:46:40.615499 31838 net.cpp:124] Setting up cont_33_LSTM_cont_slice_32_split
I0718 14:46:40.615515 31838 net.cpp:131] Top shape: 1 40 (40)
I0718 14:46:40.615527 31838 net.cpp:131] Top shape: 1 40 (40)
I0718 14:46:40.615532 31838 net.cpp:139] Memory required for data: 319040
I0718 14:46:40.615537 31838 layer_factory.hpp:77] Creating layer cont_34_LSTM_cont_slice_33_split
I0718 14:46:40.615545 31838 net.cpp:86] Creating Layer cont_34_LSTM_cont_slice_33_split
I0718 14:46:40.615551 31838 net.cpp:408] cont_34_LSTM_cont_slice_33_split <- cont_34
I0718 14:46:40.615558 31838 net.cpp:382] cont_34_LSTM_cont_slice_33_split -> cont_34_LSTM_cont_slice_33_split_0
I0718 14:46:40.615566 31838 net.cpp:382] cont_34_LSTM_cont_slice_33_split -> cont_34_LSTM_cont_slice_33_split_1
I0718 14:46:40.615600 31838 net.cpp:124] Setting up cont_34_LSTM_cont_slice_33_split
I0718 14:46:40.615608 31838 net.cpp:131] Top shape: 1 40 (40)
I0718 14:46:40.615613 31838 net.cpp:131] Top shape: 1 40 (40)
I0718 14:46:40.615618 31838 net.cpp:139] Memory required for data: 319360
I0718 14:46:40.615623 31838 layer_factory.hpp:77] Creating layer cont_35_LSTM_cont_slice_34_split
I0718 14:46:40.615629 31838 net.cpp:86] Creating Layer cont_35_LSTM_cont_slice_34_split
I0718 14:46:40.615634 31838 net.cpp:408] cont_35_LSTM_cont_slice_34_split <- cont_35
I0718 14:46:40.615641 31838 net.cpp:382] cont_35_LSTM_cont_slice_34_split -> cont_35_LSTM_cont_slice_34_split_0
I0718 14:46:40.615649 31838 net.cpp:382] cont_35_LSTM_cont_slice_34_split -> cont_35_LSTM_cont_slice_34_split_1
I0718 14:46:40.615684 31838 net.cpp:124] Setting up cont_35_LSTM_cont_slice_34_split
I0718 14:46:40.615691 31838 net.cpp:131] Top shape: 1 40 (40)
I0718 14:46:40.615696 31838 net.cpp:131] Top shape: 1 40 (40)
I0718 14:46:40.615701 31838 net.cpp:139] Memory required for data: 319680
I0718 14:46:40.615706 31838 layer_factory.hpp:77] Creating layer cont_36_LSTM_cont_slice_35_split
I0718 14:46:40.615712 31838 net.cpp:86] Creating Layer cont_36_LSTM_cont_slice_35_split
I0718 14:46:40.615718 31838 net.cpp:408] cont_36_LSTM_cont_slice_35_split <- cont_36
I0718 14:46:40.615725 31838 net.cpp:382] cont_36_LSTM_cont_slice_35_split -> cont_36_LSTM_cont_slice_35_split_0
I0718 14:46:40.615734 31838 net.cpp:382] cont_36_LSTM_cont_slice_35_split -> cont_36_LSTM_cont_slice_35_split_1
I0718 14:46:40.615766 31838 net.cpp:124] Setting up cont_36_LSTM_cont_slice_35_split
I0718 14:46:40.615773 31838 net.cpp:131] Top shape: 1 40 (40)
I0718 14:46:40.615779 31838 net.cpp:131] Top shape: 1 40 (40)
I0718 14:46:40.615783 31838 net.cpp:139] Memory required for data: 320000
I0718 14:46:40.615788 31838 layer_factory.hpp:77] Creating layer cont_37_LSTM_cont_slice_36_split
I0718 14:46:40.615797 31838 net.cpp:86] Creating Layer cont_37_LSTM_cont_slice_36_split
I0718 14:46:40.615803 31838 net.cpp:408] cont_37_LSTM_cont_slice_36_split <- cont_37
I0718 14:46:40.615809 31838 net.cpp:382] cont_37_LSTM_cont_slice_36_split -> cont_37_LSTM_cont_slice_36_split_0
I0718 14:46:40.615816 31838 net.cpp:382] cont_37_LSTM_cont_slice_36_split -> cont_37_LSTM_cont_slice_36_split_1
I0718 14:46:40.615850 31838 net.cpp:124] Setting up cont_37_LSTM_cont_slice_36_split
I0718 14:46:40.615859 31838 net.cpp:131] Top shape: 1 40 (40)
I0718 14:46:40.615864 31838 net.cpp:131] Top shape: 1 40 (40)
I0718 14:46:40.615869 31838 net.cpp:139] Memory required for data: 320320
I0718 14:46:40.615875 31838 layer_factory.hpp:77] Creating layer cont_38_LSTM_cont_slice_37_split
I0718 14:46:40.615880 31838 net.cpp:86] Creating Layer cont_38_LSTM_cont_slice_37_split
I0718 14:46:40.615885 31838 net.cpp:408] cont_38_LSTM_cont_slice_37_split <- cont_38
I0718 14:46:40.615892 31838 net.cpp:382] cont_38_LSTM_cont_slice_37_split -> cont_38_LSTM_cont_slice_37_split_0
I0718 14:46:40.615900 31838 net.cpp:382] cont_38_LSTM_cont_slice_37_split -> cont_38_LSTM_cont_slice_37_split_1
I0718 14:46:40.615934 31838 net.cpp:124] Setting up cont_38_LSTM_cont_slice_37_split
I0718 14:46:40.615942 31838 net.cpp:131] Top shape: 1 40 (40)
I0718 14:46:40.615948 31838 net.cpp:131] Top shape: 1 40 (40)
I0718 14:46:40.615953 31838 net.cpp:139] Memory required for data: 320640
I0718 14:46:40.615962 31838 layer_factory.hpp:77] Creating layer cont_39_LSTM_cont_slice_38_split
I0718 14:46:40.615974 31838 net.cpp:86] Creating Layer cont_39_LSTM_cont_slice_38_split
I0718 14:46:40.615980 31838 net.cpp:408] cont_39_LSTM_cont_slice_38_split <- cont_39
I0718 14:46:40.615986 31838 net.cpp:382] cont_39_LSTM_cont_slice_38_split -> cont_39_LSTM_cont_slice_38_split_0
I0718 14:46:40.615994 31838 net.cpp:382] cont_39_LSTM_cont_slice_38_split -> cont_39_LSTM_cont_slice_38_split_1
I0718 14:46:40.616030 31838 net.cpp:124] Setting up cont_39_LSTM_cont_slice_38_split
I0718 14:46:40.616039 31838 net.cpp:131] Top shape: 1 40 (40)
I0718 14:46:40.616044 31838 net.cpp:131] Top shape: 1 40 (40)
I0718 14:46:40.616049 31838 net.cpp:139] Memory required for data: 320960
I0718 14:46:40.616053 31838 layer_factory.hpp:77] Creating layer cont_40_LSTM_cont_slice_39_split
I0718 14:46:40.616060 31838 net.cpp:86] Creating Layer cont_40_LSTM_cont_slice_39_split
I0718 14:46:40.616065 31838 net.cpp:408] cont_40_LSTM_cont_slice_39_split <- cont_40
I0718 14:46:40.616075 31838 net.cpp:382] cont_40_LSTM_cont_slice_39_split -> cont_40_LSTM_cont_slice_39_split_0
I0718 14:46:40.616082 31838 net.cpp:382] cont_40_LSTM_cont_slice_39_split -> cont_40_LSTM_cont_slice_39_split_1
I0718 14:46:40.616114 31838 net.cpp:124] Setting up cont_40_LSTM_cont_slice_39_split
I0718 14:46:40.616122 31838 net.cpp:131] Top shape: 1 40 (40)
I0718 14:46:40.616127 31838 net.cpp:131] Top shape: 1 40 (40)
I0718 14:46:40.616132 31838 net.cpp:139] Memory required for data: 321280
I0718 14:46:40.616137 31838 layer_factory.hpp:77] Creating layer cont_41_LSTM_cont_slice_40_split
I0718 14:46:40.616145 31838 net.cpp:86] Creating Layer cont_41_LSTM_cont_slice_40_split
I0718 14:46:40.616150 31838 net.cpp:408] cont_41_LSTM_cont_slice_40_split <- cont_41
I0718 14:46:40.616158 31838 net.cpp:382] cont_41_LSTM_cont_slice_40_split -> cont_41_LSTM_cont_slice_40_split_0
I0718 14:46:40.616175 31838 net.cpp:382] cont_41_LSTM_cont_slice_40_split -> cont_41_LSTM_cont_slice_40_split_1
I0718 14:46:40.616211 31838 net.cpp:124] Setting up cont_41_LSTM_cont_slice_40_split
I0718 14:46:40.616221 31838 net.cpp:131] Top shape: 1 40 (40)
I0718 14:46:40.616228 31838 net.cpp:131] Top shape: 1 40 (40)
I0718 14:46:40.616233 31838 net.cpp:139] Memory required for data: 321600
I0718 14:46:40.616238 31838 layer_factory.hpp:77] Creating layer cont_42_LSTM_cont_slice_41_split
I0718 14:46:40.616245 31838 net.cpp:86] Creating Layer cont_42_LSTM_cont_slice_41_split
I0718 14:46:40.616250 31838 net.cpp:408] cont_42_LSTM_cont_slice_41_split <- cont_42
I0718 14:46:40.616257 31838 net.cpp:382] cont_42_LSTM_cont_slice_41_split -> cont_42_LSTM_cont_slice_41_split_0
I0718 14:46:40.616264 31838 net.cpp:382] cont_42_LSTM_cont_slice_41_split -> cont_42_LSTM_cont_slice_41_split_1
I0718 14:46:40.616299 31838 net.cpp:124] Setting up cont_42_LSTM_cont_slice_41_split
I0718 14:46:40.616307 31838 net.cpp:131] Top shape: 1 40 (40)
I0718 14:46:40.616313 31838 net.cpp:131] Top shape: 1 40 (40)
I0718 14:46:40.616317 31838 net.cpp:139] Memory required for data: 321920
I0718 14:46:40.616322 31838 layer_factory.hpp:77] Creating layer cont_43_LSTM_cont_slice_42_split
I0718 14:46:40.616328 31838 net.cpp:86] Creating Layer cont_43_LSTM_cont_slice_42_split
I0718 14:46:40.616334 31838 net.cpp:408] cont_43_LSTM_cont_slice_42_split <- cont_43
I0718 14:46:40.616340 31838 net.cpp:382] cont_43_LSTM_cont_slice_42_split -> cont_43_LSTM_cont_slice_42_split_0
I0718 14:46:40.616348 31838 net.cpp:382] cont_43_LSTM_cont_slice_42_split -> cont_43_LSTM_cont_slice_42_split_1
I0718 14:46:40.616381 31838 net.cpp:124] Setting up cont_43_LSTM_cont_slice_42_split
I0718 14:46:40.616389 31838 net.cpp:131] Top shape: 1 40 (40)
I0718 14:46:40.616395 31838 net.cpp:131] Top shape: 1 40 (40)
I0718 14:46:40.616400 31838 net.cpp:139] Memory required for data: 322240
I0718 14:46:40.616405 31838 layer_factory.hpp:77] Creating layer cont_44_LSTM_cont_slice_43_split
I0718 14:46:40.616411 31838 net.cpp:86] Creating Layer cont_44_LSTM_cont_slice_43_split
I0718 14:46:40.616420 31838 net.cpp:408] cont_44_LSTM_cont_slice_43_split <- cont_44
I0718 14:46:40.616437 31838 net.cpp:382] cont_44_LSTM_cont_slice_43_split -> cont_44_LSTM_cont_slice_43_split_0
I0718 14:46:40.616446 31838 net.cpp:382] cont_44_LSTM_cont_slice_43_split -> cont_44_LSTM_cont_slice_43_split_1
I0718 14:46:40.616479 31838 net.cpp:124] Setting up cont_44_LSTM_cont_slice_43_split
I0718 14:46:40.616487 31838 net.cpp:131] Top shape: 1 40 (40)
I0718 14:46:40.616493 31838 net.cpp:131] Top shape: 1 40 (40)
I0718 14:46:40.616497 31838 net.cpp:139] Memory required for data: 322560
I0718 14:46:40.616503 31838 layer_factory.hpp:77] Creating layer LSTM_x_transform
I0718 14:46:40.616514 31838 net.cpp:86] Creating Layer LSTM_x_transform
I0718 14:46:40.616521 31838 net.cpp:408] LSTM_x_transform <- x
I0718 14:46:40.616529 31838 net.cpp:382] LSTM_x_transform -> W_xc_x
I0718 14:46:40.618528 31838 net.cpp:124] Setting up LSTM_x_transform
I0718 14:46:40.618547 31838 net.cpp:131] Top shape: 44 40 160 (281600)
I0718 14:46:40.618553 31838 net.cpp:139] Memory required for data: 1448960
I0718 14:46:40.618568 31838 layer_factory.hpp:77] Creating layer LSTM_W_xc_x_slice
I0718 14:46:40.618583 31838 net.cpp:86] Creating Layer LSTM_W_xc_x_slice
I0718 14:46:40.618589 31838 net.cpp:408] LSTM_W_xc_x_slice <- W_xc_x
I0718 14:46:40.618602 31838 net.cpp:382] LSTM_W_xc_x_slice -> W_xc_x_1
I0718 14:46:40.618616 31838 net.cpp:382] LSTM_W_xc_x_slice -> W_xc_x_2
…
I0718 14:46:40.619037 31838 net.cpp:382] LSTM_W_xc_x_slice -> W_xc_x_38
I0718 14:46:40.619050 31838 net.cpp:382] LSTM_W_xc_x_slice -> W_xc_x_39
I0718 14:46:40.619068 31838 net.cpp:382] LSTM_W_xc_x_slice -> W_xc_x_40
I0718 14:46:40.619088 31838 net.cpp:382] LSTM_W_xc_x_slice -> W_xc_x_41
I0718 14:46:40.619099 31838 net.cpp:382] LSTM_W_xc_x_slice -> W_xc_x_42
I0718 14:46:40.619112 31838 net.cpp:382] LSTM_W_xc_x_slice -> W_xc_x_43
I0718 14:46:40.619122 31838 net.cpp:382] LSTM_W_xc_x_slice -> W_xc_x_44
I0718 14:46:40.619653 31838 net.cpp:124] Setting up LSTM_W_xc_x_slice
I0718 14:46:40.619664 31838 net.cpp:131] Top shape: 1 40 160 (6400)
I0718 14:46:40.619670 31838 net.cpp:131] Top shape: 1 40 160 (6400)
I0718 14:46:40.619676 31838 net.cpp:131] Top shape: 1 40 160 (6400)
I0718 14:46:40.619683 31838 net.cpp:131] Top shape: 1 40 160 (6400)
I0718 14:46:40.619688 31838 net.cpp:131] Top shape: 1 40 160 (6400)
I0718 14:46:40.619693 31838 net.cpp:131] Top shape: 1 40 160 (6400)
I0718 14:46:40.619699 31838 net.cpp:131] Top shape: 1 40 160 (6400)
I0718 14:46:40.619705 31838 net.cpp:131] Top shape: 1 40 160 (6400)
I0718 14:46:40.619710 31838 net.cpp:131] Top shape: 1 40 160 (6400)
I0718 14:46:40.619716 31838 net.cpp:131] Top shape: 1 40 160 (6400)
I0718 14:46:40.619722 31838 net.cpp:131] Top shape: 1 40 160 (6400)
I0718 14:46:40.619727 31838 net.cpp:131] Top shape: 1 40 160 (6400)
I0718 14:46:40.619734 31838 net.cpp:131] Top shape: 1 40 160 (6400)
I0718 14:46:40.619740 31838 net.cpp:131] Top shape: 1 40 160 (6400)
I0718 14:46:40.619745 31838 net.cpp:131] Top shape: 1 40 160 (6400)
I0718 14:46:40.619750 31838 net.cpp:131] Top shape: 1 40 160 (6400)
I0718 14:46:40.619755 31838 net.cpp:131] Top shape: 1 40 160 (6400)
I0718 14:46:40.619761 31838 net.cpp:131] Top shape: 1 40 160 (6400)
I0718 14:46:40.619767 31838 net.cpp:131] Top shape: 1 40 160 (6400)
I0718 14:46:40.619772 31838 net.cpp:131] Top shape: 1 40 160 (6400)
I0718 14:46:40.619778 31838 net.cpp:131] Top shape: 1 40 160 (6400)
I0718 14:46:40.619784 31838 net.cpp:131] Top shape: 1 40 160 (6400)
I0718 14:46:40.619789 31838 net.cpp:131] Top shape: 1 40 160 (6400)
I0718 14:46:40.619796 31838 net.cpp:131] Top shape: 1 40 160 (6400)
I0718 14:46:40.619801 31838 net.cpp:131] Top shape: 1 40 160 (6400)
I0718 14:46:40.619807 31838 net.cpp:131] Top shape: 1 40 160 (6400)
I0718 14:46:40.619812 31838 net.cpp:131] Top shape: 1 40 160 (6400)
I0718 14:46:40.619817 31838 net.cpp:131] Top shape: 1 40 160 (6400)
I0718 14:46:40.619823 31838 net.cpp:131] Top shape: 1 40 160 (6400)
I0718 14:46:40.619829 31838 net.cpp:131] Top shape: 1 40 160 (6400)
I0718 14:46:40.619834 31838 net.cpp:131] Top shape: 1 40 160 (6400)
I0718 14:46:40.619840 31838 net.cpp:131] Top shape: 1 40 160 (6400)
I0718 14:46:40.619846 31838 net.cpp:131] Top shape: 1 40 160 (6400)
I0718 14:46:40.619851 31838 net.cpp:131] Top shape: 1 40 160 (6400)
I0718 14:46:40.619858 31838 net.cpp:131] Top shape: 1 40 160 (6400)
I0718 14:46:40.619863 31838 net.cpp:131] Top shape: 1 40 160 (6400)
I0718 14:46:40.619868 31838 net.cpp:131] Top shape: 1 40 160 (6400)
I0718 14:46:40.619874 31838 net.cpp:131] Top shape: 1 40 160 (6400)
I0718 14:46:40.619880 31838 net.cpp:131] Top shape: 1 40 160 (6400)
I0718 14:46:40.619885 31838 net.cpp:131] Top shape: 1 40 160 (6400)
I0718 14:46:40.619891 31838 net.cpp:131] Top shape: 1 40 160 (6400)
I0718 14:46:40.619897 31838 net.cpp:131] Top shape: 1 40 160 (6400)
I0718 14:46:40.619902 31838 net.cpp:131] Top shape: 1 40 160 (6400)
I0718 14:46:40.619909 31838 net.cpp:131] Top shape: 1 40 160 (6400)
I0718 14:46:40.619913 31838 net.cpp:139] Memory required for data: 2575360
I0718 14:46:40.619918 31838 layer_factory.hpp:77] Creating layer LSTM_h_conted_0
I0718 14:46:40.619930 31838 net.cpp:86] Creating Layer LSTM_h_conted_0
I0718 14:46:40.619935 31838 net.cpp:408] LSTM_h_conted_0 <- h_0
I0718 14:46:40.619943 31838 net.cpp:408] LSTM_h_conted_0 <- cont_1_LSTM_cont_slice_0_split_0
I0718 14:46:40.619956 31838 net.cpp:382] LSTM_h_conted_0 -> h_conted_0
I0718 14:46:40.620029 31838 net.cpp:124] Setting up LSTM_h_conted_0
I0718 14:46:40.620039 31838 net.cpp:131] Top shape: 1 40 40 (1600)
I0718 14:46:40.620044 31838 net.cpp:139] Memory required for data: 2581760
I0718 14:46:40.620055 31838 layer_factory.hpp:77] Creating layer LSTM_transform_1
I0718 14:46:40.620072 31838 net.cpp:86] Creating Layer LSTM_transform_1
I0718 14:46:40.620080 31838 net.cpp:408] LSTM_transform_1 <- h_conted_0
I0718 14:46:40.620088 31838 net.cpp:382] LSTM_transform_1 -> W_hc_h_0
I0718 14:46:40.620354 31838 net.cpp:124] Setting up LSTM_transform_1
I0718 14:46:40.620364 31838 net.cpp:131] Top shape: 1 40 160 (6400)
I0718 14:46:40.620369 31838 net.cpp:139] Memory required for data: 2607360
I0718 14:46:40.620378 31838 layer_factory.hpp:77] Creating layer LSTM_gate_input_1
I0718 14:46:40.620395 31838 net.cpp:86] Creating Layer LSTM_gate_input_1
I0718 14:46:40.620402 31838 net.cpp:408] LSTM_gate_input_1 <- W_hc_h_0
I0718 14:46:40.620409 31838 net.cpp:408] LSTM_gate_input_1 <- W_xc_x_1
I0718 14:46:40.620417 31838 net.cpp:382] LSTM_gate_input_1 -> gate_input_1
I0718 14:46:40.620448 31838 net.cpp:124] Setting up LSTM_gate_input_1
I0718 14:46:40.620457 31838 net.cpp:131] Top shape: 1 40 160 (6400)
I0718 14:46:40.620462 31838 net.cpp:139] Memory required for data: 2632960
I0718 14:46:40.620468 31838 layer_factory.hpp:77] Creating layer LSTM_unit_1
I0718 14:46:40.620479 31838 net.cpp:86] Creating Layer LSTM_unit_1
I0718 14:46:40.620486 31838 net.cpp:408] LSTM_unit_1 <- c_0
I0718 14:46:40.620492 31838 net.cpp:408] LSTM_unit_1 <- gate_input_1
I0718 14:46:40.620499 31838 net.cpp:408] LSTM_unit_1 <- cont_1_LSTM_cont_slice_0_split_1
I0718 14:46:40.620509 31838 net.cpp:382] LSTM_unit_1 -> c_1
I0718 14:46:40.620518 31838 net.cpp:382] LSTM_unit_1 -> h_1
I0718 14:46:40.620570 31838 net.cpp:124] Setting up LSTM_unit_1
I0718 14:46:40.620579 31838 net.cpp:131] Top shape: 1 40 40 (1600)
I0718 14:46:40.620586 31838 net.cpp:131] Top shape: 1 40 40 (1600)
I0718 14:46:40.620591 31838 net.cpp:139] Memory required for data: 2645760
I0718 14:46:40.620596 31838 layer_factory.hpp:77] Creating layer h_1_LSTM_unit_1_1_split
I0718 14:46:40.620604 31838 net.cpp:86] Creating Layer h_1_LSTM_unit_1_1_split
I0718 14:46:40.620609 31838 net.cpp:408] h_1_LSTM_unit_1_1_split <- h_1
I0718 14:46:40.620615 31838 net.cpp:382] h_1_LSTM_unit_1_1_split -> h_1_LSTM_unit_1_1_split_0
I0718 14:46:40.620625 31838 net.cpp:382] h_1_LSTM_unit_1_1_split -> h_1_LSTM_unit_1_1_split_1
I0718 14:46:40.620661 31838 net.cpp:124] Setting up h_1_LSTM_unit_1_1_split
I0718 14:46:40.620669 31838 net.cpp:131] Top shape: 1 40 40 (1600)
I0718 14:46:40.620676 31838 net.cpp:131] Top shape: 1 40 40 (1600)
I0718 14:46:40.620681 31838 net.cpp:139] Memory required for data: 2658560
I0718 14:46:40.620685 31838 layer_factory.hpp:77] Creating layer LSTM_h_conted_1
I0718 14:46:40.620692 31838 net.cpp:86] Creating Layer LSTM_h_conted_1
I0718 14:46:40.620698 31838 net.cpp:408] LSTM_h_conted_1 <- h_1_LSTM_unit_1_1_split_0
I0718 14:46:40.620704 31838 net.cpp:408] LSTM_h_conted_1 <- cont_2_LSTM_cont_slice_1_split_0
I0718 14:46:40.620714 31838 net.cpp:382] LSTM_h_conted_1 -> h_conted_1
I0718 14:46:40.620779 31838 net.cpp:124] Setting up LSTM_h_conted_1
I0718 14:46:40.620789 31838 net.cpp:131] Top shape: 1 40 40 (1600)
I0718 14:46:40.620793 31838 net.cpp:139] Memory required for data: 2664960
I0718 14:46:40.620798 31838 layer_factory.hpp:77] Creating layer LSTM_transform_2
I0718 14:46:40.620808 31838 net.cpp:86] Creating Layer LSTM_transform_2
I0718 14:46:40.620815 31838 net.cpp:408] LSTM_transform_2 <- h_conted_1
I0718 14:46:40.620821 31838 net.cpp:382] LSTM_transform_2 -> W_hc_h_1
I0718 14:46:40.621084 31838 net.cpp:124] Setting up LSTM_transform_2
I0718 14:46:40.621094 31838 net.cpp:131] Top shape: 1 40 160 (6400)
I0718 14:46:40.621099 31838 net.cpp:139] Memory required for data: 2690560
I0718 14:46:40.621105 31838 net.cpp:467] Sharing parameters 'W_hc' owned by layer 'LSTM_transform_1', param index 0
I0718 14:46:40.621111 31838 layer_factory.hpp:77] Creating layer LSTM_gate_input_2
I0718 14:46:40.621119 31838 net.cpp:86] Creating Layer LSTM_gate_input_2
I0718 14:46:40.621124 31838 net.cpp:408] LSTM_gate_input_2 <- W_hc_h_1
I0718 14:46:40.621131 31838 net.cpp:408] LSTM_gate_input_2 <- W_xc_x_2
I0718 14:46:40.621143 31838 net.cpp:382] LSTM_gate_input_2 -> gate_input_2
I0718 14:46:40.621179 31838 net.cpp:124] Setting up LSTM_gate_input_2
I0718 14:46:40.621188 31838 net.cpp:131] Top shape: 1 40 160 (6400)
I0718 14:46:40.621193 31838 net.cpp:139] Memory required for data: 2716160
I0718 14:46:40.621198 31838 layer_factory.hpp:77] Creating layer LSTM_unit_2
I0718 14:46:40.621206 31838 net.cpp:86] Creating Layer LSTM_unit_2
I0718 14:46:40.621212 31838 net.cpp:408] LSTM_unit_2 <- c_1
I0718 14:46:40.621218 31838 net.cpp:408] LSTM_unit_2 <- gate_input_2
I0718 14:46:40.621225 31838 net.cpp:408] LSTM_unit_2 <- cont_2_LSTM_cont_slice_1_split_1
I0718 14:46:40.621232 31838 net.cpp:382] LSTM_unit_2 -> c_2
I0718 14:46:40.621240 31838 net.cpp:382] LSTM_unit_2 -> h_2
I0718 14:46:40.621297 31838 net.cpp:124] Setting up LSTM_unit_2
I0718 14:46:40.621307 31838 net.cpp:131] Top shape: 1 40 40 (1600)
I0718 14:46:40.621314 31838 net.cpp:131] Top shape: 1 40 40 (1600)
I0718 14:46:40.621318 31838 net.cpp:139] Memory required for data: 2728960
I0718 14:46:40.621323 31838 layer_factory.hpp:77] Creating layer h_2_LSTM_unit_2_1_split
I0718 14:46:40.621332 31838 net.cpp:86] Creating Layer h_2_LSTM_unit_2_1_split
I0718 14:46:40.621338 31838 net.cpp:408] h_2_LSTM_unit_2_1_split <- h_2
I0718 14:46:40.621345 31838 net.cpp:382] h_2_LSTM_unit_2_1_split -> h_2_LSTM_unit_2_1_split_0
I0718 14:46:40.621353 31838 net.cpp:382] h_2_LSTM_unit_2_1_split -> h_2_LSTM_unit_2_1_split_1
I0718 14:46:40.621390 31838 net.cpp:124] Setting up h_2_LSTM_unit_2_1_split
I0718 14:46:40.621399 31838 net.cpp:131] Top shape: 1 40 40 (1600)
I0718 14:46:40.621405 31838 net.cpp:131] Top shape: 1 40 40 (1600)
I0718 14:46:40.621409 31838 net.cpp:139] Memory required for data: 2741760
I0718 14:46:40.621414 31838 layer_factory.hpp:77] Creating layer LSTM_h_conted_2
I0718 14:46:40.621421 31838 net.cpp:86] Creating Layer LSTM_h_conted_2
I0718 14:46:40.621428 31838 net.cpp:408] LSTM_h_conted_2 <- h_2_LSTM_unit_2_1_split_0
I0718 14:46:40.621434 31838 net.cpp:408] LSTM_h_conted_2 <- cont_3_LSTM_cont_slice_2_split_0
I0718 14:46:40.621443 31838 net.cpp:382] LSTM_h_conted_2 -> h_conted_2
I0718 14:46:40.621505 31838 net.cpp:124] Setting up LSTM_h_conted_2
I0718 14:46:40.621515 31838 net.cpp:131] Top shape: 1 40 40 (1600)
I0718 14:46:40.621518 31838 net.cpp:139] Memory required for data: 2748160
I0718 14:46:40.621523 31838 layer_factory.hpp:77] Creating layer LSTM_transform_3
I0718 14:46:40.621531 31838 net.cpp:86] Creating Layer LSTM_transform_3
I0718 14:46:40.621537 31838 net.cpp:408] LSTM_transform_3 <- h_conted_2
I0718 14:46:40.621544 31838 net.cpp:382] LSTM_transform_3 -> W_hc_h_2
I0718 14:46:40.621809 31838 net.cpp:124] Setting up LSTM_transform_3
I0718 14:46:40.621819 31838 net.cpp:131] Top shape: 1 40 160 (6400)
I0718 14:46:40.621824 31838 net.cpp:139] Memory required for data: 2773760
I0718 14:46:40.621831 31838 net.cpp:467] Sharing parameters 'W_hc' owned by layer 'LSTM_transform_1', param index 0
I0718 14:46:40.621839 31838 layer_factory.hpp:77] Creating layer LSTM_gate_input_3
I0718 14:46:40.621845 31838 net.cpp:86] Creating Layer LSTM_gate_input_3
I0718 14:46:40.621851 31838 net.cpp:408] LSTM_gate_input_3 <- W_hc_h_2
I0718 14:46:40.621858 31838 net.cpp:408] LSTM_gate_input_3 <- W_xc_x_3
I0718 14:46:40.621865 31838 net.cpp:382] LSTM_gate_input_3 -> gate_input_3
I0718 14:46:40.621892 31838 net.cpp:124] Setting up LSTM_gate_input_3
I0718 14:46:40.621901 31838 net.cpp:131] Top shape: 1 40 160 (6400)
I0718 14:46:40.621906 31838 net.cpp:139] Memory required for data: 2799360
I0718 14:46:40.621911 31838 layer_factory.hpp:77] Creating layer LSTM_unit_3
I0718 14:46:40.621919 31838 net.cpp:86] Creating Layer LSTM_unit_3
I0718 14:46:40.621925 31838 net.cpp:408] LSTM_unit_3 <- c_2
I0718 14:46:40.621932 31838 net.cpp:408] LSTM_unit_3 <- gate_input_3
I0718 14:46:40.621939 31838 net.cpp:408] LSTM_unit_3 <- cont_3_LSTM_cont_slice_2_split_1
I0718 14:46:40.621947 31838 net.cpp:382] LSTM_unit_3 -> c_3
I0718 14:46:40.621955 31838 net.cpp:382] LSTM_unit_3 -> h_3
I0718 14:46:40.622004 31838 net.cpp:124] Setting up LSTM_unit_3
I0718 14:46:40.622016 31838 net.cpp:131] Top shape: 1 40 40 (1600)
I0718 14:46:40.622033 31838 net.cpp:131] Top shape: 1 40 40 (1600)
I0718 14:46:40.622040 31838 net.cpp:139] Memory required for data: 2812160
I0718 14:46:40.622045 31838 layer_factory.hpp:77] Creating layer h_3_LSTM_unit_3_1_split
I0718 14:46:40.622051 31838 net.cpp:86] Creating Layer h_3_LSTM_unit_3_1_split
I0718 14:46:40.622057 31838 net.cpp:408] h_3_LSTM_unit_3_1_split <- h_3
I0718 14:46:40.622067 31838 net.cpp:382] h_3_LSTM_unit_3_1_split -> h_3_LSTM_unit_3_1_split_0
I0718 14:46:40.622076 31838 net.cpp:382] h_3_LSTM_unit_3_1_split -> h_3_LSTM_unit_3_1_split_1
I0718 14:46:40.622112 31838 net.cpp:124] Setting up h_3_LSTM_unit_3_1_split
I0718 14:46:40.622119 31838 net.cpp:131] Top shape: 1 40 40 (1600)
I0718 14:46:40.622125 31838 net.cpp:131] Top shape: 1 40 40 (1600)
I0718 14:46:40.622129 31838 net.cpp:139] Memory required for data: 2824960
I0718 14:46:40.622134 31838 layer_factory.hpp:77] Creating layer LSTM_h_conted_3
I0718 14:46:40.622150 31838 net.cpp:86] Creating Layer LSTM_h_conted_3
I0718 14:46:40.622158 31838 net.cpp:408] LSTM_h_conted_3 <- h_3_LSTM_unit_3_1_split_0
I0718 14:46:40.622164 31838 net.cpp:408] LSTM_h_conted_3 <- cont_4_LSTM_cont_slice_3_split_0
I0718 14:46:40.622172 31838 net.cpp:382] LSTM_h_conted_3 -> h_conted_3
I0718 14:46:40.622236 31838 net.cpp:124] Setting up LSTM_h_conted_3
I0718 14:46:40.622244 31838 net.cpp:131] Top shape: 1 40 40 (1600)
I0718 14:46:40.622249 31838 net.cpp:139] Memory required for data: 2831360
I0718 14:46:40.622254 31838 layer_factory.hpp:77] Creating layer LSTM_transform_4
I0718 14:46:40.622262 31838 net.cpp:86] Creating Layer LSTM_transform_4
I0718 14:46:40.622268 31838 net.cpp:408] LSTM_transform_4 <- h_conted_3
I0718 14:46:40.622275 31838 net.cpp:382] LSTM_transform_4 -> W_hc_h_3
I0718 14:46:40.622539 31838 net.cpp:124] Setting up LSTM_transform_4
I0718 14:46:40.622548 31838 net.cpp:131] Top shape: 1 40 160 (6400)
I0718 14:46:40.622553 31838 net.cpp:139] Memory required for data: 2856960
I0718 14:46:40.622558 31838 net.cpp:467] Sharing parameters 'W_hc' owned by layer 'LSTM_transform_1', param index 0
I0718 14:46:40.622565 31838 layer_factory.hpp:77] Creating layer LSTM_gate_input_4
I0718 14:46:40.622572 31838 net.cpp:86] Creating Layer LSTM_gate_input_4
I0718 14:46:40.622577 31838 net.cpp:408] LSTM_gate_input_4 <- W_hc_h_3
I0718 14:46:40.622584 31838 net.cpp:408] LSTM_gate_input_4 <- W_xc_x_4
I0718 14:46:40.622592 31838 net.cpp:382] LSTM_gate_input_4 -> gate_input_4
I0718 14:46:40.622618 31838 net.cpp:124] Setting up LSTM_gate_input_4
I0718 14:46:40.622627 31838 net.cpp:131] Top shape: 1 40 160 (6400)
I0718 14:46:40.622630 31838 net.cpp:139] Memory required for data: 2882560
I0718 14:46:40.622635 31838 layer_factory.hpp:77] Creating layer LSTM_unit_4
I0718 14:46:40.622644 31838 net.cpp:86] Creating Layer LSTM_unit_4
I0718 14:46:40.622650 31838 net.cpp:408] LSTM_unit_4 <- c_3
I0718 14:46:40.622658 31838 net.cpp:408] LSTM_unit_4 <- gate_input_4
I0718 14:46:40.622664 31838 net.cpp:408] LSTM_unit_4 <- cont_4_LSTM_cont_slice_3_split_1
I0718 14:46:40.622671 31838 net.cpp:382] LSTM_unit_4 -> c_4
I0718 14:46:40.622680 31838 net.cpp:382] LSTM_unit_4 -> h_4
I0718 14:46:40.622727 31838 net.cpp:124] Setting up LSTM_unit_4
I0718 14:46:40.622736 31838 net.cpp:131] Top shape: 1 40 40 (1600)
I0718 14:46:40.622742 31838 net.cpp:131] Top shape: 1 40 40 (1600)
I0718 14:46:40.622747 31838 net.cpp:139] Memory required for data: 2895360
I0718 14:46:40.622751 31838 layer_factory.hpp:77] Creating layer h_4_LSTM_unit_4_1_split
I0718 14:46:40.622758 31838 net.cpp:86] Creating Layer h_4_LSTM_unit_4_1_split
I0718 14:46:40.622764 31838 net.cpp:408] h_4_LSTM_unit_4_1_split <- h_4
I0718 14:46:40.622773 31838 net.cpp:382] h_4_LSTM_unit_4_1_split -> h_4_LSTM_unit_4_1_split_0
I0718 14:46:40.622781 31838 net.cpp:382] h_4_LSTM_unit_4_1_split -> h_4_LSTM_unit_4_1_split_1
I0718 14:46:40.622817 31838 net.cpp:124] Setting up h_4_LSTM_unit_4_1_split
I0718 14:46:40.622824 31838 net.cpp:131] Top shape: 1 40 40 (1600)
I0718 14:46:40.622834 31838 net.cpp:131] Top shape: 1 40 40 (1600)
I0718 14:46:40.622846 31838 net.cpp:139] Memory required for data: 2908160
I0718 14:46:40.622851 31838 layer_factory.hpp:77] Creating layer LSTM_h_conted_4
I0718 14:46:40.622861 31838 net.cpp:86] Creating Layer LSTM_h_conted_4
I0718 14:46:40.622867 31838 net.cpp:408] LSTM_h_conted_4 <- h_4_LSTM_unit_4_1_split_0
I0718 14:46:40.622874 31838 net.cpp:408] LSTM_h_conted_4 <- cont_5_LSTM_cont_slice_4_split_0
I0718 14:46:40.622881 31838 net.cpp:382] LSTM_h_conted_4 -> h_conted_4
I0718 14:46:40.622944 31838 net.cpp:124] Setting up LSTM_h_conted_4
I0718 14:46:40.622953 31838 net.cpp:131] Top shape: 1 40 40 (1600)
I0718 14:46:40.622958 31838 net.cpp:139] Memory required for data: 2914560
I0718 14:46:40.622963 31838 layer_factory.hpp:77] Creating layer LSTM_transform_5
I0718 14:46:40.622975 31838 net.cpp:86] Creating Layer LSTM_transform_5
I0718 14:46:40.622982 31838 net.cpp:408] LSTM_transform_5 <- h_conted_4
I0718 14:46:40.622989 31838 net.cpp:382] LSTM_transform_5 -> W_hc_h_4
I0718 14:46:40.623250 31838 net.cpp:124] Setting up LSTM_transform_5
I0718 14:46:40.623260 31838 net.cpp:131] Top shape: 1 40 160 (6400)
I0718 14:46:40.623265 31838 net.cpp:139] Memory required for data: 2940160
I0718 14:46:40.623270 31838 net.cpp:467] Sharing parameters 'W_hc' owned by layer 'LSTM_transform_1', param index 0
I0718 14:46:40.623275 31838 layer_factory.hpp:77] Creating layer LSTM_gate_input_5
I0718 14:46:40.623282 31838 net.cpp:86] Creating Layer LSTM_gate_input_5
I0718 14:46:40.623288 31838 net.cpp:408] LSTM_gate_input_5 <- W_hc_h_4
I0718 14:46:40.623296 31838 net.cpp:408] LSTM_gate_input_5 <- W_xc_x_5
I0718 14:46:40.623306 31838 net.cpp:382] LSTM_gate_input_5 -> gate_input_5
I0718 14:46:40.623332 31838 net.cpp:124] Setting up LSTM_gate_input_5
I0718 14:46:40.623339 31838 net.cpp:131] Top shape: 1 40 160 (6400)
I0718 14:46:40.623343 31838 net.cpp:139] Memory required for data: 2965760
I0718 14:46:40.623348 31838 layer_factory.hpp:77] Creating layer LSTM_unit_5
I0718 14:46:40.623355 31838 net.cpp:86] Creating Layer LSTM_unit_5
I0718 14:46:40.623361 31838 net.cpp:408] LSTM_unit_5 <- c_4
I0718 14:46:40.623368 31838 net.cpp:408] LSTM_unit_5 <- gate_input_5
I0718 14:46:40.623374 31838 net.cpp:408] LSTM_unit_5 <- cont_5_LSTM_cont_slice_4_split_1
I0718 14:46:40.623383 31838 net.cpp:382] LSTM_unit_5 -> c_5
I0718 14:46:40.623390 31838 net.cpp:382] LSTM_unit_5 -> h_5
I0718 14:46:40.623440 31838 net.cpp:124] Setting up LSTM_unit_5
I0718 14:46:40.623448 31838 net.cpp:131] Top shape: 1 40 40 (1600)
I0718 14:46:40.623455 31838 net.cpp:131] Top shape: 1 40 40 (1600)
I0718 14:46:40.623459 31838 net.cpp:139] Memory required for data: 2978560
I0718 14:46:40.623464 31838 layer_factory.hpp:77] Creating layer h_5_LSTM_unit_5_1_split
I0718 14:46:40.623471 31838 net.cpp:86] Creating Layer h_5_LSTM_unit_5_1_split
I0718 14:46:40.623476 31838 net.cpp:408] h_5_LSTM_unit_5_1_split <- h_5
I0718 14:46:40.623484 31838 net.cpp:382] h_5_LSTM_unit_5_1_split -> h_5_LSTM_unit_5_1_split_0
I0718 14:46:40.623492 31838 net.cpp:382] h_5_LSTM_unit_5_1_split -> h_5_LSTM_unit_5_1_split_1
I0718 14:46:40.623529 31838 net.cpp:124] Setting up h_5_LSTM_unit_5_1_split
I0718 14:46:40.623538 31838 net.cpp:131] Top shape: 1 40 40 (1600)
I0718 14:46:40.623543 31838 net.cpp:131] Top shape: 1 40 40 (1600)
I0718 14:46:40.623548 31838 net.cpp:139] Memory required for data: 2991360
I0718 14:46:40.623553 31838 layer_factory.hpp:77] Creating layer LSTM_h_conted_5
I0718 14:46:40.623560 31838 net.cpp:86] Creating Layer LSTM_h_conted_5
I0718 14:46:40.623565 31838 net.cpp:408] LSTM_h_conted_5 <- h_5_LSTM_unit_5_1_split_0
I0718 14:46:40.623572 31838 net.cpp:408] LSTM_h_conted_5 <- cont_6_LSTM_cont_slice_5_split_0
I0718 14:46:40.623581 31838 net.cpp:382] LSTM_h_conted_5 -> h_conted_5
I0718 14:46:40.623642 31838 net.cpp:124] Setting up LSTM_h_conted_5
I0718 14:46:40.623651 31838 net.cpp:131] Top shape: 1 40 40 (1600)
I0718 14:46:40.623656 31838 net.cpp:139] Memory required for data: 2997760
I0718 14:46:40.623661 31838 layer_factory.hpp:77] Creating layer LSTM_transform_6
I0718 14:46:40.623673 31838 net.cpp:86] Creating Layer LSTM_transform_6
I0718 14:46:40.623685 31838 net.cpp:408] LSTM_transform_6 <- h_conted_5
I0718 14:46:40.623695 31838 net.cpp:382] LSTM_transform_6 -> W_hc_h_5
I0718 14:46:40.623960 31838 net.cpp:124] Setting up LSTM_transform_6
I0718 14:46:40.623968 31838 net.cpp:131] Top shape: 1 40 160 (6400)
I0718 14:46:40.623973 31838 net.cpp:139] Memory required for data: 3023360
I0718 14:46:40.623980 31838 net.cpp:467] Sharing parameters 'W_hc' owned by layer 'LSTM_transform_1', param index 0
I0718 14:46:40.623986 31838 layer_factory.hpp:77] Creating layer LSTM_gate_input_6
I0718 14:46:40.623992 31838 net.cpp:86] Creating Layer LSTM_gate_input_6
I0718 14:46:40.623998 31838 net.cpp:408] LSTM_gate_input_6 <- W_hc_h_5
I0718 14:46:40.624006 31838 net.cpp:408] LSTM_gate_input_6 <- W_xc_x_6
I0718 14:46:40.624012 31838 net.cpp:382] LSTM_gate_input_6 -> gate_input_6
I0718 14:46:40.624040 31838 net.cpp:124] Setting up LSTM_gate_input_6
I0718 14:46:40.624048 31838 net.cpp:131] Top shape: 1 40 160 (6400)
I0718 14:46:40.624053 31838 net.cpp:139] Memory required for data: 3048960
I0718 14:46:40.624058 31838 layer_factory.hpp:77] Creating layer LSTM_unit_6
I0718 14:46:40.624065 31838 net.cpp:86] Creating Layer LSTM_unit_6
I0718 14:46:40.624071 31838 net.cpp:408] LSTM_unit_6 <- c_5
I0718 14:46:40.624078 31838 net.cpp:408] LSTM_unit_6 <- gate_input_6
I0718 14:46:40.624084 31838 net.cpp:408] LSTM_unit_6 <- cont_6_LSTM_cont_slice_5_split_1
I0718 14:46:40.624094 31838 net.cpp:382] LSTM_unit_6 -> c_6
I0718 14:46:40.624102 31838 net.cpp:382] LSTM_unit_6 -> h_6
I0718 14:46:40.624150 31838 net.cpp:124] Setting up LSTM_unit_6
I0718 14:46:40.624158 31838 net.cpp:131] Top shape: 1 40 40 (1600)
I0718 14:46:40.624164 31838 net.cpp:131] Top shape: 1 40 40 (1600)
I0718 14:46:40.624169 31838 net.cpp:139] Memory required for data: 3061760
I0718 14:46:40.624174 31838 layer_factory.hpp:77] Creating layer h_6_LSTM_unit_6_1_split
I0718 14:46:40.624184 31838 net.cpp:86] Creating Layer h_6_LSTM_unit_6_1_split
I0718 14:46:40.624191 31838 net.cpp:408] h_6_LSTM_unit_6_1_split <- h_6
I0718 14:46:40.624197 31838 net.cpp:382] h_6_LSTM_unit_6_1_split -> h_6_LSTM_unit_6_1_split_0
I0718 14:46:40.624205 31838 net.cpp:382] h_6_LSTM_unit_6_1_split -> h_6_LSTM_unit_6_1_split_1
I0718 14:46:40.624241 31838 net.cpp:124] Setting up h_6_LSTM_unit_6_1_split
I0718 14:46:40.624249 31838 net.cpp:131] Top shape: 1 40 40 (1600)
I0718 14:46:40.624255 31838 net.cpp:131] Top shape: 1 40 40 (1600)
I0718 14:46:40.624260 31838 net.cpp:139] Memory required for data: 3074560
I0718 14:46:40.624265 31838 layer_factory.hpp:77] Creating layer LSTM_h_conted_6
I0718 14:46:40.624272 31838 net.cpp:86] Creating Layer LSTM_h_conted_6
I0718 14:46:40.624279 31838 net.cpp:408] LSTM_h_conted_6 <- h_6_LSTM_unit_6_1_split_0
I0718 14:46:40.624284 31838 net.cpp:408] LSTM_h_conted_6 <- cont_7_LSTM_cont_slice_6_split_0
I0718 14:46:40.624291 31838 net.cpp:382] LSTM_h_conted_6 -> h_conted_6
I0718 14:46:40.624357 31838 net.cpp:124] Setting up LSTM_h_conted_6
I0718 14:46:40.624366 31838 net.cpp:131] Top shape: 1 40 40 (1600)
I0718 14:46:40.624372 31838 net.cpp:139] Memory required for data: 3080960
I0718 14:46:40.624377 31838 layer_factory.hpp:77] Creating layer LSTM_transform_7
I0718 14:46:40.624383 31838 net.cpp:86] Creating Layer LSTM_transform_7
I0718 14:46:40.624389 31838 net.cpp:408] LSTM_transform_7 <- h_conted_6
I0718 14:46:40.624397 31838 net.cpp:382] LSTM_transform_7 -> W_hc_h_6
I0718 14:46:40.624661 31838 net.cpp:124] Setting up LSTM_transform_7
I0718 14:46:40.624670 31838 net.cpp:131] Top shape: 1 40 160 (6400)
I0718 14:46:40.624675 31838 net.cpp:139] Memory required for data: 3106560
I0718 14:46:40.624682 31838 net.cpp:467] Sharing parameters 'W_hc' owned by layer 'LSTM_transform_1', param index 0
I0718 14:46:40.624688 31838 layer_factory.hpp:77] Creating layer LSTM_gate_input_7
I0718 14:46:40.624698 31838 net.cpp:86] Creating Layer LSTM_gate_input_7
I0718 14:46:40.624704 31838 net.cpp:408] LSTM_gate_input_7 <- W_hc_h_6
I0718 14:46:40.624716 31838 net.cpp:408] LSTM_gate_input_7 <- W_xc_x_7
I0718 14:46:40.624729 31838 net.cpp:382] LSTM_gate_input_7 -> gate_input_7
I0718 14:46:40.624756 31838 net.cpp:124] Setting up LSTM_gate_input_7
I0718 14:46:40.624765 31838 net.cpp:131] Top shape: 1 40 160 (6400)
I0718 14:46:40.624769 31838 net.cpp:139] Memory required for data: 3132160
I0718 14:46:40.624774 31838 layer_factory.hpp:77] Creating layer LSTM_unit_7
I0718 14:46:40.624781 31838 net.cpp:86] Creating Layer LSTM_unit_7
I0718 14:46:40.624788 31838 net.cpp:408] LSTM_unit_7 <- c_6
I0718 14:46:40.624794 31838 net.cpp:408] LSTM_unit_7 <- gate_input_7
I0718 14:46:40.624800 31838 net.cpp:408] LSTM_unit_7 <- cont_7_LSTM_cont_slice_6_split_1
I0718 14:46:40.624810 31838 net.cpp:382] LSTM_unit_7 -> c_7
I0718 14:46:40.624819 31838 net.cpp:382] LSTM_unit_7 -> h_7
I0718 14:46:40.624867 31838 net.cpp:124] Setting up LSTM_unit_7
I0718 14:46:40.624876 31838 net.cpp:131] Top shape: 1 40 40 (1600)
I0718 14:46:40.624882 31838 net.cpp:131] Top shape: 1 40 40 (1600)
I0718 14:46:40.624886 31838 net.cpp:139] Memory required for data: 3144960
I0718 14:46:40.624891 31838 layer_factory.hpp:77] Creating layer h_7_LSTM_unit_7_1_split
I0718 14:46:40.624898 31838 net.cpp:86] Creating Layer h_7_LSTM_unit_7_1_split
I0718 14:46:40.624904 31838 net.cpp:408] h_7_LSTM_unit_7_1_split <- h_7
I0718 14:46:40.624912 31838 net.cpp:382] h_7_LSTM_unit_7_1_split -> h_7_LSTM_unit_7_1_split_0
I0718 14:46:40.624918 31838 net.cpp:382] h_7_LSTM_unit_7_1_split -> h_7_LSTM_unit_7_1_split_1
I0718 14:46:40.624954 31838 net.cpp:124] Setting up h_7_LSTM_unit_7_1_split
I0718 14:46:40.624963 31838 net.cpp:131] Top shape: 1 40 40 (1600)
I0718 14:46:40.624969 31838 net.cpp:131] Top shape: 1 40 40 (1600)
I0718 14:46:40.624974 31838 net.cpp:139] Memory required for data: 3157760
I0718 14:46:40.624977 31838 layer_factory.hpp:77] Creating layer LSTM_h_conted_7
I0718 14:46:40.624986 31838 net.cpp:86] Creating Layer LSTM_h_conted_7
I0718 14:46:40.624992 31838 net.cpp:408] LSTM_h_conted_7 <- h_7_LSTM_unit_7_1_split_0
I0718 14:46:40.625000 31838 net.cpp:408] LSTM_h_conted_7 <- cont_8_LSTM_cont_slice_7_split_0
I0718 14:46:40.625006 31838 net.cpp:382] LSTM_h_conted_7 -> h_conted_7
I0718 14:46:40.625071 31838 net.cpp:124] Setting up LSTM_h_conted_7
I0718 14:46:40.625079 31838 net.cpp:131] Top shape: 1 40 40 (1600)
I0718 14:46:40.625084 31838 net.cpp:139] Memory required for data: 3164160
I0718 14:46:40.625088 31838 layer_factory.hpp:77] Creating layer LSTM_transform_8
I0718 14:46:40.625098 31838 net.cpp:86] Creating Layer LSTM_transform_8
I0718 14:46:40.625104 31838 net.cpp:408] LSTM_transform_8 <- h_conted_7
I0718 14:46:40.625113 31838 net.cpp:382] LSTM_transform_8 -> W_hc_h_7
I0718 14:46:40.625382 31838 net.cpp:124] Setting up LSTM_transform_8
I0718 14:46:40.625394 31838 net.cpp:131] Top shape: 1 40 160 (6400)
I0718 14:46:40.625399 31838 net.cpp:139] Memory required for data: 3189760
I0718 14:46:40.625406 31838 net.cpp:467] Sharing parameters 'W_hc' owned by layer 'LSTM_transform_1', param index 0
I0718 14:46:40.625411 31838 layer_factory.hpp:77] Creating layer LSTM_gate_input_8
I0718 14:46:40.625418 31838 net.cpp:86] Creating Layer LSTM_gate_input_8
I0718 14:46:40.625424 31838 net.cpp:408] LSTM_gate_input_8 <- W_hc_h_7
I0718 14:46:40.625432 31838 net.cpp:408] LSTM_gate_input_8 <- W_xc_x_8
I0718 14:46:40.625442 31838 net.cpp:382] LSTM_gate_input_8 -> gate_input_8
I0718 14:46:40.625468 31838 net.cpp:124] Setting up LSTM_gate_input_8
I0718 14:46:40.625475 31838 net.cpp:131] Top shape: 1 40 160 (6400)
I0718 14:46:40.625480 31838 net.cpp:139] Memory required for data: 3215360
I0718 14:46:40.625485 31838 layer_factory.hpp:77] Creating layer LSTM_unit_8
I0718 14:46:40.625493 31838 net.cpp:86] Creating Layer LSTM_unit_8
I0718 14:46:40.625499 31838 net.cpp:408] LSTM_unit_8 <- c_7
I0718 14:46:40.625504 31838 net.cpp:408] LSTM_unit_8 <- gate_input_8
I0718 14:46:40.625511 31838 net.cpp:408] LSTM_unit_8 <- cont_8_LSTM_cont_slice_7_split_1
I0718 14:46:40.625519 31838 net.cpp:382] LSTM_unit_8 -> c_8
I0718 14:46:40.625526 31838 net.cpp:382] LSTM_unit_8 -> h_8
I0718 14:46:40.625581 31838 net.cpp:124] Setting up LSTM_unit_8
I0718 14:46:40.625597 31838 net.cpp:131] Top shape: 1 40 40 (1600)
I0718 14:46:40.625604 31838 net.cpp:131] Top shape: 1 40 40 (1600)
I0718 14:46:40.625608 31838 net.cpp:139] Memory required for data: 3228160
I0718 14:46:40.625613 31838 layer_factory.hpp:77] Creating layer h_8_LSTM_unit_8_1_split
I0718 14:46:40.625620 31838 net.cpp:86] Creating Layer h_8_LSTM_unit_8_1_split
I0718 14:46:40.625627 31838 net.cpp:408] h_8_LSTM_unit_8_1_split <- h_8
I0718 14:46:40.625633 31838 net.cpp:382] h_8_LSTM_unit_8_1_split -> h_8_LSTM_unit_8_1_split_0
I0718 14:46:40.625641 31838 net.cpp:382] h_8_LSTM_unit_8_1_split -> h_8_LSTM_unit_8_1_split_1
I0718 14:46:40.625677 31838 net.cpp:124] Setting up h_8_LSTM_unit_8_1_split
I0718 14:46:40.625685 31838 net.cpp:131] Top shape: 1 40 40 (1600)
I0718 14:46:40.625691 31838 net.cpp:131] Top shape: 1 40 40 (1600)
I0718 14:46:40.625696 31838 net.cpp:139] Memory required for data: 3240960
I0718 14:46:40.625701 31838 layer_factory.hpp:77] Creating layer LSTM_h_conted_8
I0718 14:46:40.625708 31838 net.cpp:86] Creating Layer LSTM_h_conted_8
I0718 14:46:40.625715 31838 net.cpp:408] LSTM_h_conted_8 <- h_8_LSTM_unit_8_1_split_0
I0718 14:46:40.625720 31838 net.cpp:408] LSTM_h_conted_8 <- cont_9_LSTM_cont_slice_8_split_0
I0718 14:46:40.625728 31838 net.cpp:382] LSTM_h_conted_8 -> h_conted_8
I0718 14:46:40.625789 31838 net.cpp:124] Setting up LSTM_h_conted_8
I0718 14:46:40.625797 31838 net.cpp:131] Top shape: 1 40 40 (1600)
I0718 14:46:40.625802 31838 net.cpp:139] Memory required for data: 3247360
I0718 14:46:40.625808 31838 layer_factory.hpp:77] Creating layer LSTM_transform_9
I0718 14:46:40.625815 31838 net.cpp:86] Creating Layer LSTM_transform_9
I0718 14:46:40.625820 31838 net.cpp:408] LSTM_transform_9 <- h_conted_8
I0718 14:46:40.625830 31838 net.cpp:382] LSTM_transform_9 -> W_hc_h_8
I0718 14:46:40.626094 31838 net.cpp:124] Setting up LSTM_transform_9
I0718 14:46:40.626103 31838 net.cpp:131] Top shape: 1 40 160 (6400)
I0718 14:46:40.626108 31838 net.cpp:139] Memory required for data: 3272960
I0718 14:46:40.626114 31838 net.cpp:467] Sharing parameters 'W_hc' owned by layer 'LSTM_transform_1', param index 0
I0718 14:46:40.626119 31838 layer_factory.hpp:77] Creating layer LSTM_gate_input_9
I0718 14:46:40.626127 31838 net.cpp:86] Creating Layer LSTM_gate_input_9
I0718 14:46:40.626132 31838 net.cpp:408] LSTM_gate_input_9 <- W_hc_h_8
I0718 14:46:40.626139 31838 net.cpp:408] LSTM_gate_input_9 <- W_xc_x_9
I0718 14:46:40.626147 31838 net.cpp:382] LSTM_gate_input_9 -> gate_input_9
I0718 14:46:40.626173 31838 net.cpp:124] Setting up LSTM_gate_input_9
I0718 14:46:40.626180 31838 net.cpp:131] Top shape: 1 40 160 (6400)
I0718 14:46:40.626184 31838 net.cpp:139] Memory required for data: 3298560
I0718 14:46:40.626189 31838 layer_factory.hpp:77] Creating layer LSTM_unit_9
I0718 14:46:40.626199 31838 net.cpp:86] Creating Layer LSTM_unit_9
I0718 14:46:40.626205 31838 net.cpp:408] LSTM_unit_9 <- c_8
I0718 14:46:40.626211 31838 net.cpp:408] LSTM_unit_9 <- gate_input_9
I0718 14:46:40.626219 31838 net.cpp:408] LSTM_unit_9 <- cont_9_LSTM_cont_slice_8_split_1
I0718 14:46:40.626225 31838 net.cpp:382] LSTM_unit_9 -> c_9
I0718 14:46:40.626235 31838 net.cpp:382] LSTM_unit_9 -> h_9
I0718 14:46:40.626281 31838 net.cpp:124] Setting up LSTM_unit_9
I0718 14:46:40.626291 31838 net.cpp:131] Top shape: 1 40 40 (1600)
I0718 14:46:40.626296 31838 net.cpp:131] Top shape: 1 40 40 (1600)
I0718 14:46:40.626302 31838 net.cpp:139] Memory required for data: 3311360
I0718 14:46:40.626307 31838 layer_factory.hpp:77] Creating layer h_9_LSTM_unit_9_1_split
I0718 14:46:40.626312 31838 net.cpp:86] Creating Layer h_9_LSTM_unit_9_1_split
I0718 14:46:40.626318 31838 net.cpp:408] h_9_LSTM_unit_9_1_split <- h_9
I0718 14:46:40.626327 31838 net.cpp:382] h_9_LSTM_unit_9_1_split -> h_9_LSTM_unit_9_1_split_0
I0718 14:46:40.626336 31838 net.cpp:382] h_9_LSTM_unit_9_1_split -> h_9_LSTM_unit_9_1_split_1
I0718 14:46:40.626369 31838 net.cpp:124] Setting up h_9_LSTM_unit_9_1_split
I0718 14:46:40.626382 31838 net.cpp:131] Top shape: 1 40 40 (1600)
I0718 14:46:40.626396 31838 net.cpp:131] Top shape: 1 40 40 (1600)
I0718 14:46:40.626401 31838 net.cpp:139] Memory required for data: 3324160
I0718 14:46:40.626406 31838 layer_factory.hpp:77] Creating layer LSTM_h_conted_9
I0718 14:46:40.626415 31838 net.cpp:86] Creating Layer LSTM_h_conted_9
I0718 14:46:40.626421 31838 net.cpp:408] LSTM_h_conted_9 <- h_9_LSTM_unit_9_1_split_0
I0718 14:46:40.626430 31838 net.cpp:408] LSTM_h_conted_9 <- cont_10_LSTM_cont_slice_9_split_0
I0718 14:46:40.626440 31838 net.cpp:382] LSTM_h_conted_9 -> h_conted_9
I0718 14:46:40.626503 31838 net.cpp:124] Setting up LSTM_h_conted_9
I0718 14:46:40.626513 31838 net.cpp:131] Top shape: 1 40 40 (1600)
I0718 14:46:40.626518 31838 net.cpp:139] Memory required for data: 3330560
I0718 14:46:40.626523 31838 layer_factory.hpp:77] Creating layer LSTM_transform_10
I0718 14:46:40.626531 31838 net.cpp:86] Creating Layer LSTM_transform_10
I0718 14:46:40.626536 31838 net.cpp:408] LSTM_transform_10 <- h_conted_9
I0718 14:46:40.626544 31838 net.cpp:382] LSTM_transform_10 -> W_hc_h_9
I0718 14:46:40.626811 31838 net.cpp:124] Setting up LSTM_transform_10
I0718 14:46:40.626821 31838 net.cpp:131] Top shape: 1 40 160 (6400)
I0718 14:46:40.626826 31838 net.cpp:139] Memory required for data: 3356160
I0718 14:46:40.626832 31838 net.cpp:467] Sharing parameters 'W_hc' owned by layer 'LSTM_transform_1', param index 0
I0718 14:46:40.626837 31838 layer_factory.hpp:77] Creating layer LSTM_gate_input_10
I0718 14:46:40.626844 31838 net.cpp:86] Creating Layer LSTM_gate_input_10
I0718 14:46:40.626850 31838 net.cpp:408] LSTM_gate_input_10 <- W_hc_h_9
I0718 14:46:40.626863 31838 net.cpp:408] LSTM_gate_input_10 <- W_xc_x_10
I0718 14:46:40.626870 31838 net.cpp:382] LSTM_gate_input_10 -> gate_input_10
I0718 14:46:40.626895 31838 net.cpp:124] Setting up LSTM_gate_input_10
I0718 14:46:40.626904 31838 net.cpp:131] Top shape: 1 40 160 (6400)
I0718 14:46:40.626909 31838 net.cpp:139] Memory required for data: 3381760
I0718 14:46:40.626914 31838 layer_factory.hpp:77] Creating layer LSTM_unit_10
I0718 14:46:40.626920 31838 net.cpp:86] Creating Layer LSTM_unit_10
I0718 14:46:40.626926 31838 net.cpp:408] LSTM_unit_10 <- c_9
I0718 14:46:40.626932 31838 net.cpp:408] LSTM_unit_10 <- gate_input_10
I0718 14:46:40.626940 31838 net.cpp:408] LSTM_unit_10 <- cont_10_LSTM_cont_slice_9_split_1
I0718 14:46:40.626950 31838 net.cpp:382] LSTM_unit_10 -> c_10
I0718 14:46:40.626958 31838 net.cpp:382] LSTM_unit_10 -> h_10
I0718 14:46:40.627005 31838 net.cpp:124] Setting up LSTM_unit_10
I0718 14:46:40.627014 31838 net.cpp:131] Top shape: 1 40 40 (1600)
I0718 14:46:40.627020 31838 net.cpp:131] Top shape: 1 40 40 (1600)
I0718 14:46:40.627024 31838 net.cpp:139] Memory required for data: 3394560
I0718 14:46:40.627029 31838 layer_factory.hpp:77] Creating layer h_10_LSTM_unit_10_1_split
I0718 14:46:40.627037 31838 net.cpp:86] Creating Layer h_10_LSTM_unit_10_1_split
I0718 14:46:40.627043 31838 net.cpp:408] h_10_LSTM_unit_10_1_split <- h_10
I0718 14:46:40.627049 31838 net.cpp:382] h_10_LSTM_unit_10_1_split -> h_10_LSTM_unit_10_1_split_0
I0718 14:46:40.627058 31838 net.cpp:382] h_10_LSTM_unit_10_1_split -> h_10_LSTM_unit_10_1_split_1
I0718 14:46:40.627095 31838 net.cpp:124] Setting up h_10_LSTM_unit_10_1_split
I0718 14:46:40.627104 31838 net.cpp:131] Top shape: 1 40 40 (1600)
I0718 14:46:40.627110 31838 net.cpp:131] Top shape: 1 40 40 (1600)
I0718 14:46:40.627113 31838 net.cpp:139] Memory required for data: 3407360
I0718 14:46:40.627118 31838 layer_factory.hpp:77] Creating layer LSTM_h_conted_10
I0718 14:46:40.627125 31838 net.cpp:86] Creating Layer LSTM_h_conted_10
I0718 14:46:40.627131 31838 net.cpp:408] LSTM_h_conted_10 <- h_10_LSTM_unit_10_1_split_0
I0718 14:46:40.627138 31838 net.cpp:408] LSTM_h_conted_10 <- cont_11_LSTM_cont_slice_10_split_0
I0718 14:46:40.627148 31838 net.cpp:382] LSTM_h_conted_10 -> h_conted_10
I0718 14:46:40.627214 31838 net.cpp:124] Setting up LSTM_h_conted_10
I0718 14:46:40.627223 31838 net.cpp:131] Top shape: 1 40 40 (1600)
I0718 14:46:40.627233 31838 net.cpp:139] Memory required for data: 3413760
I0718 14:46:40.627244 31838 layer_factory.hpp:77] Creating layer LSTM_transform_11
I0718 14:46:40.627255 31838 net.cpp:86] Creating Layer LSTM_transform_11
I0718 14:46:40.627261 31838 net.cpp:408] LSTM_transform_11 <- h_conted_10
I0718 14:46:40.627269 31838 net.cpp:382] LSTM_transform_11 -> W_hc_h_10
I0718 14:46:40.627534 31838 net.cpp:124] Setting up LSTM_transform_11
I0718 14:46:40.627544 31838 net.cpp:131] Top shape: 1 40 160 (6400)
I0718 14:46:40.627549 31838 net.cpp:139] Memory required for data: 3439360
I0718 14:46:40.627554 31838 net.cpp:467] Sharing parameters 'W_hc' owned by layer 'LSTM_transform_1', param index 0
I0718 14:46:40.627560 31838 layer_factory.hpp:77] Creating layer LSTM_gate_input_11
I0718 14:46:40.627568 31838 net.cpp:86] Creating Layer LSTM_gate_input_11
I0718 14:46:40.627573 31838 net.cpp:408] LSTM_gate_input_11 <- W_hc_h_10
I0718 14:46:40.627579 31838 net.cpp:408] LSTM_gate_input_11 <- W_xc_x_11
I0718 14:46:40.627588 31838 net.cpp:382] LSTM_gate_input_11 -> gate_input_11
I0718 14:46:40.627615 31838 net.cpp:124] Setting up LSTM_gate_input_11
I0718 14:46:40.627624 31838 net.cpp:131] Top shape: 1 40 160 (6400)
I0718 14:46:40.627629 31838 net.cpp:139] Memory required for data: 3464960
I0718 14:46:40.627634 31838 layer_factory.hpp:77] Creating layer LSTM_unit_11
I0718 14:46:40.627640 31838 net.cpp:86] Creating Layer LSTM_unit_11
I0718 14:46:40.627646 31838 net.cpp:408] LSTM_unit_11 <- c_10
I0718 14:46:40.627653 31838 net.cpp:408] LSTM_unit_11 <- gate_input_11
I0718 14:46:40.627660 31838 net.cpp:408] LSTM_unit_11 <- cont_11_LSTM_cont_slice_10_split_1
I0718 14:46:40.627667 31838 net.cpp:382] LSTM_unit_11 -> c_11
I0718 14:46:40.627676 31838 net.cpp:382] LSTM_unit_11 -> h_11
I0718 14:46:40.627723 31838 net.cpp:124] Setting up LSTM_unit_11
I0718 14:46:40.627732 31838 net.cpp:131] Top shape: 1 40 40 (1600)
I0718 14:46:40.627738 31838 net.cpp:131] Top shape: 1 40 40 (1600)
I0718 14:46:40.627743 31838 net.cpp:139] Memory required for data: 3477760
I0718 14:46:40.627748 31838 layer_factory.hpp:77] Creating layer h_11_LSTM_unit_11_1_split
I0718 14:46:40.627758 31838 net.cpp:86] Creating Layer h_11_LSTM_unit_11_1_split
I0718 14:46:40.627763 31838 net.cpp:408] h_11_LSTM_unit_11_1_split <- h_11
I0718 14:46:40.627770 31838 net.cpp:382] h_11_LSTM_unit_11_1_split -> h_11_LSTM_unit_11_1_split_0
I0718 14:46:40.627797 31838 net.cpp:382] h_11_LSTM_unit_11_1_split -> h_11_LSTM_unit_11_1_split_1
I0718 14:46:40.627835 31838 net.cpp:124] Setting up h_11_LSTM_unit_11_1_split
I0718 14:46:40.627846 31838 net.cpp:131] Top shape: 1 40 40 (1600)
I0718 14:46:40.627853 31838 net.cpp:131] Top shape: 1 40 40 (1600)
I0718 14:46:40.627857 31838 net.cpp:139] Memory required for data: 3490560
I0718 14:46:40.627863 31838 layer_factory.hpp:77] Creating layer LSTM_h_conted_11
I0718 14:46:40.627871 31838 net.cpp:86] Creating Layer LSTM_h_conted_11
I0718 14:46:40.627876 31838 net.cpp:408] LSTM_h_conted_11 <- h_11_LSTM_unit_11_1_split_0
I0718 14:46:40.627884 31838 net.cpp:408] LSTM_h_conted_11 <- cont_12_LSTM_cont_slice_11_split_0
I0718 14:46:40.627892 31838 net.cpp:382] LSTM_h_conted_11 -> h_conted_11
I0718 14:46:40.627957 31838 net.cpp:124] Setting up LSTM_h_conted_11
I0718 14:46:40.627966 31838 net.cpp:131] Top shape: 1 40 40 (1600)
I0718 14:46:40.627971 31838 net.cpp:139] Memory required for data: 3496960
I0718 14:46:40.627976 31838 layer_factory.hpp:77] Creating layer LSTM_transform_12
I0718 14:46:40.627984 31838 net.cpp:86] Creating Layer LSTM_transform_12
I0718 14:46:40.627990 31838 net.cpp:408] LSTM_transform_12 <- h_conted_11
I0718 14:46:40.627997 31838 net.cpp:382] LSTM_transform_12 -> W_hc_h_11
I0718 14:46:40.628262 31838 net.cpp:124] Setting up LSTM_transform_12
I0718 14:46:40.628270 31838 net.cpp:131] Top shape: 1 40 160 (6400)
I0718 14:46:40.628275 31838 net.cpp:139] Memory required for data: 3522560
I0718 14:46:40.628281 31838 net.cpp:467] Sharing parameters 'W_hc' owned by layer 'LSTM_transform_1', param index 0
I0718 14:46:40.628286 31838 layer_factory.hpp:77] Creating layer LSTM_gate_input_12
I0718 14:46:40.628298 31838 net.cpp:86] Creating Layer LSTM_gate_input_12
I0718 14:46:40.628310 31838 net.cpp:408] LSTM_gate_input_12 <- W_hc_h_11
I0718 14:46:40.628317 31838 net.cpp:408] LSTM_gate_input_12 <- W_xc_x_12
I0718 14:46:40.628327 31838 net.cpp:382] LSTM_gate_input_12 -> gate_input_12
I0718 14:46:40.628355 31838 net.cpp:124] Setting up LSTM_gate_input_12
I0718 14:46:40.628362 31838 net.cpp:131] Top shape: 1 40 160 (6400)
I0718 14:46:40.628367 31838 net.cpp:139] Memory required for data: 3548160
I0718 14:46:40.628372 31838 layer_factory.hpp:77] Creating layer LSTM_unit_12
I0718 14:46:40.628379 31838 net.cpp:86] Creating Layer LSTM_unit_12
I0718 14:46:40.628386 31838 net.cpp:408] LSTM_unit_12 <- c_11
I0718 14:46:40.628391 31838 net.cpp:408] LSTM_unit_12 <- gate_input_12
I0718 14:46:40.628398 31838 net.cpp:408] LSTM_unit_12 <- cont_12_LSTM_cont_slice_11_split_1
I0718 14:46:40.628408 31838 net.cpp:382] LSTM_unit_12 -> c_12
I0718 14:46:40.628417 31838 net.cpp:382] LSTM_unit_12 -> h_12
I0718 14:46:40.628468 31838 net.cpp:124] Setting up LSTM_unit_12
I0718 14:46:40.628478 31838 net.cpp:131] Top shape: 1 40 40 (1600)
I0718 14:46:40.628484 31838 net.cpp:131] Top shape: 1 40 40 (1600)
I0718 14:46:40.628489 31838 net.cpp:139] Memory required for data: 3560960
I0718 14:46:40.628494 31838 layer_factory.hpp:77] Creating layer h_12_LSTM_unit_12_1_split
I0718 14:46:40.628499 31838 net.cpp:86] Creating Layer h_12_LSTM_unit_12_1_split
I0718 14:46:40.628505 31838 net.cpp:408] h_12_LSTM_unit_12_1_split <- h_12
I0718 14:46:40.628513 31838 net.cpp:382] h_12_LSTM_unit_12_1_split -> h_12_LSTM_unit_12_1_split_0
I0718 14:46:40.628521 31838 net.cpp:382] h_12_LSTM_unit_12_1_split -> h_12_LSTM_unit_12_1_split_1
I0718 14:46:40.628558 31838 net.cpp:124] Setting up h_12_LSTM_unit_12_1_split
I0718 14:46:40.628566 31838 net.cpp:131] Top shape: 1 40 40 (1600)
I0718 14:46:40.628572 31838 net.cpp:131] Top shape: 1 40 40 (1600)
I0718 14:46:40.628577 31838 net.cpp:139] Memory required for data: 3573760
I0718 14:46:40.628582 31838 layer_factory.hpp:77] Creating layer LSTM_h_conted_12
I0718 14:46:40.628589 31838 net.cpp:86] Creating Layer LSTM_h_conted_12
I0718 14:46:40.628594 31838 net.cpp:408] LSTM_h_conted_12 <- h_12_LSTM_unit_12_1_split_0
I0718 14:46:40.628602 31838 net.cpp:408] LSTM_h_conted_12 <- cont_13_LSTM_cont_slice_12_split_0
I0718 14:46:40.628612 31838 net.cpp:382] LSTM_h_conted_12 -> h_conted_12
I0718 14:46:40.628674 31838 net.cpp:124] Setting up LSTM_h_conted_12
I0718 14:46:40.628684 31838 net.cpp:131] Top shape: 1 40 40 (1600)
I0718 14:46:40.628689 31838 net.cpp:139] Memory required for data: 3580160
I0718 14:46:40.628693 31838 layer_factory.hpp:77] Creating layer LSTM_transform_13
I0718 14:46:40.628702 31838 net.cpp:86] Creating Layer LSTM_transform_13
I0718 14:46:40.628710 31838 net.cpp:408] LSTM_transform_13 <- h_conted_12
I0718 14:46:40.628717 31838 net.cpp:382] LSTM_transform_13 -> W_hc_h_12
I0718 14:46:40.628980 31838 net.cpp:124] Setting up LSTM_transform_13
I0718 14:46:40.628989 31838 net.cpp:131] Top shape: 1 40 160 (6400)
I0718 14:46:40.628994 31838 net.cpp:139] Memory required for data: 3605760
I0718 14:46:40.629000 31838 net.cpp:467] Sharing parameters 'W_hc' owned by layer 'LSTM_transform_1', param index 0
I0718 14:46:40.629006 31838 layer_factory.hpp:77] Creating layer LSTM_gate_input_13
I0718 14:46:40.629014 31838 net.cpp:86] Creating Layer LSTM_gate_input_13
I0718 14:46:40.629019 31838 net.cpp:408] LSTM_gate_input_13 <- W_hc_h_12
I0718 14:46:40.629025 31838 net.cpp:408] LSTM_gate_input_13 <- W_xc_x_13
I0718 14:46:40.629032 31838 net.cpp:382] LSTM_gate_input_13 -> gate_input_13
I0718 14:46:40.629060 31838 net.cpp:124] Setting up LSTM_gate_input_13
I0718 14:46:40.629070 31838 net.cpp:131] Top shape: 1 40 160 (6400)
I0718 14:46:40.629073 31838 net.cpp:139] Memory required for data: 3631360
I0718 14:46:40.629078 31838 layer_factory.hpp:77] Creating layer LSTM_unit_13
I0718 14:46:40.629086 31838 net.cpp:86] Creating Layer LSTM_unit_13
I0718 14:46:40.629091 31838 net.cpp:408] LSTM_unit_13 <- c_12
I0718 14:46:40.629106 31838 net.cpp:408] LSTM_unit_13 <- gate_input_13
I0718 14:46:40.629119 31838 net.cpp:408] LSTM_unit_13 <- cont_13_LSTM_cont_slice_12_split_1
I0718 14:46:40.629127 31838 net.cpp:382] LSTM_unit_13 -> c_13
I0718 14:46:40.629137 31838 net.cpp:382] LSTM_unit_13 -> h_13
I0718 14:46:40.629185 31838 net.cpp:124] Setting up LSTM_unit_13
I0718 14:46:40.629194 31838 net.cpp:131] Top shape: 1 40 40 (1600)
I0718 14:46:40.629199 31838 net.cpp:131] Top shape: 1 40 40 (1600)
I0718 14:46:40.629204 31838 net.cpp:139] Memory required for data: 3644160
I0718 14:46:40.629209 31838 layer_factory.hpp:77] Creating layer h_13_LSTM_unit_13_1_split
I0718 14:46:40.629218 31838 net.cpp:86] Creating Layer h_13_LSTM_unit_13_1_split
I0718 14:46:40.629225 31838 net.cpp:408] h_13_LSTM_unit_13_1_split <- h_13
I0718 14:46:40.629231 31838 net.cpp:382] h_13_LSTM_unit_13_1_split -> h_13_LSTM_unit_13_1_split_0
I0718 14:46:40.629240 31838 net.cpp:382] h_13_LSTM_unit_13_1_split -> h_13_LSTM_unit_13_1_split_1
I0718 14:46:40.629284 31838 net.cpp:124] Setting up h_13_LSTM_unit_13_1_split
I0718 14:46:40.629294 31838 net.cpp:131] Top shape: 1 40 40 (1600)
I0718 14:46:40.629300 31838 net.cpp:131] Top shape: 1 40 40 (1600)
I0718 14:46:40.629305 31838 net.cpp:139] Memory required for data: 3656960
I0718 14:46:40.629310 31838 layer_factory.hpp:77] Creating layer LSTM_h_conted_13
I0718 14:46:40.629317 31838 net.cpp:86] Creating Layer LSTM_h_conted_13
I0718 14:46:40.629323 31838 net.cpp:408] LSTM_h_conted_13 <- h_13_LSTM_unit_13_1_split_0
I0718 14:46:40.629330 31838 net.cpp:408] LSTM_h_conted_13 <- cont_14_LSTM_cont_slice_13_split_0
I0718 14:46:40.629338 31838 net.cpp:382] LSTM_h_conted_13 -> h_conted_13
I0718 14:46:40.629401 31838 net.cpp:124] Setting up LSTM_h_conted_13
I0718 14:46:40.629410 31838 net.cpp:131] Top shape: 1 40 40 (1600)
I0718 14:46:40.629415 31838 net.cpp:139] Memory required for data: 3663360
I0718 14:46:40.629420 31838 layer_factory.hpp:77] Creating layer LSTM_transform_14
I0718 14:46:40.629427 31838 net.cpp:86] Creating Layer LSTM_transform_14
I0718 14:46:40.629433 31838 net.cpp:408] LSTM_transform_14 <- h_conted_13
I0718 14:46:40.629441 31838 net.cpp:382] LSTM_transform_14 -> W_hc_h_13
I0718 14:46:40.629706 31838 net.cpp:124] Setting up LSTM_transform_14
I0718 14:46:40.629716 31838 net.cpp:131] Top shape: 1 40 160 (6400)
I0718 14:46:40.629721 31838 net.cpp:139] Memory required for data: 3688960
I0718 14:46:40.629726 31838 net.cpp:467] Sharing parameters 'W_hc' owned by layer 'LSTM_transform_1', param index 0
I0718 14:46:40.629732 31838 layer_factory.hpp:77] Creating layer LSTM_gate_input_14
I0718 14:46:40.629741 31838 net.cpp:86] Creating Layer LSTM_gate_input_14
I0718 14:46:40.629748 31838 net.cpp:408] LSTM_gate_input_14 <- W_hc_h_13
I0718 14:46:40.629755 31838 net.cpp:408] LSTM_gate_input_14 <- W_xc_x_14
I0718 14:46:40.629762 31838 net.cpp:382] LSTM_gate_input_14 -> gate_input_14
I0718 14:46:40.629788 31838 net.cpp:124] Setting up LSTM_gate_input_14
I0718 14:46:40.629796 31838 net.cpp:131] Top shape: 1 40 160 (6400)
I0718 14:46:40.629801 31838 net.cpp:139] Memory required for data: 3714560
I0718 14:46:40.629806 31838 layer_factory.hpp:77] Creating layer LSTM_unit_14
I0718 14:46:40.629813 31838 net.cpp:86] Creating Layer LSTM_unit_14
I0718 14:46:40.629819 31838 net.cpp:408] LSTM_unit_14 <- c_13
I0718 14:46:40.629828 31838 net.cpp:408] LSTM_unit_14 <- gate_input_14
I0718 14:46:40.629834 31838 net.cpp:408] LSTM_unit_14 <- cont_14_LSTM_cont_slice_13_split_1
I0718 14:46:40.629842 31838 net.cpp:382] LSTM_unit_14 -> c_14
I0718 14:46:40.629850 31838 net.cpp:382] LSTM_unit_14 -> h_14
I0718 14:46:40.629899 31838 net.cpp:124] Setting up LSTM_unit_14
I0718 14:46:40.629907 31838 net.cpp:131] Top shape: 1 40 40 (1600)
I0718 14:46:40.629914 31838 net.cpp:131] Top shape: 1 40 40 (1600)
I0718 14:46:40.629918 31838 net.cpp:139] Memory required for data: 3727360
I0718 14:46:40.629922 31838 layer_factory.hpp:77] Creating layer h_14_LSTM_unit_14_1_split
I0718 14:46:40.629930 31838 net.cpp:86] Creating Layer h_14_LSTM_unit_14_1_split
I0718 14:46:40.629940 31838 net.cpp:408] h_14_LSTM_unit_14_1_split <- h_14
I0718 14:46:40.629954 31838 net.cpp:382] h_14_LSTM_unit_14_1_split -> h_14_LSTM_unit_14_1_split_0
I0718 14:46:40.629966 31838 net.cpp:382] h_14_LSTM_unit_14_1_split -> h_14_LSTM_unit_14_1_split_1
I0718 14:46:40.630002 31838 net.cpp:124] Setting up h_14_LSTM_unit_14_1_split
I0718 14:46:40.630009 31838 net.cpp:131] Top shape: 1 40 40 (1600)
I0718 14:46:40.630015 31838 net.cpp:131] Top shape: 1 40 40 (1600)
I0718 14:46:40.630020 31838 net.cpp:139] Memory required for data: 3740160
I0718 14:46:40.630025 31838 layer_factory.hpp:77] Creating layer LSTM_h_conted_14
I0718 14:46:40.630034 31838 net.cpp:86] Creating Layer LSTM_h_conted_14
I0718 14:46:40.630041 31838 net.cpp:408] LSTM_h_conted_14 <- h_14_LSTM_unit_14_1_split_0
I0718 14:46:40.630048 31838 net.cpp:408] LSTM_h_conted_14 <- cont_15_LSTM_cont_slice_14_split_0
I0718 14:46:40.630055 31838 net.cpp:382] LSTM_h_conted_14 -> h_conted_14
I0718 14:46:40.630121 31838 net.cpp:124] Setting up LSTM_h_conted_14
I0718 14:46:40.630131 31838 net.cpp:131] Top shape: 1 40 40 (1600)
I0718 14:46:40.630134 31838 net.cpp:139] Memory required for data: 3746560
I0718 14:46:40.630139 31838 layer_factory.hpp:77] Creating layer LSTM_transform_15
I0718 14:46:40.630149 31838 net.cpp:86] Creating Layer LSTM_transform_15
I0718 14:46:40.630156 31838 net.cpp:408] LSTM_transform_15 <- h_conted_14
I0718 14:46:40.630163 31838 net.cpp:382] LSTM_transform_15 -> W_hc_h_14
I0718 14:46:40.630427 31838 net.cpp:124] Setting up LSTM_transform_15
I0718 14:46:40.630437 31838 net.cpp:131] Top shape: 1 40 160 (6400)
I0718 14:46:40.630442 31838 net.cpp:139] Memory required for data: 3772160
I0718 14:46:40.630450 31838 net.cpp:467] Sharing parameters 'W_hc' owned by layer 'LSTM_transform_1', param index 0
I0718 14:46:40.630456 31838 layer_factory.hpp:77] Creating layer LSTM_gate_input_15
I0718 14:46:40.630463 31838 net.cpp:86] Creating Layer LSTM_gate_input_15
I0718 14:46:40.630470 31838 net.cpp:408] LSTM_gate_input_15 <- W_hc_h_14
I0718 14:46:40.630476 31838 net.cpp:408] LSTM_gate_input_15 <- W_xc_x_15
I0718 14:46:40.630486 31838 net.cpp:382] LSTM_gate_input_15 -> gate_input_15
I0718 14:46:40.630512 31838 net.cpp:124] Setting up LSTM_gate_input_15
I0718 14:46:40.630520 31838 net.cpp:131] Top shape: 1 40 160 (6400)
I0718 14:46:40.630525 31838 net.cpp:139] Memory required for data: 3797760
I0718 14:46:40.630530 31838 layer_factory.hpp:77] Creating layer LSTM_unit_15
I0718 14:46:40.630537 31838 net.cpp:86] Creating Layer LSTM_unit_15
I0718 14:46:40.630543 31838 net.cpp:408] LSTM_unit_15 <- c_14
I0718 14:46:40.630549 31838 net.cpp:408] LSTM_unit_15 <- gate_input_15
I0718 14:46:40.630556 31838 net.cpp:408] LSTM_unit_15 <- cont_15_LSTM_cont_slice_14_split_1
I0718 14:46:40.630563 31838 net.cpp:382] LSTM_unit_15 -> c_15
I0718 14:46:40.630574 31838 net.cpp:382] LSTM_unit_15 -> h_15
I0718 14:46:40.630623 31838 net.cpp:124] Setting up LSTM_unit_15
I0718 14:46:40.630632 31838 net.cpp:131] Top shape: 1 40 40 (1600)
I0718 14:46:40.630638 31838 net.cpp:131] Top shape: 1 40 40 (1600)
I0718 14:46:40.630890 31838 net.cpp:139] Memory required for data: 3810560
I0718 14:46:40.630897 31838 layer_factory.hpp:77] Creating layer h_15_LSTM_unit_15_1_split
I0718 14:46:40.630904 31838 net.cpp:86] Creating Layer h_15_LSTM_unit_15_1_split
I0718 14:46:40.630910 31838 net.cpp:408] h_15_LSTM_unit_15_1_split <- h_15
I0718 14:46:40.630918 31838 net.cpp:382] h_15_LSTM_unit_15_1_split -> h_15_LSTM_unit_15_1_split_0
I0718 14:46:40.630928 31838 net.cpp:382] h_15_LSTM_unit_15_1_split -> h_15_LSTM_unit_15_1_split_1
I0718 14:46:40.630970 31838 net.cpp:124] Setting up h_15_LSTM_unit_15_1_split
I0718 14:46:40.630978 31838 net.cpp:131] Top shape: 1 40 40 (1600)
I0718 14:46:40.630985 31838 net.cpp:131] Top shape: 1 40 40 (1600)
I0718 14:46:40.630990 31838 net.cpp:139] Memory required for data: 3823360
I0718 14:46:40.630995 31838 layer_factory.hpp:77] Creating layer LSTM_h_conted_15
I0718 14:46:40.631001 31838 net.cpp:86] Creating Layer LSTM_h_conted_15
I0718 14:46:40.631007 31838 net.cpp:408] LSTM_h_conted_15 <- h_15_LSTM_unit_15_1_split_0
I0718 14:46:40.631019 31838 net.cpp:408] LSTM_h_conted_15 <- cont_16_LSTM_cont_slice_15_split_0
I0718 14:46:40.631036 31838 net.cpp:382] LSTM_h_conted_15 -> h_conted_15
I0718 14:46:40.631103 31838 net.cpp:124] Setting up LSTM_h_conted_15
I0718 14:46:40.631111 31838 net.cpp:131] Top shape: 1 40 40 (1600)
I0718 14:46:40.631116 31838 net.cpp:139] Memory required for data: 3829760
I0718 14:46:40.631121 31838 layer_factory.hpp:77] Creating layer LSTM_transform_16
I0718 14:46:40.631131 31838 net.cpp:86] Creating Layer LSTM_transform_16
I0718 14:46:40.631137 31838 net.cpp:408] LSTM_transform_16 <- h_conted_15
I0718 14:46:40.631145 31838 net.cpp:382] LSTM_transform_16 -> W_hc_h_15
I0718 14:46:40.631407 31838 net.cpp:124] Setting up LSTM_transform_16
I0718 14:46:40.631417 31838 net.cpp:131] Top shape: 1 40 160 (6400)
I0718 14:46:40.631422 31838 net.cpp:139] Memory required for data: 3855360
I0718 14:46:40.631428 31838 net.cpp:467] Sharing parameters 'W_hc' owned by layer 'LSTM_transform_1', param index 0
I0718 14:46:40.631434 31838 layer_factory.hpp:77] Creating layer LSTM_gate_input_16
I0718 14:46:40.631441 31838 net.cpp:86] Creating Layer LSTM_gate_input_16
I0718 14:46:40.631448 31838 net.cpp:408] LSTM_gate_input_16 <- W_hc_h_15
I0718 14:46:40.631454 31838 net.cpp:408] LSTM_gate_input_16 <- W_xc_x_16
I0718 14:46:40.631461 31838 net.cpp:382] LSTM_gate_input_16 -> gate_input_16
I0718 14:46:40.631490 31838 net.cpp:124] Setting up LSTM_gate_input_16
I0718 14:46:40.631500 31838 net.cpp:131] Top shape: 1 40 160 (6400)
I0718 14:46:40.631503 31838 net.cpp:139] Memory required for data: 3880960
I0718 14:46:40.631508 31838 layer_factory.hpp:77] Creating layer LSTM_unit_16
I0718 14:46:40.631515 31838 net.cpp:86] Creating Layer LSTM_unit_16
I0718 14:46:40.631521 31838 net.cpp:408] LSTM_unit_16 <- c_15
I0718 14:46:40.631528 31838 net.cpp:408] LSTM_unit_16 <- gate_input_16
I0718 14:46:40.631536 31838 net.cpp:408] LSTM_unit_16 <- cont_16_LSTM_cont_slice_15_split_1
I0718 14:46:40.631542 31838 net.cpp:382] LSTM_unit_16 -> c_16
I0718 14:46:40.631551 31838 net.cpp:382] LSTM_unit_16 -> h_16
I0718 14:46:40.631599 31838 net.cpp:124] Setting up LSTM_unit_16
I0718 14:46:40.631608 31838 net.cpp:131] Top shape: 1 40 40 (1600)
I0718 14:46:40.631613 31838 net.cpp:131] Top shape: 1 40 40 (1600)
I0718 14:46:40.631618 31838 net.cpp:139] Memory required for data: 3893760
I0718 14:46:40.631623 31838 layer_factory.hpp:77] Creating layer h_16_LSTM_unit_16_1_split
I0718 14:46:40.631641 31838 net.cpp:86] Creating Layer h_16_LSTM_unit_16_1_split
I0718 14:46:40.631647 31838 net.cpp:408] h_16_LSTM_unit_16_1_split <- h_16
I0718 14:46:40.631660 31838 net.cpp:382] h_16_LSTM_unit_16_1_split -> h_16_LSTM_unit_16_1_split_0
I0718 14:46:40.631669 31838 net.cpp:382] h_16_LSTM_unit_16_1_split -> h_16_LSTM_unit_16_1_split_1
I0718 14:46:40.631705 31838 net.cpp:124] Setting up h_16_LSTM_unit_16_1_split
I0718 14:46:40.631713 31838 net.cpp:131] Top shape: 1 40 40 (1600)
I0718 14:46:40.631719 31838 net.cpp:131] Top shape: 1 40 40 (1600)
I0718 14:46:40.631724 31838 net.cpp:139] Memory required for data: 3906560
I0718 14:46:40.631731 31838 layer_factory.hpp:77] Creating layer LSTM_h_conted_16
I0718 14:46:40.631739 31838 net.cpp:86] Creating Layer LSTM_h_conted_16
I0718 14:46:40.631745 31838 net.cpp:408] LSTM_h_conted_16 <- h_16_LSTM_unit_16_1_split_0
I0718 14:46:40.631752 31838 net.cpp:408] LSTM_h_conted_16 <- cont_17_LSTM_cont_slice_16_split_0
I0718 14:46:40.631760 31838 net.cpp:382] LSTM_h_conted_16 -> h_conted_16
I0718 14:46:40.631827 31838 net.cpp:124] Setting up LSTM_h_conted_16
I0718 14:46:40.631837 31838 net.cpp:131] Top shape: 1 40 40 (1600)
I0718 14:46:40.631841 31838 net.cpp:139] Memory required for data: 3912960
I0718 14:46:40.631846 31838 layer_factory.hpp:77] Creating layer LSTM_transform_17
I0718 14:46:40.631855 31838 net.cpp:86] Creating Layer LSTM_transform_17
I0718 14:46:40.631860 31838 net.cpp:408] LSTM_transform_17 <- h_conted_16
I0718 14:46:40.631868 31838 net.cpp:382] LSTM_transform_17 -> W_hc_h_16
I0718 14:46:40.632131 31838 net.cpp:124] Setting up LSTM_transform_17
I0718 14:46:40.632145 31838 net.cpp:131] Top shape: 1 40 160 (6400)
I0718 14:46:40.632158 31838 net.cpp:139] Memory required for data: 3938560
I0718 14:46:40.632164 31838 net.cpp:467] Sharing parameters 'W_hc' owned by layer 'LSTM_transform_1', param index 0
I0718 14:46:40.632169 31838 layer_factory.hpp:77] Creating layer LSTM_gate_input_17
I0718 14:46:40.632176 31838 net.cpp:86] Creating Layer LSTM_gate_input_17
I0718 14:46:40.632182 31838 net.cpp:408] LSTM_gate_input_17 <- W_hc_h_16
I0718 14:46:40.632189 31838 net.cpp:408] LSTM_gate_input_17 <- W_xc_x_17
I0718 14:46:40.632199 31838 net.cpp:382] LSTM_gate_input_17 -> gate_input_17
I0718 14:46:40.632226 31838 net.cpp:124] Setting up LSTM_gate_input_17
I0718 14:46:40.632235 31838 net.cpp:131] Top shape: 1 40 160 (6400)
I0718 14:46:40.632239 31838 net.cpp:139] Memory required for data: 3964160
I0718 14:46:40.632244 31838 layer_factory.hpp:77] Creating layer LSTM_unit_17
I0718 14:46:40.632251 31838 net.cpp:86] Creating Layer LSTM_unit_17
I0718 14:46:40.632256 31838 net.cpp:408] LSTM_unit_17 <- c_16
I0718 14:46:40.632263 31838 net.cpp:408] LSTM_unit_17 <- gate_input_17
I0718 14:46:40.632270 31838 net.cpp:408] LSTM_unit_17 <- cont_17_LSTM_cont_slice_16_split_1
I0718 14:46:40.632277 31838 net.cpp:382] LSTM_unit_17 -> c_17
I0718 14:46:40.632287 31838 net.cpp:382] LSTM_unit_17 -> h_17
I0718 14:46:40.632336 31838 net.cpp:124] Setting up LSTM_unit_17
I0718 14:46:40.632345 31838 net.cpp:131] Top shape: 1 40 40 (1600)
I0718 14:46:40.632351 31838 net.cpp:131] Top shape: 1 40 40 (1600)
I0718 14:46:40.632356 31838 net.cpp:139] Memory required for data: 3976960
I0718 14:46:40.632360 31838 layer_factory.hpp:77] Creating layer h_17_LSTM_unit_17_1_split
I0718 14:46:40.632367 31838 net.cpp:86] Creating Layer h_17_LSTM_unit_17_1_split
I0718 14:46:40.632374 31838 net.cpp:408] h_17_LSTM_unit_17_1_split <- h_17
I0718 14:46:40.632380 31838 net.cpp:382] h_17_LSTM_unit_17_1_split -> h_17_LSTM_unit_17_1_split_0
I0718 14:46:40.632388 31838 net.cpp:382] h_17_LSTM_unit_17_1_split -> h_17_LSTM_unit_17_1_split_1
I0718 14:46:40.632424 31838 net.cpp:124] Setting up h_17_LSTM_unit_17_1_split
I0718 14:46:40.632432 31838 net.cpp:131] Top shape: 1 40 40 (1600)
I0718 14:46:40.632438 31838 net.cpp:131] Top shape: 1 40 40 (1600)
I0718 14:46:40.632443 31838 net.cpp:139] Memory required for data: 3989760
I0718 14:46:40.632448 31838 layer_factory.hpp:77] Creating layer LSTM_h_conted_17
I0718 14:46:40.632455 31838 net.cpp:86] Creating Layer LSTM_h_conted_17
I0718 14:46:40.632460 31838 net.cpp:408] LSTM_h_conted_17 <- h_17_LSTM_unit_17_1_split_0
I0718 14:46:40.632467 31838 net.cpp:408] LSTM_h_conted_17 <- cont_18_LSTM_cont_slice_17_split_0
I0718 14:46:40.632477 31838 net.cpp:382] LSTM_h_conted_17 -> h_conted_17
I0718 14:46:40.632539 31838 net.cpp:124] Setting up LSTM_h_conted_17
I0718 14:46:40.632549 31838 net.cpp:131] Top shape: 1 40 40 (1600)
I0718 14:46:40.632553 31838 net.cpp:139] Memory required for data: 3996160
I0718 14:46:40.632558 31838 layer_factory.hpp:77] Creating layer LSTM_transform_18
I0718 14:46:40.632565 31838 net.cpp:86] Creating Layer LSTM_transform_18
I0718 14:46:40.632571 31838 net.cpp:408] LSTM_transform_18 <- h_conted_17
I0718 14:46:40.632581 31838 net.cpp:382] LSTM_transform_18 -> W_hc_h_17
I0718 14:46:40.632843 31838 net.cpp:124] Setting up LSTM_transform_18
I0718 14:46:40.632853 31838 net.cpp:131] Top shape: 1 40 160 (6400)
I0718 14:46:40.632858 31838 net.cpp:139] Memory required for data: 4021760
I0718 14:46:40.632863 31838 net.cpp:467] Sharing parameters 'W_hc' owned by layer 'LSTM_transform_1', param index 0
I0718 14:46:40.632869 31838 layer_factory.hpp:77] Creating layer LSTM_gate_input_18
I0718 14:46:40.632876 31838 net.cpp:86] Creating Layer LSTM_gate_input_18
I0718 14:46:40.632881 31838 net.cpp:408] LSTM_gate_input_18 <- W_hc_h_17
I0718 14:46:40.632889 31838 net.cpp:408] LSTM_gate_input_18 <- W_xc_x_18
I0718 14:46:40.632895 31838 net.cpp:382] LSTM_gate_input_18 -> gate_input_18
I0718 14:46:40.632925 31838 net.cpp:124] Setting up LSTM_gate_input_18
I0718 14:46:40.632939 31838 net.cpp:131] Top shape: 1 40 160 (6400)
I0718 14:46:40.632951 31838 net.cpp:139] Memory required for data: 4047360
I0718 14:46:40.632957 31838 layer_factory.hpp:77] Creating layer LSTM_unit_18
I0718 14:46:40.632964 31838 net.cpp:86] Creating Layer LSTM_unit_18
I0718 14:46:40.632971 31838 net.cpp:408] LSTM_unit_18 <- c_17
I0718 14:46:40.632977 31838 net.cpp:408] LSTM_unit_18 <- gate_input_18
I0718 14:46:40.632984 31838 net.cpp:408] LSTM_unit_18 <- cont_18_LSTM_cont_slice_17_split_1
I0718 14:46:40.632992 31838 net.cpp:382] LSTM_unit_18 -> c_18
I0718 14:46:40.633000 31838 net.cpp:382] LSTM_unit_18 -> h_18
I0718 14:46:40.633050 31838 net.cpp:124] Setting up LSTM_unit_18
I0718 14:46:40.633059 31838 net.cpp:131] Top shape: 1 40 40 (1600)
I0718 14:46:40.633064 31838 net.cpp:131] Top shape: 1 40 40 (1600)
I0718 14:46:40.633069 31838 net.cpp:139] Memory required for data: 4060160
I0718 14:46:40.633074 31838 layer_factory.hpp:77] Creating layer h_18_LSTM_unit_18_1_split
I0718 14:46:40.633083 31838 net.cpp:86] Creating Layer h_18_LSTM_unit_18_1_split
I0718 14:46:40.633090 31838 net.cpp:408] h_18_LSTM_unit_18_1_split <- h_18
I0718 14:46:40.633096 31838 net.cpp:382] h_18_LSTM_unit_18_1_split -> h_18_LSTM_unit_18_1_split_0
I0718 14:46:40.633105 31838 net.cpp:382] h_18_LSTM_unit_18_1_split -> h_18_LSTM_unit_18_1_split_1
I0718 14:46:40.633142 31838 net.cpp:124] Setting up h_18_LSTM_unit_18_1_split
I0718 14:46:40.633152 31838 net.cpp:131] Top shape: 1 40 40 (1600)
I0718 14:46:40.633157 31838 net.cpp:131] Top shape: 1 40 40 (1600)
I0718 14:46:40.633162 31838 net.cpp:139] Memory required for data: 4072960
I0718 14:46:40.633167 31838 layer_factory.hpp:77] Creating layer LSTM_h_conted_18
I0718 14:46:40.633174 31838 net.cpp:86] Creating Layer LSTM_h_conted_18
I0718 14:46:40.633179 31838 net.cpp:408] LSTM_h_conted_18 <- h_18_LSTM_unit_18_1_split_0
I0718 14:46:40.633186 31838 net.cpp:408] LSTM_h_conted_18 <- cont_19_LSTM_cont_slice_18_split_0
I0718 14:46:40.633194 31838 net.cpp:382] LSTM_h_conted_18 -> h_conted_18
I0718 14:46:40.633265 31838 net.cpp:124] Setting up LSTM_h_conted_18
I0718 14:46:40.633276 31838 net.cpp:131] Top shape: 1 40 40 (1600)
I0718 14:46:40.633281 31838 net.cpp:139] Memory required for data: 4079360
I0718 14:46:40.633286 31838 layer_factory.hpp:77] Creating layer LSTM_transform_19
I0718 14:46:40.633293 31838 net.cpp:86] Creating Layer LSTM_transform_19
I0718 14:46:40.633301 31838 net.cpp:408] LSTM_transform_19 <- h_conted_18
I0718 14:46:40.633308 31838 net.cpp:382] LSTM_transform_19 -> W_hc_h_18
I0718 14:46:40.633574 31838 net.cpp:124] Setting up LSTM_transform_19
I0718 14:46:40.633584 31838 net.cpp:131] Top shape: 1 40 160 (6400)
I0718 14:46:40.633589 31838 net.cpp:139] Memory required for data: 4104960
I0718 14:46:40.633595 31838 net.cpp:467] Sharing parameters 'W_hc' owned by layer 'LSTM_transform_1', param index 0
I0718 14:46:40.633600 31838 layer_factory.hpp:77] Creating layer LSTM_gate_input_19
I0718 14:46:40.633610 31838 net.cpp:86] Creating Layer LSTM_gate_input_19
I0718 14:46:40.633616 31838 net.cpp:408] LSTM_gate_input_19 <- W_hc_h_18
I0718 14:46:40.633622 31838 net.cpp:408] LSTM_gate_input_19 <- W_xc_x_19
I0718 14:46:40.633630 31838 net.cpp:382] LSTM_gate_input_19 -> gate_input_19
I0718 14:46:40.633656 31838 net.cpp:124] Setting up LSTM_gate_input_19
I0718 14:46:40.633664 31838 net.cpp:131] Top shape: 1 40 160 (6400)
I0718 14:46:40.633669 31838 net.cpp:139] Memory required for data: 4130560
I0718 14:46:40.633673 31838 layer_factory.hpp:77] Creating layer LSTM_unit_19
I0718 14:46:40.633680 31838 net.cpp:86] Creating Layer LSTM_unit_19
I0718 14:46:40.633687 31838 net.cpp:408] LSTM_unit_19 <- c_18
I0718 14:46:40.633692 31838 net.cpp:408] LSTM_unit_19 <- gate_input_19
I0718 14:46:40.633699 31838 net.cpp:408] LSTM_unit_19 <- cont_19_LSTM_cont_slice_18_split_1
I0718 14:46:40.633709 31838 net.cpp:382] LSTM_unit_19 -> c_19
I0718 14:46:40.633718 31838 net.cpp:382] LSTM_unit_19 -> h_19
I0718 14:46:40.633766 31838 net.cpp:124] Setting up LSTM_unit_19
I0718 14:46:40.633775 31838 net.cpp:131] Top shape: 1 40 40 (1600)
I0718 14:46:40.633785 31838 net.cpp:131] Top shape: 1 40 40 (1600)
I0718 14:46:40.633797 31838 net.cpp:139] Memory required for data: 4143360
I0718 14:46:40.633803 31838 layer_factory.hpp:77] Creating layer h_19_LSTM_unit_19_1_split
I0718 14:46:40.633810 31838 net.cpp:86] Creating Layer h_19_LSTM_unit_19_1_split
I0718 14:46:40.633816 31838 net.cpp:408] h_19_LSTM_unit_19_1_split <- h_19
I0718 14:46:40.633823 31838 net.cpp:382] h_19_LSTM_unit_19_1_split -> h_19_LSTM_unit_19_1_split_0
I0718 14:46:40.633831 31838 net.cpp:382] h_19_LSTM_unit_19_1_split -> h_19_LSTM_unit_19_1_split_1
I0718 14:46:40.633868 31838 net.cpp:124] Setting up h_19_LSTM_unit_19_1_split
I0718 14:46:40.633877 31838 net.cpp:131] Top shape: 1 40 40 (1600)
I0718 14:46:40.633883 31838 net.cpp:131] Top shape: 1 40 40 (1600)
I0718 14:46:40.633888 31838 net.cpp:139] Memory required for data: 4156160
I0718 14:46:40.633893 31838 layer_factory.hpp:77] Creating layer LSTM_h_conted_19
I0718 14:46:40.633901 31838 net.cpp:86] Creating Layer LSTM_h_conted_19
I0718 14:46:40.633908 31838 net.cpp:408] LSTM_h_conted_19 <- h_19_LSTM_unit_19_1_split_0
I0718 14:46:40.633914 31838 net.cpp:408] LSTM_h_conted_19 <- cont_20_LSTM_cont_slice_19_split_0
I0718 14:46:40.633922 31838 net.cpp:382] LSTM_h_conted_19 -> h_conted_19
I0718 14:46:40.633991 31838 net.cpp:124] Setting up LSTM_h_conted_19
I0718 14:46:40.634001 31838 net.cpp:131] Top shape: 1 40 40 (1600)
I0718 14:46:40.634006 31838 net.cpp:139] Memory required for data: 4162560
I0718 14:46:40.634011 31838 layer_factory.hpp:77] Creating layer LSTM_transform_20
I0718 14:46:40.634021 31838 net.cpp:86] Creating Layer LSTM_transform_20
I0718 14:46:40.634027 31838 net.cpp:408] LSTM_transform_20 <- h_conted_19
I0718 14:46:40.634034 31838 net.cpp:382] LSTM_transform_20 -> W_hc_h_19
I0718 14:46:40.634299 31838 net.cpp:124] Setting up LSTM_transform_20
I0718 14:46:40.634308 31838 net.cpp:131] Top shape: 1 40 160 (6400)
I0718 14:46:40.634313 31838 net.cpp:139] Memory required for data: 4188160
I0718 14:46:40.634318 31838 net.cpp:467] Sharing parameters 'W_hc' owned by layer 'LSTM_transform_1', param index 0
I0718 14:46:40.634325 31838 layer_factory.hpp:77] Creating layer LSTM_gate_input_20
I0718 14:46:40.634331 31838 net.cpp:86] Creating Layer LSTM_gate_input_20
I0718 14:46:40.634337 31838 net.cpp:408] LSTM_gate_input_20 <- W_hc_h_19
I0718 14:46:40.634344 31838 net.cpp:408] LSTM_gate_input_20 <- W_xc_x_20
I0718 14:46:40.634351 31838 net.cpp:382] LSTM_gate_input_20 -> gate_input_20
I0718 14:46:40.634379 31838 net.cpp:124] Setting up LSTM_gate_input_20
I0718 14:46:40.634387 31838 net.cpp:131] Top shape: 1 40 160 (6400)
I0718 14:46:40.634392 31838 net.cpp:139] Memory required for data: 4213760
I0718 14:46:40.634397 31838 layer_factory.hpp:77] Creating layer LSTM_unit_20
I0718 14:46:40.634404 31838 net.cpp:86] Creating Layer LSTM_unit_20
I0718 14:46:40.634410 31838 net.cpp:408] LSTM_unit_20 <- c_19
I0718 14:46:40.634418 31838 net.cpp:408] LSTM_unit_20 <- gate_input_20
I0718 14:46:40.634423 31838 net.cpp:408] LSTM_unit_20 <- cont_20_LSTM_cont_slice_19_split_1
I0718 14:46:40.634430 31838 net.cpp:382] LSTM_unit_20 -> c_20
I0718 14:46:40.634439 31838 net.cpp:382] LSTM_unit_20 -> h_20
I0718 14:46:40.634490 31838 net.cpp:124] Setting up LSTM_unit_20
I0718 14:46:40.634498 31838 net.cpp:131] Top shape: 1 40 40 (1600)
I0718 14:46:40.634505 31838 net.cpp:131] Top shape: 1 40 40 (1600)
I0718 14:46:40.634510 31838 net.cpp:139] Memory required for data: 4226560
I0718 14:46:40.634515 31838 layer_factory.hpp:77] Creating layer h_20_LSTM_unit_20_1_split
I0718 14:46:40.634521 31838 net.cpp:86] Creating Layer h_20_LSTM_unit_20_1_split
I0718 14:46:40.634526 31838 net.cpp:408] h_20_LSTM_unit_20_1_split <- h_20
I0718 14:46:40.634533 31838 net.cpp:382] h_20_LSTM_unit_20_1_split -> h_20_LSTM_unit_20_1_split_0
I0718 14:46:40.634541 31838 net.cpp:382] h_20_LSTM_unit_20_1_split -> h_20_LSTM_unit_20_1_split_1
I0718 14:46:40.634579 31838 net.cpp:124] Setting up h_20_LSTM_unit_20_1_split
I0718 14:46:40.634588 31838 net.cpp:131] Top shape: 1 40 40 (1600)
I0718 14:46:40.634598 31838 net.cpp:131] Top shape: 1 40 40 (1600)
I0718 14:46:40.634609 31838 net.cpp:139] Memory required for data: 4239360
I0718 14:46:40.634614 31838 layer_factory.hpp:77] Creating layer LSTM_h_conted_20
I0718 14:46:40.634621 31838 net.cpp:86] Creating Layer LSTM_h_conted_20
I0718 14:46:40.634627 31838 net.cpp:408] LSTM_h_conted_20 <- h_20_LSTM_unit_20_1_split_0
I0718 14:46:40.634634 31838 net.cpp:408] LSTM_h_conted_20 <- cont_21_LSTM_cont_slice_20_split_0
I0718 14:46:40.634641 31838 net.cpp:382] LSTM_h_conted_20 -> h_conted_20
I0718 14:46:40.634706 31838 net.cpp:124] Setting up LSTM_h_conted_20
I0718 14:46:40.634714 31838 net.cpp:131] Top shape: 1 40 40 (1600)
I0718 14:46:40.634719 31838 net.cpp:139] Memory required for data: 4245760
I0718 14:46:40.634724 31838 layer_factory.hpp:77] Creating layer LSTM_transform_21
I0718 14:46:40.634732 31838 net.cpp:86] Creating Layer LSTM_transform_21
I0718 14:46:40.634737 31838 net.cpp:408] LSTM_transform_21 <- h_conted_20
I0718 14:46:40.634747 31838 net.cpp:382] LSTM_transform_21 -> W_hc_h_20
I0718 14:46:40.635010 31838 net.cpp:124] Setting up LSTM_transform_21
I0718 14:46:40.635018 31838 net.cpp:131] Top shape: 1 40 160 (6400)
I0718 14:46:40.635023 31838 net.cpp:139] Memory required for data: 4271360
I0718 14:46:40.635030 31838 net.cpp:467] Sharing parameters 'W_hc' owned by layer 'LSTM_transform_1', param index 0
I0718 14:46:40.635035 31838 layer_factory.hpp:77] Creating layer LSTM_gate_input_21
I0718 14:46:40.635042 31838 net.cpp:86] Creating Layer LSTM_gate_input_21
I0718 14:46:40.635048 31838 net.cpp:408] LSTM_gate_input_21 <- W_hc_h_20
I0718 14:46:40.635054 31838 net.cpp:408] LSTM_gate_input_21 <- W_xc_x_21
I0718 14:46:40.635062 31838 net.cpp:382] LSTM_gate_input_21 -> gate_input_21
I0718 14:46:40.635087 31838 net.cpp:124] Setting up LSTM_gate_input_21
I0718 14:46:40.635095 31838 net.cpp:131] Top shape: 1 40 160 (6400)
I0718 14:46:40.635100 31838 net.cpp:139] Memory required for data: 4296960
I0718 14:46:40.635105 31838 layer_factory.hpp:77] Creating layer LSTM_unit_21
I0718 14:46:40.635114 31838 net.cpp:86] Creating Layer LSTM_unit_21
I0718 14:46:40.635120 31838 net.cpp:408] LSTM_unit_21 <- c_20
I0718 14:46:40.635128 31838 net.cpp:408] LSTM_unit_21 <- gate_input_21
I0718 14:46:40.635133 31838 net.cpp:408] LSTM_unit_21 <- cont_21_LSTM_cont_slice_20_split_1
I0718 14:46:40.635140 31838 net.cpp:382] LSTM_unit_21 -> c_21
I0718 14:46:40.635149 31838 net.cpp:382] LSTM_unit_21 -> h_21
I0718 14:46:40.635198 31838 net.cpp:124] Setting up LSTM_unit_21
I0718 14:46:40.635206 31838 net.cpp:131] Top shape: 1 40 40 (1600)
I0718 14:46:40.635212 31838 net.cpp:131] Top shape: 1 40 40 (1600)
I0718 14:46:40.635217 31838 net.cpp:139] Memory required for data: 4309760
I0718 14:46:40.635222 31838 layer_factory.hpp:77] Creating layer h_21_LSTM_unit_21_1_split
I0718 14:46:40.635229 31838 net.cpp:86] Creating Layer h_21_LSTM_unit_21_1_split
I0718 14:46:40.635236 31838 net.cpp:408] h_21_LSTM_unit_21_1_split <- h_21
I0718 14:46:40.635246 31838 net.cpp:382] h_21_LSTM_unit_21_1_split -> h_21_LSTM_unit_21_1_split_0
I0718 14:46:40.635254 31838 net.cpp:382] h_21_LSTM_unit_21_1_split -> h_21_LSTM_unit_21_1_split_1
I0718 14:46:40.635288 31838 net.cpp:124] Setting up h_21_LSTM_unit_21_1_split
I0718 14:46:40.635296 31838 net.cpp:131] Top shape: 1 40 40 (1600)
I0718 14:46:40.635303 31838 net.cpp:131] Top shape: 1 40 40 (1600)
I0718 14:46:40.635306 31838 net.cpp:139] Memory required for data: 4322560
I0718 14:46:40.635311 31838 layer_factory.hpp:77] Creating layer LSTM_h_conted_21
I0718 14:46:40.635320 31838 net.cpp:86] Creating Layer LSTM_h_conted_21
I0718 14:46:40.635327 31838 net.cpp:408] LSTM_h_conted_21 <- h_21_LSTM_unit_21_1_split_0
I0718 14:46:40.635334 31838 net.cpp:408] LSTM_h_conted_21 <- cont_22_LSTM_cont_slice_21_split_0
I0718 14:46:40.635344 31838 net.cpp:382] LSTM_h_conted_21 -> h_conted_21
I0718 14:46:40.635406 31838 net.cpp:124] Setting up LSTM_h_conted_21
I0718 14:46:40.635414 31838 net.cpp:131] Top shape: 1 40 40 (1600)
I0718 14:46:40.635419 31838 net.cpp:139] Memory required for data: 4328960
I0718 14:46:40.635428 31838 layer_factory.hpp:77] Creating layer LSTM_transform_22
I0718 14:46:40.635443 31838 net.cpp:86] Creating Layer LSTM_transform_22
I0718 14:46:40.635449 31838 net.cpp:408] LSTM_transform_22 <- h_conted_21
I0718 14:46:40.635457 31838 net.cpp:382] LSTM_transform_22 -> W_hc_h_21
I0718 14:46:40.635720 31838 net.cpp:124] Setting up LSTM_transform_22
I0718 14:46:40.635730 31838 net.cpp:131] Top shape: 1 40 160 (6400)
I0718 14:46:40.635735 31838 net.cpp:139] Memory required for data: 4354560
I0718 14:46:40.635740 31838 net.cpp:467] Sharing parameters 'W_hc' owned by layer 'LSTM_transform_1', param index 0
I0718 14:46:40.635746 31838 layer_factory.hpp:77] Creating layer LSTM_gate_input_22
I0718 14:46:40.635752 31838 net.cpp:86] Creating Layer LSTM_gate_input_22
I0718 14:46:40.635758 31838 net.cpp:408] LSTM_gate_input_22 <- W_hc_h_21
I0718 14:46:40.635767 31838 net.cpp:408] LSTM_gate_input_22 <- W_xc_x_22
I0718 14:46:40.635774 31838 net.cpp:382] LSTM_gate_input_22 -> gate_input_22
I0718 14:46:40.635800 31838 net.cpp:124] Setting up LSTM_gate_input_22
I0718 14:46:40.635808 31838 net.cpp:131] Top shape: 1 40 160 (6400)
I0718 14:46:40.635812 31838 net.cpp:139] Memory required for data: 4380160
I0718 14:46:40.635818 31838 layer_factory.hpp:77] Creating layer LSTM_unit_22
I0718 14:46:40.635824 31838 net.cpp:86] Creating Layer LSTM_unit_22
I0718 14:46:40.635830 31838 net.cpp:408] LSTM_unit_22 <- c_21
I0718 14:46:40.635836 31838 net.cpp:408] LSTM_unit_22 <- gate_input_22
I0718 14:46:40.635843 31838 net.cpp:408] LSTM_unit_22 <- cont_22_LSTM_cont_slice_21_split_1
I0718 14:46:40.635852 31838 net.cpp:382] LSTM_unit_22 -> c_22
I0718 14:46:40.635861 31838 net.cpp:382] LSTM_unit_22 -> h_22
I0718 14:46:40.635910 31838 net.cpp:124] Setting up LSTM_unit_22
I0718 14:46:40.635918 31838 net.cpp:131] Top shape: 1 40 40 (1600)
I0718 14:46:40.635924 31838 net.cpp:131] Top shape: 1 40 40 (1600)
I0718 14:46:40.635929 31838 net.cpp:139] Memory required for data: 4392960
I0718 14:46:40.635934 31838 layer_factory.hpp:77] Creating layer h_22_LSTM_unit_22_1_split
I0718 14:46:40.635941 31838 net.cpp:86] Creating Layer h_22_LSTM_unit_22_1_split
I0718 14:46:40.635947 31838 net.cpp:408] h_22_LSTM_unit_22_1_split <- h_22
I0718 14:46:40.635954 31838 net.cpp:382] h_22_LSTM_unit_22_1_split -> h_22_LSTM_unit_22_1_split_0
I0718 14:46:40.635962 31838 net.cpp:382] h_22_LSTM_unit_22_1_split -> h_22_LSTM_unit_22_1_split_1
I0718 14:46:40.636003 31838 net.cpp:124] Setting up h_22_LSTM_unit_22_1_split
I0718 14:46:40.636011 31838 net.cpp:131] Top shape: 1 40 40 (1600)
I0718 14:46:40.636018 31838 net.cpp:131] Top shape: 1 40 40 (1600)
I0718 14:46:40.636023 31838 net.cpp:139] Memory required for data: 4405760
I0718 14:46:40.636026 31838 layer_factory.hpp:77] Creating layer LSTM_h_conted_22
I0718 14:46:40.636034 31838 net.cpp:86] Creating Layer LSTM_h_conted_22
I0718 14:46:40.636040 31838 net.cpp:408] LSTM_h_conted_22 <- h_22_LSTM_unit_22_1_split_0
I0718 14:46:40.636046 31838 net.cpp:408] LSTM_h_conted_22 <- cont_23_LSTM_cont_slice_22_split_0
I0718 14:46:40.636056 31838 net.cpp:382] LSTM_h_conted_22 -> h_conted_22
I0718 14:46:40.636123 31838 net.cpp:124] Setting up LSTM_h_conted_22
I0718 14:46:40.636132 31838 net.cpp:131] Top shape: 1 40 40 (1600)
I0718 14:46:40.636137 31838 net.cpp:139] Memory required for data: 4412160
I0718 14:46:40.636142 31838 layer_factory.hpp:77] Creating layer LSTM_transform_23
I0718 14:46:40.636153 31838 net.cpp:86] Creating Layer LSTM_transform_23
I0718 14:46:40.636159 31838 net.cpp:408] LSTM_transform_23 <- h_conted_22
I0718 14:46:40.636168 31838 net.cpp:382] LSTM_transform_23 -> W_hc_h_22
I0718 14:46:40.636430 31838 net.cpp:124] Setting up LSTM_transform_23
I0718 14:46:40.636440 31838 net.cpp:131] Top shape: 1 40 160 (6400)
…
I0718 14:46:40.641059 31838 net.cpp:408] LSTM_h_conted_29 <- cont_30_LSTM_cont_slice_29_split_0
I0718 14:46:40.641067 31838 net.cpp:382] LSTM_h_conted_29 -> h_conted_29
I0718 14:46:40.641132 31838 net.cpp:124] Setting up LSTM_h_conted_29
I0718 14:46:40.641141 31838 net.cpp:131] Top shape: 1 40 40 (1600)
I0718 14:46:40.641145 31838 net.cpp:139] Memory required for data: 4994560
I0718 14:46:40.641150 31838 layer_factory.hpp:77] Creating layer LSTM_transform_30
I0718 14:46:40.641163 31838 net.cpp:86] Creating Layer LSTM_transform_30
I0718 14:46:40.641170 31838 net.cpp:408] LSTM_transform_30 <- h_conted_29
I0718 14:46:40.641177 31838 net.cpp:382] LSTM_transform_30 -> W_hc_h_29
I0718 14:46:40.641446 31838 net.cpp:124] Setting up LSTM_transform_30
I0718 14:46:40.641458 31838 net.cpp:131] Top shape: 1 40 160 (6400)
I0718 14:46:40.641463 31838 net.cpp:139] Memory required for data: 5020160
I0718 14:46:40.641469 31838 net.cpp:467] Sharing parameters 'W_hc' owned by layer 'LSTM_transform_1', param index 0
I0718 14:46:40.641474 31838 layer_factory.hpp:77] Creating layer LSTM_gate_input_30
I0718 14:46:40.641481 31838 net.cpp:86] Creating Layer LSTM_gate_input_30
I0718 14:46:40.641487 31838 net.cpp:408] LSTM_gate_input_30 <- W_hc_h_29
I0718 14:46:40.641494 31838 net.cpp:408] LSTM_gate_input_30 <- W_xc_x_30
I0718 14:46:40.641504 31838 net.cpp:382] LSTM_gate_input_30 -> gate_input_30
I0718 14:46:40.641530 31838 net.cpp:124] Setting up LSTM_gate_input_30
I0718 14:46:40.641538 31838 net.cpp:131] Top shape: 1 40 160 (6400)
I0718 14:46:40.641543 31838 net.cpp:139] Memory required for data: 5045760
I0718 14:46:40.641548 31838 layer_factory.hpp:77] Creating layer LSTM_unit_30
I0718 14:46:40.641556 31838 net.cpp:86] Creating Layer LSTM_unit_30
I0718 14:46:40.641561 31838 net.cpp:408] LSTM_unit_30 <- c_29
I0718 14:46:40.641567 31838 net.cpp:408] LSTM_unit_30 <- gate_input_30
I0718 14:46:40.641573 31838 net.cpp:408] LSTM_unit_30 <- cont_30_LSTM_cont_slice_29_split_1
I0718 14:46:40.641582 31838 net.cpp:382] LSTM_unit_30 -> c_30
I0718 14:46:40.641589 31838 net.cpp:382] LSTM_unit_30 -> h_30
I0718 14:46:40.641639 31838 net.cpp:124] Setting up LSTM_unit_30
I0718 14:46:40.641647 31838 net.cpp:131] Top shape: 1 40 40 (1600)
I0718 14:46:40.641659 31838 net.cpp:131] Top shape: 1 40 40 (1600)
I0718 14:46:40.641671 31838 net.cpp:139] Memory required for data: 5058560
I0718 14:46:40.641676 31838 layer_factory.hpp:77] Creating layer h_30_LSTM_unit_30_1_split
I0718 14:46:40.641683 31838 net.cpp:86] Creating Layer h_30_LSTM_unit_30_1_split
I0718 14:46:40.641690 31838 net.cpp:408] h_30_LSTM_unit_30_1_split <- h_30
I0718 14:46:40.641696 31838 net.cpp:382] h_30_LSTM_unit_30_1_split -> h_30_LSTM_unit_30_1_split_0
I0718 14:46:40.641705 31838 net.cpp:382] h_30_LSTM_unit_30_1_split -> h_30_LSTM_unit_30_1_split_1
I0718 14:46:40.641742 31838 net.cpp:124] Setting up h_30_LSTM_unit_30_1_split
I0718 14:46:40.641751 31838 net.cpp:131] Top shape: 1 40 40 (1600)
I0718 14:46:40.641757 31838 net.cpp:131] Top shape: 1 40 40 (1600)
I0718 14:46:40.641762 31838 net.cpp:139] Memory required for data: 5071360
I0718 14:46:40.641767 31838 layer_factory.hpp:77] Creating layer LSTM_h_conted_30
I0718 14:46:40.641773 31838 net.cpp:86] Creating Layer LSTM_h_conted_30
I0718 14:46:40.641780 31838 net.cpp:408] LSTM_h_conted_30 <- h_30_LSTM_unit_30_1_split_0
I0718 14:46:40.641788 31838 net.cpp:408] LSTM_h_conted_30 <- cont_31_LSTM_cont_slice_30_split_0
I0718 14:46:40.641794 31838 net.cpp:382] LSTM_h_conted_30 -> h_conted_30
I0718 14:46:40.641860 31838 net.cpp:124] Setting up LSTM_h_conted_30
I0718 14:46:40.641868 31838 net.cpp:131] Top shape: 1 40 40 (1600)
I0718 14:46:40.641873 31838 net.cpp:139] Memory required for data: 5077760
I0718 14:46:40.641878 31838 layer_factory.hpp:77] Creating layer LSTM_transform_31
I0718 14:46:40.641886 31838 net.cpp:86] Creating Layer LSTM_transform_31
I0718 14:46:40.641892 31838 net.cpp:408] LSTM_transform_31 <- h_conted_30
I0718 14:46:40.641901 31838 net.cpp:382] LSTM_transform_31 -> W_hc_h_30
I0718 14:46:40.642168 31838 net.cpp:124] Setting up LSTM_transform_31
I0718 14:46:40.642177 31838 net.cpp:131] Top shape: 1 40 160 (6400)
I0718 14:46:40.642182 31838 net.cpp:139] Memory required for data: 5103360
I0718 14:46:40.642191 31838 net.cpp:467] Sharing parameters 'W_hc' owned by layer 'LSTM_transform_1', param index 0
I0718 14:46:40.642197 31838 layer_factory.hpp:77] Creating layer LSTM_gate_input_31
I0718 14:46:40.642205 31838 net.cpp:86] Creating Layer LSTM_gate_input_31
I0718 14:46:40.642210 31838 net.cpp:408] LSTM_gate_input_31 <- W_hc_h_30
I0718 14:46:40.642217 31838 net.cpp:408] LSTM_gate_input_31 <- W_xc_x_31
I0718 14:46:40.642230 31838 net.cpp:382] LSTM_gate_input_31 -> gate_input_31
I0718 14:46:40.642257 31838 net.cpp:124] Setting up LSTM_gate_input_31
I0718 14:46:40.642268 31838 net.cpp:131] Top shape: 1 40 160 (6400)
I0718 14:46:40.642273 31838 net.cpp:139] Memory required for data: 5128960
I0718 14:46:40.642278 31838 layer_factory.hpp:77] Creating layer LSTM_unit_31
I0718 14:46:40.642285 31838 net.cpp:86] Creating Layer LSTM_unit_31
I0718 14:46:40.642292 31838 net.cpp:408] LSTM_unit_31 <- c_30
I0718 14:46:40.642298 31838 net.cpp:408] LSTM_unit_31 <- gate_input_31
I0718 14:46:40.642304 31838 net.cpp:408] LSTM_unit_31 <- cont_31_LSTM_cont_slice_30_split_1
I0718 14:46:40.642312 31838 net.cpp:382] LSTM_unit_31 -> c_31
I0718 14:46:40.642320 31838 net.cpp:382] LSTM_unit_31 -> h_31
I0718 14:46:40.642371 31838 net.cpp:124] Setting up LSTM_unit_31
I0718 14:46:40.642380 31838 net.cpp:131] Top shape: 1 40 40 (1600)
I0718 14:46:40.642386 31838 net.cpp:131] Top shape: 1 40 40 (1600)
I0718 14:46:40.642391 31838 net.cpp:139] Memory required for data: 5141760
I0718 14:46:40.642396 31838 layer_factory.hpp:77] Creating layer h_31_LSTM_unit_31_1_split
I0718 14:46:40.642402 31838 net.cpp:86] Creating Layer h_31_LSTM_unit_31_1_split
I0718 14:46:40.642408 31838 net.cpp:408] h_31_LSTM_unit_31_1_split <- h_31
I0718 14:46:40.642416 31838 net.cpp:382] h_31_LSTM_unit_31_1_split -> h_31_LSTM_unit_31_1_split_0
I0718 14:46:40.642424 31838 net.cpp:382] h_31_LSTM_unit_31_1_split -> h_31_LSTM_unit_31_1_split_1
I0718 14:46:40.642460 31838 net.cpp:124] Setting up h_31_LSTM_unit_31_1_split
I0718 14:46:40.642472 31838 net.cpp:131] Top shape: 1 40 40 (1600)
I0718 14:46:40.642477 31838 net.cpp:131] Top shape: 1 40 40 (1600)
I0718 14:46:40.642487 31838 net.cpp:139] Memory required for data: 5154560
I0718 14:46:40.642498 31838 layer_factory.hpp:77] Creating layer LSTM_h_conted_31
I0718 14:46:40.642505 31838 net.cpp:86] Creating Layer LSTM_h_conted_31
I0718 14:46:40.642511 31838 net.cpp:408] LSTM_h_conted_31 <- h_31_LSTM_unit_31_1_split_0
I0718 14:46:40.642518 31838 net.cpp:408] LSTM_h_conted_31 <- cont_32_LSTM_cont_slice_31_split_0
I0718 14:46:40.642525 31838 net.cpp:382] LSTM_h_conted_31 -> h_conted_31
I0718 14:46:40.642590 31838 net.cpp:124] Setting up LSTM_h_conted_31
I0718 14:46:40.642598 31838 net.cpp:131] Top shape: 1 40 40 (1600)
I0718 14:46:40.642603 31838 net.cpp:139] Memory required for data: 5160960
I0718 14:46:40.642608 31838 layer_factory.hpp:77] Creating layer LSTM_transform_32
I0718 14:46:40.642616 31838 net.cpp:86] Creating Layer LSTM_transform_32
I0718 14:46:40.642622 31838 net.cpp:408] LSTM_transform_32 <- h_conted_31
I0718 14:46:40.642632 31838 net.cpp:382] LSTM_transform_32 -> W_hc_h_31
I0718 14:46:40.642897 31838 net.cpp:124] Setting up LSTM_transform_32
I0718 14:46:40.642907 31838 net.cpp:131] Top shape: 1 40 160 (6400)
I0718 14:46:40.642912 31838 net.cpp:139] Memory required for data: 5186560
I0718 14:46:40.642917 31838 net.cpp:467] Sharing parameters 'W_hc' owned by layer 'LSTM_transform_1', param index 0
I0718 14:46:40.642923 31838 layer_factory.hpp:77] Creating layer LSTM_gate_input_32
I0718 14:46:40.642931 31838 net.cpp:86] Creating Layer LSTM_gate_input_32
I0718 14:46:40.642936 31838 net.cpp:408] LSTM_gate_input_32 <- W_hc_h_31
I0718 14:46:40.642943 31838 net.cpp:408] LSTM_gate_input_32 <- W_xc_x_32
I0718 14:46:40.642951 31838 net.cpp:382] LSTM_gate_input_32 -> gate_input_32
I0718 14:46:40.642976 31838 net.cpp:124] Setting up LSTM_gate_input_32
I0718 14:46:40.642984 31838 net.cpp:131] Top shape: 1 40 160 (6400)
I0718 14:46:40.642989 31838 net.cpp:139] Memory required for data: 5212160
I0718 14:46:40.642993 31838 layer_factory.hpp:77] Creating layer LSTM_unit_32
I0718 14:46:40.643003 31838 net.cpp:86] Creating Layer LSTM_unit_32
I0718 14:46:40.643009 31838 net.cpp:408] LSTM_unit_32 <- c_31
I0718 14:46:40.643015 31838 net.cpp:408] LSTM_unit_32 <- gate_input_32
I0718 14:46:40.643023 31838 net.cpp:408] LSTM_unit_32 <- cont_32_LSTM_cont_slice_31_split_1
I0718 14:46:40.643029 31838 net.cpp:382] LSTM_unit_32 -> c_32
I0718 14:46:40.643038 31838 net.cpp:382] LSTM_unit_32 -> h_32
I0718 14:46:40.643087 31838 net.cpp:124] Setting up LSTM_unit_32
I0718 14:46:40.643095 31838 net.cpp:131] Top shape: 1 40 40 (1600)
I0718 14:46:40.643101 31838 net.cpp:131] Top shape: 1 40 40 (1600)
I0718 14:46:40.643106 31838 net.cpp:139] Memory required for data: 5224960
I0718 14:46:40.643111 31838 layer_factory.hpp:77] Creating layer h_32_LSTM_unit_32_1_split
I0718 14:46:40.643118 31838 net.cpp:86] Creating Layer h_32_LSTM_unit_32_1_split
I0718 14:46:40.643124 31838 net.cpp:408] h_32_LSTM_unit_32_1_split <- h_32
I0718 14:46:40.643133 31838 net.cpp:382] h_32_LSTM_unit_32_1_split -> h_32_LSTM_unit_32_1_split_0
I0718 14:46:40.643142 31838 net.cpp:382] h_32_LSTM_unit_32_1_split -> h_32_LSTM_unit_32_1_split_1
I0718 14:46:40.643177 31838 net.cpp:124] Setting up h_32_LSTM_unit_32_1_split
I0718 14:46:40.643185 31838 net.cpp:131] Top shape: 1 40 40 (1600)
I0718 14:46:40.643190 31838 net.cpp:131] Top shape: 1 40 40 (1600)
I0718 14:46:40.643195 31838 net.cpp:139] Memory required for data: 5237760
I0718 14:46:40.643200 31838 layer_factory.hpp:77] Creating layer LSTM_h_conted_32
I0718 14:46:40.643210 31838 net.cpp:86] Creating Layer LSTM_h_conted_32
I0718 14:46:40.643216 31838 net.cpp:408] LSTM_h_conted_32 <- h_32_LSTM_unit_32_1_split_0
I0718 14:46:40.643224 31838 net.cpp:408] LSTM_h_conted_32 <- cont_33_LSTM_cont_slice_32_split_0
I0718 14:46:40.643234 31838 net.cpp:382] LSTM_h_conted_32 -> h_conted_32
I0718 14:46:40.643296 31838 net.cpp:124] Setting up LSTM_h_conted_32
I0718 14:46:40.643306 31838 net.cpp:131] Top shape: 1 40 40 (1600)
I0718 14:46:40.643309 31838 net.cpp:139] Memory required for data: 5244160
I0718 14:46:40.643319 31838 layer_factory.hpp:77] Creating layer LSTM_transform_33
I0718 14:46:40.643333 31838 net.cpp:86] Creating Layer LSTM_transform_33
I0718 14:46:40.643339 31838 net.cpp:408] LSTM_transform_33 <- h_conted_32
I0718 14:46:40.643347 31838 net.cpp:382] LSTM_transform_33 -> W_hc_h_32
I0718 14:46:40.643612 31838 net.cpp:124] Setting up LSTM_transform_33
I0718 14:46:40.643622 31838 net.cpp:131] Top shape: 1 40 160 (6400)
I0718 14:46:40.643627 31838 net.cpp:139] Memory required for data: 5269760
I0718 14:46:40.643632 31838 net.cpp:467] Sharing parameters 'W_hc' owned by layer 'LSTM_transform_1', param index 0
I0718 14:46:40.643638 31838 layer_factory.hpp:77] Creating layer LSTM_gate_input_33
I0718 14:46:40.643647 31838 net.cpp:86] Creating Layer LSTM_gate_input_33
I0718 14:46:40.643653 31838 net.cpp:408] LSTM_gate_input_33 <- W_hc_h_32
I0718 14:46:40.643659 31838 net.cpp:408] LSTM_gate_input_33 <- W_xc_x_33
I0718 14:46:40.643667 31838 net.cpp:382] LSTM_gate_input_33 -> gate_input_33
I0718 14:46:40.643693 31838 net.cpp:124] Setting up LSTM_gate_input_33
I0718 14:46:40.643702 31838 net.cpp:131] Top shape: 1 40 160 (6400)
I0718 14:46:40.643707 31838 net.cpp:139] Memory required for data: 5295360
I0718 14:46:40.643712 31838 layer_factory.hpp:77] Creating layer LSTM_unit_33
I0718 14:46:40.643718 31838 net.cpp:86] Creating Layer LSTM_unit_33
I0718 14:46:40.643723 31838 net.cpp:408] LSTM_unit_33 <- c_32
I0718 14:46:40.643730 31838 net.cpp:408] LSTM_unit_33 <- gate_input_33
I0718 14:46:40.643736 31838 net.cpp:408] LSTM_unit_33 <- cont_33_LSTM_cont_slice_32_split_1
I0718 14:46:40.643749 31838 net.cpp:382] LSTM_unit_33 -> c_33
I0718 14:46:40.643759 31838 net.cpp:382] LSTM_unit_33 -> h_33
I0718 14:46:40.643808 31838 net.cpp:124] Setting up LSTM_unit_33
I0718 14:46:40.643816 31838 net.cpp:131] Top shape: 1 40 40 (1600)
I0718 14:46:40.643822 31838 net.cpp:131] Top shape: 1 40 40 (1600)
I0718 14:46:40.643827 31838 net.cpp:139] Memory required for data: 5308160
I0718 14:46:40.643832 31838 layer_factory.hpp:77] Creating layer h_33_LSTM_unit_33_1_split
I0718 14:46:40.643839 31838 net.cpp:86] Creating Layer h_33_LSTM_unit_33_1_split
I0718 14:46:40.643844 31838 net.cpp:408] h_33_LSTM_unit_33_1_split <- h_33
I0718 14:46:40.643852 31838 net.cpp:382] h_33_LSTM_unit_33_1_split -> h_33_LSTM_unit_33_1_split_0
I0718 14:46:40.643860 31838 net.cpp:382] h_33_LSTM_unit_33_1_split -> h_33_LSTM_unit_33_1_split_1
I0718 14:46:40.643898 31838 net.cpp:124] Setting up h_33_LSTM_unit_33_1_split
I0718 14:46:40.643906 31838 net.cpp:131] Top shape: 1 40 40 (1600)
I0718 14:46:40.643913 31838 net.cpp:131] Top shape: 1 40 40 (1600)
I0718 14:46:40.643918 31838 net.cpp:139] Memory required for data: 5320960
I0718 14:46:40.643923 31838 layer_factory.hpp:77] Creating layer LSTM_h_conted_33
I0718 14:46:40.643929 31838 net.cpp:86] Creating Layer LSTM_h_conted_33
I0718 14:46:40.643935 31838 net.cpp:408] LSTM_h_conted_33 <- h_33_LSTM_unit_33_1_split_0
I0718 14:46:40.643942 31838 net.cpp:408] LSTM_h_conted_33 <- cont_34_LSTM_cont_slice_33_split_0
I0718 14:46:40.643951 31838 net.cpp:382] LSTM_h_conted_33 -> h_conted_33
I0718 14:46:40.644018 31838 net.cpp:124] Setting up LSTM_h_conted_33
I0718 14:46:40.644027 31838 net.cpp:131] Top shape: 1 40 40 (1600)
I0718 14:46:40.644032 31838 net.cpp:139] Memory required for data: 5327360
I0718 14:46:40.644037 31838 layer_factory.hpp:77] Creating layer LSTM_transform_34
I0718 14:46:40.644047 31838 net.cpp:86] Creating Layer LSTM_transform_34
I0718 14:46:40.644052 31838 net.cpp:408] LSTM_transform_34 <- h_conted_33
I0718 14:46:40.644060 31838 net.cpp:382] LSTM_transform_34 -> W_hc_h_33
I0718 14:46:40.644325 31838 net.cpp:124] Setting up LSTM_transform_34
I0718 14:46:40.644335 31838 net.cpp:131] Top shape: 1 40 160 (6400)
I0718 14:46:40.644340 31838 net.cpp:139] Memory required for data: 5352960
I0718 14:46:40.644345 31838 net.cpp:467] Sharing parameters 'W_hc' owned by layer 'LSTM_transform_1', param index 0
I0718 14:46:40.644351 31838 layer_factory.hpp:77] Creating layer LSTM_gate_input_34
I0718 14:46:40.644357 31838 net.cpp:86] Creating Layer LSTM_gate_input_34
I0718 14:46:40.644368 31838 net.cpp:408] LSTM_gate_input_34 <- W_hc_h_33
I0718 14:46:40.644381 31838 net.cpp:408] LSTM_gate_input_34 <- W_xc_x_34
I0718 14:46:40.644389 31838 net.cpp:382] LSTM_gate_input_34 -> gate_input_34
I0718 14:46:40.644418 31838 net.cpp:124] Setting up LSTM_gate_input_34
I0718 14:46:40.644426 31838 net.cpp:131] Top shape: 1 40 160 (6400)
I0718 14:46:40.644431 31838 net.cpp:139] Memory required for data: 5378560
I0718 14:46:40.644435 31838 layer_factory.hpp:77] Creating layer LSTM_unit_34
I0718 14:46:40.644443 31838 net.cpp:86] Creating Layer LSTM_unit_34
I0718 14:46:40.644448 31838 net.cpp:408] LSTM_unit_34 <- c_33
I0718 14:46:40.644455 31838 net.cpp:408] LSTM_unit_34 <- gate_input_34
I0718 14:46:40.644461 31838 net.cpp:408] LSTM_unit_34 <- cont_34_LSTM_cont_slice_33_split_1
I0718 14:46:40.644469 31838 net.cpp:382] LSTM_unit_34 -> c_34
I0718 14:46:40.644477 31838 net.cpp:382] LSTM_unit_34 -> h_34
I0718 14:46:40.644526 31838 net.cpp:124] Setting up LSTM_unit_34
I0718 14:46:40.644536 31838 net.cpp:131] Top shape: 1 40 40 (1600)
I0718 14:46:40.644541 31838 net.cpp:131] Top shape: 1 40 40 (1600)
I0718 14:46:40.644546 31838 net.cpp:139] Memory required for data: 5391360
I0718 14:46:40.644551 31838 layer_factory.hpp:77] Creating layer h_34_LSTM_unit_34_1_split
I0718 14:46:40.644559 31838 net.cpp:86] Creating Layer h_34_LSTM_unit_34_1_split
I0718 14:46:40.644565 31838 net.cpp:408] h_34_LSTM_unit_34_1_split <- h_34
I0718 14:46:40.644573 31838 net.cpp:382] h_34_LSTM_unit_34_1_split -> h_34_LSTM_unit_34_1_split_0
I0718 14:46:40.644582 31838 net.cpp:382] h_34_LSTM_unit_34_1_split -> h_34_LSTM_unit_34_1_split_1
I0718 14:46:40.644618 31838 net.cpp:124] Setting up h_34_LSTM_unit_34_1_split
I0718 14:46:40.644626 31838 net.cpp:131] Top shape: 1 40 40 (1600)
I0718 14:46:40.644632 31838 net.cpp:131] Top shape: 1 40 40 (1600)
I0718 14:46:40.644637 31838 net.cpp:139] Memory required for data: 5404160
I0718 14:46:40.644642 31838 layer_factory.hpp:77] Creating layer LSTM_h_conted_34
I0718 14:46:40.644649 31838 net.cpp:86] Creating Layer LSTM_h_conted_34
I0718 14:46:40.644655 31838 net.cpp:408] LSTM_h_conted_34 <- h_34_LSTM_unit_34_1_split_0
I0718 14:46:40.644662 31838 net.cpp:408] LSTM_h_conted_34 <- cont_35_LSTM_cont_slice_34_split_0
I0718 14:46:40.644670 31838 net.cpp:382] LSTM_h_conted_34 -> h_conted_34
I0718 14:46:40.644732 31838 net.cpp:124] Setting up LSTM_h_conted_34
I0718 14:46:40.644742 31838 net.cpp:131] Top shape: 1 40 40 (1600)
I0718 14:46:40.644747 31838 net.cpp:139] Memory required for data: 5410560
I0718 14:46:40.644752 31838 layer_factory.hpp:77] Creating layer LSTM_transform_35
I0718 14:46:40.644758 31838 net.cpp:86] Creating Layer LSTM_transform_35
I0718 14:46:40.644764 31838 net.cpp:408] LSTM_transform_35 <- h_conted_34
I0718 14:46:40.644773 31838 net.cpp:382] LSTM_transform_35 -> W_hc_h_34
I0718 14:46:40.645040 31838 net.cpp:124] Setting up LSTM_transform_35
I0718 14:46:40.645051 31838 net.cpp:131] Top shape: 1 40 160 (6400)
I0718 14:46:40.645056 31838 net.cpp:139] Memory required for data: 5436160
I0718 14:46:40.645061 31838 net.cpp:467] Sharing parameters 'W_hc' owned by layer 'LSTM_transform_1', param index 0
I0718 14:46:40.645066 31838 layer_factory.hpp:77] Creating layer LSTM_gate_input_35
I0718 14:46:40.645073 31838 net.cpp:86] Creating Layer LSTM_gate_input_35
I0718 14:46:40.645079 31838 net.cpp:408] LSTM_gate_input_35 <- W_hc_h_34
I0718 14:46:40.645087 31838 net.cpp:408] LSTM_gate_input_35 <- W_xc_x_35
I0718 14:46:40.645093 31838 net.cpp:382] LSTM_gate_input_35 -> gate_input_35
I0718 14:46:40.645119 31838 net.cpp:124] Setting up LSTM_gate_input_35
I0718 14:46:40.645128 31838 net.cpp:131] Top shape: 1 40 160 (6400)
I0718 14:46:40.645131 31838 net.cpp:139] Memory required for data: 5461760
I0718 14:46:40.645136 31838 layer_factory.hpp:77] Creating layer LSTM_unit_35
I0718 14:46:40.645145 31838 net.cpp:86] Creating Layer LSTM_unit_35
I0718 14:46:40.645151 31838 net.cpp:408] LSTM_unit_35 <- c_34
I0718 14:46:40.645159 31838 net.cpp:408] LSTM_unit_35 <- gate_input_35
I0718 14:46:40.645169 31838 net.cpp:408] LSTM_unit_35 <- cont_35_LSTM_cont_slice_34_split_1
I0718 14:46:40.645184 31838 net.cpp:382] LSTM_unit_35 -> c_35
I0718 14:46:40.645192 31838 net.cpp:382] LSTM_unit_35 -> h_35
I0718 14:46:40.645242 31838 net.cpp:124] Setting up LSTM_unit_35
I0718 14:46:40.645257 31838 net.cpp:131] Top shape: 1 40 40 (1600)
I0718 14:46:40.645264 31838 net.cpp:131] Top shape: 1 40 40 (1600)
I0718 14:46:40.645269 31838 net.cpp:139] Memory required for data: 5474560
I0718 14:46:40.645274 31838 layer_factory.hpp:77] Creating layer h_35_LSTM_unit_35_1_split
I0718 14:46:40.645282 31838 net.cpp:86] Creating Layer h_35_LSTM_unit_35_1_split
I0718 14:46:40.645287 31838 net.cpp:408] h_35_LSTM_unit_35_1_split <- h_35
I0718 14:46:40.645295 31838 net.cpp:382] h_35_LSTM_unit_35_1_split -> h_35_LSTM_unit_35_1_split_0
I0718 14:46:40.645308 31838 net.cpp:382] h_35_LSTM_unit_35_1_split -> h_35_LSTM_unit_35_1_split_1
I0718 14:46:40.645344 31838 net.cpp:124] Setting up h_35_LSTM_unit_35_1_split
I0718 14:46:40.645354 31838 net.cpp:131] Top shape: 1 40 40 (1600)
I0718 14:46:40.645359 31838 net.cpp:131] Top shape: 1 40 40 (1600)
I0718 14:46:40.645364 31838 net.cpp:139] Memory required for data: 5487360
I0718 14:46:40.645370 31838 layer_factory.hpp:77] Creating layer LSTM_h_conted_35
I0718 14:46:40.645378 31838 net.cpp:86] Creating Layer LSTM_h_conted_35
I0718 14:46:40.645385 31838 net.cpp:408] LSTM_h_conted_35 <- h_35_LSTM_unit_35_1_split_0
I0718 14:46:40.645391 31838 net.cpp:408] LSTM_h_conted_35 <- cont_36_LSTM_cont_slice_35_split_0
I0718 14:46:40.645400 31838 net.cpp:382] LSTM_h_conted_35 -> h_conted_35
I0718 14:46:40.645465 31838 net.cpp:124] Setting up LSTM_h_conted_35
I0718 14:46:40.645474 31838 net.cpp:131] Top shape: 1 40 40 (1600)
I0718 14:46:40.645479 31838 net.cpp:139] Memory required for data: 5493760
I0718 14:46:40.645484 31838 layer_factory.hpp:77] Creating layer LSTM_transform_36
I0718 14:46:40.645493 31838 net.cpp:86] Creating Layer LSTM_transform_36
I0718 14:46:40.645499 31838 net.cpp:408] LSTM_transform_36 <- h_conted_35
I0718 14:46:40.645508 31838 net.cpp:382] LSTM_transform_36 -> W_hc_h_35
I0718 14:46:40.645772 31838 net.cpp:124] Setting up LSTM_transform_36
I0718 14:46:40.645782 31838 net.cpp:131] Top shape: 1 40 160 (6400)
I0718 14:46:40.645787 31838 net.cpp:139] Memory required for data: 5519360
I0718 14:46:40.645793 31838 net.cpp:467] Sharing parameters 'W_hc' owned by layer 'LSTM_transform_1', param index 0
I0718 14:46:40.645798 31838 layer_factory.hpp:77] Creating layer LSTM_gate_input_36
I0718 14:46:40.645807 31838 net.cpp:86] Creating Layer LSTM_gate_input_36
I0718 14:46:40.645812 31838 net.cpp:408] LSTM_gate_input_36 <- W_hc_h_35
I0718 14:46:40.645818 31838 net.cpp:408] LSTM_gate_input_36 <- W_xc_x_36
I0718 14:46:40.645828 31838 net.cpp:382] LSTM_gate_input_36 -> gate_input_36
I0718 14:46:40.645853 31838 net.cpp:124] Setting up LSTM_gate_input_36
I0718 14:46:40.645862 31838 net.cpp:131] Top shape: 1 40 160 (6400)
I0718 14:46:40.645866 31838 net.cpp:139] Memory required for data: 5544960
I0718 14:46:40.645871 31838 layer_factory.hpp:77] Creating layer LSTM_unit_36
I0718 14:46:40.645879 31838 net.cpp:86] Creating Layer LSTM_unit_36
I0718 14:46:40.645884 31838 net.cpp:408] LSTM_unit_36 <- c_35
I0718 14:46:40.645891 31838 net.cpp:408] LSTM_unit_36 <- gate_input_36
I0718 14:46:40.645897 31838 net.cpp:408] LSTM_unit_36 <- cont_36_LSTM_cont_slice_35_split_1
I0718 14:46:40.645905 31838 net.cpp:382] LSTM_unit_36 -> c_36
I0718 14:46:40.645915 31838 net.cpp:382] LSTM_unit_36 -> h_36
I0718 14:46:40.645962 31838 net.cpp:124] Setting up LSTM_unit_36
I0718 14:46:40.645972 31838 net.cpp:131] Top shape: 1 40 40 (1600)
I0718 14:46:40.645977 31838 net.cpp:131] Top shape: 1 40 40 (1600)
I0718 14:46:40.645982 31838 net.cpp:139] Memory required for data: 5557760
I0718 14:46:40.645987 31838 layer_factory.hpp:77] Creating layer h_36_LSTM_unit_36_1_split
I0718 14:46:40.645993 31838 net.cpp:86] Creating Layer h_36_LSTM_unit_36_1_split
I0718 14:46:40.645999 31838 net.cpp:408] h_36_LSTM_unit_36_1_split <- h_36
I0718 14:46:40.646011 31838 net.cpp:382] h_36_LSTM_unit_36_1_split -> h_36_LSTM_unit_36_1_split_0
I0718 14:46:40.646028 31838 net.cpp:382] h_36_LSTM_unit_36_1_split -> h_36_LSTM_unit_36_1_split_1
I0718 14:46:40.646071 31838 net.cpp:124] Setting up h_36_LSTM_unit_36_1_split
I0718 14:46:40.646080 31838 net.cpp:131] Top shape: 1 40 40 (1600)
I0718 14:46:40.646086 31838 net.cpp:131] Top shape: 1 40 40 (1600)
I0718 14:46:40.646091 31838 net.cpp:139] Memory required for data: 5570560
I0718 14:46:40.646096 31838 layer_factory.hpp:77] Creating layer LSTM_h_conted_36
I0718 14:46:40.646103 31838 net.cpp:86] Creating Layer LSTM_h_conted_36
I0718 14:46:40.646109 31838 net.cpp:408] LSTM_h_conted_36 <- h_36_LSTM_unit_36_1_split_0
I0718 14:46:40.646116 31838 net.cpp:408] LSTM_h_conted_36 <- cont_37_LSTM_cont_slice_36_split_0
I0718 14:46:40.646123 31838 net.cpp:382] LSTM_h_conted_36 -> h_conted_36
I0718 14:46:40.646188 31838 net.cpp:124] Setting up LSTM_h_conted_36
I0718 14:46:40.646195 31838 net.cpp:131] Top shape: 1 40 40 (1600)
I0718 14:46:40.646200 31838 net.cpp:139] Memory required for data: 5576960
I0718 14:46:40.646205 31838 layer_factory.hpp:77] Creating layer LSTM_transform_37
I0718 14:46:40.646214 31838 net.cpp:86] Creating Layer LSTM_transform_37
I0718 14:46:40.646219 31838 net.cpp:408] LSTM_transform_37 <- h_conted_36
I0718 14:46:40.646229 31838 net.cpp:382] LSTM_transform_37 -> W_hc_h_36
I0718 14:46:40.646492 31838 net.cpp:124] Setting up LSTM_transform_37
I0718 14:46:40.646502 31838 net.cpp:131] Top shape: 1 40 160 (6400)
I0718 14:46:40.646507 31838 net.cpp:139] Memory required for data: 5602560
I0718 14:46:40.646512 31838 net.cpp:467] Sharing parameters 'W_hc' owned by layer 'LSTM_transform_1', param index 0
I0718 14:46:40.646518 31838 layer_factory.hpp:77] Creating layer LSTM_gate_input_37
I0718 14:46:40.646525 31838 net.cpp:86] Creating Layer LSTM_gate_input_37
I0718 14:46:40.646531 31838 net.cpp:408] LSTM_gate_input_37 <- W_hc_h_36
I0718 14:46:40.646538 31838 net.cpp:408] LSTM_gate_input_37 <- W_xc_x_37
I0718 14:46:40.646545 31838 net.cpp:382] LSTM_gate_input_37 -> gate_input_37
I0718 14:46:40.646570 31838 net.cpp:124] Setting up LSTM_gate_input_37
I0718 14:46:40.646579 31838 net.cpp:131] Top shape: 1 40 160 (6400)
I0718 14:46:40.646584 31838 net.cpp:139] Memory required for data: 5628160
I0718 14:46:40.646589 31838 layer_factory.hpp:77] Creating layer LSTM_unit_37
I0718 14:46:40.646597 31838 net.cpp:86] Creating Layer LSTM_unit_37
I0718 14:46:40.646605 31838 net.cpp:408] LSTM_unit_37 <- c_36
I0718 14:46:40.646610 31838 net.cpp:408] LSTM_unit_37 <- gate_input_37
I0718 14:46:40.646617 31838 net.cpp:408] LSTM_unit_37 <- cont_37_LSTM_cont_slice_36_split_1
I0718 14:46:40.646626 31838 net.cpp:382] LSTM_unit_37 -> c_37
I0718 14:46:40.646636 31838 net.cpp:382] LSTM_unit_37 -> h_37
I0718 14:46:40.646684 31838 net.cpp:124] Setting up LSTM_unit_37
I0718 14:46:40.646692 31838 net.cpp:131] Top shape: 1 40 40 (1600)
I0718 14:46:40.646698 31838 net.cpp:131] Top shape: 1 40 40 (1600)
I0718 14:46:40.646703 31838 net.cpp:139] Memory required for data: 5640960
I0718 14:46:40.646708 31838 layer_factory.hpp:77] Creating layer h_37_LSTM_unit_37_1_split
I0718 14:46:40.646715 31838 net.cpp:86] Creating Layer h_37_LSTM_unit_37_1_split
I0718 14:46:40.646721 31838 net.cpp:408] h_37_LSTM_unit_37_1_split <- h_37
I0718 14:46:40.646730 31838 net.cpp:382] h_37_LSTM_unit_37_1_split -> h_37_LSTM_unit_37_1_split_0
I0718 14:46:40.646739 31838 net.cpp:382] h_37_LSTM_unit_37_1_split -> h_37_LSTM_unit_37_1_split_1
I0718 14:46:40.646773 31838 net.cpp:124] Setting up h_37_LSTM_unit_37_1_split
I0718 14:46:40.646783 31838 net.cpp:131] Top shape: 1 40 40 (1600)
I0718 14:46:40.646790 31838 net.cpp:131] Top shape: 1 40 40 (1600)
I0718 14:46:40.646795 31838 net.cpp:139] Memory required for data: 5653760
I0718 14:46:40.646800 31838 layer_factory.hpp:77] Creating layer LSTM_h_conted_37
I0718 14:46:40.646806 31838 net.cpp:86] Creating Layer LSTM_h_conted_37
I0718 14:46:40.646812 31838 net.cpp:408] LSTM_h_conted_37 <- h_37_LSTM_unit_37_1_split_0
I0718 14:46:40.646819 31838 net.cpp:408] LSTM_h_conted_37 <- cont_38_LSTM_cont_slice_37_split_0
I0718 14:46:40.646839 31838 net.cpp:382] LSTM_h_conted_37 -> h_conted_37
I0718 14:46:40.646905 31838 net.cpp:124] Setting up LSTM_h_conted_37
I0718 14:46:40.646914 31838 net.cpp:131] Top shape: 1 40 40 (1600)
I0718 14:46:40.646919 31838 net.cpp:139] Memory required for data: 5660160
I0718 14:46:40.646924 31838 layer_factory.hpp:77] Creating layer LSTM_transform_38
I0718 14:46:40.646931 31838 net.cpp:86] Creating Layer LSTM_transform_38
I0718 14:46:40.646937 31838 net.cpp:408] LSTM_transform_38 <- h_conted_37
I0718 14:46:40.646945 31838 net.cpp:382] LSTM_transform_38 -> W_hc_h_37
I0718 14:46:40.647208 31838 net.cpp:124] Setting up LSTM_transform_38
I0718 14:46:40.647217 31838 net.cpp:131] Top shape: 1 40 160 (6400)
I0718 14:46:40.647222 31838 net.cpp:139] Memory required for data: 5685760
I0718 14:46:40.647228 31838 net.cpp:467] Sharing parameters 'W_hc' owned by layer 'LSTM_transform_1', param index 0
I0718 14:46:40.647234 31838 layer_factory.hpp:77] Creating layer LSTM_gate_input_38
I0718 14:46:40.647243 31838 net.cpp:86] Creating Layer LSTM_gate_input_38
I0718 14:46:40.647249 31838 net.cpp:408] LSTM_gate_input_38 <- W_hc_h_37
I0718 14:46:40.647256 31838 net.cpp:408] LSTM_gate_input_38 <- W_xc_x_38
I0718 14:46:40.647264 31838 net.cpp:382] LSTM_gate_input_38 -> gate_input_38
I0718 14:46:40.647289 31838 net.cpp:124] Setting up LSTM_gate_input_38
I0718 14:46:40.647297 31838 net.cpp:131] Top shape: 1 40 160 (6400)
I0718 14:46:40.647302 31838 net.cpp:139] Memory required for data: 5711360
I0718 14:46:40.647307 31838 layer_factory.hpp:77] Creating layer LSTM_unit_38
I0718 14:46:40.647315 31838 net.cpp:86] Creating Layer LSTM_unit_38
I0718 14:46:40.647320 31838 net.cpp:408] LSTM_unit_38 <- c_37
I0718 14:46:40.647327 31838 net.cpp:408] LSTM_unit_38 <- gate_input_38
I0718 14:46:40.647333 31838 net.cpp:408] LSTM_unit_38 <- cont_38_LSTM_cont_slice_37_split_1
I0718 14:46:40.647343 31838 net.cpp:382] LSTM_unit_38 -> c_38
I0718 14:46:40.647352 31838 net.cpp:382] LSTM_unit_38 -> h_38
I0718 14:46:40.647402 31838 net.cpp:124] Setting up LSTM_unit_38
I0718 14:46:40.647409 31838 net.cpp:131] Top shape: 1 40 40 (1600)
I0718 14:46:40.647415 31838 net.cpp:131] Top shape: 1 40 40 (1600)
I0718 14:46:40.647420 31838 net.cpp:139] Memory required for data: 5724160
I0718 14:46:40.647425 31838 layer_factory.hpp:77] Creating layer h_38_LSTM_unit_38_1_split
I0718 14:46:40.647433 31838 net.cpp:86] Creating Layer h_38_LSTM_unit_38_1_split
I0718 14:46:40.647439 31838 net.cpp:408] h_38_LSTM_unit_38_1_split <- h_38
I0718 14:46:40.647445 31838 net.cpp:382] h_38_LSTM_unit_38_1_split -> h_38_LSTM_unit_38_1_split_0
I0718 14:46:40.647454 31838 net.cpp:382] h_38_LSTM_unit_38_1_split -> h_38_LSTM_unit_38_1_split_1
I0718 14:46:40.647490 31838 net.cpp:124] Setting up h_38_LSTM_unit_38_1_split
I0718 14:46:40.647498 31838 net.cpp:131] Top shape: 1 40 40 (1600)
I0718 14:46:40.647503 31838 net.cpp:131] Top shape: 1 40 40 (1600)
I0718 14:46:40.647508 31838 net.cpp:139] Memory required for data: 5736960
I0718 14:46:40.647513 31838 layer_factory.hpp:77] Creating layer LSTM_h_conted_38
I0718 14:46:40.647521 31838 net.cpp:86] Creating Layer LSTM_h_conted_38
I0718 14:46:40.647526 31838 net.cpp:408] LSTM_h_conted_38 <- h_38_LSTM_unit_38_1_split_0
I0718 14:46:40.647533 31838 net.cpp:408] LSTM_h_conted_38 <- cont_39_LSTM_cont_slice_38_split_0
I0718 14:46:40.647543 31838 net.cpp:382] LSTM_h_conted_38 -> h_conted_38
I0718 14:46:40.647609 31838 net.cpp:124] Setting up LSTM_h_conted_38
I0718 14:46:40.647619 31838 net.cpp:131] Top shape: 1 40 40 (1600)
I0718 14:46:40.647624 31838 net.cpp:139] Memory required for data: 5743360
I0718 14:46:40.647629 31838 layer_factory.hpp:77] Creating layer LSTM_transform_39
I0718 14:46:40.647637 31838 net.cpp:86] Creating Layer LSTM_transform_39
I0718 14:46:40.647644 31838 net.cpp:408] LSTM_transform_39 <- h_conted_38
I0718 14:46:40.647651 31838 net.cpp:382] LSTM_transform_39 -> W_hc_h_38
I0718 14:46:40.647914 31838 net.cpp:124] Setting up LSTM_transform_39
I0718 14:46:40.647924 31838 net.cpp:131] Top shape: 1 40 160 (6400)
I0718 14:46:40.647933 31838 net.cpp:139] Memory required for data: 5768960
I0718 14:46:40.647945 31838 net.cpp:467] Sharing parameters 'W_hc' owned by layer 'LSTM_transform_1', param index 0
I0718 14:46:40.647951 31838 layer_factory.hpp:77] Creating layer LSTM_gate_input_39
I0718 14:46:40.647958 31838 net.cpp:86] Creating Layer LSTM_gate_input_39
I0718 14:46:40.647964 31838 net.cpp:408] LSTM_gate_input_39 <- W_hc_h_38
I0718 14:46:40.647971 31838 net.cpp:408] LSTM_gate_input_39 <- W_xc_x_39
I0718 14:46:40.647979 31838 net.cpp:382] LSTM_gate_input_39 -> gate_input_39
I0718 14:46:40.648007 31838 net.cpp:124] Setting up LSTM_gate_input_39
I0718 14:46:40.648016 31838 net.cpp:131] Top shape: 1 40 160 (6400)
I0718 14:46:40.648021 31838 net.cpp:139] Memory required for data: 5794560
I0718 14:46:40.648026 31838 layer_factory.hpp:77] Creating layer LSTM_unit_39
I0718 14:46:40.648033 31838 net.cpp:86] Creating Layer LSTM_unit_39
I0718 14:46:40.648039 31838 net.cpp:408] LSTM_unit_39 <- c_38
I0718 14:46:40.648046 31838 net.cpp:408] LSTM_unit_39 <- gate_input_39
I0718 14:46:40.648053 31838 net.cpp:408] LSTM_unit_39 <- cont_39_LSTM_cont_slice_38_split_1
I0718 14:46:40.648061 31838 net.cpp:382] LSTM_unit_39 -> c_39
I0718 14:46:40.648069 31838 net.cpp:382] LSTM_unit_39 -> h_39
I0718 14:46:40.648118 31838 net.cpp:124] Setting up LSTM_unit_39
I0718 14:46:40.648126 31838 net.cpp:131] Top shape: 1 40 40 (1600)
I0718 14:46:40.648133 31838 net.cpp:131] Top shape: 1 40 40 (1600)
I0718 14:46:40.648138 31838 net.cpp:139] Memory required for data: 5807360
I0718 14:46:40.648142 31838 layer_factory.hpp:77] Creating layer h_39_LSTM_unit_39_1_split
I0718 14:46:40.648152 31838 net.cpp:86] Creating Layer h_39_LSTM_unit_39_1_split
I0718 14:46:40.648159 31838 net.cpp:408] h_39_LSTM_unit_39_1_split <- h_39
I0718 14:46:40.648165 31838 net.cpp:382] h_39_LSTM_unit_39_1_split -> h_39_LSTM_unit_39_1_split_0
I0718 14:46:40.648174 31838 net.cpp:382] h_39_LSTM_unit_39_1_split -> h_39_LSTM_unit_39_1_split_1
I0718 14:46:40.648211 31838 net.cpp:124] Setting up h_39_LSTM_unit_39_1_split
I0718 14:46:40.648218 31838 net.cpp:131] Top shape: 1 40 40 (1600)
I0718 14:46:40.648224 31838 net.cpp:131] Top shape: 1 40 40 (1600)
I0718 14:46:40.648229 31838 net.cpp:139] Memory required for data: 5820160
I0718 14:46:40.648234 31838 layer_factory.hpp:77] Creating layer LSTM_h_conted_39
I0718 14:46:40.648241 31838 net.cpp:86] Creating Layer LSTM_h_conted_39
I0718 14:46:40.648247 31838 net.cpp:408] LSTM_h_conted_39 <- h_39_LSTM_unit_39_1_split_0
I0718 14:46:40.648254 31838 net.cpp:408] LSTM_h_conted_39 <- cont_40_LSTM_cont_slice_39_split_0
I0718 14:46:40.648262 31838 net.cpp:382] LSTM_h_conted_39 -> h_conted_39
I0718 14:46:40.648327 31838 net.cpp:124] Setting up LSTM_h_conted_39
I0718 14:46:40.648337 31838 net.cpp:131] Top shape: 1 40 40 (1600)
I0718 14:46:40.648341 31838 net.cpp:139] Memory required for data: 5826560
I0718 14:46:40.648346 31838 layer_factory.hpp:77] Creating layer LSTM_transform_40
I0718 14:46:40.648355 31838 net.cpp:86] Creating Layer LSTM_transform_40
I0718 14:46:40.648360 31838 net.cpp:408] LSTM_transform_40 <- h_conted_39
I0718 14:46:40.648368 31838 net.cpp:382] LSTM_transform_40 -> W_hc_h_39
I0718 14:46:40.648636 31838 net.cpp:124] Setting up LSTM_transform_40
I0718 14:46:40.648646 31838 net.cpp:131] Top shape: 1 40 160 (6400)
I0718 14:46:40.648651 31838 net.cpp:139] Memory required for data: 5852160
I0718 14:46:40.648656 31838 net.cpp:467] Sharing parameters 'W_hc' owned by layer 'LSTM_transform_1', param index 0
I0718 14:46:40.648663 31838 layer_factory.hpp:77] Creating layer LSTM_gate_input_40
I0718 14:46:40.648669 31838 net.cpp:86] Creating Layer LSTM_gate_input_40
I0718 14:46:40.648675 31838 net.cpp:408] LSTM_gate_input_40 <- W_hc_h_39
I0718 14:46:40.648682 31838 net.cpp:408] LSTM_gate_input_40 <- W_xc_x_40
I0718 14:46:40.648689 31838 net.cpp:382] LSTM_gate_input_40 -> gate_input_40
I0718 14:46:40.648715 31838 net.cpp:124] Setting up LSTM_gate_input_40
I0718 14:46:40.648723 31838 net.cpp:131] Top shape: 1 40 160 (6400)
I0718 14:46:40.648733 31838 net.cpp:139] Memory required for data: 5877760
I0718 14:46:40.648746 31838 layer_factory.hpp:77] Creating layer LSTM_unit_40
I0718 14:46:40.648754 31838 net.cpp:86] Creating Layer LSTM_unit_40
I0718 14:46:40.648761 31838 net.cpp:408] LSTM_unit_40 <- c_39
I0718 14:46:40.648768 31838 net.cpp:408] LSTM_unit_40 <- gate_input_40
I0718 14:46:40.648774 31838 net.cpp:408] LSTM_unit_40 <- cont_40_LSTM_cont_slice_39_split_1
I0718 14:46:40.648782 31838 net.cpp:382] LSTM_unit_40 -> c_40
I0718 14:46:40.648792 31838 net.cpp:382] LSTM_unit_40 -> h_40
I0718 14:46:40.648841 31838 net.cpp:124] Setting up LSTM_unit_40
I0718 14:46:40.648850 31838 net.cpp:131] Top shape: 1 40 40 (1600)
I0718 14:46:40.648856 31838 net.cpp:131] Top shape: 1 40 40 (1600)
I0718 14:46:40.648861 31838 net.cpp:139] Memory required for data: 5890560
I0718 14:46:40.648866 31838 layer_factory.hpp:77] Creating layer h_40_LSTM_unit_40_1_split
I0718 14:46:40.648872 31838 net.cpp:86] Creating Layer h_40_LSTM_unit_40_1_split
I0718 14:46:40.648879 31838 net.cpp:408] h_40_LSTM_unit_40_1_split <- h_40
I0718 14:46:40.648887 31838 net.cpp:382] h_40_LSTM_unit_40_1_split -> h_40_LSTM_unit_40_1_split_0
I0718 14:46:40.648896 31838 net.cpp:382] h_40_LSTM_unit_40_1_split -> h_40_LSTM_unit_40_1_split_1
I0718 14:46:40.648931 31838 net.cpp:124] Setting up h_40_LSTM_unit_40_1_split
I0718 14:46:40.648941 31838 net.cpp:131] Top shape: 1 40 40 (1600)
I0718 14:46:40.648946 31838 net.cpp:131] Top shape: 1 40 40 (1600)
I0718 14:46:40.648950 31838 net.cpp:139] Memory required for data: 5903360
I0718 14:46:40.648955 31838 layer_factory.hpp:77] Creating layer LSTM_h_conted_40
I0718 14:46:40.648964 31838 net.cpp:86] Creating Layer LSTM_h_conted_40
I0718 14:46:40.648972 31838 net.cpp:408] LSTM_h_conted_40 <- h_40_LSTM_unit_40_1_split_0
I0718 14:46:40.648978 31838 net.cpp:408] LSTM_h_conted_40 <- cont_41_LSTM_cont_slice_40_split_0
I0718 14:46:40.648985 31838 net.cpp:382] LSTM_h_conted_40 -> h_conted_40
I0718 14:46:40.649050 31838 net.cpp:124] Setting up LSTM_h_conted_40
I0718 14:46:40.649060 31838 net.cpp:131] Top shape: 1 40 40 (1600)
I0718 14:46:40.649063 31838 net.cpp:139] Memory required for data: 5909760
I0718 14:46:40.649068 31838 layer_factory.hpp:77] Creating layer LSTM_transform_41
I0718 14:46:40.649078 31838 net.cpp:86] Creating Layer LSTM_transform_41
I0718 14:46:40.649085 31838 net.cpp:408] LSTM_transform_41 <- h_conted_40
I0718 14:46:40.649092 31838 net.cpp:382] LSTM_transform_41 -> W_hc_h_40
I0718 14:46:40.649363 31838 net.cpp:124] Setting up LSTM_transform_41
I0718 14:46:40.649375 31838 net.cpp:131] Top shape: 1 40 160 (6400)
I0718 14:46:40.649380 31838 net.cpp:139] Memory required for data: 5935360
I0718 14:46:40.649385 31838 net.cpp:467] Sharing parameters 'W_hc' owned by layer 'LSTM_transform_1', param index 0
I0718 14:46:40.649391 31838 layer_factory.hpp:77] Creating layer LSTM_gate_input_41
I0718 14:46:40.649399 31838 net.cpp:86] Creating Layer LSTM_gate_input_41
I0718 14:46:40.649405 31838 net.cpp:408] LSTM_gate_input_41 <- W_hc_h_40
I0718 14:46:40.649411 31838 net.cpp:408] LSTM_gate_input_41 <- W_xc_x_41
I0718 14:46:40.649420 31838 net.cpp:382] LSTM_gate_input_41 -> gate_input_41
I0718 14:46:40.649447 31838 net.cpp:124] Setting up LSTM_gate_input_41
I0718 14:46:40.649456 31838 net.cpp:131] Top shape: 1 40 160 (6400)
I0718 14:46:40.649461 31838 net.cpp:139] Memory required for data: 5960960
I0718 14:46:40.649466 31838 layer_factory.hpp:77] Creating layer LSTM_unit_41
I0718 14:46:40.649472 31838 net.cpp:86] Creating Layer LSTM_unit_41
I0718 14:46:40.649477 31838 net.cpp:408] LSTM_unit_41 <- c_40
I0718 14:46:40.649484 31838 net.cpp:408] LSTM_unit_41 <- gate_input_41
I0718 14:46:40.649492 31838 net.cpp:408] LSTM_unit_41 <- cont_41_LSTM_cont_slice_40_split_1
I0718 14:46:40.649498 31838 net.cpp:382] LSTM_unit_41 -> c_41
I0718 14:46:40.649507 31838 net.cpp:382] LSTM_unit_41 -> h_41
I0718 14:46:40.649556 31838 net.cpp:124] Setting up LSTM_unit_41
I0718 14:46:40.649564 31838 net.cpp:131] Top shape: 1 40 40 (1600)
I0718 14:46:40.649570 31838 net.cpp:131] Top shape: 1 40 40 (1600)
I0718 14:46:40.649580 31838 net.cpp:139] Memory required for data: 5973760
I0718 14:46:40.649592 31838 layer_factory.hpp:77] Creating layer h_41_LSTM_unit_41_1_split
I0718 14:46:40.649600 31838 net.cpp:86] Creating Layer h_41_LSTM_unit_41_1_split
I0718 14:46:40.649605 31838 net.cpp:408] h_41_LSTM_unit_41_1_split <- h_41
I0718 14:46:40.649612 31838 net.cpp:382] h_41_LSTM_unit_41_1_split -> h_41_LSTM_unit_41_1_split_0
I0718 14:46:40.649621 31838 net.cpp:382] h_41_LSTM_unit_41_1_split -> h_41_LSTM_unit_41_1_split_1
I0718 14:46:40.649658 31838 net.cpp:124] Setting up h_41_LSTM_unit_41_1_split
I0718 14:46:40.649667 31838 net.cpp:131] Top shape: 1 40 40 (1600)
I0718 14:46:40.649673 31838 net.cpp:131] Top shape: 1 40 40 (1600)
I0718 14:46:40.649677 31838 net.cpp:139] Memory required for data: 5986560
I0718 14:46:40.649682 31838 layer_factory.hpp:77] Creating layer LSTM_h_conted_41
I0718 14:46:40.649689 31838 net.cpp:86] Creating Layer LSTM_h_conted_41
I0718 14:46:40.649696 31838 net.cpp:408] LSTM_h_conted_41 <- h_41_LSTM_unit_41_1_split_0
I0718 14:46:40.649703 31838 net.cpp:408] LSTM_h_conted_41 <- cont_42_LSTM_cont_slice_41_split_0
I0718 14:46:40.649713 31838 net.cpp:382] LSTM_h_conted_41 -> h_conted_41
I0718 14:46:40.649777 31838 net.cpp:124] Setting up LSTM_h_conted_41
I0718 14:46:40.649786 31838 net.cpp:131] Top shape: 1 40 40 (1600)
I0718 14:46:40.649791 31838 net.cpp:139] Memory required for data: 5992960
I0718 14:46:40.649796 31838 layer_factory.hpp:77] Creating layer LSTM_transform_42
I0718 14:46:40.649804 31838 net.cpp:86] Creating Layer LSTM_transform_42
I0718 14:46:40.649811 31838 net.cpp:408] LSTM_transform_42 <- h_conted_41
I0718 14:46:40.649819 31838 net.cpp:382] LSTM_transform_42 -> W_hc_h_41
I0718 14:46:40.650086 31838 net.cpp:124] Setting up LSTM_transform_42
I0718 14:46:40.650096 31838 net.cpp:131] Top shape: 1 40 160 (6400)
I0718 14:46:40.650101 31838 net.cpp:139] Memory required for data: 6018560
I0718 14:46:40.650106 31838 net.cpp:467] Sharing parameters 'W_hc' owned by layer 'LSTM_transform_1', param index 0
I0718 14:46:40.650112 31838 layer_factory.hpp:77] Creating layer LSTM_gate_input_42
I0718 14:46:40.650141 31838 net.cpp:86] Creating Layer LSTM_gate_input_42
I0718 14:46:40.650147 31838 net.cpp:408] LSTM_gate_input_42 <- W_hc_h_41
I0718 14:46:40.650154 31838 net.cpp:408] LSTM_gate_input_42 <- W_xc_x_42
I0718 14:46:40.650162 31838 net.cpp:382] LSTM_gate_input_42 -> gate_input_42
I0718 14:46:40.650189 31838 net.cpp:124] Setting up LSTM_gate_input_42
I0718 14:46:40.650198 31838 net.cpp:131] Top shape: 1 40 160 (6400)
I0718 14:46:40.650203 31838 net.cpp:139] Memory required for data: 6044160
I0718 14:46:40.650208 31838 layer_factory.hpp:77] Creating layer LSTM_unit_42
I0718 14:46:40.650215 31838 net.cpp:86] Creating Layer LSTM_unit_42
I0718 14:46:40.650221 31838 net.cpp:408] LSTM_unit_42 <- c_41
I0718 14:46:40.650228 31838 net.cpp:408] LSTM_unit_42 <- gate_input_42
I0718 14:46:40.650234 31838 net.cpp:408] LSTM_unit_42 <- cont_42_LSTM_cont_slice_41_split_1
I0718 14:46:40.650244 31838 net.cpp:382] LSTM_unit_42 -> c_42
I0718 14:46:40.650254 31838 net.cpp:382] LSTM_unit_42 -> h_42
I0718 14:46:40.650303 31838 net.cpp:124] Setting up LSTM_unit_42
I0718 14:46:40.650312 31838 net.cpp:131] Top shape: 1 40 40 (1600)
I0718 14:46:40.650318 31838 net.cpp:131] Top shape: 1 40 40 (1600)
I0718 14:46:40.650323 31838 net.cpp:139] Memory required for data: 6056960
I0718 14:46:40.650328 31838 layer_factory.hpp:77] Creating layer h_42_LSTM_unit_42_1_split
I0718 14:46:40.650334 31838 net.cpp:86] Creating Layer h_42_LSTM_unit_42_1_split
I0718 14:46:40.650341 31838 net.cpp:408] h_42_LSTM_unit_42_1_split <- h_42
I0718 14:46:40.650347 31838 net.cpp:382] h_42_LSTM_unit_42_1_split -> h_42_LSTM_unit_42_1_split_0
I0718 14:46:40.650357 31838 net.cpp:382] h_42_LSTM_unit_42_1_split -> h_42_LSTM_unit_42_1_split_1
I0718 14:46:40.650394 31838 net.cpp:124] Setting up h_42_LSTM_unit_42_1_split
I0718 14:46:40.650403 31838 net.cpp:131] Top shape: 1 40 40 (1600)
I0718 14:46:40.650408 31838 net.cpp:131] Top shape: 1 40 40 (1600)
I0718 14:46:40.650418 31838 net.cpp:139] Memory required for data: 6069760
I0718 14:46:40.650429 31838 layer_factory.hpp:77] Creating layer LSTM_h_conted_42
I0718 14:46:40.650436 31838 net.cpp:86] Creating Layer LSTM_h_conted_42
I0718 14:46:40.650444 31838 net.cpp:408] LSTM_h_conted_42 <- h_42_LSTM_unit_42_1_split_0
I0718 14:46:40.650449 31838 net.cpp:408] LSTM_h_conted_42 <- cont_43_LSTM_cont_slice_42_split_0
I0718 14:46:40.650460 31838 net.cpp:382] LSTM_h_conted_42 -> h_conted_42
I0718 14:46:40.650524 31838 net.cpp:124] Setting up LSTM_h_conted_42
I0718 14:46:40.650533 31838 net.cpp:131] Top shape: 1 40 40 (1600)
I0718 14:46:40.650538 31838 net.cpp:139] Memory required for data: 6076160
I0718 14:46:40.650543 31838 layer_factory.hpp:77] Creating layer LSTM_transform_43
I0718 14:46:40.650553 31838 net.cpp:86] Creating Layer LSTM_transform_43
I0718 14:46:40.650559 31838 net.cpp:408] LSTM_transform_43 <- h_conted_42
I0718 14:46:40.650568 31838 net.cpp:382] LSTM_transform_43 -> W_hc_h_42
I0718 14:46:40.650840 31838 net.cpp:124] Setting up LSTM_transform_43
I0718 14:46:40.650851 31838 net.cpp:131] Top shape: 1 40 160 (6400)
I0718 14:46:40.650856 31838 net.cpp:139] Memory required for data: 6101760
I0718 14:46:40.650861 31838 net.cpp:467] Sharing parameters 'W_hc' owned by layer 'LSTM_transform_1', param index 0
I0718 14:46:40.650866 31838 layer_factory.hpp:77] Creating layer LSTM_gate_input_43
I0718 14:46:40.650873 31838 net.cpp:86] Creating Layer LSTM_gate_input_43
I0718 14:46:40.650879 31838 net.cpp:408] LSTM_gate_input_43 <- W_hc_h_42
I0718 14:46:40.650887 31838 net.cpp:408] LSTM_gate_input_43 <- W_xc_x_43
I0718 14:46:40.650893 31838 net.cpp:382] LSTM_gate_input_43 -> gate_input_43
I0718 14:46:40.650921 31838 net.cpp:124] Setting up LSTM_gate_input_43
I0718 14:46:40.650930 31838 net.cpp:131] Top shape: 1 40 160 (6400)
I0718 14:46:40.650935 31838 net.cpp:139] Memory required for data: 6127360
I0718 14:46:40.650940 31838 layer_factory.hpp:77] Creating layer LSTM_unit_43
I0718 14:46:40.650946 31838 net.cpp:86] Creating Layer LSTM_unit_43
I0718 14:46:40.650952 31838 net.cpp:408] LSTM_unit_43 <- c_42
I0718 14:46:40.650959 31838 net.cpp:408] LSTM_unit_43 <- gate_input_43
I0718 14:46:40.650965 31838 net.cpp:408] LSTM_unit_43 <- cont_43_LSTM_cont_slice_42_split_1
I0718 14:46:40.650972 31838 net.cpp:382] LSTM_unit_43 -> c_43
I0718 14:46:40.650981 31838 net.cpp:382] LSTM_unit_43 -> h_43
I0718 14:46:40.651031 31838 net.cpp:124] Setting up LSTM_unit_43
I0718 14:46:40.651039 31838 net.cpp:131] Top shape: 1 40 40 (1600)
I0718 14:46:40.651046 31838 net.cpp:131] Top shape: 1 40 40 (1600)
I0718 14:46:40.651051 31838 net.cpp:139] Memory required for data: 6140160
I0718 14:46:40.651056 31838 layer_factory.hpp:77] Creating layer h_43_LSTM_unit_43_1_split
I0718 14:46:40.651063 31838 net.cpp:86] Creating Layer h_43_LSTM_unit_43_1_split
I0718 14:46:40.651069 31838 net.cpp:408] h_43_LSTM_unit_43_1_split <- h_43
I0718 14:46:40.651077 31838 net.cpp:382] h_43_LSTM_unit_43_1_split -> h_43_LSTM_unit_43_1_split_0
I0718 14:46:40.651085 31838 net.cpp:382] h_43_LSTM_unit_43_1_split -> h_43_LSTM_unit_43_1_split_1
I0718 14:46:40.651123 31838 net.cpp:124] Setting up h_43_LSTM_unit_43_1_split
I0718 14:46:40.651130 31838 net.cpp:131] Top shape: 1 40 40 (1600)
I0718 14:46:40.651136 31838 net.cpp:131] Top shape: 1 40 40 (1600)
I0718 14:46:40.651141 31838 net.cpp:139] Memory required for data: 6152960
I0718 14:46:40.651146 31838 layer_factory.hpp:77] Creating layer LSTM_h_conted_43
I0718 14:46:40.651154 31838 net.cpp:86] Creating Layer LSTM_h_conted_43
I0718 14:46:40.651160 31838 net.cpp:408] LSTM_h_conted_43 <- h_43_LSTM_unit_43_1_split_0
I0718 14:46:40.651166 31838 net.cpp:408] LSTM_h_conted_43 <- cont_44_LSTM_cont_slice_43_split_0
I0718 14:46:40.651175 31838 net.cpp:382] LSTM_h_conted_43 -> h_conted_43
I0718 14:46:40.651237 31838 net.cpp:124] Setting up LSTM_h_conted_43
I0718 14:46:40.651245 31838 net.cpp:131] Top shape: 1 40 40 (1600)
I0718 14:46:40.651250 31838 net.cpp:139] Memory required for data: 6159360
I0718 14:46:40.651255 31838 layer_factory.hpp:77] Creating layer LSTM_transform_44
I0718 14:46:40.651266 31838 net.cpp:86] Creating Layer LSTM_transform_44
I0718 14:46:40.651280 31838 net.cpp:408] LSTM_transform_44 <- h_conted_43
I0718 14:46:40.651289 31838 net.cpp:382] LSTM_transform_44 -> W_hc_h_43
I0718 14:46:40.651556 31838 net.cpp:124] Setting up LSTM_transform_44
I0718 14:46:40.651566 31838 net.cpp:131] Top shape: 1 40 160 (6400)
I0718 14:46:40.651571 31838 net.cpp:139] Memory required for data: 6184960
I0718 14:46:40.651576 31838 net.cpp:467] Sharing parameters 'W_hc' owned by layer 'LSTM_transform_1', param index 0
I0718 14:46:40.651582 31838 layer_factory.hpp:77] Creating layer LSTM_gate_input_44
I0718 14:46:40.651592 31838 net.cpp:86] Creating Layer LSTM_gate_input_44
I0718 14:46:40.651597 31838 net.cpp:408] LSTM_gate_input_44 <- W_hc_h_43
I0718 14:46:40.651604 31838 net.cpp:408] LSTM_gate_input_44 <- W_xc_x_44
I0718 14:46:40.651612 31838 net.cpp:382] LSTM_gate_input_44 -> gate_input_44
I0718 14:46:40.651638 31838 net.cpp:124] Setting up LSTM_gate_input_44
I0718 14:46:40.651648 31838 net.cpp:131] Top shape: 1 40 160 (6400)
I0718 14:46:40.651651 31838 net.cpp:139] Memory required for data: 6210560
I0718 14:46:40.651656 31838 layer_factory.hpp:77] Creating layer LSTM_unit_44
I0718 14:46:40.651666 31838 net.cpp:86] Creating Layer LSTM_unit_44
I0718 14:46:40.651672 31838 net.cpp:408] LSTM_unit_44 <- c_43
I0718 14:46:40.651679 31838 net.cpp:408] LSTM_unit_44 <- gate_input_44
I0718 14:46:40.651686 31838 net.cpp:408] LSTM_unit_44 <- cont_44_LSTM_cont_slice_43_split_1
I0718 14:46:40.651693 31838 net.cpp:382] LSTM_unit_44 -> c_44
I0718 14:46:40.651702 31838 net.cpp:382] LSTM_unit_44 -> h_44
I0718 14:46:40.651752 31838 net.cpp:124] Setting up LSTM_unit_44
I0718 14:46:40.651760 31838 net.cpp:131] Top shape: 1 40 40 (1600)
I0718 14:46:40.651767 31838 net.cpp:131] Top shape: 1 40 40 (1600)
I0718 14:46:40.651772 31838 net.cpp:139] Memory required for data: 6223360
I0718 14:46:40.651777 31838 layer_factory.hpp:77] Creating layer LSTM_
I0718 14:46:40.651783 31838 net.cpp:86] Creating Layer LSTM_
I0718 14:46:40.651788 31838 net.cpp:408] LSTM_ <- c_44
I0718 14:46:40.651795 31838 net.cpp:382] LSTM_ -> c_T
I0718 14:46:40.651821 31838 net.cpp:124] Setting up LSTM_
I0718 14:46:40.651830 31838 net.cpp:131] Top shape: 1 40 40 (1600)
I0718 14:46:40.651835 31838 net.cpp:139] Memory required for data: 6229760
I0718 14:46:40.651840 31838 layer_factory.hpp:77] Creating layer LSTM_h_concat
I0718 14:46:40.651855 31838 net.cpp:86] Creating Layer LSTM_h_concat
I0718 14:46:40.651862 31838 net.cpp:408] LSTM_h_concat <- h_1_LSTM_unit_1_1_split_1
I0718 14:46:40.651870 31838 net.cpp:408] LSTM_h_concat <- h_2_LSTM_unit_2_1_split_1
…
