…
  top: "data"
  include {
    phase: TRAIN
  }
  dummy_data_param {
    data_filler {
      type: "constant"
    }
    shape {
      dim: 34
      dim: 10
      dim: 52
    }
  }
}
layer {
  name: "cont"
  type: "DummyData"
  top: "cont"
  dummy_data_param {
    data_filler {
      type: "constant"
    }
    shape {
      dim: 34
      dim: 10
    }
  }
}
layer {
  name: "y_train"
  type: "DummyData"
  top: "label"
  include {
    phase: TRAIN
  }
  dummy_data_param {
    data_filler {
      type: "constant"
    }
    shape {
      dim: 34
      dim: 52
    }
  }
}
layer {
  name: "LSTM"
  type: "LSTM"
  bottom: "data"
  bottom: "cont"
  top: "ip1"
  recurrent_param {
    num_output: 52
    weight_filler {
      type: "gaussian"
      std: 0.1
    }
    bias_filler {
      type: "constant"
    }
  }
}
layer {
  name: "SOFTMAX"
  type: "SoftmaxWithLoss"
  bottom: "ip1"
  bottom: "label"
  top: "loss"
}
I0717 12:30:49.560555 27176 layer_factory.hpp:77] Creating layer x_train
I0717 12:30:49.560577 27176 net.cpp:86] Creating Layer x_train
I0717 12:30:49.560586 27176 net.cpp:382] x_train -> data
I0717 12:30:49.614197 27176 net.cpp:124] Setting up x_train
I0717 12:30:49.614246 27176 net.cpp:131] Top shape: 34 10 52 (17680)
I0717 12:30:49.614254 27176 net.cpp:139] Memory required for data: 70720
I0717 12:30:49.614266 27176 layer_factory.hpp:77] Creating layer cont
I0717 12:30:49.614287 27176 net.cpp:86] Creating Layer cont
I0717 12:30:49.614295 27176 net.cpp:382] cont -> cont
I0717 12:30:49.615535 27176 net.cpp:124] Setting up cont
I0717 12:30:49.615556 27176 net.cpp:131] Top shape: 34 10 (340)
I0717 12:30:49.615562 27176 net.cpp:139] Memory required for data: 72080
I0717 12:30:49.615568 27176 layer_factory.hpp:77] Creating layer y_train
I0717 12:30:49.615581 27176 net.cpp:86] Creating Layer y_train
I0717 12:30:49.615587 27176 net.cpp:382] y_train -> label
I0717 12:30:49.616823 27176 net.cpp:124] Setting up y_train
I0717 12:30:49.616842 27176 net.cpp:131] Top shape: 34 52 (1768)
I0717 12:30:49.616848 27176 net.cpp:139] Memory required for data: 79152
I0717 12:30:49.616854 27176 layer_factory.hpp:77] Creating layer LSTM
I0717 12:30:49.616870 27176 net.cpp:86] Creating Layer LSTM
I0717 12:30:49.616878 27176 net.cpp:408] LSTM <- data
I0717 12:30:49.616891 27176 net.cpp:408] LSTM <- cont
I0717 12:30:49.616900 27176 net.cpp:382] LSTM -> ip1
I0717 12:30:49.616919 27176 recurrent_layer.cpp:20] Initializing recurrent layer: assuming input batch contains 34 timesteps of 10 independent streams.
I0717 12:30:49.618124 27176 net.cpp:53] Initializing net from parameters: 
layer {
  name: "LSTM_"
  type: "Input"
  top: "x"
  top: "cont"
  input_param {
    shape {
      dim: 34
      dim: 10
      dim: 52
    }
    shape {
      dim: 34
      dim: 10
    }
  }
}
layer {
  name: "LSTM_"
  type: "Input"
  top: "c_0"
  top: "h_0"
  input_param {
    shape {
      dim: 1
      dim: 10
      dim: 52
    }
    shape {
      dim: 1
      dim: 10
      dim: 52
    }
  }
}
layer {
  name: "LSTM_cont_slice"
  type: "Slice"
  bottom: "cont"
  top: "cont_1"
  top: "cont_2"
  top: "cont_3"
  top: "cont_4"
  top: "cont_5"
  top: "cont_6"
  top: "cont_7"
  top: "cont_8"
  top: "cont_9"
  top: "cont_10"
  top: "cont_11"
  top: "cont_12"
  top: "cont_13"
  top: "cont_14"
  top: "cont_15"
  top: "cont_16"
  top: "cont_17"
  top: "cont_18"
  top: "cont_19"
  top: "cont_20"
  top: "cont_21"
  top: "cont_22"
  top: "cont_23"
  top: "cont_24"
  top: "cont_25"
  top: "cont_26"
  top: "cont_27"
  top: "cont_28"
  top: "cont_29"
  top: "cont_30"
  top: "cont_31"
  top: "cont_32"
  top: "cont_33"
  top: "cont_34"
  slice_param {
    axis: 0
  }
}
layer {
  name: "LSTM_x_transform"
  type: "InnerProduct"
  bottom: "x"
  top: "W_xc_x"
  param {
    name: "W_xc"
  }
  param {
    name: "b_c"
  }
  propagate_down: true
  inner_product_param {
    num_output: 208
    bias_term: true
    weight_filler {
      type: "gaussian"
      std: 0.1
    }
    bias_filler {
      type: "constant"
    }
    axis: 2
  }
}
layer {
  name: "LSTM_W_xc_x_slice"
  type: "Slice"
  bottom: "W_xc_x"
  top: "W_xc_x_1"
  top: "W_xc_x_2"
  top: "W_xc_x_3"
  top: "W_xc_x_4"
  top: "W_xc_x_5"
  top: "W_xc_x_6"
  top: "W_xc_x_7"
  top: "W_xc_x_8"
  top: "W_xc_x_9"
  top: "W_xc_x_10"
  top: "W_xc_x_11"
  top: "W_xc_x_12"
  top: "W_xc_x_13"
  top: "W_xc_x_14"
  top: "W_xc_x_15"
  top: "W_xc_x_16"
  top: "W_xc_x_17"
  top: "W_xc_x_18"
  top: "W_xc_x_19"
  top: "W_xc_x_20"
  top: "W_xc_x_21"
  top: "W_xc_x_22"
  top: "W_xc_x_23"
  top: "W_xc_x_24"
  top: "W_xc_x_25"
  top: "W_xc_x_26"
  top: "W_xc_x_27"
  top: "W_xc_x_28"
  top: "W_xc_x_29"
  top: "W_xc_x_30"
  top: "W_xc_x_31"
  top: "W_xc_x_32"
  top: "W_xc_x_33"
  top: "W_xc_x_34"
  slice_param {
    axis: 0
  }
}
layer {
  name: "LSTM_h_conted_0"
  type: "Scale"
  bottom: "h_0"
  bottom: "cont_1"
  top: "h_conted_0"
  scale_param {
    axis: 0
  }
}
layer {
  name: "LSTM_transform_1"
  type: "InnerProduct"
  bottom: "h_conted_0"
  top: "W_hc_h_0"
  param {
    name: "W_hc"
  }
  inner_product_param {
    num_output: 208
    bias_term: false
    weight_filler {
      type: "gaussian"
      std: 0.1
    }
    axis: 2
  }
}
layer {
  name: "LSTM_gate_input_1"
  type: "Eltwise"
  bottom: "W_hc_h_0"
  bottom: "W_xc_x_1"
  top: "gate_input_1"
  eltwise_param {
    operation: SUM
  }
}
layer {
  name: "LSTM_unit_1"
  type: "LSTMUnit"
  bottom: "c_0"
  bottom: "gate_input_1"
  bottom: "cont_1"
  top: "c_1"
  top: "h_1"
}
layer {
  name: "LSTM_h_conted_1"
  type: "Scale"
  bottom: "h_1"
  bottom: "cont_2"
  top: "h_conted_1"
  scale_param {
    axis: 0
  }
}
layer {
  name: "LSTM_transform_2"
  type: "InnerProduct"
  bottom: "h_conted_1"
  top: "W_hc_h_1"
  param {
    name: "W_hc"
  }
  inner_product_param {
    num_output: 208
    bias_term: false
    weight_filler {
      type: "gaussian"
      std: 0.1
    }
    axis: 2
  }
}
layer {
  name: "LSTM_gate_input_2"
  type: "Eltwise"
  bottom: "W_hc_h_1"
  bottom: "W_xc_x_2"
  top: "gate_input_2"
  eltwise_param {
    operation: SUM
  }
}
layer {
  name: "LSTM_unit_2"
  type: "LSTMUnit"
  bottom: "c_1"
  bottom: "gate_input_2"
  bottom: "cont_2"
  top: "c_2"
  top: "h_2"
}
layer {
  name: "LSTM_h_conted_2"
  type: "Scale"
  bottom: "h_2"
  bottom: "cont_3"
  top: "h_conted_2"
  scale_param {
    axis: 0
  }
}
layer {
  name: "LSTM_transform_3"
  type: "InnerProduct"
  bottom: "h_conted_2"
  top: "W_hc_h_2"
  param {
    name: "W_hc"
  }
  inner_product_param {
    num_output: 208
    bias_term: false
    weight_filler {
      type: "gaussian"
      std: 0.1
    }
    axis: 2
  }
}
layer {
  name: "LSTM_gate_input_3"
  type: "Eltwise"
  bottom: "W_hc_h_2"
  bottom: "W_xc_x_3"
  top: "gate_input_3"
  eltwise_param {
    operation: SUM
  }
}
layer {
  name: "LSTM_unit_3"
  type: "LSTMUnit"
  bottom: "c_2"
  bottom: "gate_input_3"
  bottom: "cont_3"
  top: "c_3"
  top: "h_3"
}
layer {
  name: "LSTM_h_conted_3"
  type: "Scale"
  bottom: "h_3"
  bottom: "cont_4"
  top: "h_conted_3"
  scale_param {
    axis: 0
  }
}
layer {
  name: "LSTM_transform_4"
  type: "InnerProduct"
  bottom: "h_conted_3"
  top: "W_hc_h_3"
  param {
    name: "W_hc"
  }
  inner_product_param {
    num_output: 208
    bias_term: false
    weight_filler {
      type: "gaussian"
      std: 0.1
    }
    axis: 2
  }
}
layer {
  name: "LSTM_gate_input_4"
  type: "Eltwise"
  bottom: "W_hc_h_3"
  bottom: "W_xc_x_4"
  top: "gate_input_4"
  eltwise_param {
    operation: SUM
  }
}
layer {
  name: "LSTM_unit_4"
  type: "LSTMUnit"
  bottom: "c_3"
  bottom: "gate_input_4"
  bottom: "cont_4"
  top: "c_4"
  top: "h_4"
}
layer {
  name: "LSTM_h_conted_4"
  type: "Scale"
  bottom: "h_4"
  bottom: "cont_5"
  top: "h_conted_4"
  scale_param {
    axis: 0
  }
}
layer {
  name: "LSTM_transform_5"
  type: "InnerProduct"
  bottom: "h_conted_4"
  top: "W_hc_h_4"
  param {
    name: "W_hc"
  }
  inner_product_param {
    num_output: 208
    bias_term: false
    weight_filler {
      type: "gaussian"
      std: 0.1
    }
    axis: 2
  }
}
layer {
  name: "LSTM_gate_input_5"
  type: "Eltwise"
  bottom: "W_hc_h_4"
  bottom: "W_xc_x_5"
  top: "gate_input_5"
  eltwise_param {
    operation: SUM
  }
}
layer {
  name: "LSTM_unit_5"
  type: "LSTMUnit"
  bottom: "c_4"
  bottom: "gate_input_5"
  bottom: "cont_5"
  top: "c_5"
  top: "h_5"
}
layer {
  name: "LSTM_h_conted_5"
  type: "Scale"
  bottom: "h_5"
  bottom: "cont_6"
  top: "h_conted_5"
  scale_param {
    axis: 0
  }
}
layer {
  name: "LSTM_transform_6"
  type: "InnerProduct"
  bottom: "h_conted_5"
  top: "W_hc_h_5"
  param {
    name: "W_hc"
  }
  inner_product_param {
    num_output: 208
    bias_term: false
    weight_filler {
      type: "gaussian"
      std: 0.1
    }
    axis: 2
  }
}
layer {
  name: "LSTM_gate_input_6"
  type: "Eltwise"
  bottom: "W_hc_h_5"
  bottom: "W_xc_x_6"
  top: "gate_input_6"
  eltwise_param {
    operation: SUM
  }
}
layer {
  name: "LSTM_unit_6"
  type: "LSTMUnit"
  bottom: "c_5"
  bottom: "gate_input_6"
  bottom: "cont_6"
  top: "c_6"
  top: "h_6"
}
layer {
  name: "LSTM_h_conted_6"
  type: "Scale"
  bottom: "h_6"
  bottom: "cont_7"
  top: "h_conted_6"
  scale_param {
    axis: 0
  }
}
layer {
  name: "LSTM_transform_7"
  type: "InnerProduct"
  bottom: "h_conted_6"
  top: "W_hc_h_6"
  param {
    name: "W_hc"
  }
  inner_product_param {
    num_output: 208
    bias_term: false
    weight_filler {
      type: "gaussian"
      std: 0.1
    }
    axis: 2
  }
}
layer {
  name: "LSTM_gate_input_7"
  type: "Eltwise"
  bottom: "W_hc_h_6"
  bottom: "W_xc_x_7"
  top: "gate_input_7"
  eltwise_param {
    operation: SUM
  }
}
layer {
  name: "LSTM_unit_7"
  type: "LSTMUnit"
  bottom: "c_6"
  bottom: "gate_input_7"
  bottom: "cont_7"
  top: "c_7"
  top: "h_7"
}
layer {
  name: "LSTM_h_conted_7"
  type: "Scale"
  bottom: "h_7"
  bottom: "cont_8"
  top: "h_conted_7"
  scale_param {
    axis: 0
  }
}
layer {
  name: "LSTM_transform_8"
  type: "InnerProduct"
  bottom: "h_conted_7"
  top: "W_hc_h_7"
  param {
    name: "W_hc"
  }
  inner_product_param {
    num_output: 208
    bias_term: false
    weight_filler {
      type: "gaussian"
      std: 0.1
    }
    axis: 2
  }
}
layer {
  name: "LSTM_gate_input_8"
  type: "Eltwise"
  bottom: "W_hc_h_7"
  bottom: "W_xc_x_8"
  top: "gate_input_8"
  eltwise_param {
    operation: SUM
  }
}
layer {
  name: "LSTM_unit_8"
  type: "LSTMUnit"
  bottom: "c_7"
  bottom: "gate_input_8"
  bottom: "cont_8"
  top: "c_8"
  top: "h_8"
}
layer {
  name: "LSTM_h_conted_8"
  type: "Scale"
  bottom: "h_8"
  bottom: "cont_9"
  top: "h_conted_8"
  scale_param {
    axis: 0
  }
}
layer {
  name: "LSTM_transform_9"
  type: "InnerProduct"
  bottom: "h_conted_8"
  top: "W_hc_h_8"
  param {
    name: "W_hc"
  }
  inner_product_param {
    num_output: 208
    bias_term: false
    weight_filler {
      type: "gaussian"
      std: 0.1
    }
    axis: 2
  }
}
layer {
  name: "LSTM_gate_input_9"
  type: "Eltwise"
  bottom: "W_hc_h_8"
  bottom: "W_xc_x_9"
  top: "gate_input_9"
  eltwise_param {
    operation: SUM
  }
}
layer {
  name: "LSTM_unit_9"
  type: "LSTMUnit"
  bottom: "c_8"
  bottom: "gate_input_9"
  bottom: "cont_9"
  top: "c_9"
  top: "h_9"
}
layer {
  name: "LSTM_h_conted_9"
  type: "Scale"
  bottom: "h_9"
  bottom: "cont_10"
  top: "h_conted_9"
  scale_param {
    axis: 0
  }
}
layer {
  name: "LSTM_transform_10"
  type: "InnerProduct"
  bottom: "h_conted_9"
  top: "W_hc_h_9"
  param {
    name: "W_hc"
  }
  inner_product_param {
    num_output: 208
    bias_term: false
    weight_filler {
      type: "gaussian"
      std: 0.1
    }
    axis: 2
  }
}
layer {
  name: "LSTM_gate_input_10"
  type: "Eltwise"
  bottom: "W_hc_h_9"
  bottom: "W_xc_x_10"
  top: "gate_input_10"
  eltwise_param {
    operation: SUM
  }
}
layer {
  name: "LSTM_unit_10"
  type: "LSTMUnit"
  bottom: "c_9"
  bottom: "gate_input_10"
  bottom: "cont_10"
  top: "c_10"
  top: "h_10"
}
layer {
  name: "LSTM_h_conted_10"
  type: "Scale"
  bottom: "h_10"
  bottom: "cont_11"
  top: "h_conted_10"
  scale_param {
    axis: 0
  }
}
layer {
  name: "LSTM_transform_11"
  type: "InnerProduct"
  bottom: "h_conted_10"
  top: "W_hc_h_10"
  param {
    name: "W_hc"
  }
  inner_product_param {
    num_output: 208
    bias_term: false
    weight_filler {
      type: "gaussian"
      std: 0.1
    }
    axis: 2
  }
}
layer {
  name: "LSTM_gate_input_11"
  type: "Eltwise"
  bottom: "W_hc_h_10"
  bottom: "W_xc_x_11"
  top: "gate_input_11"
  eltwise_param {
    operation: SUM
  }
}
layer {
  name: "LSTM_unit_11"
  type: "LSTMUnit"
  bottom: "c_10"
  bottom: "gate_input_11"
  bottom: "cont_11"
  top: "c_11"
  top: "h_11"
}
layer {
  name: "LSTM_h_conted_11"
  type: "Scale"
  bottom: "h_11"
  bottom: "cont_12"
  top: "h_conted_11"
  scale_param {
    axis: 0
  }
}
layer {
  name: "LSTM_transform_12"
  type: "InnerProduct"
  bottom: "h_conted_11"
  top: "W_hc_h_11"
  param {
    name: "W_hc"
  }
  inner_product_param {
    num_output: 208
    bias_term: false
    weight_filler {
      type: "gaussian"
      std: 0.1
    }
    axis: 2
  }
}
layer {
  name: "LSTM_gate_input_12"
  type: "Eltwise"
  bottom: "W_hc_h_11"
  bottom: "W_xc_x_12"
  top: "gate_input_12"
  eltwise_param {
    operation: SUM
  }
}
layer {
  name: "LSTM_unit_12"
  type: "LSTMUnit"
  bottom: "c_11"
  bottom: "gate_input_12"
  bottom: "cont_12"
  top: "c_12"
  top: "h_12"
}
layer {
  name: "LSTM_h_conted_12"
  type: "Scale"
  bottom: "h_12"
  bottom: "cont_13"
  top: "h_conted_12"
  scale_param {
    axis: 0
  }
}
layer {
  name: "LSTM_transform_13"
  type: "InnerProduct"
  bottom: "h_conted_12"
  top: "W_hc_h_12"
  param {
    name: "W_hc"
  }
  inner_product_param {
    num_output: 208
    bias_term: false
    weight_filler {
      type: "gaussian"
      std: 0.1
    }
    axis: 2
  }
}
layer {
  name: "LSTM_gate_input_13"
  type: "Eltwise"
  bottom: "W_hc_h_12"
  bottom: "W_xc_x_13"
  top: "gate_input_13"
  eltwise_param {
    operation: SUM
  }
}
layer {
  name: "LSTM_unit_13"
  type: "LSTMUnit"
  bottom: "c_12"
  bottom: "gate_input_13"
  bottom: "cont_13"
  top: "c_13"
  top: "h_13"
}
layer {
  name: "LSTM_h_conted_13"
  type: "Scale"
  bottom: "h_13"
  bottom: "cont_14"
  top: "h_conted_13"
  scale_param {
    axis: 0
  }
}
layer {
  name: "LSTM_transform_14"
  type: "InnerProduct"
  bottom: "h_conted_13"
  top: "W_hc_h_13"
  param {
    name: "W_hc"
  }
  inner_product_param {
    num_output: 208
    bias_term: false
    weight_filler {
      type: "gaussian"
      std: 0.1
    }
    axis: 2
  }
}
layer {
  name: "LSTM_gate_input_14"
  type: "Eltwise"
  bottom: "W_hc_h_13"
  bottom: "W_xc_x_14"
  top: "gate_input_14"
  eltwise_param {
    operation: SUM
  }
}
layer {
  name: "LSTM_unit_14"
  type: "LSTMUnit"
  bottom: "c_13"
  bottom: "gate_input_14"
  bottom: "cont_14"
  top: "c_14"
  top: "h_14"
}
layer {
  name: "LSTM_h_conted_14"
  type: "Scale"
  bottom: "h_14"
  bottom: "cont_15"
  top: "h_conted_14"
  scale_param {
    axis: 0
  }
}
layer {
  name: "LSTM_transform_15"
  type: "InnerProduct"
  bottom: "h_conted_14"
  top: "W_hc_h_14"
  param {
    name: "W_hc"
  }
  inner_product_param {
    num_output: 208
    bias_term: false
    weight_filler {
      type: "gaussian"
      std: 0.1
    }
    axis: 2
  }
}
layer {
  name: "LSTM_gate_input_15"
  type: "Eltwise"
  bottom: "W_hc_h_14"
  bottom: "W_xc_x_15"
  top: "gate_input_15"
  eltwise_param {
    operation: SUM
  }
}
layer {
  name: "LSTM_unit_15"
  type: "LSTMUnit"
  bottom: "c_14"
  bottom: "gate_input_15"
  bottom: "cont_15"
  top: "c_15"
  top: "h_15"
}
layer {
  name: "LSTM_h_conted_15"
  type: "Scale"
  bottom: "h_15"
  bottom: "cont_16"
  top: "h_conted_15"
  scale_param {
    axis: 0
  }
}
layer {
  name: "LSTM_transform_16"
  type: "InnerProduct"
  bottom: "h_conted_15"
  top: "W_hc_h_15"
  param {
    name: "W_hc"
  }
  inner_product_param {
    num_output: 208
    bias_term: false
    weight_filler {
      type: "gaussian"
      std: 0.1
    }
    axis: 2
  }
}
layer {
  name: "LSTM_gate_input_16"
  type: "Eltwise"
  bottom: "W_hc_h_15"
  bottom: "W_xc_x_16"
  top: "gate_input_16"
  eltwise_param {
    operation: SUM
  }
}
layer {
  name: "LSTM_unit_16"
  type: "LSTMUnit"
  bottom: "c_15"
  bottom: "gate_input_16"
  bottom: "cont_16"
  top: "c_16"
  top: "h_16"
}
layer {
  name: "LSTM_h_conted_16"
  type: "Scale"
  bottom: "h_16"
  bottom: "cont_17"
  top: "h_conted_16"
  scale_param {
    axis: 0
  }
}
layer {
  name: "LSTM_transform_17"
  type: "InnerProduct"
  bottom: "h_conted_16"
  top: "W_hc_h_16"
  param {
    name: "W_hc"
  }
  inner_product_param {
    num_output: 208
    bias_term: false
    weight_filler {
      type: "gaussian"
      std: 0.1
    }
    axis: 2
  }
}
layer {
  name: "LSTM_gate_input_17"
  type: "Eltwise"
  bottom: "W_hc_h_16"
  bottom: "W_xc_x_17"
  top: "gate_input_17"
  eltwise_param {
    operation: SUM
  }
}
layer {
  name: "LSTM_unit_17"
  type: "LSTMUnit"
  bottom: "c_16"
  bottom: "gate_input_17"
  bottom: "cont_17"
  top: "c_17"
  top: "h_17"
}
layer {
  name: "LSTM_h_conted_17"
  type: "Scale"
  bottom: "h_17"
  bottom: "cont_18"
  top: "h_conted_17"
  scale_param {
    axis: 0
  }
}
layer {
  name: "LSTM_transform_18"
  type: "InnerProduct"
  bottom: "h_conted_17"
  top: "W_hc_h_17"
  param {
    name: "W_hc"
  }
  inner_product_param {
    num_output: 208
    bias_term: false
    weight_filler {
      type: "gaussian"
      std: 0.1
    }
    axis: 2
  }
}
layer {
  name: "LSTM_gate_input_18"
  type: "Eltwise"
  bottom: "W_hc_h_17"
  bottom: "W_xc_x_18"
  top: "gate_input_18"
  eltwise_param {
    operation: SUM
  }
}
layer {
  name: "LSTM_unit_18"
  type: "LSTMUnit"
  bottom: "c_17"
  bottom: "gate_input_18"
  bottom: "cont_18"
  top: "c_18"
  top: "h_18"
}
layer {
  name: "LSTM_h_conted_18"
  type: "Scale"
  bottom: "h_18"
  bottom: "cont_19"
  top: "h_conted_18"
  scale_param {
    axis: 0
  }
}
layer {
  name: "LSTM_transform_19"
  type: "InnerProduct"
  bottom: "h_conted_18"
  top: "W_hc_h_18"
  param {
    name: "W_hc"
  }
  inner_product_param {
    num_output: 208
    bias_term: false
    weight_filler {
      type: "gaussian"
      std: 0.1
    }
    axis: 2
  }
}
layer {
  name: "LSTM_gate_input_19"
  type: "Eltwise"
  bottom: "W_hc_h_18"
  bottom: "W_xc_x_19"
  top: "gate_input_19"
  eltwise_param {
    operation: SUM
  }
}
layer {
  name: "LSTM_unit_19"
  type: "LSTMUnit"
  bottom: "c_18"
  bottom: "gate_input_19"
  bottom: "cont_19"
  top: "c_19"
  top: "h_19"
}
layer {
  name: "LSTM_h_conted_19"
  type: "Scale"
  bottom: "h_19"
  bottom: "cont_20"
  top: "h_conted_19"
  scale_param {
    axis: 0
  }
}
layer {
  name: "LSTM_transform_20"
  type: "InnerProduct"
  bottom: "h_conted_19"
  top: "W_hc_h_19"
  param {
    name: "W_hc"
  }
  inner_product_param {
    num_output: 208
    bias_term: false
    weight_filler {
      type: "gaussian"
      std: 0.1
    }
    axis: 2
  }
}
layer {
  name: "LSTM_gate_input_20"
  type: "Eltwise"
  bottom: "W_hc_h_19"
  bottom: "W_xc_x_20"
  top: "gate_input_20"
  eltwise_param {
    operation: SUM
  }
}
layer {
  name: "LSTM_unit_20"
  type: "LSTMUnit"
  bottom: "c_19"
  bottom: "gate_input_20"
  bottom: "cont_20"
  top: "c_20"
  top: "h_20"
}
layer {
  name: "LSTM_h_conted_20"
  type: "Scale"
  bottom: "h_20"
  bottom: "cont_21"
  top: "h_conted_20"
  scale_param {
    axis: 0
  }
}
layer {
  name: "LSTM_transform_21"
  type: "InnerProduct"
  bottom: "h_conted_20"
  top: "W_hc_h_20"
  param {
    name: "W_hc"
  }
  inner_product_param {
    num_output: 208
    bias_term: false
    weight_filler {
      type: "gaussian"
      std: 0.1
    }
    axis: 2
  }
}
layer {
  name: "LSTM_gate_input_21"
  type: "Eltwise"
  bottom: "W_hc_h_20"
  bottom: "W_xc_x_21"
  top: "gate_input_21"
  eltwise_param {
    operation: SUM
  }
}
layer {
  name: "LSTM_unit_21"
  type: "LSTMUnit"
  bottom: "c_20"
  bottom: "gate_input_21"
  bottom: "cont_21"
  top: "c_21"
  top: "h_21"
}
layer {
  name: "LSTM_h_conted_21"
  type: "Scale"
  bottom: "h_21"
  bottom: "cont_22"
  top: "h_conted_21"
  scale_param {
    axis: 0
  }
}
layer {
  name: "LSTM_transform_22"
  type: "InnerProduct"
  bottom: "h_conted_21"
  top: "W_hc_h_21"
  param {
    name: "W_hc"
  }
  inner_product_param {
    num_output: 208
    bias_term: false
    weight_filler {
      type: "gaussian"
      std: 0.1
    }
    axis: 2
  }
}
layer {
  name: "LSTM_gate_input_22"
  type: "Eltwise"
  bottom: "W_hc_h_21"
  bottom: "W_xc_x_22"
  top: "gate_input_22"
  eltwise_param {
    operation: SUM
  }
}
layer {
  name: "LSTM_unit_22"
  type: "LSTMUnit"
  bottom: "c_21"
  bottom: "gate_input_22"
  bottom: "cont_22"
  top: "c_22"
  top: "h_22"
}
layer {
  name: "LSTM_h_conted_22"
  type: "Scale"
  bottom: "h_22"
  bottom: "cont_23"
  top: "h_conted_22"
  scale_param {
    axis: 0
  }
}
layer {
  name: "LSTM_transform_23"
  type: "InnerProduct"
  bottom: "h_conted_22"
  top: "W_hc_h_22"
  param {
    name: "W_hc"
  }
  inner_product_param {
    num_output: 208
    bias_term: false
    weight_filler {
      type: "gaussian"
      std: 0.1
    }
    axis: 2
  }
}
layer {
  name: "LSTM_gate_input_23"
  type: "Eltwise"
  bottom: "W_hc_h_22"
  bottom: "W_xc_x_23"
  top: "gate_input_23"
  eltwise_param {
    operation: SUM
  }
}
layer {
  name: "LSTM_unit_23"
  type: "LSTMUnit"
  bottom: "c_22"
  bottom: "gate_input_23"
  bottom: "cont_23"
  top: "c_23"
  top: "h_23"
}
layer {
  name: "LSTM_h_conted_23"
  type: "Scale"
  bottom: "h_23"
  bottom: "cont_24"
  top: "h_conted_23"
  scale_param {
    axis: 0
  }
}
layer {
  name: "LSTM_transform_24"
  type: "InnerProduct"
  bottom: "h_conted_23"
  top: "W_hc_h_23"
  param {
    name: "W_hc"
  }
  inner_product_param {
    num_output: 208
    bias_term: false
    weight_filler {
      type: "gaussian"
      std: 0.1
    }
    axis: 2
  }
}
layer {
  name: "LSTM_gate_input_24"
  type: "Eltwise"
  bottom: "W_hc_h_23"
  bottom: "W_xc_x_24"
  top: "gate_input_24"
  eltwise_param {
    operation: SUM
  }
}
layer {
  name: "LSTM_unit_24"
  type: "LSTMUnit"
  bottom: "c_23"
  bottom: "gate_input_24"
  bottom: "cont_24"
  top: "c_24"
  top: "h_24"
}
layer {
  name: "LSTM_h_conted_24"
  type: "Scale"
  bottom: "h_24"
  bottom: "cont_25"
  top: "h_conted_24"
  scale_param {
    axis: 0
  }
}
layer {
  name: "LSTM_transform_25"
  type: "InnerProduct"
  bottom: "h_conted_24"
  top: "W_hc_h_24"
  param {
    name: "W_hc"
  }
  inner_product_param {
    num_output: 208
    bias_term: false
    weight_filler {
      type: "gaussian"
      std: 0.1
    }
    axis: 2
  }
}
layer {
  name: "LSTM_gate_input_25"
  type: "Eltwise"
  bottom: "W_hc_h_24"
  bottom: "W_xc_x_25"
  top: "gate_input_25"
  eltwise_param {
    operation: SUM
  }
}
layer {
  name: "LSTM_unit_25"
  type: "LSTMUnit"
  bottom: "c_24"
  bottom: "gate_input_25"
  bottom: "cont_25"
  top: "c_25"
  top: "h_25"
}
layer {
  name: "LSTM_h_conted_25"
  type: "Scale"
  bottom: "h_25"
  bottom: "cont_26"
  top: "h_conted_25"
  scale_param {
    axis: 0
  }
}
layer {
  name: "LSTM_transform_26"
  type: "InnerProduct"
  bottom: "h_conted_25"
  top: "W_hc_h_25"
  param {
    name: "W_hc"
  }
  inner_product_param {
    num_output: 208
    bias_term: false
    weight_filler {
      type: "gaussian"
      std: 0.1
    }
    axis: 2
  }
}
layer {
  name: "LSTM_gate_input_26"
  type: "Eltwise"
  bottom: "W_hc_h_25"
  bottom: "W_xc_x_26"
  top: "gate_input_26"
  eltwise_param {
    operation: SUM
  }
}
layer {
  name: "LSTM_unit_26"
  type: "LSTMUnit"
  bottom: "c_25"
  bottom: "gate_input_26"
  bottom: "cont_26"
  top: "c_26"
  top: "h_26"
}
layer {
  name: "LSTM_h_conted_26"
  type: "Scale"
  bottom: "h_26"
  bottom: "cont_27"
  top: "h_conted_26"
  scale_param {
    axis: 0
  }
}
layer {
  name: "LSTM_transform_27"
  type: "InnerProduct"
  bottom: "h_conted_26"
  top: "W_hc_h_26"
  param {
    name: "W_hc"
  }
  inner_product_param {
    num_output: 208
    bias_term: false
    weight_filler {
      type: "gaussian"
      std: 0.1
    }
    axis: 2
  }
}
layer {
  name: "LSTM_gate_input_27"
  type: "Eltwise"
  bottom: "W_hc_h_26"
  bottom: "W_xc_x_27"
  top: "gate_input_27"
  eltwise_param {
    operation: SUM
  }
}
layer {
  name: "LSTM_unit_27"
  type: "LSTMUnit"
  bottom: "c_26"
  bottom: "gate_input_27"
  bottom: "cont_27"
  top: "c_27"
  top: "h_27"
}
layer {
  name: "LSTM_h_conted_27"
  type: "Scale"
  bottom: "h_27"
  bottom: "cont_28"
  top: "h_conted_27"
  scale_param {
    axis: 0
  }
}
layer {
  name: "LSTM_transform_28"
  type: "InnerProduct"
  bottom: "h_conted_27"
  top: "W_hc_h_27"
  param {
    name: "W_hc"
  }
  inner_product_param {
    num_output: 208
    bias_term: false
    weight_filler {
      type: "gaussian"
      std: 0.1
    }
    axis: 2
  }
}
layer {
  name: "LSTM_gate_input_28"
  type: "Eltwise"
  bottom: "W_hc_h_27"
  bottom: "W_xc_x_28"
  top: "gate_input_28"
  eltwise_param {
    operation: SUM
  }
}
layer {
  name: "LSTM_unit_28"
  type: "LSTMUnit"
  bottom: "c_27"
  bottom: "gate_input_28"
  bottom: "cont_28"
  top: "c_28"
  top: "h_28"
}
layer {
  name: "LSTM_h_conted_28"
  type: "Scale"
  bottom: "h_28"
  bottom: "cont_29"
  top: "h_conted_28"
  scale_param {
    axis: 0
  }
}
layer {
  name: "LSTM_transform_29"
  type: "InnerProduct"
  bottom: "h_conted_28"
  top: "W_hc_h_28"
  param {
    name: "W_hc"
  }
  inner_product_param {
    num_output: 208
    bias_term: false
    weight_filler {
      type: "gaussian"
      std: 0.1
    }
    axis: 2
  }
}
layer {
  name: "LSTM_gate_input_29"
  type: "Eltwise"
  bottom: "W_hc_h_28"
  bottom: "W_xc_x_29"
  top: "gate_input_29"
  eltwise_param {
    operation: SUM
  }
}
layer {
  name: "LSTM_unit_29"
  type: "LSTMUnit"
  bottom: "c_28"
  bottom: "gate_input_29"
  bottom: "cont_29"
  top: "c_29"
  top: "h_29"
}
layer {
  name: "LSTM_h_conted_29"
  type: "Scale"
  bottom: "h_29"
  bottom: "cont_30"
  top: "h_conted_29"
  scale_param {
    axis: 0
  }
}
layer {
  name: "LSTM_transform_30"
  type: "InnerProduct"
  bottom: "h_conted_29"
  top: "W_hc_h_29"
  param {
    name: "W_hc"
  }
  inner_product_param {
    num_output: 208
    bias_term: false
    weight_filler {
      type: "gaussian"
      std: 0.1
    }
    axis: 2
  }
}
layer {
  name: "LSTM_gate_input_30"
  type: "Eltwise"
  bottom: "W_hc_h_29"
  bottom: "W_xc_x_30"
  top: "gate_input_30"
  eltwise_param {
    operation: SUM
  }
}
layer {
  name: "LSTM_unit_30"
  type: "LSTMUnit"
  bottom: "c_29"
  bottom: "gate_input_30"
  bottom: "cont_30"
  top: "c_30"
  top: "h_30"
}
layer {
  name: "LSTM_h_conted_30"
  type: "Scale"
  bottom: "h_30"
  bottom: "cont_31"
  top: "h_conted_30"
  scale_param {
    axis: 0
  }
}
layer {
  name: "LSTM_transform_31"
  type: "InnerProduct"
  bottom: "h_conted_30"
  top: "W_hc_h_30"
  param {
    name: "W_hc"
  }
  inner_product_param {
    num_output: 208
    bias_term: false
    weight_filler {
      type: "gaussian"
      std: 0.1
    }
    axis: 2
  }
}
layer {
  name: "LSTM_gate_input_31"
  type: "Eltwise"
  bottom: "W_hc_h_30"
  bottom: "W_xc_x_31"
  top: "gate_input_31"
  eltwise_param {
    operation: SUM
  }
}
layer {
  name: "LSTM_unit_31"
  type: "LSTMUnit"
  bottom: "c_30"
  bottom: "gate_input_31"
  bottom: "cont_31"
  top: "c_31"
  top: "h_31"
}
layer {
  name: "LSTM_h_conted_31"
  type: "Scale"
  bottom: "h_31"
  bottom: "cont_32"
  top: "h_conted_31"
  scale_param {
    axis: 0
  }
}
layer {
  name: "LSTM_transform_32"
  type: "InnerProduct"
  bottom: "h_conted_31"
  top: "W_hc_h_31"
  param {
    name: "W_hc"
  }
  inner_product_param {
    num_output: 208
    bias_term: false
    weight_filler {
      type: "gaussian"
      std: 0.1
    }
    axis: 2
  }
}
layer {
  name: "LSTM_gate_input_32"
  type: "Eltwise"
  bottom: "W_hc_h_31"
  bottom: "W_xc_x_32"
  top: "gate_input_32"
  eltwise_param {
    operation: SUM
  }
}
layer {
  name: "LSTM_unit_32"
  type: "LSTMUnit"
  bottom: "c_31"
  bottom: "gate_input_32"
  bottom: "cont_32"
  top: "c_32"
  top: "h_32"
}
layer {
  name: "LSTM_h_conted_32"
  type: "Scale"
  bottom: "h_32"
  bottom: "cont_33"
  top: "h_conted_32"
  scale_param {
    axis: 0
  }
}
layer {
  name: "LSTM_transform_33"
  type: "InnerProduct"
  bottom: "h_conted_32"
  top: "W_hc_h_32"
  param {
    name: "W_hc"
  }
  inner_product_param {
    num_output: 208
    bias_term: false
    weight_filler {
      type: "gaussian"
      std: 0.1
    }
    axis: 2
  }
}
layer {
  name: "LSTM_gate_input_33"
  type: "Eltwise"
  bottom: "W_hc_h_32"
  bottom: "W_xc_x_33"
  top: "gate_input_33"
  eltwise_param {
    operation: SUM
  }
}
layer {
  name: "LSTM_unit_33"
  type: "LSTMUnit"
  bottom: "c_32"
  bottom: "gate_input_33"
  bottom: "cont_33"
  top: "c_33"
  top: "h_33"
}
layer {
  name: "LSTM_h_conted_33"
  type: "Scale"
  bottom: "h_33"
  bottom: "cont_34"
  top: "h_conted_33"
  scale_param {
    axis: 0
  }
}
layer {
  name: "LSTM_transform_34"
  type: "InnerProduct"
  bottom: "h_conted_33"
  top: "W_hc_h_33"
  param {
    name: "W_hc"
  }
  inner_product_param {
    num_output: 208
    bias_term: false
    weight_filler {
      type: "gaussian"
      std: 0.1
    }
    axis: 2
  }
}
layer {
  name: "LSTM_gate_input_34"
  type: "Eltwise"
  bottom: "W_hc_h_33"
  bottom: "W_xc_x_34"
  top: "gate_input_34"
  eltwise_param {
    operation: SUM
  }
}
layer {
  name: "LSTM_unit_34"
  type: "LSTMUnit"
  bottom: "c_33"
  bottom: "gate_input_34"
  bottom: "cont_34"
  top: "c_34"
  top: "h_34"
}
layer {
  name: "LSTM_"
  type: "Split"
  bottom: "c_34"
  top: "c_T"
}
layer {
  name: "LSTM_h_concat"
  type: "Concat"
  bottom: "h_1"
  bottom: "h_2"
  bottom: "h_3"
  bottom: "h_4"
  bottom: "h_5"
  bottom: "h_6"
  bottom: "h_7"
  bottom: "h_8"
  bottom: "h_9"
  bottom: "h_10"
  bottom: "h_11"
  bottom: "h_12"
  bottom: "h_13"
  bottom: "h_14"
  bottom: "h_15"
  bottom: "h_16"
  bottom: "h_17"
  bottom: "h_18"
  bottom: "h_19"
  bottom: "h_20"
  bottom: "h_21"
  bottom: "h_22"
  bottom: "h_23"
  bottom: "h_24"
  bottom: "h_25"
  bottom: "h_26"
  bottom: "h_27"
  bottom: "h_28"
  bottom: "h_29"
  bottom: "h_30"
  bottom: "h_31"
  bottom: "h_32"
  bottom: "h_33"
  bottom: "h_34"
  top: "h"
  concat_param {
    axis: 0
  }
}
layer {
  name: "h_pseudoloss"
  type: "Reduction"
  bottom: "h"
  top: "h_pseudoloss"
  loss_weight: 1
}
I0717 12:30:49.619307 27176 layer_factory.hpp:77] Creating layer LSTM_
I0717 12:30:49.619324 27176 net.cpp:86] Creating Layer LSTM_
I0717 12:30:49.619331 27176 net.cpp:382] LSTM_ -> x
I0717 12:30:49.619345 27176 net.cpp:382] LSTM_ -> cont
I0717 12:30:49.619400 27176 net.cpp:124] Setting up LSTM_
I0717 12:30:49.619410 27176 net.cpp:131] Top shape: 34 10 52 (17680)
I0717 12:30:49.619417 27176 net.cpp:131] Top shape: 34 10 (340)
I0717 12:30:49.619422 27176 net.cpp:139] Memory required for data: 72080
I0717 12:30:49.619427 27176 layer_factory.hpp:77] Creating layer LSTM_
I0717 12:30:49.619436 27176 net.cpp:86] Creating Layer LSTM_
I0717 12:30:49.619442 27176 net.cpp:382] LSTM_ -> c_0
I0717 12:30:49.619451 27176 net.cpp:382] LSTM_ -> h_0
I0717 12:30:49.619488 27176 net.cpp:124] Setting up LSTM_
I0717 12:30:49.619498 27176 net.cpp:131] Top shape: 1 10 52 (520)
I0717 12:30:49.619504 27176 net.cpp:131] Top shape: 1 10 52 (520)
I0717 12:30:49.619509 27176 net.cpp:139] Memory required for data: 76240
I0717 12:30:49.619514 27176 layer_factory.hpp:77] Creating layer LSTM_cont_slice
I0717 12:30:49.619529 27176 net.cpp:86] Creating Layer LSTM_cont_slice
I0717 12:30:49.619535 27176 net.cpp:408] LSTM_cont_slice <- cont
I0717 12:30:49.619545 27176 net.cpp:382] LSTM_cont_slice -> cont_1
I0717 12:30:49.619559 27176 net.cpp:382] LSTM_cont_slice -> cont_2
…
I0717 12:30:49.619827 27176 net.cpp:382] LSTM_cont_slice -> cont_27
I0717 12:30:49.619837 27176 net.cpp:382] LSTM_cont_slice -> cont_28
I0717 12:30:49.619846 27176 net.cpp:382] LSTM_cont_slice -> cont_29
I0717 12:30:49.619859 27176 net.cpp:382] LSTM_cont_slice -> cont_30
I0717 12:30:49.619869 27176 net.cpp:382] LSTM_cont_slice -> cont_31
I0717 12:30:49.619879 27176 net.cpp:382] LSTM_cont_slice -> cont_32
I0717 12:30:49.619890 27176 net.cpp:382] LSTM_cont_slice -> cont_33
I0717 12:30:49.619901 27176 net.cpp:382] LSTM_cont_slice -> cont_34
I0717 12:30:49.620328 27176 net.cpp:124] Setting up LSTM_cont_slice
I0717 12:30:49.620339 27176 net.cpp:131] Top shape: 1 10 (10)
I0717 12:30:49.620347 27176 net.cpp:131] Top shape: 1 10 (10)
I0717 12:30:49.620352 27176 net.cpp:131] Top shape: 1 10 (10)
I0717 12:30:49.620357 27176 net.cpp:131] Top shape: 1 10 (10)
I0717 12:30:49.620363 27176 net.cpp:131] Top shape: 1 10 (10)
I0717 12:30:49.620369 27176 net.cpp:131] Top shape: 1 10 (10)
I0717 12:30:49.620374 27176 net.cpp:131] Top shape: 1 10 (10)
I0717 12:30:49.620380 27176 net.cpp:131] Top shape: 1 10 (10)
I0717 12:30:49.620385 27176 net.cpp:131] Top shape: 1 10 (10)
I0717 12:30:49.620391 27176 net.cpp:131] Top shape: 1 10 (10)
I0717 12:30:49.620396 27176 net.cpp:131] Top shape: 1 10 (10)
I0717 12:30:49.620402 27176 net.cpp:131] Top shape: 1 10 (10)
I0717 12:30:49.620409 27176 net.cpp:131] Top shape: 1 10 (10)
I0717 12:30:49.620414 27176 net.cpp:131] Top shape: 1 10 (10)
I0717 12:30:49.620419 27176 net.cpp:131] Top shape: 1 10 (10)
I0717 12:30:49.620424 27176 net.cpp:131] Top shape: 1 10 (10)
I0717 12:30:49.620430 27176 net.cpp:131] Top shape: 1 10 (10)
I0717 12:30:49.620435 27176 net.cpp:131] Top shape: 1 10 (10)
I0717 12:30:49.620441 27176 net.cpp:131] Top shape: 1 10 (10)
I0717 12:30:49.620446 27176 net.cpp:131] Top shape: 1 10 (10)
I0717 12:30:49.620451 27176 net.cpp:131] Top shape: 1 10 (10)
I0717 12:30:49.620457 27176 net.cpp:131] Top shape: 1 10 (10)
I0717 12:30:49.620462 27176 net.cpp:131] Top shape: 1 10 (10)
I0717 12:30:49.620468 27176 net.cpp:131] Top shape: 1 10 (10)
I0717 12:30:49.620473 27176 net.cpp:131] Top shape: 1 10 (10)
I0717 12:30:49.620479 27176 net.cpp:131] Top shape: 1 10 (10)
I0717 12:30:49.620484 27176 net.cpp:131] Top shape: 1 10 (10)
I0717 12:30:49.620491 27176 net.cpp:131] Top shape: 1 10 (10)
I0717 12:30:49.620496 27176 net.cpp:131] Top shape: 1 10 (10)
I0717 12:30:49.620501 27176 net.cpp:131] Top shape: 1 10 (10)
I0717 12:30:49.620507 27176 net.cpp:131] Top shape: 1 10 (10)
I0717 12:30:49.620512 27176 net.cpp:131] Top shape: 1 10 (10)
I0717 12:30:49.620517 27176 net.cpp:131] Top shape: 1 10 (10)
I0717 12:30:49.620523 27176 net.cpp:131] Top shape: 1 10 (10)
I0717 12:30:49.620528 27176 net.cpp:139] Memory required for data: 77600
I0717 12:30:49.620533 27176 layer_factory.hpp:77] Creating layer cont_1_LSTM_cont_slice_0_split
I0717 12:30:49.620540 27176 net.cpp:86] Creating Layer cont_1_LSTM_cont_slice_0_split
I0717 12:30:49.620550 27176 net.cpp:408] cont_1_LSTM_cont_slice_0_split <- cont_1
I0717 12:30:49.620566 27176 net.cpp:382] cont_1_LSTM_cont_slice_0_split -> cont_1_LSTM_cont_slice_0_split_0
I0717 12:30:49.620575 27176 net.cpp:382] cont_1_LSTM_cont_slice_0_split -> cont_1_LSTM_cont_slice_0_split_1
I0717 12:30:49.620615 27176 net.cpp:124] Setting up cont_1_LSTM_cont_slice_0_split
I0717 12:30:49.620623 27176 net.cpp:131] Top shape: 1 10 (10)
I0717 12:30:49.620630 27176 net.cpp:131] Top shape: 1 10 (10)
I0717 12:30:49.620635 27176 net.cpp:139] Memory required for data: 77680
I0717 12:30:49.620640 27176 layer_factory.hpp:77] Creating layer cont_2_LSTM_cont_slice_1_split
I0717 12:30:49.620648 27176 net.cpp:86] Creating Layer cont_2_LSTM_cont_slice_1_split
I0717 12:30:49.620654 27176 net.cpp:408] cont_2_LSTM_cont_slice_1_split <- cont_2
I0717 12:30:49.620661 27176 net.cpp:382] cont_2_LSTM_cont_slice_1_split -> cont_2_LSTM_cont_slice_1_split_0
I0717 12:30:49.620669 27176 net.cpp:382] cont_2_LSTM_cont_slice_1_split -> cont_2_LSTM_cont_slice_1_split_1
I0717 12:30:49.620707 27176 net.cpp:124] Setting up cont_2_LSTM_cont_slice_1_split
I0717 12:30:49.620714 27176 net.cpp:131] Top shape: 1 10 (10)
I0717 12:30:49.620720 27176 net.cpp:131] Top shape: 1 10 (10)
I0717 12:30:49.620725 27176 net.cpp:139] Memory required for data: 77760
I0717 12:30:49.620730 27176 layer_factory.hpp:77] Creating layer cont_3_LSTM_cont_slice_2_split
I0717 12:30:49.620736 27176 net.cpp:86] Creating Layer cont_3_LSTM_cont_slice_2_split
I0717 12:30:49.620741 27176 net.cpp:408] cont_3_LSTM_cont_slice_2_split <- cont_3
I0717 12:30:49.620750 27176 net.cpp:382] cont_3_LSTM_cont_slice_2_split -> cont_3_LSTM_cont_slice_2_split_0
I0717 12:30:49.620759 27176 net.cpp:382] cont_3_LSTM_cont_slice_2_split -> cont_3_LSTM_cont_slice_2_split_1
I0717 12:30:49.620793 27176 net.cpp:124] Setting up cont_3_LSTM_cont_slice_2_split
I0717 12:30:49.620805 27176 net.cpp:131] Top shape: 1 10 (10)
I0717 12:30:49.620810 27176 net.cpp:131] Top shape: 1 10 (10)
I0717 12:30:49.620815 27176 net.cpp:139] Memory required for data: 77840
I0717 12:30:49.620820 27176 layer_factory.hpp:77] Creating layer cont_4_LSTM_cont_slice_3_split
I0717 12:30:49.620826 27176 net.cpp:86] Creating Layer cont_4_LSTM_cont_slice_3_split
I0717 12:30:49.620831 27176 net.cpp:408] cont_4_LSTM_cont_slice_3_split <- cont_4
I0717 12:30:49.620838 27176 net.cpp:382] cont_4_LSTM_cont_slice_3_split -> cont_4_LSTM_cont_slice_3_split_0
I0717 12:30:49.620846 27176 net.cpp:382] cont_4_LSTM_cont_slice_3_split -> cont_4_LSTM_cont_slice_3_split_1
I0717 12:30:49.620883 27176 net.cpp:124] Setting up cont_4_LSTM_cont_slice_3_split
I0717 12:30:49.620892 27176 net.cpp:131] Top shape: 1 10 (10)
I0717 12:30:49.620896 27176 net.cpp:131] Top shape: 1 10 (10)
I0717 12:30:49.620901 27176 net.cpp:139] Memory required for data: 77920
I0717 12:30:49.620906 27176 layer_factory.hpp:77] Creating layer cont_5_LSTM_cont_slice_4_split
I0717 12:30:49.620913 27176 net.cpp:86] Creating Layer cont_5_LSTM_cont_slice_4_split
I0717 12:30:49.620918 27176 net.cpp:408] cont_5_LSTM_cont_slice_4_split <- cont_5
I0717 12:30:49.620929 27176 net.cpp:382] cont_5_LSTM_cont_slice_4_split -> cont_5_LSTM_cont_slice_4_split_0
I0717 12:30:49.620937 27176 net.cpp:382] cont_5_LSTM_cont_slice_4_split -> cont_5_LSTM_cont_slice_4_split_1
I0717 12:30:49.620972 27176 net.cpp:124] Setting up cont_5_LSTM_cont_slice_4_split
I0717 12:30:49.620980 27176 net.cpp:131] Top shape: 1 10 (10)
I0717 12:30:49.620986 27176 net.cpp:131] Top shape: 1 10 (10)
I0717 12:30:49.620991 27176 net.cpp:139] Memory required for data: 78000
I0717 12:30:49.620996 27176 layer_factory.hpp:77] Creating layer cont_6_LSTM_cont_slice_5_split
I0717 12:30:49.621006 27176 net.cpp:86] Creating Layer cont_6_LSTM_cont_slice_5_split
I0717 12:30:49.621011 27176 net.cpp:408] cont_6_LSTM_cont_slice_5_split <- cont_6
I0717 12:30:49.621018 27176 net.cpp:382] cont_6_LSTM_cont_slice_5_split -> cont_6_LSTM_cont_slice_5_split_0
I0717 12:30:49.621026 27176 net.cpp:382] cont_6_LSTM_cont_slice_5_split -> cont_6_LSTM_cont_slice_5_split_1
I0717 12:30:49.621065 27176 net.cpp:124] Setting up cont_6_LSTM_cont_slice_5_split
I0717 12:30:49.621079 27176 net.cpp:131] Top shape: 1 10 (10)
I0717 12:30:49.621086 27176 net.cpp:131] Top shape: 1 10 (10)
I0717 12:30:49.621090 27176 net.cpp:139] Memory required for data: 78080
I0717 12:30:49.621095 27176 layer_factory.hpp:77] Creating layer cont_7_LSTM_cont_slice_6_split
I0717 12:30:49.621101 27176 net.cpp:86] Creating Layer cont_7_LSTM_cont_slice_6_split
I0717 12:30:49.621107 27176 net.cpp:408] cont_7_LSTM_cont_slice_6_split <- cont_7
I0717 12:30:49.621114 27176 net.cpp:382] cont_7_LSTM_cont_slice_6_split -> cont_7_LSTM_cont_slice_6_split_0
I0717 12:30:49.621121 27176 net.cpp:382] cont_7_LSTM_cont_slice_6_split -> cont_7_LSTM_cont_slice_6_split_1
I0717 12:30:49.621157 27176 net.cpp:124] Setting up cont_7_LSTM_cont_slice_6_split
I0717 12:30:49.621165 27176 net.cpp:131] Top shape: 1 10 (10)
I0717 12:30:49.621171 27176 net.cpp:131] Top shape: 1 10 (10)
I0717 12:30:49.621176 27176 net.cpp:139] Memory required for data: 78160
I0717 12:30:49.621181 27176 layer_factory.hpp:77] Creating layer cont_8_LSTM_cont_slice_7_split
I0717 12:30:49.621187 27176 net.cpp:86] Creating Layer cont_8_LSTM_cont_slice_7_split
I0717 12:30:49.621192 27176 net.cpp:408] cont_8_LSTM_cont_slice_7_split <- cont_8
I0717 12:30:49.621201 27176 net.cpp:382] cont_8_LSTM_cont_slice_7_split -> cont_8_LSTM_cont_slice_7_split_0
I0717 12:30:49.621209 27176 net.cpp:382] cont_8_LSTM_cont_slice_7_split -> cont_8_LSTM_cont_slice_7_split_1
I0717 12:30:49.621243 27176 net.cpp:124] Setting up cont_8_LSTM_cont_slice_7_split
I0717 12:30:49.621258 27176 net.cpp:131] Top shape: 1 10 (10)
I0717 12:30:49.621266 27176 net.cpp:131] Top shape: 1 10 (10)
I0717 12:30:49.621271 27176 net.cpp:139] Memory required for data: 78240
I0717 12:30:49.621276 27176 layer_factory.hpp:77] Creating layer cont_9_LSTM_cont_slice_8_split
I0717 12:30:49.621289 27176 net.cpp:86] Creating Layer cont_9_LSTM_cont_slice_8_split
I0717 12:30:49.621294 27176 net.cpp:408] cont_9_LSTM_cont_slice_8_split <- cont_9
I0717 12:30:49.621300 27176 net.cpp:382] cont_9_LSTM_cont_slice_8_split -> cont_9_LSTM_cont_slice_8_split_0
I0717 12:30:49.621309 27176 net.cpp:382] cont_9_LSTM_cont_slice_8_split -> cont_9_LSTM_cont_slice_8_split_1
I0717 12:30:49.621345 27176 net.cpp:124] Setting up cont_9_LSTM_cont_slice_8_split
I0717 12:30:49.621352 27176 net.cpp:131] Top shape: 1 10 (10)
I0717 12:30:49.621358 27176 net.cpp:131] Top shape: 1 10 (10)
I0717 12:30:49.621362 27176 net.cpp:139] Memory required for data: 78320
I0717 12:30:49.621367 27176 layer_factory.hpp:77] Creating layer cont_10_LSTM_cont_slice_9_split
I0717 12:30:49.621381 27176 net.cpp:86] Creating Layer cont_10_LSTM_cont_slice_9_split
I0717 12:30:49.621387 27176 net.cpp:408] cont_10_LSTM_cont_slice_9_split <- cont_10
I0717 12:30:49.621393 27176 net.cpp:382] cont_10_LSTM_cont_slice_9_split -> cont_10_LSTM_cont_slice_9_split_0
I0717 12:30:49.621400 27176 net.cpp:382] cont_10_LSTM_cont_slice_9_split -> cont_10_LSTM_cont_slice_9_split_1
I0717 12:30:49.621435 27176 net.cpp:124] Setting up cont_10_LSTM_cont_slice_9_split
I0717 12:30:49.621443 27176 net.cpp:131] Top shape: 1 10 (10)
I0717 12:30:49.621449 27176 net.cpp:131] Top shape: 1 10 (10)
I0717 12:30:49.621454 27176 net.cpp:139] Memory required for data: 78400
I0717 12:30:49.621459 27176 layer_factory.hpp:77] Creating layer cont_11_LSTM_cont_slice_10_split
I0717 12:30:49.621464 27176 net.cpp:86] Creating Layer cont_11_LSTM_cont_slice_10_split
I0717 12:30:49.621470 27176 net.cpp:408] cont_11_LSTM_cont_slice_10_split <- cont_11
I0717 12:30:49.621476 27176 net.cpp:382] cont_11_LSTM_cont_slice_10_split -> cont_11_LSTM_cont_slice_10_split_0
I0717 12:30:49.621484 27176 net.cpp:382] cont_11_LSTM_cont_slice_10_split -> cont_11_LSTM_cont_slice_10_split_1
I0717 12:30:49.621521 27176 net.cpp:124] Setting up cont_11_LSTM_cont_slice_10_split
I0717 12:30:49.621529 27176 net.cpp:131] Top shape: 1 10 (10)
I0717 12:30:49.621536 27176 net.cpp:131] Top shape: 1 10 (10)
I0717 12:30:49.621539 27176 net.cpp:139] Memory required for data: 78480
I0717 12:30:49.621548 27176 layer_factory.hpp:77] Creating layer cont_12_LSTM_cont_slice_11_split
I0717 12:30:49.621562 27176 net.cpp:86] Creating Layer cont_12_LSTM_cont_slice_11_split
I0717 12:30:49.621567 27176 net.cpp:408] cont_12_LSTM_cont_slice_11_split <- cont_12
I0717 12:30:49.621575 27176 net.cpp:382] cont_12_LSTM_cont_slice_11_split -> cont_12_LSTM_cont_slice_11_split_0
I0717 12:30:49.621583 27176 net.cpp:382] cont_12_LSTM_cont_slice_11_split -> cont_12_LSTM_cont_slice_11_split_1
I0717 12:30:49.621618 27176 net.cpp:124] Setting up cont_12_LSTM_cont_slice_11_split
I0717 12:30:49.621626 27176 net.cpp:131] Top shape: 1 10 (10)
I0717 12:30:49.621632 27176 net.cpp:131] Top shape: 1 10 (10)
I0717 12:30:49.621636 27176 net.cpp:139] Memory required for data: 78560
I0717 12:30:49.621641 27176 layer_factory.hpp:77] Creating layer cont_13_LSTM_cont_slice_12_split
I0717 12:30:49.621649 27176 net.cpp:86] Creating Layer cont_13_LSTM_cont_slice_12_split
I0717 12:30:49.621655 27176 net.cpp:408] cont_13_LSTM_cont_slice_12_split <- cont_13
I0717 12:30:49.621662 27176 net.cpp:382] cont_13_LSTM_cont_slice_12_split -> cont_13_LSTM_cont_slice_12_split_0
I0717 12:30:49.621670 27176 net.cpp:382] cont_13_LSTM_cont_slice_12_split -> cont_13_LSTM_cont_slice_12_split_1
I0717 12:30:49.621709 27176 net.cpp:124] Setting up cont_13_LSTM_cont_slice_12_split
I0717 12:30:49.621717 27176 net.cpp:131] Top shape: 1 10 (10)
I0717 12:30:49.621723 27176 net.cpp:131] Top shape: 1 10 (10)
I0717 12:30:49.621728 27176 net.cpp:139] Memory required for data: 78640
I0717 12:30:49.621733 27176 layer_factory.hpp:77] Creating layer cont_14_LSTM_cont_slice_13_split
I0717 12:30:49.621740 27176 net.cpp:86] Creating Layer cont_14_LSTM_cont_slice_13_split
I0717 12:30:49.621747 27176 net.cpp:408] cont_14_LSTM_cont_slice_13_split <- cont_14
I0717 12:30:49.621752 27176 net.cpp:382] cont_14_LSTM_cont_slice_13_split -> cont_14_LSTM_cont_slice_13_split_0
I0717 12:30:49.621767 27176 net.cpp:382] cont_14_LSTM_cont_slice_13_split -> cont_14_LSTM_cont_slice_13_split_1
I0717 12:30:49.621804 27176 net.cpp:124] Setting up cont_14_LSTM_cont_slice_13_split
I0717 12:30:49.621814 27176 net.cpp:131] Top shape: 1 10 (10)
I0717 12:30:49.621819 27176 net.cpp:131] Top shape: 1 10 (10)
I0717 12:30:49.621824 27176 net.cpp:139] Memory required for data: 78720
I0717 12:30:49.621829 27176 layer_factory.hpp:77] Creating layer cont_15_LSTM_cont_slice_14_split
I0717 12:30:49.621835 27176 net.cpp:86] Creating Layer cont_15_LSTM_cont_slice_14_split
I0717 12:30:49.621840 27176 net.cpp:408] cont_15_LSTM_cont_slice_14_split <- cont_15
I0717 12:30:49.621847 27176 net.cpp:382] cont_15_LSTM_cont_slice_14_split -> cont_15_LSTM_cont_slice_14_split_0
I0717 12:30:49.621855 27176 net.cpp:382] cont_15_LSTM_cont_slice_14_split -> cont_15_LSTM_cont_slice_14_split_1
I0717 12:30:49.621889 27176 net.cpp:124] Setting up cont_15_LSTM_cont_slice_14_split
I0717 12:30:49.621898 27176 net.cpp:131] Top shape: 1 10 (10)
I0717 12:30:49.621903 27176 net.cpp:131] Top shape: 1 10 (10)
I0717 12:30:49.621908 27176 net.cpp:139] Memory required for data: 78800
I0717 12:30:49.621913 27176 layer_factory.hpp:77] Creating layer cont_16_LSTM_cont_slice_15_split
I0717 12:30:49.621919 27176 net.cpp:86] Creating Layer cont_16_LSTM_cont_slice_15_split
I0717 12:30:49.621924 27176 net.cpp:408] cont_16_LSTM_cont_slice_15_split <- cont_16
I0717 12:30:49.621930 27176 net.cpp:382] cont_16_LSTM_cont_slice_15_split -> cont_16_LSTM_cont_slice_15_split_0
I0717 12:30:49.621938 27176 net.cpp:382] cont_16_LSTM_cont_slice_15_split -> cont_16_LSTM_cont_slice_15_split_1
I0717 12:30:49.621973 27176 net.cpp:124] Setting up cont_16_LSTM_cont_slice_15_split
I0717 12:30:49.621981 27176 net.cpp:131] Top shape: 1 10 (10)
I0717 12:30:49.621987 27176 net.cpp:131] Top shape: 1 10 (10)
I0717 12:30:49.621992 27176 net.cpp:139] Memory required for data: 78880
I0717 12:30:49.621997 27176 layer_factory.hpp:77] Creating layer cont_17_LSTM_cont_slice_16_split
I0717 12:30:49.622004 27176 net.cpp:86] Creating Layer cont_17_LSTM_cont_slice_16_split
I0717 12:30:49.622012 27176 net.cpp:408] cont_17_LSTM_cont_slice_16_split <- cont_17
I0717 12:30:49.622026 27176 net.cpp:382] cont_17_LSTM_cont_slice_16_split -> cont_17_LSTM_cont_slice_16_split_0
I0717 12:30:49.622035 27176 net.cpp:382] cont_17_LSTM_cont_slice_16_split -> cont_17_LSTM_cont_slice_16_split_1
I0717 12:30:49.622068 27176 net.cpp:124] Setting up cont_17_LSTM_cont_slice_16_split
I0717 12:30:49.622076 27176 net.cpp:131] Top shape: 1 10 (10)
I0717 12:30:49.622082 27176 net.cpp:131] Top shape: 1 10 (10)
I0717 12:30:49.622087 27176 net.cpp:139] Memory required for data: 78960
I0717 12:30:49.622092 27176 layer_factory.hpp:77] Creating layer cont_18_LSTM_cont_slice_17_split
I0717 12:30:49.622099 27176 net.cpp:86] Creating Layer cont_18_LSTM_cont_slice_17_split
I0717 12:30:49.622105 27176 net.cpp:408] cont_18_LSTM_cont_slice_17_split <- cont_18
I0717 12:30:49.622112 27176 net.cpp:382] cont_18_LSTM_cont_slice_17_split -> cont_18_LSTM_cont_slice_17_split_0
I0717 12:30:49.622119 27176 net.cpp:382] cont_18_LSTM_cont_slice_17_split -> cont_18_LSTM_cont_slice_17_split_1
I0717 12:30:49.622155 27176 net.cpp:124] Setting up cont_18_LSTM_cont_slice_17_split
I0717 12:30:49.622164 27176 net.cpp:131] Top shape: 1 10 (10)
I0717 12:30:49.622169 27176 net.cpp:131] Top shape: 1 10 (10)
I0717 12:30:49.622174 27176 net.cpp:139] Memory required for data: 79040
I0717 12:30:49.622179 27176 layer_factory.hpp:77] Creating layer cont_19_LSTM_cont_slice_18_split
I0717 12:30:49.622184 27176 net.cpp:86] Creating Layer cont_19_LSTM_cont_slice_18_split
I0717 12:30:49.622189 27176 net.cpp:408] cont_19_LSTM_cont_slice_18_split <- cont_19
I0717 12:30:49.622196 27176 net.cpp:382] cont_19_LSTM_cont_slice_18_split -> cont_19_LSTM_cont_slice_18_split_0
I0717 12:30:49.622205 27176 net.cpp:382] cont_19_LSTM_cont_slice_18_split -> cont_19_LSTM_cont_slice_18_split_1
I0717 12:30:49.622241 27176 net.cpp:124] Setting up cont_19_LSTM_cont_slice_18_split
I0717 12:30:49.622248 27176 net.cpp:131] Top shape: 1 10 (10)
I0717 12:30:49.622254 27176 net.cpp:131] Top shape: 1 10 (10)
I0717 12:30:49.622259 27176 net.cpp:139] Memory required for data: 79120
I0717 12:30:49.622264 27176 layer_factory.hpp:77] Creating layer cont_20_LSTM_cont_slice_19_split
I0717 12:30:49.622270 27176 net.cpp:86] Creating Layer cont_20_LSTM_cont_slice_19_split
I0717 12:30:49.622275 27176 net.cpp:408] cont_20_LSTM_cont_slice_19_split <- cont_20
I0717 12:30:49.622282 27176 net.cpp:382] cont_20_LSTM_cont_slice_19_split -> cont_20_LSTM_cont_slice_19_split_0
I0717 12:30:49.622292 27176 net.cpp:382] cont_20_LSTM_cont_slice_19_split -> cont_20_LSTM_cont_slice_19_split_1
I0717 12:30:49.622325 27176 net.cpp:124] Setting up cont_20_LSTM_cont_slice_19_split
I0717 12:30:49.622334 27176 net.cpp:131] Top shape: 1 10 (10)
I0717 12:30:49.622339 27176 net.cpp:131] Top shape: 1 10 (10)
I0717 12:30:49.622344 27176 net.cpp:139] Memory required for data: 79200
I0717 12:30:49.622349 27176 layer_factory.hpp:77] Creating layer cont_21_LSTM_cont_slice_20_split
I0717 12:30:49.622357 27176 net.cpp:86] Creating Layer cont_21_LSTM_cont_slice_20_split
I0717 12:30:49.622362 27176 net.cpp:408] cont_21_LSTM_cont_slice_20_split <- cont_21
I0717 12:30:49.622370 27176 net.cpp:382] cont_21_LSTM_cont_slice_20_split -> cont_21_LSTM_cont_slice_20_split_0
I0717 12:30:49.622376 27176 net.cpp:382] cont_21_LSTM_cont_slice_20_split -> cont_21_LSTM_cont_slice_20_split_1
I0717 12:30:49.622411 27176 net.cpp:124] Setting up cont_21_LSTM_cont_slice_20_split
I0717 12:30:49.622419 27176 net.cpp:131] Top shape: 1 10 (10)
I0717 12:30:49.622426 27176 net.cpp:131] Top shape: 1 10 (10)
I0717 12:30:49.622431 27176 net.cpp:139] Memory required for data: 79280
I0717 12:30:49.622436 27176 layer_factory.hpp:77] Creating layer cont_22_LSTM_cont_slice_21_split
I0717 12:30:49.622442 27176 net.cpp:86] Creating Layer cont_22_LSTM_cont_slice_21_split
I0717 12:30:49.622447 27176 net.cpp:408] cont_22_LSTM_cont_slice_21_split <- cont_22
I0717 12:30:49.622453 27176 net.cpp:382] cont_22_LSTM_cont_slice_21_split -> cont_22_LSTM_cont_slice_21_split_0
I0717 12:30:49.622464 27176 net.cpp:382] cont_22_LSTM_cont_slice_21_split -> cont_22_LSTM_cont_slice_21_split_1
I0717 12:30:49.622506 27176 net.cpp:124] Setting up cont_22_LSTM_cont_slice_21_split
I0717 12:30:49.622515 27176 net.cpp:131] Top shape: 1 10 (10)
I0717 12:30:49.622521 27176 net.cpp:131] Top shape: 1 10 (10)
I0717 12:30:49.622526 27176 net.cpp:139] Memory required for data: 79360
I0717 12:30:49.622530 27176 layer_factory.hpp:77] Creating layer cont_23_LSTM_cont_slice_22_split
I0717 12:30:49.622536 27176 net.cpp:86] Creating Layer cont_23_LSTM_cont_slice_22_split
I0717 12:30:49.622542 27176 net.cpp:408] cont_23_LSTM_cont_slice_22_split <- cont_23
I0717 12:30:49.622548 27176 net.cpp:382] cont_23_LSTM_cont_slice_22_split -> cont_23_LSTM_cont_slice_22_split_0
I0717 12:30:49.622556 27176 net.cpp:382] cont_23_LSTM_cont_slice_22_split -> cont_23_LSTM_cont_slice_22_split_1
I0717 12:30:49.622591 27176 net.cpp:124] Setting up cont_23_LSTM_cont_slice_22_split
I0717 12:30:49.622599 27176 net.cpp:131] Top shape: 1 10 (10)
I0717 12:30:49.622606 27176 net.cpp:131] Top shape: 1 10 (10)
I0717 12:30:49.622611 27176 net.cpp:139] Memory required for data: 79440
I0717 12:30:49.622614 27176 layer_factory.hpp:77] Creating layer cont_24_LSTM_cont_slice_23_split
I0717 12:30:49.622620 27176 net.cpp:86] Creating Layer cont_24_LSTM_cont_slice_23_split
I0717 12:30:49.622625 27176 net.cpp:408] cont_24_LSTM_cont_slice_23_split <- cont_24
I0717 12:30:49.622634 27176 net.cpp:382] cont_24_LSTM_cont_slice_23_split -> cont_24_LSTM_cont_slice_23_split_0
I0717 12:30:49.622642 27176 net.cpp:382] cont_24_LSTM_cont_slice_23_split -> cont_24_LSTM_cont_slice_23_split_1
I0717 12:30:49.622675 27176 net.cpp:124] Setting up cont_24_LSTM_cont_slice_23_split
I0717 12:30:49.622684 27176 net.cpp:131] Top shape: 1 10 (10)
I0717 12:30:49.622689 27176 net.cpp:131] Top shape: 1 10 (10)
I0717 12:30:49.622694 27176 net.cpp:139] Memory required for data: 79520
I0717 12:30:49.622699 27176 layer_factory.hpp:77] Creating layer cont_25_LSTM_cont_slice_24_split
I0717 12:30:49.622706 27176 net.cpp:86] Creating Layer cont_25_LSTM_cont_slice_24_split
I0717 12:30:49.622712 27176 net.cpp:408] cont_25_LSTM_cont_slice_24_split <- cont_25
I0717 12:30:49.622719 27176 net.cpp:382] cont_25_LSTM_cont_slice_24_split -> cont_25_LSTM_cont_slice_24_split_0
I0717 12:30:49.622726 27176 net.cpp:382] cont_25_LSTM_cont_slice_24_split -> cont_25_LSTM_cont_slice_24_split_1
I0717 12:30:49.622761 27176 net.cpp:124] Setting up cont_25_LSTM_cont_slice_24_split
I0717 12:30:49.622769 27176 net.cpp:131] Top shape: 1 10 (10)
I0717 12:30:49.622776 27176 net.cpp:131] Top shape: 1 10 (10)
I0717 12:30:49.622781 27176 net.cpp:139] Memory required for data: 79600
I0717 12:30:49.622786 27176 layer_factory.hpp:77] Creating layer cont_26_LSTM_cont_slice_25_split
I0717 12:30:49.622790 27176 net.cpp:86] Creating Layer cont_26_LSTM_cont_slice_25_split
I0717 12:30:49.622797 27176 net.cpp:408] cont_26_LSTM_cont_slice_25_split <- cont_26
I0717 12:30:49.622802 27176 net.cpp:382] cont_26_LSTM_cont_slice_25_split -> cont_26_LSTM_cont_slice_25_split_0
I0717 12:30:49.622810 27176 net.cpp:382] cont_26_LSTM_cont_slice_25_split -> cont_26_LSTM_cont_slice_25_split_1
I0717 12:30:49.622845 27176 net.cpp:124] Setting up cont_26_LSTM_cont_slice_25_split
I0717 12:30:49.622853 27176 net.cpp:131] Top shape: 1 10 (10)
I0717 12:30:49.622859 27176 net.cpp:131] Top shape: 1 10 (10)
I0717 12:30:49.622864 27176 net.cpp:139] Memory required for data: 79680
I0717 12:30:49.622869 27176 layer_factory.hpp:77] Creating layer cont_27_LSTM_cont_slice_26_split
I0717 12:30:49.622874 27176 net.cpp:86] Creating Layer cont_27_LSTM_cont_slice_26_split
I0717 12:30:49.622880 27176 net.cpp:408] cont_27_LSTM_cont_slice_26_split <- cont_27
I0717 12:30:49.622886 27176 net.cpp:382] cont_27_LSTM_cont_slice_26_split -> cont_27_LSTM_cont_slice_26_split_0
I0717 12:30:49.622896 27176 net.cpp:382] cont_27_LSTM_cont_slice_26_split -> cont_27_LSTM_cont_slice_26_split_1
I0717 12:30:49.622930 27176 net.cpp:124] Setting up cont_27_LSTM_cont_slice_26_split
I0717 12:30:49.622942 27176 net.cpp:131] Top shape: 1 10 (10)
I0717 12:30:49.622954 27176 net.cpp:131] Top shape: 1 10 (10)
I0717 12:30:49.622959 27176 net.cpp:139] Memory required for data: 79760
I0717 12:30:49.622963 27176 layer_factory.hpp:77] Creating layer cont_28_LSTM_cont_slice_27_split
I0717 12:30:49.622970 27176 net.cpp:86] Creating Layer cont_28_LSTM_cont_slice_27_split
I0717 12:30:49.622975 27176 net.cpp:408] cont_28_LSTM_cont_slice_27_split <- cont_28
I0717 12:30:49.622984 27176 net.cpp:382] cont_28_LSTM_cont_slice_27_split -> cont_28_LSTM_cont_slice_27_split_0
I0717 12:30:49.622992 27176 net.cpp:382] cont_28_LSTM_cont_slice_27_split -> cont_28_LSTM_cont_slice_27_split_1
I0717 12:30:49.623028 27176 net.cpp:124] Setting up cont_28_LSTM_cont_slice_27_split
I0717 12:30:49.623036 27176 net.cpp:131] Top shape: 1 10 (10)
I0717 12:30:49.623042 27176 net.cpp:131] Top shape: 1 10 (10)
I0717 12:30:49.623047 27176 net.cpp:139] Memory required for data: 79840
I0717 12:30:49.623052 27176 layer_factory.hpp:77] Creating layer cont_29_LSTM_cont_slice_28_split
I0717 12:30:49.623059 27176 net.cpp:86] Creating Layer cont_29_LSTM_cont_slice_28_split
I0717 12:30:49.623064 27176 net.cpp:408] cont_29_LSTM_cont_slice_28_split <- cont_29
I0717 12:30:49.623070 27176 net.cpp:382] cont_29_LSTM_cont_slice_28_split -> cont_29_LSTM_cont_slice_28_split_0
I0717 12:30:49.623077 27176 net.cpp:382] cont_29_LSTM_cont_slice_28_split -> cont_29_LSTM_cont_slice_28_split_1
I0717 12:30:49.623113 27176 net.cpp:124] Setting up cont_29_LSTM_cont_slice_28_split
I0717 12:30:49.623121 27176 net.cpp:131] Top shape: 1 10 (10)
I0717 12:30:49.623127 27176 net.cpp:131] Top shape: 1 10 (10)
I0717 12:30:49.623131 27176 net.cpp:139] Memory required for data: 79920
I0717 12:30:49.623136 27176 layer_factory.hpp:77] Creating layer cont_30_LSTM_cont_slice_29_split
I0717 12:30:49.623145 27176 net.cpp:86] Creating Layer cont_30_LSTM_cont_slice_29_split
I0717 12:30:49.623150 27176 net.cpp:408] cont_30_LSTM_cont_slice_29_split <- cont_30
I0717 12:30:49.623157 27176 net.cpp:382] cont_30_LSTM_cont_slice_29_split -> cont_30_LSTM_cont_slice_29_split_0
I0717 12:30:49.623169 27176 net.cpp:382] cont_30_LSTM_cont_slice_29_split -> cont_30_LSTM_cont_slice_29_split_1
I0717 12:30:49.623203 27176 net.cpp:124] Setting up cont_30_LSTM_cont_slice_29_split
I0717 12:30:49.623211 27176 net.cpp:131] Top shape: 1 10 (10)
I0717 12:30:49.623217 27176 net.cpp:131] Top shape: 1 10 (10)
I0717 12:30:49.623222 27176 net.cpp:139] Memory required for data: 80000
I0717 12:30:49.623227 27176 layer_factory.hpp:77] Creating layer cont_31_LSTM_cont_slice_30_split
I0717 12:30:49.623235 27176 net.cpp:86] Creating Layer cont_31_LSTM_cont_slice_30_split
I0717 12:30:49.623240 27176 net.cpp:408] cont_31_LSTM_cont_slice_30_split <- cont_31
I0717 12:30:49.623247 27176 net.cpp:382] cont_31_LSTM_cont_slice_30_split -> cont_31_LSTM_cont_slice_30_split_0
I0717 12:30:49.623255 27176 net.cpp:382] cont_31_LSTM_cont_slice_30_split -> cont_31_LSTM_cont_slice_30_split_1
I0717 12:30:49.623291 27176 net.cpp:124] Setting up cont_31_LSTM_cont_slice_30_split
I0717 12:30:49.623298 27176 net.cpp:131] Top shape: 1 10 (10)
I0717 12:30:49.623304 27176 net.cpp:131] Top shape: 1 10 (10)
I0717 12:30:49.623309 27176 net.cpp:139] Memory required for data: 80080
I0717 12:30:49.623314 27176 layer_factory.hpp:77] Creating layer cont_32_LSTM_cont_slice_31_split
I0717 12:30:49.623320 27176 net.cpp:86] Creating Layer cont_32_LSTM_cont_slice_31_split
I0717 12:30:49.623325 27176 net.cpp:408] cont_32_LSTM_cont_slice_31_split <- cont_32
I0717 12:30:49.623332 27176 net.cpp:382] cont_32_LSTM_cont_slice_31_split -> cont_32_LSTM_cont_slice_31_split_0
I0717 12:30:49.623339 27176 net.cpp:382] cont_32_LSTM_cont_slice_31_split -> cont_32_LSTM_cont_slice_31_split_1
I0717 12:30:49.623378 27176 net.cpp:124] Setting up cont_32_LSTM_cont_slice_31_split
I0717 12:30:49.623385 27176 net.cpp:131] Top shape: 1 10 (10)
I0717 12:30:49.623391 27176 net.cpp:131] Top shape: 1 10 (10)
I0717 12:30:49.623396 27176 net.cpp:139] Memory required for data: 80160
I0717 12:30:49.623401 27176 layer_factory.hpp:77] Creating layer cont_33_LSTM_cont_slice_32_split
I0717 12:30:49.623416 27176 net.cpp:86] Creating Layer cont_33_LSTM_cont_slice_32_split
I0717 12:30:49.623421 27176 net.cpp:408] cont_33_LSTM_cont_slice_32_split <- cont_33
I0717 12:30:49.623428 27176 net.cpp:382] cont_33_LSTM_cont_slice_32_split -> cont_33_LSTM_cont_slice_32_split_0
I0717 12:30:49.623435 27176 net.cpp:382] cont_33_LSTM_cont_slice_32_split -> cont_33_LSTM_cont_slice_32_split_1
I0717 12:30:49.623471 27176 net.cpp:124] Setting up cont_33_LSTM_cont_slice_32_split
I0717 12:30:49.623481 27176 net.cpp:131] Top shape: 1 10 (10)
I0717 12:30:49.623486 27176 net.cpp:131] Top shape: 1 10 (10)
I0717 12:30:49.623491 27176 net.cpp:139] Memory required for data: 80240
I0717 12:30:49.623495 27176 layer_factory.hpp:77] Creating layer cont_34_LSTM_cont_slice_33_split
I0717 12:30:49.623502 27176 net.cpp:86] Creating Layer cont_34_LSTM_cont_slice_33_split
I0717 12:30:49.623507 27176 net.cpp:408] cont_34_LSTM_cont_slice_33_split <- cont_34
I0717 12:30:49.623515 27176 net.cpp:382] cont_34_LSTM_cont_slice_33_split -> cont_34_LSTM_cont_slice_33_split_0
I0717 12:30:49.623522 27176 net.cpp:382] cont_34_LSTM_cont_slice_33_split -> cont_34_LSTM_cont_slice_33_split_1
I0717 12:30:49.623555 27176 net.cpp:124] Setting up cont_34_LSTM_cont_slice_33_split
I0717 12:30:49.623564 27176 net.cpp:131] Top shape: 1 10 (10)
I0717 12:30:49.623569 27176 net.cpp:131] Top shape: 1 10 (10)
I0717 12:30:49.623574 27176 net.cpp:139] Memory required for data: 80320
I0717 12:30:49.623579 27176 layer_factory.hpp:77] Creating layer LSTM_x_transform
I0717 12:30:49.623594 27176 net.cpp:86] Creating Layer LSTM_x_transform
I0717 12:30:49.623598 27176 net.cpp:408] LSTM_x_transform <- x
I0717 12:30:49.623606 27176 net.cpp:382] LSTM_x_transform -> W_xc_x
I0717 12:30:49.625707 27176 net.cpp:124] Setting up LSTM_x_transform
I0717 12:30:49.625727 27176 net.cpp:131] Top shape: 34 10 208 (70720)
I0717 12:30:49.625733 27176 net.cpp:139] Memory required for data: 363200
I0717 12:30:49.625748 27176 layer_factory.hpp:77] Creating layer LSTM_W_xc_x_slice
I0717 12:30:49.625762 27176 net.cpp:86] Creating Layer LSTM_W_xc_x_slice
I0717 12:30:49.625769 27176 net.cpp:408] LSTM_W_xc_x_slice <- W_xc_x
I0717 12:30:49.625778 27176 net.cpp:382] LSTM_W_xc_x_slice -> W_xc_x_1
I0717 12:30:49.625792 27176 net.cpp:382] LSTM_W_xc_x_slice -> W_xc_x_2
…
I0717 12:30:49.626092 27176 net.cpp:382] LSTM_W_xc_x_slice -> W_xc_x_28
I0717 12:30:49.626102 27176 net.cpp:382] LSTM_W_xc_x_slice -> W_xc_x_29
I0717 12:30:49.626112 27176 net.cpp:382] LSTM_W_xc_x_slice -> W_xc_x_30
I0717 12:30:49.626123 27176 net.cpp:382] LSTM_W_xc_x_slice -> W_xc_x_31
I0717 12:30:49.626135 27176 net.cpp:382] LSTM_W_xc_x_slice -> W_xc_x_32
I0717 12:30:49.626145 27176 net.cpp:382] LSTM_W_xc_x_slice -> W_xc_x_33
I0717 12:30:49.626157 27176 net.cpp:382] LSTM_W_xc_x_slice -> W_xc_x_34
I0717 12:30:49.626588 27176 net.cpp:124] Setting up LSTM_W_xc_x_slice
I0717 12:30:49.626600 27176 net.cpp:131] Top shape: 1 10 208 (2080)
I0717 12:30:49.626605 27176 net.cpp:131] Top shape: 1 10 208 (2080)
I0717 12:30:49.626611 27176 net.cpp:131] Top shape: 1 10 208 (2080)
I0717 12:30:49.626617 27176 net.cpp:131] Top shape: 1 10 208 (2080)
I0717 12:30:49.626623 27176 net.cpp:131] Top shape: 1 10 208 (2080)
I0717 12:30:49.626628 27176 net.cpp:131] Top shape: 1 10 208 (2080)
I0717 12:30:49.626634 27176 net.cpp:131] Top shape: 1 10 208 (2080)
I0717 12:30:49.626639 27176 net.cpp:131] Top shape: 1 10 208 (2080)
I0717 12:30:49.626646 27176 net.cpp:131] Top shape: 1 10 208 (2080)
I0717 12:30:49.626652 27176 net.cpp:131] Top shape: 1 10 208 (2080)
I0717 12:30:49.626657 27176 net.cpp:131] Top shape: 1 10 208 (2080)
I0717 12:30:49.626662 27176 net.cpp:131] Top shape: 1 10 208 (2080)
I0717 12:30:49.626667 27176 net.cpp:131] Top shape: 1 10 208 (2080)
I0717 12:30:49.626673 27176 net.cpp:131] Top shape: 1 10 208 (2080)
I0717 12:30:49.626679 27176 net.cpp:131] Top shape: 1 10 208 (2080)
I0717 12:30:49.626684 27176 net.cpp:131] Top shape: 1 10 208 (2080)
I0717 12:30:49.626690 27176 net.cpp:131] Top shape: 1 10 208 (2080)
I0717 12:30:49.626695 27176 net.cpp:131] Top shape: 1 10 208 (2080)
I0717 12:30:49.626701 27176 net.cpp:131] Top shape: 1 10 208 (2080)
I0717 12:30:49.626708 27176 net.cpp:131] Top shape: 1 10 208 (2080)
I0717 12:30:49.626713 27176 net.cpp:131] Top shape: 1 10 208 (2080)
I0717 12:30:49.626718 27176 net.cpp:131] Top shape: 1 10 208 (2080)
I0717 12:30:49.626724 27176 net.cpp:131] Top shape: 1 10 208 (2080)
I0717 12:30:49.626730 27176 net.cpp:131] Top shape: 1 10 208 (2080)
I0717 12:30:49.626736 27176 net.cpp:131] Top shape: 1 10 208 (2080)
I0717 12:30:49.626741 27176 net.cpp:131] Top shape: 1 10 208 (2080)
I0717 12:30:49.626747 27176 net.cpp:131] Top shape: 1 10 208 (2080)
I0717 12:30:49.626754 27176 net.cpp:131] Top shape: 1 10 208 (2080)
I0717 12:30:49.626758 27176 net.cpp:131] Top shape: 1 10 208 (2080)
I0717 12:30:49.626765 27176 net.cpp:131] Top shape: 1 10 208 (2080)
I0717 12:30:49.626770 27176 net.cpp:131] Top shape: 1 10 208 (2080)
I0717 12:30:49.626775 27176 net.cpp:131] Top shape: 1 10 208 (2080)
I0717 12:30:49.626780 27176 net.cpp:131] Top shape: 1 10 208 (2080)
I0717 12:30:49.626786 27176 net.cpp:131] Top shape: 1 10 208 (2080)
I0717 12:30:49.626791 27176 net.cpp:139] Memory required for data: 646080
I0717 12:30:49.626796 27176 layer_factory.hpp:77] Creating layer LSTM_h_conted_0
I0717 12:30:49.626804 27176 net.cpp:86] Creating Layer LSTM_h_conted_0
I0717 12:30:49.626811 27176 net.cpp:408] LSTM_h_conted_0 <- h_0
I0717 12:30:49.626821 27176 net.cpp:408] LSTM_h_conted_0 <- cont_1_LSTM_cont_slice_0_split_0
I0717 12:30:49.626829 27176 net.cpp:382] LSTM_h_conted_0 -> h_conted_0
I0717 12:30:49.626904 27176 net.cpp:124] Setting up LSTM_h_conted_0
I0717 12:30:49.626914 27176 net.cpp:131] Top shape: 1 10 52 (520)
I0717 12:30:49.626919 27176 net.cpp:139] Memory required for data: 648160
I0717 12:30:49.626924 27176 layer_factory.hpp:77] Creating layer LSTM_transform_1
I0717 12:30:49.626935 27176 net.cpp:86] Creating Layer LSTM_transform_1
I0717 12:30:49.626940 27176 net.cpp:408] LSTM_transform_1 <- h_conted_0
I0717 12:30:49.626948 27176 net.cpp:382] LSTM_transform_1 -> W_hc_h_0
I0717 12:30:49.627368 27176 net.cpp:124] Setting up LSTM_transform_1
I0717 12:30:49.627379 27176 net.cpp:131] Top shape: 1 10 208 (2080)
I0717 12:30:49.627384 27176 net.cpp:139] Memory required for data: 656480
I0717 12:30:49.627404 27176 layer_factory.hpp:77] Creating layer LSTM_gate_input_1
I0717 12:30:49.627418 27176 net.cpp:86] Creating Layer LSTM_gate_input_1
I0717 12:30:49.627424 27176 net.cpp:408] LSTM_gate_input_1 <- W_hc_h_0
I0717 12:30:49.627430 27176 net.cpp:408] LSTM_gate_input_1 <- W_xc_x_1
I0717 12:30:49.627439 27176 net.cpp:382] LSTM_gate_input_1 -> gate_input_1
I0717 12:30:49.627470 27176 net.cpp:124] Setting up LSTM_gate_input_1
I0717 12:30:49.627482 27176 net.cpp:131] Top shape: 1 10 208 (2080)
I0717 12:30:49.627487 27176 net.cpp:139] Memory required for data: 664800
I0717 12:30:49.627492 27176 layer_factory.hpp:77] Creating layer LSTM_unit_1
I0717 12:30:49.627499 27176 net.cpp:86] Creating Layer LSTM_unit_1
I0717 12:30:49.627506 27176 net.cpp:408] LSTM_unit_1 <- c_0
I0717 12:30:49.627512 27176 net.cpp:408] LSTM_unit_1 <- gate_input_1
I0717 12:30:49.627519 27176 net.cpp:408] LSTM_unit_1 <- cont_1_LSTM_cont_slice_0_split_1
I0717 12:30:49.627526 27176 net.cpp:382] LSTM_unit_1 -> c_1
I0717 12:30:49.627535 27176 net.cpp:382] LSTM_unit_1 -> h_1
I0717 12:30:49.627591 27176 net.cpp:124] Setting up LSTM_unit_1
I0717 12:30:49.627599 27176 net.cpp:131] Top shape: 1 10 52 (520)
I0717 12:30:49.627606 27176 net.cpp:131] Top shape: 1 10 52 (520)
I0717 12:30:49.627611 27176 net.cpp:139] Memory required for data: 668960
I0717 12:30:49.627616 27176 layer_factory.hpp:77] Creating layer h_1_LSTM_unit_1_1_split
I0717 12:30:49.627624 27176 net.cpp:86] Creating Layer h_1_LSTM_unit_1_1_split
I0717 12:30:49.627629 27176 net.cpp:408] h_1_LSTM_unit_1_1_split <- h_1
I0717 12:30:49.627635 27176 net.cpp:382] h_1_LSTM_unit_1_1_split -> h_1_LSTM_unit_1_1_split_0
I0717 12:30:49.627643 27176 net.cpp:382] h_1_LSTM_unit_1_1_split -> h_1_LSTM_unit_1_1_split_1
I0717 12:30:49.627681 27176 net.cpp:124] Setting up h_1_LSTM_unit_1_1_split
I0717 12:30:49.627688 27176 net.cpp:131] Top shape: 1 10 52 (520)
I0717 12:30:49.627694 27176 net.cpp:131] Top shape: 1 10 52 (520)
I0717 12:30:49.627699 27176 net.cpp:139] Memory required for data: 673120
I0717 12:30:49.627703 27176 layer_factory.hpp:77] Creating layer LSTM_h_conted_1
I0717 12:30:49.627712 27176 net.cpp:86] Creating Layer LSTM_h_conted_1
I0717 12:30:49.627717 27176 net.cpp:408] LSTM_h_conted_1 <- h_1_LSTM_unit_1_1_split_0
I0717 12:30:49.627723 27176 net.cpp:408] LSTM_h_conted_1 <- cont_2_LSTM_cont_slice_1_split_0
I0717 12:30:49.627732 27176 net.cpp:382] LSTM_h_conted_1 -> h_conted_1
I0717 12:30:49.627795 27176 net.cpp:124] Setting up LSTM_h_conted_1
I0717 12:30:49.627804 27176 net.cpp:131] Top shape: 1 10 52 (520)
I0717 12:30:49.627810 27176 net.cpp:139] Memory required for data: 675200
I0717 12:30:49.627815 27176 layer_factory.hpp:77] Creating layer LSTM_transform_2
I0717 12:30:49.627822 27176 net.cpp:86] Creating Layer LSTM_transform_2
I0717 12:30:49.627827 27176 net.cpp:408] LSTM_transform_2 <- h_conted_1
I0717 12:30:49.627837 27176 net.cpp:382] LSTM_transform_2 -> W_hc_h_1
I0717 12:30:49.628247 27176 net.cpp:124] Setting up LSTM_transform_2
I0717 12:30:49.628257 27176 net.cpp:131] Top shape: 1 10 208 (2080)
I0717 12:30:49.628262 27176 net.cpp:139] Memory required for data: 683520
I0717 12:30:49.628268 27176 net.cpp:467] Sharing parameters 'W_hc' owned by layer 'LSTM_transform_1', param index 0
I0717 12:30:49.628274 27176 layer_factory.hpp:77] Creating layer LSTM_gate_input_2
I0717 12:30:49.628281 27176 net.cpp:86] Creating Layer LSTM_gate_input_2
I0717 12:30:49.628288 27176 net.cpp:408] LSTM_gate_input_2 <- W_hc_h_1
I0717 12:30:49.628293 27176 net.cpp:408] LSTM_gate_input_2 <- W_xc_x_2
I0717 12:30:49.628301 27176 net.cpp:382] LSTM_gate_input_2 -> gate_input_2
I0717 12:30:49.628329 27176 net.cpp:124] Setting up LSTM_gate_input_2
I0717 12:30:49.628338 27176 net.cpp:131] Top shape: 1 10 208 (2080)
I0717 12:30:49.628343 27176 net.cpp:139] Memory required for data: 691840
I0717 12:30:49.628347 27176 layer_factory.hpp:77] Creating layer LSTM_unit_2
I0717 12:30:49.628355 27176 net.cpp:86] Creating Layer LSTM_unit_2
I0717 12:30:49.628360 27176 net.cpp:408] LSTM_unit_2 <- c_1
I0717 12:30:49.628371 27176 net.cpp:408] LSTM_unit_2 <- gate_input_2
I0717 12:30:49.628391 27176 net.cpp:408] LSTM_unit_2 <- cont_2_LSTM_cont_slice_1_split_1
I0717 12:30:49.628398 27176 net.cpp:382] LSTM_unit_2 -> c_2
I0717 12:30:49.628407 27176 net.cpp:382] LSTM_unit_2 -> h_2
I0717 12:30:49.628456 27176 net.cpp:124] Setting up LSTM_unit_2
I0717 12:30:49.628465 27176 net.cpp:131] Top shape: 1 10 52 (520)
I0717 12:30:49.628471 27176 net.cpp:131] Top shape: 1 10 52 (520)
I0717 12:30:49.628476 27176 net.cpp:139] Memory required for data: 696000
I0717 12:30:49.628481 27176 layer_factory.hpp:77] Creating layer h_2_LSTM_unit_2_1_split
I0717 12:30:49.628490 27176 net.cpp:86] Creating Layer h_2_LSTM_unit_2_1_split
I0717 12:30:49.628496 27176 net.cpp:408] h_2_LSTM_unit_2_1_split <- h_2
I0717 12:30:49.628504 27176 net.cpp:382] h_2_LSTM_unit_2_1_split -> h_2_LSTM_unit_2_1_split_0
I0717 12:30:49.628511 27176 net.cpp:382] h_2_LSTM_unit_2_1_split -> h_2_LSTM_unit_2_1_split_1
I0717 12:30:49.628547 27176 net.cpp:124] Setting up h_2_LSTM_unit_2_1_split
I0717 12:30:49.628556 27176 net.cpp:131] Top shape: 1 10 52 (520)
I0717 12:30:49.628562 27176 net.cpp:131] Top shape: 1 10 52 (520)
I0717 12:30:49.628566 27176 net.cpp:139] Memory required for data: 700160
I0717 12:30:49.628571 27176 layer_factory.hpp:77] Creating layer LSTM_h_conted_2
I0717 12:30:49.628581 27176 net.cpp:86] Creating Layer LSTM_h_conted_2
I0717 12:30:49.628585 27176 net.cpp:408] LSTM_h_conted_2 <- h_2_LSTM_unit_2_1_split_0
I0717 12:30:49.628592 27176 net.cpp:408] LSTM_h_conted_2 <- cont_3_LSTM_cont_slice_2_split_0
I0717 12:30:49.628599 27176 net.cpp:382] LSTM_h_conted_2 -> h_conted_2
I0717 12:30:49.628664 27176 net.cpp:124] Setting up LSTM_h_conted_2
I0717 12:30:49.628672 27176 net.cpp:131] Top shape: 1 10 52 (520)
I0717 12:30:49.628676 27176 net.cpp:139] Memory required for data: 702240
I0717 12:30:49.628681 27176 layer_factory.hpp:77] Creating layer LSTM_transform_3
I0717 12:30:49.628690 27176 net.cpp:86] Creating Layer LSTM_transform_3
I0717 12:30:49.628695 27176 net.cpp:408] LSTM_transform_3 <- h_conted_2
I0717 12:30:49.628702 27176 net.cpp:382] LSTM_transform_3 -> W_hc_h_2
I0717 12:30:49.629114 27176 net.cpp:124] Setting up LSTM_transform_3
I0717 12:30:49.629124 27176 net.cpp:131] Top shape: 1 10 208 (2080)
I0717 12:30:49.629129 27176 net.cpp:139] Memory required for data: 710560
I0717 12:30:49.629137 27176 net.cpp:467] Sharing parameters 'W_hc' owned by layer 'LSTM_transform_1', param index 0
I0717 12:30:49.629142 27176 layer_factory.hpp:77] Creating layer LSTM_gate_input_3
I0717 12:30:49.629150 27176 net.cpp:86] Creating Layer LSTM_gate_input_3
I0717 12:30:49.629155 27176 net.cpp:408] LSTM_gate_input_3 <- W_hc_h_2
I0717 12:30:49.629163 27176 net.cpp:408] LSTM_gate_input_3 <- W_xc_x_3
I0717 12:30:49.629169 27176 net.cpp:382] LSTM_gate_input_3 -> gate_input_3
I0717 12:30:49.629195 27176 net.cpp:124] Setting up LSTM_gate_input_3
I0717 12:30:49.629204 27176 net.cpp:131] Top shape: 1 10 208 (2080)
I0717 12:30:49.629209 27176 net.cpp:139] Memory required for data: 718880
I0717 12:30:49.629214 27176 layer_factory.hpp:77] Creating layer LSTM_unit_3
I0717 12:30:49.629222 27176 net.cpp:86] Creating Layer LSTM_unit_3
I0717 12:30:49.629228 27176 net.cpp:408] LSTM_unit_3 <- c_2
I0717 12:30:49.629235 27176 net.cpp:408] LSTM_unit_3 <- gate_input_3
I0717 12:30:49.629241 27176 net.cpp:408] LSTM_unit_3 <- cont_3_LSTM_cont_slice_2_split_1
I0717 12:30:49.629248 27176 net.cpp:382] LSTM_unit_3 -> c_3
I0717 12:30:49.629266 27176 net.cpp:382] LSTM_unit_3 -> h_3
I0717 12:30:49.629317 27176 net.cpp:124] Setting up LSTM_unit_3
I0717 12:30:49.629325 27176 net.cpp:131] Top shape: 1 10 52 (520)
I0717 12:30:49.629333 27176 net.cpp:131] Top shape: 1 10 52 (520)
I0717 12:30:49.629336 27176 net.cpp:139] Memory required for data: 723040
I0717 12:30:49.629341 27176 layer_factory.hpp:77] Creating layer h_3_LSTM_unit_3_1_split
I0717 12:30:49.629348 27176 net.cpp:86] Creating Layer h_3_LSTM_unit_3_1_split
I0717 12:30:49.629354 27176 net.cpp:408] h_3_LSTM_unit_3_1_split <- h_3
I0717 12:30:49.629367 27176 net.cpp:382] h_3_LSTM_unit_3_1_split -> h_3_LSTM_unit_3_1_split_0
I0717 12:30:49.629382 27176 net.cpp:382] h_3_LSTM_unit_3_1_split -> h_3_LSTM_unit_3_1_split_1
I0717 12:30:49.629417 27176 net.cpp:124] Setting up h_3_LSTM_unit_3_1_split
I0717 12:30:49.629426 27176 net.cpp:131] Top shape: 1 10 52 (520)
I0717 12:30:49.629432 27176 net.cpp:131] Top shape: 1 10 52 (520)
I0717 12:30:49.629437 27176 net.cpp:139] Memory required for data: 727200
I0717 12:30:49.629442 27176 layer_factory.hpp:77] Creating layer LSTM_h_conted_3
I0717 12:30:49.629451 27176 net.cpp:86] Creating Layer LSTM_h_conted_3
I0717 12:30:49.629456 27176 net.cpp:408] LSTM_h_conted_3 <- h_3_LSTM_unit_3_1_split_0
I0717 12:30:49.629463 27176 net.cpp:408] LSTM_h_conted_3 <- cont_4_LSTM_cont_slice_3_split_0
I0717 12:30:49.629473 27176 net.cpp:382] LSTM_h_conted_3 -> h_conted_3
I0717 12:30:49.629539 27176 net.cpp:124] Setting up LSTM_h_conted_3
I0717 12:30:49.629547 27176 net.cpp:131] Top shape: 1 10 52 (520)
I0717 12:30:49.629552 27176 net.cpp:139] Memory required for data: 729280
I0717 12:30:49.629557 27176 layer_factory.hpp:77] Creating layer LSTM_transform_4
I0717 12:30:49.629565 27176 net.cpp:86] Creating Layer LSTM_transform_4
I0717 12:30:49.629572 27176 net.cpp:408] LSTM_transform_4 <- h_conted_3
I0717 12:30:49.629580 27176 net.cpp:382] LSTM_transform_4 -> W_hc_h_3
I0717 12:30:49.629992 27176 net.cpp:124] Setting up LSTM_transform_4
I0717 12:30:49.630002 27176 net.cpp:131] Top shape: 1 10 208 (2080)
I0717 12:30:49.630007 27176 net.cpp:139] Memory required for data: 737600
I0717 12:30:49.630013 27176 net.cpp:467] Sharing parameters 'W_hc' owned by layer 'LSTM_transform_1', param index 0
I0717 12:30:49.630018 27176 layer_factory.hpp:77] Creating layer LSTM_gate_input_4
I0717 12:30:49.630028 27176 net.cpp:86] Creating Layer LSTM_gate_input_4
I0717 12:30:49.630034 27176 net.cpp:408] LSTM_gate_input_4 <- W_hc_h_3
I0717 12:30:49.630041 27176 net.cpp:408] LSTM_gate_input_4 <- W_xc_x_4
I0717 12:30:49.630048 27176 net.cpp:382] LSTM_gate_input_4 -> gate_input_4
I0717 12:30:49.630075 27176 net.cpp:124] Setting up LSTM_gate_input_4
I0717 12:30:49.630084 27176 net.cpp:131] Top shape: 1 10 208 (2080)
I0717 12:30:49.630089 27176 net.cpp:139] Memory required for data: 745920
I0717 12:30:49.630093 27176 layer_factory.hpp:77] Creating layer LSTM_unit_4
I0717 12:30:49.630100 27176 net.cpp:86] Creating Layer LSTM_unit_4
I0717 12:30:49.630105 27176 net.cpp:408] LSTM_unit_4 <- c_3
I0717 12:30:49.630112 27176 net.cpp:408] LSTM_unit_4 <- gate_input_4
I0717 12:30:49.630120 27176 net.cpp:408] LSTM_unit_4 <- cont_4_LSTM_cont_slice_3_split_1
I0717 12:30:49.630128 27176 net.cpp:382] LSTM_unit_4 -> c_4
I0717 12:30:49.630136 27176 net.cpp:382] LSTM_unit_4 -> h_4
I0717 12:30:49.630185 27176 net.cpp:124] Setting up LSTM_unit_4
I0717 12:30:49.630194 27176 net.cpp:131] Top shape: 1 10 52 (520)
I0717 12:30:49.630200 27176 net.cpp:131] Top shape: 1 10 52 (520)
I0717 12:30:49.630205 27176 net.cpp:139] Memory required for data: 750080
I0717 12:30:49.630210 27176 layer_factory.hpp:77] Creating layer h_4_LSTM_unit_4_1_split
I0717 12:30:49.630218 27176 net.cpp:86] Creating Layer h_4_LSTM_unit_4_1_split
I0717 12:30:49.630223 27176 net.cpp:408] h_4_LSTM_unit_4_1_split <- h_4
I0717 12:30:49.630229 27176 net.cpp:382] h_4_LSTM_unit_4_1_split -> h_4_LSTM_unit_4_1_split_0
I0717 12:30:49.630237 27176 net.cpp:382] h_4_LSTM_unit_4_1_split -> h_4_LSTM_unit_4_1_split_1
I0717 12:30:49.630273 27176 net.cpp:124] Setting up h_4_LSTM_unit_4_1_split
I0717 12:30:49.630282 27176 net.cpp:131] Top shape: 1 10 52 (520)
I0717 12:30:49.630287 27176 net.cpp:131] Top shape: 1 10 52 (520)
I0717 12:30:49.630292 27176 net.cpp:139] Memory required for data: 754240
I0717 12:30:49.630297 27176 layer_factory.hpp:77] Creating layer LSTM_h_conted_4
I0717 12:30:49.630306 27176 net.cpp:86] Creating Layer LSTM_h_conted_4
I0717 12:30:49.630311 27176 net.cpp:408] LSTM_h_conted_4 <- h_4_LSTM_unit_4_1_split_0
I0717 12:30:49.630318 27176 net.cpp:408] LSTM_h_conted_4 <- cont_5_LSTM_cont_slice_4_split_0
I0717 12:30:49.630326 27176 net.cpp:382] LSTM_h_conted_4 -> h_conted_4
I0717 12:30:49.630401 27176 net.cpp:124] Setting up LSTM_h_conted_4
I0717 12:30:49.630410 27176 net.cpp:131] Top shape: 1 10 52 (520)
I0717 12:30:49.630415 27176 net.cpp:139] Memory required for data: 756320
I0717 12:30:49.630420 27176 layer_factory.hpp:77] Creating layer LSTM_transform_5
I0717 12:30:49.630430 27176 net.cpp:86] Creating Layer LSTM_transform_5
I0717 12:30:49.630435 27176 net.cpp:408] LSTM_transform_5 <- h_conted_4
I0717 12:30:49.630444 27176 net.cpp:382] LSTM_transform_5 -> W_hc_h_4
I0717 12:30:49.630856 27176 net.cpp:124] Setting up LSTM_transform_5
I0717 12:30:49.630866 27176 net.cpp:131] Top shape: 1 10 208 (2080)
I0717 12:30:49.630870 27176 net.cpp:139] Memory required for data: 764640
I0717 12:30:49.630875 27176 net.cpp:467] Sharing parameters 'W_hc' owned by layer 'LSTM_transform_1', param index 0
I0717 12:30:49.630882 27176 layer_factory.hpp:77] Creating layer LSTM_gate_input_5
I0717 12:30:49.630888 27176 net.cpp:86] Creating Layer LSTM_gate_input_5
I0717 12:30:49.630894 27176 net.cpp:408] LSTM_gate_input_5 <- W_hc_h_4
I0717 12:30:49.630900 27176 net.cpp:408] LSTM_gate_input_5 <- W_xc_x_5
I0717 12:30:49.630910 27176 net.cpp:382] LSTM_gate_input_5 -> gate_input_5
I0717 12:30:49.630936 27176 net.cpp:124] Setting up LSTM_gate_input_5
I0717 12:30:49.630944 27176 net.cpp:131] Top shape: 1 10 208 (2080)
I0717 12:30:49.630949 27176 net.cpp:139] Memory required for data: 772960
I0717 12:30:49.630954 27176 layer_factory.hpp:77] Creating layer LSTM_unit_5
I0717 12:30:49.630961 27176 net.cpp:86] Creating Layer LSTM_unit_5
I0717 12:30:49.630966 27176 net.cpp:408] LSTM_unit_5 <- c_4
I0717 12:30:49.630973 27176 net.cpp:408] LSTM_unit_5 <- gate_input_5
I0717 12:30:49.630980 27176 net.cpp:408] LSTM_unit_5 <- cont_5_LSTM_cont_slice_4_split_1
I0717 12:30:49.630985 27176 net.cpp:382] LSTM_unit_5 -> c_5
I0717 12:30:49.630995 27176 net.cpp:382] LSTM_unit_5 -> h_5
I0717 12:30:49.631044 27176 net.cpp:124] Setting up LSTM_unit_5
I0717 12:30:49.631053 27176 net.cpp:131] Top shape: 1 10 52 (520)
I0717 12:30:49.631059 27176 net.cpp:131] Top shape: 1 10 52 (520)
I0717 12:30:49.631064 27176 net.cpp:139] Memory required for data: 777120
I0717 12:30:49.631069 27176 layer_factory.hpp:77] Creating layer h_5_LSTM_unit_5_1_split
I0717 12:30:49.631077 27176 net.cpp:86] Creating Layer h_5_LSTM_unit_5_1_split
I0717 12:30:49.631081 27176 net.cpp:408] h_5_LSTM_unit_5_1_split <- h_5
I0717 12:30:49.631088 27176 net.cpp:382] h_5_LSTM_unit_5_1_split -> h_5_LSTM_unit_5_1_split_0
I0717 12:30:49.631096 27176 net.cpp:382] h_5_LSTM_unit_5_1_split -> h_5_LSTM_unit_5_1_split_1
I0717 12:30:49.631134 27176 net.cpp:124] Setting up h_5_LSTM_unit_5_1_split
I0717 12:30:49.631142 27176 net.cpp:131] Top shape: 1 10 52 (520)
I0717 12:30:49.631148 27176 net.cpp:131] Top shape: 1 10 52 (520)
I0717 12:30:49.631152 27176 net.cpp:139] Memory required for data: 781280
I0717 12:30:49.631157 27176 layer_factory.hpp:77] Creating layer LSTM_h_conted_5
I0717 12:30:49.631175 27176 net.cpp:86] Creating Layer LSTM_h_conted_5
I0717 12:30:49.631181 27176 net.cpp:408] LSTM_h_conted_5 <- h_5_LSTM_unit_5_1_split_0
I0717 12:30:49.631188 27176 net.cpp:408] LSTM_h_conted_5 <- cont_6_LSTM_cont_slice_5_split_0
I0717 12:30:49.631196 27176 net.cpp:382] LSTM_h_conted_5 -> h_conted_5
I0717 12:30:49.631261 27176 net.cpp:124] Setting up LSTM_h_conted_5
I0717 12:30:49.631270 27176 net.cpp:131] Top shape: 1 10 52 (520)
I0717 12:30:49.631275 27176 net.cpp:139] Memory required for data: 783360
I0717 12:30:49.631281 27176 layer_factory.hpp:77] Creating layer LSTM_transform_6
I0717 12:30:49.631290 27176 net.cpp:86] Creating Layer LSTM_transform_6
I0717 12:30:49.631296 27176 net.cpp:408] LSTM_transform_6 <- h_conted_5
I0717 12:30:49.631304 27176 net.cpp:382] LSTM_transform_6 -> W_hc_h_5
I0717 12:30:49.631716 27176 net.cpp:124] Setting up LSTM_transform_6
I0717 12:30:49.631726 27176 net.cpp:131] Top shape: 1 10 208 (2080)
I0717 12:30:49.631731 27176 net.cpp:139] Memory required for data: 791680
I0717 12:30:49.631736 27176 net.cpp:467] Sharing parameters 'W_hc' owned by layer 'LSTM_transform_1', param index 0
I0717 12:30:49.631752 27176 layer_factory.hpp:77] Creating layer LSTM_gate_input_6
I0717 12:30:49.631759 27176 net.cpp:86] Creating Layer LSTM_gate_input_6
I0717 12:30:49.631765 27176 net.cpp:408] LSTM_gate_input_6 <- W_hc_h_5
I0717 12:30:49.631774 27176 net.cpp:408] LSTM_gate_input_6 <- W_xc_x_6
I0717 12:30:49.631781 27176 net.cpp:382] LSTM_gate_input_6 -> gate_input_6
I0717 12:30:49.631810 27176 net.cpp:124] Setting up LSTM_gate_input_6
I0717 12:30:49.631819 27176 net.cpp:131] Top shape: 1 10 208 (2080)
I0717 12:30:49.631824 27176 net.cpp:139] Memory required for data: 800000
I0717 12:30:49.631829 27176 layer_factory.hpp:77] Creating layer LSTM_unit_6
I0717 12:30:49.631836 27176 net.cpp:86] Creating Layer LSTM_unit_6
I0717 12:30:49.631842 27176 net.cpp:408] LSTM_unit_6 <- c_5
I0717 12:30:49.631849 27176 net.cpp:408] LSTM_unit_6 <- gate_input_6
I0717 12:30:49.631855 27176 net.cpp:408] LSTM_unit_6 <- cont_6_LSTM_cont_slice_5_split_1
I0717 12:30:49.631863 27176 net.cpp:382] LSTM_unit_6 -> c_6
I0717 12:30:49.631872 27176 net.cpp:382] LSTM_unit_6 -> h_6
I0717 12:30:49.631922 27176 net.cpp:124] Setting up LSTM_unit_6
I0717 12:30:49.631930 27176 net.cpp:131] Top shape: 1 10 52 (520)
I0717 12:30:49.631937 27176 net.cpp:131] Top shape: 1 10 52 (520)
I0717 12:30:49.631942 27176 net.cpp:139] Memory required for data: 804160
I0717 12:30:49.631947 27176 layer_factory.hpp:77] Creating layer h_6_LSTM_unit_6_1_split
I0717 12:30:49.631953 27176 net.cpp:86] Creating Layer h_6_LSTM_unit_6_1_split
I0717 12:30:49.631958 27176 net.cpp:408] h_6_LSTM_unit_6_1_split <- h_6
I0717 12:30:49.631964 27176 net.cpp:382] h_6_LSTM_unit_6_1_split -> h_6_LSTM_unit_6_1_split_0
I0717 12:30:49.631973 27176 net.cpp:382] h_6_LSTM_unit_6_1_split -> h_6_LSTM_unit_6_1_split_1
I0717 12:30:49.632009 27176 net.cpp:124] Setting up h_6_LSTM_unit_6_1_split
I0717 12:30:49.632016 27176 net.cpp:131] Top shape: 1 10 52 (520)
I0717 12:30:49.632022 27176 net.cpp:131] Top shape: 1 10 52 (520)
I0717 12:30:49.632027 27176 net.cpp:139] Memory required for data: 808320
I0717 12:30:49.632032 27176 layer_factory.hpp:77] Creating layer LSTM_h_conted_6
I0717 12:30:49.632040 27176 net.cpp:86] Creating Layer LSTM_h_conted_6
I0717 12:30:49.632045 27176 net.cpp:408] LSTM_h_conted_6 <- h_6_LSTM_unit_6_1_split_0
I0717 12:30:49.632051 27176 net.cpp:408] LSTM_h_conted_6 <- cont_7_LSTM_cont_slice_6_split_0
I0717 12:30:49.632061 27176 net.cpp:382] LSTM_h_conted_6 -> h_conted_6
I0717 12:30:49.632124 27176 net.cpp:124] Setting up LSTM_h_conted_6
I0717 12:30:49.632133 27176 net.cpp:131] Top shape: 1 10 52 (520)
I0717 12:30:49.632138 27176 net.cpp:139] Memory required for data: 810400
I0717 12:30:49.632143 27176 layer_factory.hpp:77] Creating layer LSTM_transform_7
I0717 12:30:49.632153 27176 net.cpp:86] Creating Layer LSTM_transform_7
I0717 12:30:49.632158 27176 net.cpp:408] LSTM_transform_7 <- h_conted_6
I0717 12:30:49.632166 27176 net.cpp:382] LSTM_transform_7 -> W_hc_h_6
I0717 12:30:49.632578 27176 net.cpp:124] Setting up LSTM_transform_7
I0717 12:30:49.632587 27176 net.cpp:131] Top shape: 1 10 208 (2080)
I0717 12:30:49.632592 27176 net.cpp:139] Memory required for data: 818720
I0717 12:30:49.632601 27176 net.cpp:467] Sharing parameters 'W_hc' owned by layer 'LSTM_transform_1', param index 0
I0717 12:30:49.632606 27176 layer_factory.hpp:77] Creating layer LSTM_gate_input_7
I0717 12:30:49.632613 27176 net.cpp:86] Creating Layer LSTM_gate_input_7
I0717 12:30:49.632619 27176 net.cpp:408] LSTM_gate_input_7 <- W_hc_h_6
I0717 12:30:49.632625 27176 net.cpp:408] LSTM_gate_input_7 <- W_xc_x_7
I0717 12:30:49.632635 27176 net.cpp:382] LSTM_gate_input_7 -> gate_input_7
I0717 12:30:49.632661 27176 net.cpp:124] Setting up LSTM_gate_input_7
I0717 12:30:49.632670 27176 net.cpp:131] Top shape: 1 10 208 (2080)
I0717 12:30:49.632675 27176 net.cpp:139] Memory required for data: 827040
I0717 12:30:49.632679 27176 layer_factory.hpp:77] Creating layer LSTM_unit_7
I0717 12:30:49.632686 27176 net.cpp:86] Creating Layer LSTM_unit_7
I0717 12:30:49.632692 27176 net.cpp:408] LSTM_unit_7 <- c_6
I0717 12:30:49.632704 27176 net.cpp:408] LSTM_unit_7 <- gate_input_7
I0717 12:30:49.632715 27176 net.cpp:408] LSTM_unit_7 <- cont_7_LSTM_cont_slice_6_split_1
I0717 12:30:49.632724 27176 net.cpp:382] LSTM_unit_7 -> c_7
I0717 12:30:49.632731 27176 net.cpp:382] LSTM_unit_7 -> h_7
I0717 12:30:49.632781 27176 net.cpp:124] Setting up LSTM_unit_7
I0717 12:30:49.632791 27176 net.cpp:131] Top shape: 1 10 52 (520)
I0717 12:30:49.632797 27176 net.cpp:131] Top shape: 1 10 52 (520)
I0717 12:30:49.632802 27176 net.cpp:139] Memory required for data: 831200
I0717 12:30:49.632807 27176 layer_factory.hpp:77] Creating layer h_7_LSTM_unit_7_1_split
I0717 12:30:49.632812 27176 net.cpp:86] Creating Layer h_7_LSTM_unit_7_1_split
I0717 12:30:49.632818 27176 net.cpp:408] h_7_LSTM_unit_7_1_split <- h_7
I0717 12:30:49.632825 27176 net.cpp:382] h_7_LSTM_unit_7_1_split -> h_7_LSTM_unit_7_1_split_0
I0717 12:30:49.632833 27176 net.cpp:382] h_7_LSTM_unit_7_1_split -> h_7_LSTM_unit_7_1_split_1
I0717 12:30:49.632869 27176 net.cpp:124] Setting up h_7_LSTM_unit_7_1_split
I0717 12:30:49.632877 27176 net.cpp:131] Top shape: 1 10 52 (520)
I0717 12:30:49.632884 27176 net.cpp:131] Top shape: 1 10 52 (520)
I0717 12:30:49.632887 27176 net.cpp:139] Memory required for data: 835360
I0717 12:30:49.632892 27176 layer_factory.hpp:77] Creating layer LSTM_h_conted_7
I0717 12:30:49.632899 27176 net.cpp:86] Creating Layer LSTM_h_conted_7
I0717 12:30:49.632905 27176 net.cpp:408] LSTM_h_conted_7 <- h_7_LSTM_unit_7_1_split_0
I0717 12:30:49.632911 27176 net.cpp:408] LSTM_h_conted_7 <- cont_8_LSTM_cont_slice_7_split_0
I0717 12:30:49.632918 27176 net.cpp:382] LSTM_h_conted_7 -> h_conted_7
I0717 12:30:49.632982 27176 net.cpp:124] Setting up LSTM_h_conted_7
I0717 12:30:49.632992 27176 net.cpp:131] Top shape: 1 10 52 (520)
I0717 12:30:49.632997 27176 net.cpp:139] Memory required for data: 837440
I0717 12:30:49.633002 27176 layer_factory.hpp:77] Creating layer LSTM_transform_8
I0717 12:30:49.633008 27176 net.cpp:86] Creating Layer LSTM_transform_8
I0717 12:30:49.633014 27176 net.cpp:408] LSTM_transform_8 <- h_conted_7
I0717 12:30:49.633023 27176 net.cpp:382] LSTM_transform_8 -> W_hc_h_7
I0717 12:30:49.633445 27176 net.cpp:124] Setting up LSTM_transform_8
I0717 12:30:49.633455 27176 net.cpp:131] Top shape: 1 10 208 (2080)
I0717 12:30:49.633460 27176 net.cpp:139] Memory required for data: 845760
I0717 12:30:49.633466 27176 net.cpp:467] Sharing parameters 'W_hc' owned by layer 'LSTM_transform_1', param index 0
I0717 12:30:49.633471 27176 layer_factory.hpp:77] Creating layer LSTM_gate_input_8
I0717 12:30:49.633479 27176 net.cpp:86] Creating Layer LSTM_gate_input_8
I0717 12:30:49.633484 27176 net.cpp:408] LSTM_gate_input_8 <- W_hc_h_7
I0717 12:30:49.633491 27176 net.cpp:408] LSTM_gate_input_8 <- W_xc_x_8
I0717 12:30:49.633499 27176 net.cpp:382] LSTM_gate_input_8 -> gate_input_8
I0717 12:30:49.633527 27176 net.cpp:124] Setting up LSTM_gate_input_8
I0717 12:30:49.633536 27176 net.cpp:131] Top shape: 1 10 208 (2080)
I0717 12:30:49.633541 27176 net.cpp:139] Memory required for data: 854080
I0717 12:30:49.633546 27176 layer_factory.hpp:77] Creating layer LSTM_unit_8
I0717 12:30:49.633553 27176 net.cpp:86] Creating Layer LSTM_unit_8
I0717 12:30:49.633559 27176 net.cpp:408] LSTM_unit_8 <- c_7
I0717 12:30:49.633565 27176 net.cpp:408] LSTM_unit_8 <- gate_input_8
I0717 12:30:49.633574 27176 net.cpp:408] LSTM_unit_8 <- cont_8_LSTM_cont_slice_7_split_1
I0717 12:30:49.633581 27176 net.cpp:382] LSTM_unit_8 -> c_8
I0717 12:30:49.633589 27176 net.cpp:382] LSTM_unit_8 -> h_8
I0717 12:30:49.633638 27176 net.cpp:124] Setting up LSTM_unit_8
I0717 12:30:49.633647 27176 net.cpp:131] Top shape: 1 10 52 (520)
I0717 12:30:49.633653 27176 net.cpp:131] Top shape: 1 10 52 (520)
I0717 12:30:49.633658 27176 net.cpp:139] Memory required for data: 858240
I0717 12:30:49.633663 27176 layer_factory.hpp:77] Creating layer h_8_LSTM_unit_8_1_split
I0717 12:30:49.633671 27176 net.cpp:86] Creating Layer h_8_LSTM_unit_8_1_split
I0717 12:30:49.633677 27176 net.cpp:408] h_8_LSTM_unit_8_1_split <- h_8
I0717 12:30:49.633689 27176 net.cpp:382] h_8_LSTM_unit_8_1_split -> h_8_LSTM_unit_8_1_split_0
I0717 12:30:49.633704 27176 net.cpp:382] h_8_LSTM_unit_8_1_split -> h_8_LSTM_unit_8_1_split_1
I0717 12:30:49.633741 27176 net.cpp:124] Setting up h_8_LSTM_unit_8_1_split
I0717 12:30:49.633750 27176 net.cpp:131] Top shape: 1 10 52 (520)
I0717 12:30:49.633756 27176 net.cpp:131] Top shape: 1 10 52 (520)
I0717 12:30:49.633761 27176 net.cpp:139] Memory required for data: 862400
I0717 12:30:49.633766 27176 layer_factory.hpp:77] Creating layer LSTM_h_conted_8
I0717 12:30:49.633774 27176 net.cpp:86] Creating Layer LSTM_h_conted_8
I0717 12:30:49.633780 27176 net.cpp:408] LSTM_h_conted_8 <- h_8_LSTM_unit_8_1_split_0
I0717 12:30:49.633787 27176 net.cpp:408] LSTM_h_conted_8 <- cont_9_LSTM_cont_slice_8_split_0
I0717 12:30:49.633795 27176 net.cpp:382] LSTM_h_conted_8 -> h_conted_8
I0717 12:30:49.633860 27176 net.cpp:124] Setting up LSTM_h_conted_8
I0717 12:30:49.633869 27176 net.cpp:131] Top shape: 1 10 52 (520)
I0717 12:30:49.633874 27176 net.cpp:139] Memory required for data: 864480
I0717 12:30:49.633879 27176 layer_factory.hpp:77] Creating layer LSTM_transform_9
I0717 12:30:49.633888 27176 net.cpp:86] Creating Layer LSTM_transform_9
I0717 12:30:49.633893 27176 net.cpp:408] LSTM_transform_9 <- h_conted_8
I0717 12:30:49.633900 27176 net.cpp:382] LSTM_transform_9 -> W_hc_h_8
I0717 12:30:49.634312 27176 net.cpp:124] Setting up LSTM_transform_9
I0717 12:30:49.634321 27176 net.cpp:131] Top shape: 1 10 208 (2080)
I0717 12:30:49.634326 27176 net.cpp:139] Memory required for data: 872800
I0717 12:30:49.634332 27176 net.cpp:467] Sharing parameters 'W_hc' owned by layer 'LSTM_transform_1', param index 0
I0717 12:30:49.634337 27176 layer_factory.hpp:77] Creating layer LSTM_gate_input_9
I0717 12:30:49.634344 27176 net.cpp:86] Creating Layer LSTM_gate_input_9
I0717 12:30:49.634351 27176 net.cpp:408] LSTM_gate_input_9 <- W_hc_h_8
I0717 12:30:49.634356 27176 net.cpp:408] LSTM_gate_input_9 <- W_xc_x_9
I0717 12:30:49.634363 27176 net.cpp:382] LSTM_gate_input_9 -> gate_input_9
I0717 12:30:49.634389 27176 net.cpp:124] Setting up LSTM_gate_input_9
I0717 12:30:49.634397 27176 net.cpp:131] Top shape: 1 10 208 (2080)
I0717 12:30:49.634402 27176 net.cpp:139] Memory required for data: 881120
I0717 12:30:49.634407 27176 layer_factory.hpp:77] Creating layer LSTM_unit_9
I0717 12:30:49.634416 27176 net.cpp:86] Creating Layer LSTM_unit_9
I0717 12:30:49.634423 27176 net.cpp:408] LSTM_unit_9 <- c_8
I0717 12:30:49.634428 27176 net.cpp:408] LSTM_unit_9 <- gate_input_9
I0717 12:30:49.634435 27176 net.cpp:408] LSTM_unit_9 <- cont_9_LSTM_cont_slice_8_split_1
I0717 12:30:49.634441 27176 net.cpp:382] LSTM_unit_9 -> c_9
I0717 12:30:49.634449 27176 net.cpp:382] LSTM_unit_9 -> h_9
I0717 12:30:49.634498 27176 net.cpp:124] Setting up LSTM_unit_9
I0717 12:30:49.634506 27176 net.cpp:131] Top shape: 1 10 52 (520)
I0717 12:30:49.634513 27176 net.cpp:131] Top shape: 1 10 52 (520)
I0717 12:30:49.634518 27176 net.cpp:139] Memory required for data: 885280
I0717 12:30:49.634522 27176 layer_factory.hpp:77] Creating layer h_9_LSTM_unit_9_1_split
I0717 12:30:49.634529 27176 net.cpp:86] Creating Layer h_9_LSTM_unit_9_1_split
I0717 12:30:49.634534 27176 net.cpp:408] h_9_LSTM_unit_9_1_split <- h_9
I0717 12:30:49.634543 27176 net.cpp:382] h_9_LSTM_unit_9_1_split -> h_9_LSTM_unit_9_1_split_0
I0717 12:30:49.634552 27176 net.cpp:382] h_9_LSTM_unit_9_1_split -> h_9_LSTM_unit_9_1_split_1
I0717 12:30:49.634585 27176 net.cpp:124] Setting up h_9_LSTM_unit_9_1_split
I0717 12:30:49.634593 27176 net.cpp:131] Top shape: 1 10 52 (520)
I0717 12:30:49.634599 27176 net.cpp:131] Top shape: 1 10 52 (520)
I0717 12:30:49.634604 27176 net.cpp:139] Memory required for data: 889440
I0717 12:30:49.634609 27176 layer_factory.hpp:77] Creating layer LSTM_h_conted_9
I0717 12:30:49.634620 27176 net.cpp:86] Creating Layer LSTM_h_conted_9
I0717 12:30:49.634626 27176 net.cpp:408] LSTM_h_conted_9 <- h_9_LSTM_unit_9_1_split_0
I0717 12:30:49.634634 27176 net.cpp:408] LSTM_h_conted_9 <- cont_10_LSTM_cont_slice_9_split_0
I0717 12:30:49.634647 27176 net.cpp:382] LSTM_h_conted_9 -> h_conted_9
I0717 12:30:49.634722 27176 net.cpp:124] Setting up LSTM_h_conted_9
I0717 12:30:49.634732 27176 net.cpp:131] Top shape: 1 10 52 (520)
I0717 12:30:49.634737 27176 net.cpp:139] Memory required for data: 891520
I0717 12:30:49.634742 27176 layer_factory.hpp:77] Creating layer LSTM_transform_10
I0717 12:30:49.634749 27176 net.cpp:86] Creating Layer LSTM_transform_10
I0717 12:30:49.634755 27176 net.cpp:408] LSTM_transform_10 <- h_conted_9
I0717 12:30:49.634764 27176 net.cpp:382] LSTM_transform_10 -> W_hc_h_9
I0717 12:30:49.635176 27176 net.cpp:124] Setting up LSTM_transform_10
I0717 12:30:49.635186 27176 net.cpp:131] Top shape: 1 10 208 (2080)
I0717 12:30:49.635191 27176 net.cpp:139] Memory required for data: 899840
I0717 12:30:49.635196 27176 net.cpp:467] Sharing parameters 'W_hc' owned by layer 'LSTM_transform_1', param index 0
I0717 12:30:49.635202 27176 layer_factory.hpp:77] Creating layer LSTM_gate_input_10
I0717 12:30:49.635211 27176 net.cpp:86] Creating Layer LSTM_gate_input_10
I0717 12:30:49.635217 27176 net.cpp:408] LSTM_gate_input_10 <- W_hc_h_9
I0717 12:30:49.635223 27176 net.cpp:408] LSTM_gate_input_10 <- W_xc_x_10
I0717 12:30:49.635231 27176 net.cpp:382] LSTM_gate_input_10 -> gate_input_10
I0717 12:30:49.635257 27176 net.cpp:124] Setting up LSTM_gate_input_10
I0717 12:30:49.635265 27176 net.cpp:131] Top shape: 1 10 208 (2080)
I0717 12:30:49.635269 27176 net.cpp:139] Memory required for data: 908160
I0717 12:30:49.635274 27176 layer_factory.hpp:77] Creating layer LSTM_unit_10
I0717 12:30:49.635282 27176 net.cpp:86] Creating Layer LSTM_unit_10
I0717 12:30:49.635288 27176 net.cpp:408] LSTM_unit_10 <- c_9
I0717 12:30:49.635293 27176 net.cpp:408] LSTM_unit_10 <- gate_input_10
I0717 12:30:49.635299 27176 net.cpp:408] LSTM_unit_10 <- cont_10_LSTM_cont_slice_9_split_1
I0717 12:30:49.635309 27176 net.cpp:382] LSTM_unit_10 -> c_10
I0717 12:30:49.635318 27176 net.cpp:382] LSTM_unit_10 -> h_10
I0717 12:30:49.635367 27176 net.cpp:124] Setting up LSTM_unit_10
I0717 12:30:49.635375 27176 net.cpp:131] Top shape: 1 10 52 (520)
I0717 12:30:49.635382 27176 net.cpp:131] Top shape: 1 10 52 (520)
I0717 12:30:49.635386 27176 net.cpp:139] Memory required for data: 912320
I0717 12:30:49.635391 27176 layer_factory.hpp:77] Creating layer h_10_LSTM_unit_10_1_split
I0717 12:30:49.635398 27176 net.cpp:86] Creating Layer h_10_LSTM_unit_10_1_split
I0717 12:30:49.635404 27176 net.cpp:408] h_10_LSTM_unit_10_1_split <- h_10
I0717 12:30:49.635411 27176 net.cpp:382] h_10_LSTM_unit_10_1_split -> h_10_LSTM_unit_10_1_split_0
I0717 12:30:49.635419 27176 net.cpp:382] h_10_LSTM_unit_10_1_split -> h_10_LSTM_unit_10_1_split_1
I0717 12:30:49.635457 27176 net.cpp:124] Setting up h_10_LSTM_unit_10_1_split
I0717 12:30:49.635464 27176 net.cpp:131] Top shape: 1 10 52 (520)
I0717 12:30:49.635470 27176 net.cpp:131] Top shape: 1 10 52 (520)
I0717 12:30:49.635475 27176 net.cpp:139] Memory required for data: 916480
I0717 12:30:49.635480 27176 layer_factory.hpp:77] Creating layer LSTM_h_conted_10
I0717 12:30:49.635488 27176 net.cpp:86] Creating Layer LSTM_h_conted_10
I0717 12:30:49.635493 27176 net.cpp:408] LSTM_h_conted_10 <- h_10_LSTM_unit_10_1_split_0
I0717 12:30:49.635500 27176 net.cpp:408] LSTM_h_conted_10 <- cont_11_LSTM_cont_slice_10_split_0
I0717 12:30:49.635510 27176 net.cpp:382] LSTM_h_conted_10 -> h_conted_10
I0717 12:30:49.635572 27176 net.cpp:124] Setting up LSTM_h_conted_10
I0717 12:30:49.635581 27176 net.cpp:131] Top shape: 1 10 52 (520)
I0717 12:30:49.635586 27176 net.cpp:139] Memory required for data: 918560
I0717 12:30:49.635591 27176 layer_factory.hpp:77] Creating layer LSTM_transform_11
I0717 12:30:49.635601 27176 net.cpp:86] Creating Layer LSTM_transform_11
I0717 12:30:49.635607 27176 net.cpp:408] LSTM_transform_11 <- h_conted_10
I0717 12:30:49.635614 27176 net.cpp:382] LSTM_transform_11 -> W_hc_h_10
I0717 12:30:49.636025 27176 net.cpp:124] Setting up LSTM_transform_11
I0717 12:30:49.636035 27176 net.cpp:131] Top shape: 1 10 208 (2080)
I0717 12:30:49.636040 27176 net.cpp:139] Memory required for data: 926880
I0717 12:30:49.636050 27176 net.cpp:467] Sharing parameters 'W_hc' owned by layer 'LSTM_transform_1', param index 0
I0717 12:30:49.636061 27176 layer_factory.hpp:77] Creating layer LSTM_gate_input_11
I0717 12:30:49.636070 27176 net.cpp:86] Creating Layer LSTM_gate_input_11
I0717 12:30:49.636075 27176 net.cpp:408] LSTM_gate_input_11 <- W_hc_h_10
I0717 12:30:49.636081 27176 net.cpp:408] LSTM_gate_input_11 <- W_xc_x_11
I0717 12:30:49.636091 27176 net.cpp:382] LSTM_gate_input_11 -> gate_input_11
I0717 12:30:49.636118 27176 net.cpp:124] Setting up LSTM_gate_input_11
I0717 12:30:49.636126 27176 net.cpp:131] Top shape: 1 10 208 (2080)
I0717 12:30:49.636132 27176 net.cpp:139] Memory required for data: 935200
I0717 12:30:49.636137 27176 layer_factory.hpp:77] Creating layer LSTM_unit_11
I0717 12:30:49.636143 27176 net.cpp:86] Creating Layer LSTM_unit_11
I0717 12:30:49.636149 27176 net.cpp:408] LSTM_unit_11 <- c_10
I0717 12:30:49.636155 27176 net.cpp:408] LSTM_unit_11 <- gate_input_11
I0717 12:30:49.636162 27176 net.cpp:408] LSTM_unit_11 <- cont_11_LSTM_cont_slice_10_split_1
I0717 12:30:49.636169 27176 net.cpp:382] LSTM_unit_11 -> c_11
I0717 12:30:49.636178 27176 net.cpp:382] LSTM_unit_11 -> h_11
I0717 12:30:49.636229 27176 net.cpp:124] Setting up LSTM_unit_11
I0717 12:30:49.636237 27176 net.cpp:131] Top shape: 1 10 52 (520)
I0717 12:30:49.636243 27176 net.cpp:131] Top shape: 1 10 52 (520)
I0717 12:30:49.636248 27176 net.cpp:139] Memory required for data: 939360
I0717 12:30:49.636253 27176 layer_factory.hpp:77] Creating layer h_11_LSTM_unit_11_1_split
I0717 12:30:49.636260 27176 net.cpp:86] Creating Layer h_11_LSTM_unit_11_1_split
I0717 12:30:49.636265 27176 net.cpp:408] h_11_LSTM_unit_11_1_split <- h_11
I0717 12:30:49.636272 27176 net.cpp:382] h_11_LSTM_unit_11_1_split -> h_11_LSTM_unit_11_1_split_0
I0717 12:30:49.636281 27176 net.cpp:382] h_11_LSTM_unit_11_1_split -> h_11_LSTM_unit_11_1_split_1
I0717 12:30:49.636317 27176 net.cpp:124] Setting up h_11_LSTM_unit_11_1_split
I0717 12:30:49.636327 27176 net.cpp:131] Top shape: 1 10 52 (520)
I0717 12:30:49.636332 27176 net.cpp:131] Top shape: 1 10 52 (520)
I0717 12:30:49.636337 27176 net.cpp:139] Memory required for data: 943520
I0717 12:30:49.636342 27176 layer_factory.hpp:77] Creating layer LSTM_h_conted_11
I0717 12:30:49.636348 27176 net.cpp:86] Creating Layer LSTM_h_conted_11
I0717 12:30:49.636354 27176 net.cpp:408] LSTM_h_conted_11 <- h_11_LSTM_unit_11_1_split_0
I0717 12:30:49.636360 27176 net.cpp:408] LSTM_h_conted_11 <- cont_12_LSTM_cont_slice_11_split_0
I0717 12:30:49.636368 27176 net.cpp:382] LSTM_h_conted_11 -> h_conted_11
I0717 12:30:49.636433 27176 net.cpp:124] Setting up LSTM_h_conted_11
I0717 12:30:49.636442 27176 net.cpp:131] Top shape: 1 10 52 (520)
I0717 12:30:49.636447 27176 net.cpp:139] Memory required for data: 945600
I0717 12:30:49.636451 27176 layer_factory.hpp:77] Creating layer LSTM_transform_12
I0717 12:30:49.636459 27176 net.cpp:86] Creating Layer LSTM_transform_12
I0717 12:30:49.636466 27176 net.cpp:408] LSTM_transform_12 <- h_conted_11
I0717 12:30:49.636474 27176 net.cpp:382] LSTM_transform_12 -> W_hc_h_11
I0717 12:30:49.636888 27176 net.cpp:124] Setting up LSTM_transform_12
I0717 12:30:49.636898 27176 net.cpp:131] Top shape: 1 10 208 (2080)
I0717 12:30:49.636904 27176 net.cpp:139] Memory required for data: 953920
I0717 12:30:49.636909 27176 net.cpp:467] Sharing parameters 'W_hc' owned by layer 'LSTM_transform_1', param index 0
I0717 12:30:49.636914 27176 layer_factory.hpp:77] Creating layer LSTM_gate_input_12
I0717 12:30:49.636921 27176 net.cpp:86] Creating Layer LSTM_gate_input_12
I0717 12:30:49.636926 27176 net.cpp:408] LSTM_gate_input_12 <- W_hc_h_11
I0717 12:30:49.636934 27176 net.cpp:408] LSTM_gate_input_12 <- W_xc_x_12
I0717 12:30:49.636940 27176 net.cpp:382] LSTM_gate_input_12 -> gate_input_12
I0717 12:30:49.636968 27176 net.cpp:124] Setting up LSTM_gate_input_12
I0717 12:30:49.636976 27176 net.cpp:131] Top shape: 1 10 208 (2080)
I0717 12:30:49.636981 27176 net.cpp:139] Memory required for data: 962240
I0717 12:30:49.636986 27176 layer_factory.hpp:77] Creating layer LSTM_unit_12
I0717 12:30:49.637006 27176 net.cpp:86] Creating Layer LSTM_unit_12
I0717 12:30:49.637012 27176 net.cpp:408] LSTM_unit_12 <- c_11
I0717 12:30:49.637018 27176 net.cpp:408] LSTM_unit_12 <- gate_input_12
I0717 12:30:49.637027 27176 net.cpp:408] LSTM_unit_12 <- cont_12_LSTM_cont_slice_11_split_1
I0717 12:30:49.637034 27176 net.cpp:382] LSTM_unit_12 -> c_12
I0717 12:30:49.637043 27176 net.cpp:382] LSTM_unit_12 -> h_12
I0717 12:30:49.637094 27176 net.cpp:124] Setting up LSTM_unit_12
I0717 12:30:49.637102 27176 net.cpp:131] Top shape: 1 10 52 (520)
I0717 12:30:49.637109 27176 net.cpp:131] Top shape: 1 10 52 (520)
I0717 12:30:49.637114 27176 net.cpp:139] Memory required for data: 966400
I0717 12:30:49.637118 27176 layer_factory.hpp:77] Creating layer h_12_LSTM_unit_12_1_split
I0717 12:30:49.637127 27176 net.cpp:86] Creating Layer h_12_LSTM_unit_12_1_split
I0717 12:30:49.637132 27176 net.cpp:408] h_12_LSTM_unit_12_1_split <- h_12
I0717 12:30:49.637140 27176 net.cpp:382] h_12_LSTM_unit_12_1_split -> h_12_LSTM_unit_12_1_split_0
I0717 12:30:49.637147 27176 net.cpp:382] h_12_LSTM_unit_12_1_split -> h_12_LSTM_unit_12_1_split_1
I0717 12:30:49.637184 27176 net.cpp:124] Setting up h_12_LSTM_unit_12_1_split
I0717 12:30:49.637192 27176 net.cpp:131] Top shape: 1 10 52 (520)
I0717 12:30:49.637198 27176 net.cpp:131] Top shape: 1 10 52 (520)
I0717 12:30:49.637203 27176 net.cpp:139] Memory required for data: 970560
I0717 12:30:49.637208 27176 layer_factory.hpp:77] Creating layer LSTM_h_conted_12
I0717 12:30:49.637217 27176 net.cpp:86] Creating Layer LSTM_h_conted_12
I0717 12:30:49.637223 27176 net.cpp:408] LSTM_h_conted_12 <- h_12_LSTM_unit_12_1_split_0
I0717 12:30:49.637230 27176 net.cpp:408] LSTM_h_conted_12 <- cont_13_LSTM_cont_slice_12_split_0
I0717 12:30:49.637238 27176 net.cpp:382] LSTM_h_conted_12 -> h_conted_12
I0717 12:30:49.637310 27176 net.cpp:124] Setting up LSTM_h_conted_12
I0717 12:30:49.637320 27176 net.cpp:131] Top shape: 1 10 52 (520)
I0717 12:30:49.637326 27176 net.cpp:139] Memory required for data: 972640
I0717 12:30:49.637331 27176 layer_factory.hpp:77] Creating layer LSTM_transform_13
I0717 12:30:49.637338 27176 net.cpp:86] Creating Layer LSTM_transform_13
I0717 12:30:49.637343 27176 net.cpp:408] LSTM_transform_13 <- h_conted_12
I0717 12:30:49.637351 27176 net.cpp:382] LSTM_transform_13 -> W_hc_h_12
I0717 12:30:49.637764 27176 net.cpp:124] Setting up LSTM_transform_13
I0717 12:30:49.637773 27176 net.cpp:131] Top shape: 1 10 208 (2080)
I0717 12:30:49.637778 27176 net.cpp:139] Memory required for data: 980960
I0717 12:30:49.637784 27176 net.cpp:467] Sharing parameters 'W_hc' owned by layer 'LSTM_transform_1', param index 0
I0717 12:30:49.637789 27176 layer_factory.hpp:77] Creating layer LSTM_gate_input_13
I0717 12:30:49.637796 27176 net.cpp:86] Creating Layer LSTM_gate_input_13
I0717 12:30:49.637802 27176 net.cpp:408] LSTM_gate_input_13 <- W_hc_h_12
I0717 12:30:49.637809 27176 net.cpp:408] LSTM_gate_input_13 <- W_xc_x_13
I0717 12:30:49.637816 27176 net.cpp:382] LSTM_gate_input_13 -> gate_input_13
I0717 12:30:49.637841 27176 net.cpp:124] Setting up LSTM_gate_input_13
I0717 12:30:49.637850 27176 net.cpp:131] Top shape: 1 10 208 (2080)
I0717 12:30:49.637854 27176 net.cpp:139] Memory required for data: 989280
I0717 12:30:49.637859 27176 layer_factory.hpp:77] Creating layer LSTM_unit_13
I0717 12:30:49.637868 27176 net.cpp:86] Creating Layer LSTM_unit_13
I0717 12:30:49.637874 27176 net.cpp:408] LSTM_unit_13 <- c_12
I0717 12:30:49.637881 27176 net.cpp:408] LSTM_unit_13 <- gate_input_13
I0717 12:30:49.637887 27176 net.cpp:408] LSTM_unit_13 <- cont_13_LSTM_cont_slice_12_split_1
I0717 12:30:49.637894 27176 net.cpp:382] LSTM_unit_13 -> c_13
I0717 12:30:49.637903 27176 net.cpp:382] LSTM_unit_13 -> h_13
I0717 12:30:49.637953 27176 net.cpp:124] Setting up LSTM_unit_13
I0717 12:30:49.637961 27176 net.cpp:131] Top shape: 1 10 52 (520)
I0717 12:30:49.637967 27176 net.cpp:131] Top shape: 1 10 52 (520)
I0717 12:30:49.637972 27176 net.cpp:139] Memory required for data: 993440
I0717 12:30:49.637981 27176 layer_factory.hpp:77] Creating layer h_13_LSTM_unit_13_1_split
I0717 12:30:49.637995 27176 net.cpp:86] Creating Layer h_13_LSTM_unit_13_1_split
I0717 12:30:49.638000 27176 net.cpp:408] h_13_LSTM_unit_13_1_split <- h_13
I0717 12:30:49.638010 27176 net.cpp:382] h_13_LSTM_unit_13_1_split -> h_13_LSTM_unit_13_1_split_0
I0717 12:30:49.638018 27176 net.cpp:382] h_13_LSTM_unit_13_1_split -> h_13_LSTM_unit_13_1_split_1
I0717 12:30:49.638053 27176 net.cpp:124] Setting up h_13_LSTM_unit_13_1_split
I0717 12:30:49.638062 27176 net.cpp:131] Top shape: 1 10 52 (520)
I0717 12:30:49.638067 27176 net.cpp:131] Top shape: 1 10 52 (520)
I0717 12:30:49.638072 27176 net.cpp:139] Memory required for data: 997600
I0717 12:30:49.638077 27176 layer_factory.hpp:77] Creating layer LSTM_h_conted_13
I0717 12:30:49.638087 27176 net.cpp:86] Creating Layer LSTM_h_conted_13
I0717 12:30:49.638092 27176 net.cpp:408] LSTM_h_conted_13 <- h_13_LSTM_unit_13_1_split_0
I0717 12:30:49.638098 27176 net.cpp:408] LSTM_h_conted_13 <- cont_14_LSTM_cont_slice_13_split_0
I0717 12:30:49.638108 27176 net.cpp:382] LSTM_h_conted_13 -> h_conted_13
I0717 12:30:49.638175 27176 net.cpp:124] Setting up LSTM_h_conted_13
I0717 12:30:49.638185 27176 net.cpp:131] Top shape: 1 10 52 (520)
I0717 12:30:49.638190 27176 net.cpp:139] Memory required for data: 999680
I0717 12:30:49.638195 27176 layer_factory.hpp:77] Creating layer LSTM_transform_14
I0717 12:30:49.638201 27176 net.cpp:86] Creating Layer LSTM_transform_14
I0717 12:30:49.638207 27176 net.cpp:408] LSTM_transform_14 <- h_conted_13
I0717 12:30:49.638217 27176 net.cpp:382] LSTM_transform_14 -> W_hc_h_13
I0717 12:30:49.638630 27176 net.cpp:124] Setting up LSTM_transform_14
I0717 12:30:49.638640 27176 net.cpp:131] Top shape: 1 10 208 (2080)
I0717 12:30:49.638645 27176 net.cpp:139] Memory required for data: 1008000
I0717 12:30:49.638650 27176 net.cpp:467] Sharing parameters 'W_hc' owned by layer 'LSTM_transform_1', param index 0
I0717 12:30:49.638656 27176 layer_factory.hpp:77] Creating layer LSTM_gate_input_14
I0717 12:30:49.638665 27176 net.cpp:86] Creating Layer LSTM_gate_input_14
I0717 12:30:49.638671 27176 net.cpp:408] LSTM_gate_input_14 <- W_hc_h_13
I0717 12:30:49.638677 27176 net.cpp:408] LSTM_gate_input_14 <- W_xc_x_14
I0717 12:30:49.638684 27176 net.cpp:382] LSTM_gate_input_14 -> gate_input_14
I0717 12:30:49.638711 27176 net.cpp:124] Setting up LSTM_gate_input_14
I0717 12:30:49.638720 27176 net.cpp:131] Top shape: 1 10 208 (2080)
I0717 12:30:49.638725 27176 net.cpp:139] Memory required for data: 1016320
I0717 12:30:49.638730 27176 layer_factory.hpp:77] Creating layer LSTM_unit_14
I0717 12:30:49.638736 27176 net.cpp:86] Creating Layer LSTM_unit_14
I0717 12:30:49.638741 27176 net.cpp:408] LSTM_unit_14 <- c_13
I0717 12:30:49.638748 27176 net.cpp:408] LSTM_unit_14 <- gate_input_14
I0717 12:30:49.638754 27176 net.cpp:408] LSTM_unit_14 <- cont_14_LSTM_cont_slice_13_split_1
I0717 12:30:49.638763 27176 net.cpp:382] LSTM_unit_14 -> c_14
I0717 12:30:49.638772 27176 net.cpp:382] LSTM_unit_14 -> h_14
I0717 12:30:49.638823 27176 net.cpp:124] Setting up LSTM_unit_14
I0717 12:30:49.638831 27176 net.cpp:131] Top shape: 1 10 52 (520)
I0717 12:30:49.638837 27176 net.cpp:131] Top shape: 1 10 52 (520)
I0717 12:30:49.638842 27176 net.cpp:139] Memory required for data: 1020480
I0717 12:30:49.638847 27176 layer_factory.hpp:77] Creating layer h_14_LSTM_unit_14_1_split
I0717 12:30:49.638854 27176 net.cpp:86] Creating Layer h_14_LSTM_unit_14_1_split
I0717 12:30:49.638859 27176 net.cpp:408] h_14_LSTM_unit_14_1_split <- h_14
I0717 12:30:49.638866 27176 net.cpp:382] h_14_LSTM_unit_14_1_split -> h_14_LSTM_unit_14_1_split_0
I0717 12:30:49.638875 27176 net.cpp:382] h_14_LSTM_unit_14_1_split -> h_14_LSTM_unit_14_1_split_1
I0717 12:30:49.638911 27176 net.cpp:124] Setting up h_14_LSTM_unit_14_1_split
I0717 12:30:49.638919 27176 net.cpp:131] Top shape: 1 10 52 (520)
I0717 12:30:49.638926 27176 net.cpp:131] Top shape: 1 10 52 (520)
I0717 12:30:49.638929 27176 net.cpp:139] Memory required for data: 1024640
I0717 12:30:49.638934 27176 layer_factory.hpp:77] Creating layer LSTM_h_conted_14
I0717 12:30:49.638945 27176 net.cpp:86] Creating Layer LSTM_h_conted_14
I0717 12:30:49.638957 27176 net.cpp:408] LSTM_h_conted_14 <- h_14_LSTM_unit_14_1_split_0
I0717 12:30:49.638964 27176 net.cpp:408] LSTM_h_conted_14 <- cont_15_LSTM_cont_slice_14_split_0
I0717 12:30:49.638974 27176 net.cpp:382] LSTM_h_conted_14 -> h_conted_14
I0717 12:30:49.639039 27176 net.cpp:124] Setting up LSTM_h_conted_14
I0717 12:30:49.639048 27176 net.cpp:131] Top shape: 1 10 52 (520)
I0717 12:30:49.639053 27176 net.cpp:139] Memory required for data: 1026720
I0717 12:30:49.639057 27176 layer_factory.hpp:77] Creating layer LSTM_transform_15
I0717 12:30:49.639067 27176 net.cpp:86] Creating Layer LSTM_transform_15
I0717 12:30:49.639073 27176 net.cpp:408] LSTM_transform_15 <- h_conted_14
I0717 12:30:49.639081 27176 net.cpp:382] LSTM_transform_15 -> W_hc_h_14
I0717 12:30:49.639494 27176 net.cpp:124] Setting up LSTM_transform_15
I0717 12:30:49.639503 27176 net.cpp:131] Top shape: 1 10 208 (2080)
I0717 12:30:49.639508 27176 net.cpp:139] Memory required for data: 1035040
I0717 12:30:49.639518 27176 net.cpp:467] Sharing parameters 'W_hc' owned by layer 'LSTM_transform_1', param index 0
I0717 12:30:49.639523 27176 layer_factory.hpp:77] Creating layer LSTM_gate_input_15
I0717 12:30:49.639533 27176 net.cpp:86] Creating Layer LSTM_gate_input_15
I0717 12:30:49.639539 27176 net.cpp:408] LSTM_gate_input_15 <- W_hc_h_14
I0717 12:30:49.639545 27176 net.cpp:408] LSTM_gate_input_15 <- W_xc_x_15
I0717 12:30:49.639552 27176 net.cpp:382] LSTM_gate_input_15 -> gate_input_15
I0717 12:30:49.639578 27176 net.cpp:124] Setting up LSTM_gate_input_15
I0717 12:30:49.639587 27176 net.cpp:131] Top shape: 1 10 208 (2080)
I0717 12:30:49.639592 27176 net.cpp:139] Memory required for data: 1043360
I0717 12:30:49.639597 27176 layer_factory.hpp:77] Creating layer LSTM_unit_15
I0717 12:30:49.639603 27176 net.cpp:86] Creating Layer LSTM_unit_15
I0717 12:30:49.639609 27176 net.cpp:408] LSTM_unit_15 <- c_14
I0717 12:30:49.639616 27176 net.cpp:408] LSTM_unit_15 <- gate_input_15
I0717 12:30:49.639622 27176 net.cpp:408] LSTM_unit_15 <- cont_15_LSTM_cont_slice_14_split_1
I0717 12:30:49.639632 27176 net.cpp:382] LSTM_unit_15 -> c_15
I0717 12:30:49.639642 27176 net.cpp:382] LSTM_unit_15 -> h_15
I0717 12:30:49.639693 27176 net.cpp:124] Setting up LSTM_unit_15
I0717 12:30:49.639701 27176 net.cpp:131] Top shape: 1 10 52 (520)
I0717 12:30:49.639708 27176 net.cpp:131] Top shape: 1 10 52 (520)
I0717 12:30:49.639713 27176 net.cpp:139] Memory required for data: 1047520
I0717 12:30:49.639717 27176 layer_factory.hpp:77] Creating layer h_15_LSTM_unit_15_1_split
I0717 12:30:49.639724 27176 net.cpp:86] Creating Layer h_15_LSTM_unit_15_1_split
I0717 12:30:49.639729 27176 net.cpp:408] h_15_LSTM_unit_15_1_split <- h_15
I0717 12:30:49.639736 27176 net.cpp:382] h_15_LSTM_unit_15_1_split -> h_15_LSTM_unit_15_1_split_0
I0717 12:30:49.639745 27176 net.cpp:382] h_15_LSTM_unit_15_1_split -> h_15_LSTM_unit_15_1_split_1
I0717 12:30:49.639782 27176 net.cpp:124] Setting up h_15_LSTM_unit_15_1_split
I0717 12:30:49.639791 27176 net.cpp:131] Top shape: 1 10 52 (520)
I0717 12:30:49.639796 27176 net.cpp:131] Top shape: 1 10 52 (520)
I0717 12:30:49.639801 27176 net.cpp:139] Memory required for data: 1051680
I0717 12:30:49.639806 27176 layer_factory.hpp:77] Creating layer LSTM_h_conted_15
I0717 12:30:49.639812 27176 net.cpp:86] Creating Layer LSTM_h_conted_15
I0717 12:30:49.639818 27176 net.cpp:408] LSTM_h_conted_15 <- h_15_LSTM_unit_15_1_split_0
I0717 12:30:49.639825 27176 net.cpp:408] LSTM_h_conted_15 <- cont_16_LSTM_cont_slice_15_split_0
I0717 12:30:49.639834 27176 net.cpp:382] LSTM_h_conted_15 -> h_conted_15
I0717 12:30:49.639900 27176 net.cpp:124] Setting up LSTM_h_conted_15
I0717 12:30:49.639909 27176 net.cpp:131] Top shape: 1 10 52 (520)
I0717 12:30:49.639914 27176 net.cpp:139] Memory required for data: 1053760
I0717 12:30:49.639919 27176 layer_factory.hpp:77] Creating layer LSTM_transform_16
I0717 12:30:49.639930 27176 net.cpp:86] Creating Layer LSTM_transform_16
I0717 12:30:49.639940 27176 net.cpp:408] LSTM_transform_16 <- h_conted_15
I0717 12:30:49.639953 27176 net.cpp:382] LSTM_transform_16 -> W_hc_h_15
I0717 12:30:49.640367 27176 net.cpp:124] Setting up LSTM_transform_16
I0717 12:30:49.640377 27176 net.cpp:131] Top shape: 1 10 208 (2080)
I0717 12:30:49.640381 27176 net.cpp:139] Memory required for data: 1062080
I0717 12:30:49.640386 27176 net.cpp:467] Sharing parameters 'W_hc' owned by layer 'LSTM_transform_1', param index 0
I0717 12:30:49.640393 27176 layer_factory.hpp:77] Creating layer LSTM_gate_input_16
I0717 12:30:49.640399 27176 net.cpp:86] Creating Layer LSTM_gate_input_16
I0717 12:30:49.640404 27176 net.cpp:408] LSTM_gate_input_16 <- W_hc_h_15
I0717 12:30:49.640411 27176 net.cpp:408] LSTM_gate_input_16 <- W_xc_x_16
I0717 12:30:49.640419 27176 net.cpp:382] LSTM_gate_input_16 -> gate_input_16
I0717 12:30:49.640447 27176 net.cpp:124] Setting up LSTM_gate_input_16
I0717 12:30:49.640455 27176 net.cpp:131] Top shape: 1 10 208 (2080)
I0717 12:30:49.640460 27176 net.cpp:139] Memory required for data: 1070400
I0717 12:30:49.640465 27176 layer_factory.hpp:77] Creating layer LSTM_unit_16
I0717 12:30:49.640471 27176 net.cpp:86] Creating Layer LSTM_unit_16
I0717 12:30:49.640477 27176 net.cpp:408] LSTM_unit_16 <- c_15
I0717 12:30:49.640485 27176 net.cpp:408] LSTM_unit_16 <- gate_input_16
I0717 12:30:49.640491 27176 net.cpp:408] LSTM_unit_16 <- cont_16_LSTM_cont_slice_15_split_1
I0717 12:30:49.640497 27176 net.cpp:382] LSTM_unit_16 -> c_16
I0717 12:30:49.640506 27176 net.cpp:382] LSTM_unit_16 -> h_16
I0717 12:30:49.640558 27176 net.cpp:124] Setting up LSTM_unit_16
I0717 12:30:49.640568 27176 net.cpp:131] Top shape: 1 10 52 (520)
I0717 12:30:49.640573 27176 net.cpp:131] Top shape: 1 10 52 (520)
I0717 12:30:49.640578 27176 net.cpp:139] Memory required for data: 1074560
I0717 12:30:49.640583 27176 layer_factory.hpp:77] Creating layer h_16_LSTM_unit_16_1_split
I0717 12:30:49.640590 27176 net.cpp:86] Creating Layer h_16_LSTM_unit_16_1_split
I0717 12:30:49.640595 27176 net.cpp:408] h_16_LSTM_unit_16_1_split <- h_16
I0717 12:30:49.640602 27176 net.cpp:382] h_16_LSTM_unit_16_1_split -> h_16_LSTM_unit_16_1_split_0
I0717 12:30:49.640610 27176 net.cpp:382] h_16_LSTM_unit_16_1_split -> h_16_LSTM_unit_16_1_split_1
I0717 12:30:49.640647 27176 net.cpp:124] Setting up h_16_LSTM_unit_16_1_split
I0717 12:30:49.640655 27176 net.cpp:131] Top shape: 1 10 52 (520)
I0717 12:30:49.640661 27176 net.cpp:131] Top shape: 1 10 52 (520)
I0717 12:30:49.640666 27176 net.cpp:139] Memory required for data: 1078720
I0717 12:30:49.640671 27176 layer_factory.hpp:77] Creating layer LSTM_h_conted_16
I0717 12:30:49.640678 27176 net.cpp:86] Creating Layer LSTM_h_conted_16
I0717 12:30:49.640683 27176 net.cpp:408] LSTM_h_conted_16 <- h_16_LSTM_unit_16_1_split_0
I0717 12:30:49.640691 27176 net.cpp:408] LSTM_h_conted_16 <- cont_17_LSTM_cont_slice_16_split_0
I0717 12:30:49.640698 27176 net.cpp:382] LSTM_h_conted_16 -> h_conted_16
I0717 12:30:49.640764 27176 net.cpp:124] Setting up LSTM_h_conted_16
I0717 12:30:49.640774 27176 net.cpp:131] Top shape: 1 10 52 (520)
I0717 12:30:49.640779 27176 net.cpp:139] Memory required for data: 1080800
I0717 12:30:49.640784 27176 layer_factory.hpp:77] Creating layer LSTM_transform_17
I0717 12:30:49.640790 27176 net.cpp:86] Creating Layer LSTM_transform_17
I0717 12:30:49.640796 27176 net.cpp:408] LSTM_transform_17 <- h_conted_16
I0717 12:30:49.640805 27176 net.cpp:382] LSTM_transform_17 -> W_hc_h_16
I0717 12:30:49.641217 27176 net.cpp:124] Setting up LSTM_transform_17
I0717 12:30:49.641227 27176 net.cpp:131] Top shape: 1 10 208 (2080)
I0717 12:30:49.641232 27176 net.cpp:139] Memory required for data: 1089120
I0717 12:30:49.641237 27176 net.cpp:467] Sharing parameters 'W_hc' owned by layer 'LSTM_transform_1', param index 0
I0717 12:30:49.641243 27176 layer_factory.hpp:77] Creating layer LSTM_gate_input_17
I0717 12:30:49.641257 27176 net.cpp:86] Creating Layer LSTM_gate_input_17
I0717 12:30:49.641263 27176 net.cpp:408] LSTM_gate_input_17 <- W_hc_h_16
I0717 12:30:49.641270 27176 net.cpp:408] LSTM_gate_input_17 <- W_xc_x_17
I0717 12:30:49.641283 27176 net.cpp:382] LSTM_gate_input_17 -> gate_input_17
I0717 12:30:49.641319 27176 net.cpp:124] Setting up LSTM_gate_input_17
I0717 12:30:49.641329 27176 net.cpp:131] Top shape: 1 10 208 (2080)
I0717 12:30:49.641333 27176 net.cpp:139] Memory required for data: 1097440
I0717 12:30:49.641338 27176 layer_factory.hpp:77] Creating layer LSTM_unit_17
I0717 12:30:49.641345 27176 net.cpp:86] Creating Layer LSTM_unit_17
I0717 12:30:49.641351 27176 net.cpp:408] LSTM_unit_17 <- c_16
I0717 12:30:49.641357 27176 net.cpp:408] LSTM_unit_17 <- gate_input_17
I0717 12:30:49.641365 27176 net.cpp:408] LSTM_unit_17 <- cont_17_LSTM_cont_slice_16_split_1
I0717 12:30:49.641371 27176 net.cpp:382] LSTM_unit_17 -> c_17
I0717 12:30:49.641399 27176 net.cpp:382] LSTM_unit_17 -> h_17
I0717 12:30:49.641453 27176 net.cpp:124] Setting up LSTM_unit_17
I0717 12:30:49.641464 27176 net.cpp:131] Top shape: 1 10 52 (520)
I0717 12:30:49.641470 27176 net.cpp:131] Top shape: 1 10 52 (520)
I0717 12:30:49.641475 27176 net.cpp:139] Memory required for data: 1101600
I0717 12:30:49.641480 27176 layer_factory.hpp:77] Creating layer h_17_LSTM_unit_17_1_split
I0717 12:30:49.641489 27176 net.cpp:86] Creating Layer h_17_LSTM_unit_17_1_split
I0717 12:30:49.641494 27176 net.cpp:408] h_17_LSTM_unit_17_1_split <- h_17
I0717 12:30:49.641501 27176 net.cpp:382] h_17_LSTM_unit_17_1_split -> h_17_LSTM_unit_17_1_split_0
I0717 12:30:49.641511 27176 net.cpp:382] h_17_LSTM_unit_17_1_split -> h_17_LSTM_unit_17_1_split_1
I0717 12:30:49.641546 27176 net.cpp:124] Setting up h_17_LSTM_unit_17_1_split
I0717 12:30:49.641554 27176 net.cpp:131] Top shape: 1 10 52 (520)
I0717 12:30:49.641561 27176 net.cpp:131] Top shape: 1 10 52 (520)
I0717 12:30:49.641566 27176 net.cpp:139] Memory required for data: 1105760
I0717 12:30:49.641571 27176 layer_factory.hpp:77] Creating layer LSTM_h_conted_17
I0717 12:30:49.641579 27176 net.cpp:86] Creating Layer LSTM_h_conted_17
I0717 12:30:49.641585 27176 net.cpp:408] LSTM_h_conted_17 <- h_17_LSTM_unit_17_1_split_0
I0717 12:30:49.641592 27176 net.cpp:408] LSTM_h_conted_17 <- cont_18_LSTM_cont_slice_17_split_0
I0717 12:30:49.641599 27176 net.cpp:382] LSTM_h_conted_17 -> h_conted_17
I0717 12:30:49.641664 27176 net.cpp:124] Setting up LSTM_h_conted_17
I0717 12:30:49.641672 27176 net.cpp:131] Top shape: 1 10 52 (520)
I0717 12:30:49.641677 27176 net.cpp:139] Memory required for data: 1107840
I0717 12:30:49.641682 27176 layer_factory.hpp:77] Creating layer LSTM_transform_18
I0717 12:30:49.641693 27176 net.cpp:86] Creating Layer LSTM_transform_18
I0717 12:30:49.641700 27176 net.cpp:408] LSTM_transform_18 <- h_conted_17
I0717 12:30:49.641707 27176 net.cpp:382] LSTM_transform_18 -> W_hc_h_17
I0717 12:30:49.642123 27176 net.cpp:124] Setting up LSTM_transform_18
I0717 12:30:49.642132 27176 net.cpp:131] Top shape: 1 10 208 (2080)
I0717 12:30:49.642138 27176 net.cpp:139] Memory required for data: 1116160
I0717 12:30:49.642143 27176 net.cpp:467] Sharing parameters 'W_hc' owned by layer 'LSTM_transform_1', param index 0
I0717 12:30:49.642148 27176 layer_factory.hpp:77] Creating layer LSTM_gate_input_18
I0717 12:30:49.642155 27176 net.cpp:86] Creating Layer LSTM_gate_input_18
I0717 12:30:49.642161 27176 net.cpp:408] LSTM_gate_input_18 <- W_hc_h_17
I0717 12:30:49.642169 27176 net.cpp:408] LSTM_gate_input_18 <- W_xc_x_18
I0717 12:30:49.642177 27176 net.cpp:382] LSTM_gate_input_18 -> gate_input_18
I0717 12:30:49.642204 27176 net.cpp:124] Setting up LSTM_gate_input_18
I0717 12:30:49.642211 27176 net.cpp:131] Top shape: 1 10 208 (2080)
I0717 12:30:49.642216 27176 net.cpp:139] Memory required for data: 1124480
I0717 12:30:49.642221 27176 layer_factory.hpp:77] Creating layer LSTM_unit_18
I0717 12:30:49.642228 27176 net.cpp:86] Creating Layer LSTM_unit_18
I0717 12:30:49.642235 27176 net.cpp:408] LSTM_unit_18 <- c_17
I0717 12:30:49.642241 27176 net.cpp:408] LSTM_unit_18 <- gate_input_18
I0717 12:30:49.642247 27176 net.cpp:408] LSTM_unit_18 <- cont_18_LSTM_cont_slice_17_split_1
I0717 12:30:49.642256 27176 net.cpp:382] LSTM_unit_18 -> c_18
I0717 12:30:49.642269 27176 net.cpp:382] LSTM_unit_18 -> h_18
I0717 12:30:49.642320 27176 net.cpp:124] Setting up LSTM_unit_18
I0717 12:30:49.642339 27176 net.cpp:131] Top shape: 1 10 52 (520)
I0717 12:30:49.642346 27176 net.cpp:131] Top shape: 1 10 52 (520)
I0717 12:30:49.642351 27176 net.cpp:139] Memory required for data: 1128640
I0717 12:30:49.642356 27176 layer_factory.hpp:77] Creating layer h_18_LSTM_unit_18_1_split
I0717 12:30:49.642374 27176 net.cpp:86] Creating Layer h_18_LSTM_unit_18_1_split
I0717 12:30:49.642381 27176 net.cpp:408] h_18_LSTM_unit_18_1_split <- h_18
I0717 12:30:49.642390 27176 net.cpp:382] h_18_LSTM_unit_18_1_split -> h_18_LSTM_unit_18_1_split_0
I0717 12:30:49.642397 27176 net.cpp:382] h_18_LSTM_unit_18_1_split -> h_18_LSTM_unit_18_1_split_1
I0717 12:30:49.642436 27176 net.cpp:124] Setting up h_18_LSTM_unit_18_1_split
I0717 12:30:49.642444 27176 net.cpp:131] Top shape: 1 10 52 (520)
I0717 12:30:49.642451 27176 net.cpp:131] Top shape: 1 10 52 (520)
I0717 12:30:49.642454 27176 net.cpp:139] Memory required for data: 1132800
I0717 12:30:49.642459 27176 layer_factory.hpp:77] Creating layer LSTM_h_conted_18
I0717 12:30:49.642467 27176 net.cpp:86] Creating Layer LSTM_h_conted_18
I0717 12:30:49.642472 27176 net.cpp:408] LSTM_h_conted_18 <- h_18_LSTM_unit_18_1_split_0
I0717 12:30:49.642479 27176 net.cpp:408] LSTM_h_conted_18 <- cont_19_LSTM_cont_slice_18_split_0
I0717 12:30:49.642487 27176 net.cpp:382] LSTM_h_conted_18 -> h_conted_18
I0717 12:30:49.642554 27176 net.cpp:124] Setting up LSTM_h_conted_18
I0717 12:30:49.642563 27176 net.cpp:131] Top shape: 1 10 52 (520)
I0717 12:30:49.642568 27176 net.cpp:139] Memory required for data: 1134880
I0717 12:30:49.642573 27176 layer_factory.hpp:77] Creating layer LSTM_transform_19
I0717 12:30:49.642581 27176 net.cpp:86] Creating Layer LSTM_transform_19
I0717 12:30:49.642586 27176 net.cpp:408] LSTM_transform_19 <- h_conted_18
I0717 12:30:49.642596 27176 net.cpp:382] LSTM_transform_19 -> W_hc_h_18
I0717 12:30:49.643012 27176 net.cpp:124] Setting up LSTM_transform_19
I0717 12:30:49.643021 27176 net.cpp:131] Top shape: 1 10 208 (2080)
I0717 12:30:49.643025 27176 net.cpp:139] Memory required for data: 1143200
I0717 12:30:49.643031 27176 net.cpp:467] Sharing parameters 'W_hc' owned by layer 'LSTM_transform_1', param index 0
I0717 12:30:49.643036 27176 layer_factory.hpp:77] Creating layer LSTM_gate_input_19
I0717 12:30:49.643043 27176 net.cpp:86] Creating Layer LSTM_gate_input_19
I0717 12:30:49.643049 27176 net.cpp:408] LSTM_gate_input_19 <- W_hc_h_18
I0717 12:30:49.643055 27176 net.cpp:408] LSTM_gate_input_19 <- W_xc_x_19
I0717 12:30:49.643062 27176 net.cpp:382] LSTM_gate_input_19 -> gate_input_19
I0717 12:30:49.643091 27176 net.cpp:124] Setting up LSTM_gate_input_19
I0717 12:30:49.643100 27176 net.cpp:131] Top shape: 1 10 208 (2080)
I0717 12:30:49.643105 27176 net.cpp:139] Memory required for data: 1151520
I0717 12:30:49.643110 27176 layer_factory.hpp:77] Creating layer LSTM_unit_19
I0717 12:30:49.643116 27176 net.cpp:86] Creating Layer LSTM_unit_19
I0717 12:30:49.643121 27176 net.cpp:408] LSTM_unit_19 <- c_18
I0717 12:30:49.643128 27176 net.cpp:408] LSTM_unit_19 <- gate_input_19
I0717 12:30:49.643134 27176 net.cpp:408] LSTM_unit_19 <- cont_19_LSTM_cont_slice_18_split_1
I0717 12:30:49.643141 27176 net.cpp:382] LSTM_unit_19 -> c_19
I0717 12:30:49.643149 27176 net.cpp:382] LSTM_unit_19 -> h_19
I0717 12:30:49.643199 27176 net.cpp:124] Setting up LSTM_unit_19
I0717 12:30:49.643208 27176 net.cpp:131] Top shape: 1 10 52 (520)
I0717 12:30:49.643214 27176 net.cpp:131] Top shape: 1 10 52 (520)
I0717 12:30:49.643219 27176 net.cpp:139] Memory required for data: 1155680
I0717 12:30:49.643224 27176 layer_factory.hpp:77] Creating layer h_19_LSTM_unit_19_1_split
I0717 12:30:49.643232 27176 net.cpp:86] Creating Layer h_19_LSTM_unit_19_1_split
I0717 12:30:49.643239 27176 net.cpp:408] h_19_LSTM_unit_19_1_split <- h_19
I0717 12:30:49.643245 27176 net.cpp:382] h_19_LSTM_unit_19_1_split -> h_19_LSTM_unit_19_1_split_0
I0717 12:30:49.643252 27176 net.cpp:382] h_19_LSTM_unit_19_1_split -> h_19_LSTM_unit_19_1_split_1
I0717 12:30:49.643295 27176 net.cpp:124] Setting up h_19_LSTM_unit_19_1_split
I0717 12:30:49.643309 27176 net.cpp:131] Top shape: 1 10 52 (520)
I0717 12:30:49.643316 27176 net.cpp:131] Top shape: 1 10 52 (520)
I0717 12:30:49.643321 27176 net.cpp:139] Memory required for data: 1159840
I0717 12:30:49.643326 27176 layer_factory.hpp:77] Creating layer LSTM_h_conted_19
I0717 12:30:49.643332 27176 net.cpp:86] Creating Layer LSTM_h_conted_19
I0717 12:30:49.643338 27176 net.cpp:408] LSTM_h_conted_19 <- h_19_LSTM_unit_19_1_split_0
I0717 12:30:49.643344 27176 net.cpp:408] LSTM_h_conted_19 <- cont_20_LSTM_cont_slice_19_split_0
I0717 12:30:49.643354 27176 net.cpp:382] LSTM_h_conted_19 -> h_conted_19
I0717 12:30:49.643419 27176 net.cpp:124] Setting up LSTM_h_conted_19
I0717 12:30:49.643427 27176 net.cpp:131] Top shape: 1 10 52 (520)
I0717 12:30:49.643432 27176 net.cpp:139] Memory required for data: 1161920
I0717 12:30:49.643436 27176 layer_factory.hpp:77] Creating layer LSTM_transform_20
I0717 12:30:49.643445 27176 net.cpp:86] Creating Layer LSTM_transform_20
I0717 12:30:49.643450 27176 net.cpp:408] LSTM_transform_20 <- h_conted_19
I0717 12:30:49.643457 27176 net.cpp:382] LSTM_transform_20 -> W_hc_h_19
I0717 12:30:49.643872 27176 net.cpp:124] Setting up LSTM_transform_20
I0717 12:30:49.643882 27176 net.cpp:131] Top shape: 1 10 208 (2080)
I0717 12:30:49.643887 27176 net.cpp:139] Memory required for data: 1170240
I0717 12:30:49.643892 27176 net.cpp:467] Sharing parameters 'W_hc' owned by layer 'LSTM_transform_1', param index 0
I0717 12:30:49.643896 27176 layer_factory.hpp:77] Creating layer LSTM_gate_input_20
I0717 12:30:49.643904 27176 net.cpp:86] Creating Layer LSTM_gate_input_20
I0717 12:30:49.643909 27176 net.cpp:408] LSTM_gate_input_20 <- W_hc_h_19
I0717 12:30:49.643915 27176 net.cpp:408] LSTM_gate_input_20 <- W_xc_x_20
I0717 12:30:49.643923 27176 net.cpp:382] LSTM_gate_input_20 -> gate_input_20
I0717 12:30:49.643949 27176 net.cpp:124] Setting up LSTM_gate_input_20
I0717 12:30:49.643956 27176 net.cpp:131] Top shape: 1 10 208 (2080)
I0717 12:30:49.643961 27176 net.cpp:139] Memory required for data: 1178560
I0717 12:30:49.643966 27176 layer_factory.hpp:77] Creating layer LSTM_unit_20
I0717 12:30:49.643975 27176 net.cpp:86] Creating Layer LSTM_unit_20
I0717 12:30:49.643982 27176 net.cpp:408] LSTM_unit_20 <- c_19
I0717 12:30:49.643988 27176 net.cpp:408] LSTM_unit_20 <- gate_input_20
I0717 12:30:49.643995 27176 net.cpp:408] LSTM_unit_20 <- cont_20_LSTM_cont_slice_19_split_1
I0717 12:30:49.644001 27176 net.cpp:382] LSTM_unit_20 -> c_20
I0717 12:30:49.644011 27176 net.cpp:382] LSTM_unit_20 -> h_20
I0717 12:30:49.644058 27176 net.cpp:124] Setting up LSTM_unit_20
I0717 12:30:49.644068 27176 net.cpp:131] Top shape: 1 10 52 (520)
I0717 12:30:49.644073 27176 net.cpp:131] Top shape: 1 10 52 (520)
I0717 12:30:49.644078 27176 net.cpp:139] Memory required for data: 1182720
I0717 12:30:49.644083 27176 layer_factory.hpp:77] Creating layer h_20_LSTM_unit_20_1_split
I0717 12:30:49.644089 27176 net.cpp:86] Creating Layer h_20_LSTM_unit_20_1_split
I0717 12:30:49.644095 27176 net.cpp:408] h_20_LSTM_unit_20_1_split <- h_20
I0717 12:30:49.644103 27176 net.cpp:382] h_20_LSTM_unit_20_1_split -> h_20_LSTM_unit_20_1_split_0
I0717 12:30:49.644112 27176 net.cpp:382] h_20_LSTM_unit_20_1_split -> h_20_LSTM_unit_20_1_split_1
I0717 12:30:49.644146 27176 net.cpp:124] Setting up h_20_LSTM_unit_20_1_split
I0717 12:30:49.644155 27176 net.cpp:131] Top shape: 1 10 52 (520)
I0717 12:30:49.644160 27176 net.cpp:131] Top shape: 1 10 52 (520)
I0717 12:30:49.644165 27176 net.cpp:139] Memory required for data: 1186880
I0717 12:30:49.644170 27176 layer_factory.hpp:77] Creating layer LSTM_h_conted_20
I0717 12:30:49.644179 27176 net.cpp:86] Creating Layer LSTM_h_conted_20
I0717 12:30:49.644186 27176 net.cpp:408] LSTM_h_conted_20 <- h_20_LSTM_unit_20_1_split_0
I0717 12:30:49.644191 27176 net.cpp:408] LSTM_h_conted_20 <- cont_21_LSTM_cont_slice_20_split_0
I0717 12:30:49.644199 27176 net.cpp:382] LSTM_h_conted_20 -> h_conted_20
I0717 12:30:49.644265 27176 net.cpp:124] Setting up LSTM_h_conted_20
I0717 12:30:49.644279 27176 net.cpp:131] Top shape: 1 10 52 (520)
I0717 12:30:49.644289 27176 net.cpp:139] Memory required for data: 1188960
I0717 12:30:49.644294 27176 layer_factory.hpp:77] Creating layer LSTM_transform_21
I0717 12:30:49.644304 27176 net.cpp:86] Creating Layer LSTM_transform_21
I0717 12:30:49.644309 27176 net.cpp:408] LSTM_transform_21 <- h_conted_20
I0717 12:30:49.644317 27176 net.cpp:382] LSTM_transform_21 -> W_hc_h_20
I0717 12:30:49.644731 27176 net.cpp:124] Setting up LSTM_transform_21
I0717 12:30:49.644740 27176 net.cpp:131] Top shape: 1 10 208 (2080)
I0717 12:30:49.644745 27176 net.cpp:139] Memory required for data: 1197280
I0717 12:30:49.644750 27176 net.cpp:467] Sharing parameters 'W_hc' owned by layer 'LSTM_transform_1', param index 0
I0717 12:30:49.644757 27176 layer_factory.hpp:77] Creating layer LSTM_gate_input_21
I0717 12:30:49.644763 27176 net.cpp:86] Creating Layer LSTM_gate_input_21
I0717 12:30:49.644769 27176 net.cpp:408] LSTM_gate_input_21 <- W_hc_h_20
I0717 12:30:49.644778 27176 net.cpp:408] LSTM_gate_input_21 <- W_xc_x_21
I0717 12:30:49.644785 27176 net.cpp:382] LSTM_gate_input_21 -> gate_input_21
I0717 12:30:49.644810 27176 net.cpp:124] Setting up LSTM_gate_input_21
I0717 12:30:49.644819 27176 net.cpp:131] Top shape: 1 10 208 (2080)
I0717 12:30:49.644824 27176 net.cpp:139] Memory required for data: 1205600
I0717 12:30:49.644829 27176 layer_factory.hpp:77] Creating layer LSTM_unit_21
I0717 12:30:49.644835 27176 net.cpp:86] Creating Layer LSTM_unit_21
I0717 12:30:49.644841 27176 net.cpp:408] LSTM_unit_21 <- c_20
I0717 12:30:49.644847 27176 net.cpp:408] LSTM_unit_21 <- gate_input_21
I0717 12:30:49.644853 27176 net.cpp:408] LSTM_unit_21 <- cont_21_LSTM_cont_slice_20_split_1
I0717 12:30:49.644863 27176 net.cpp:382] LSTM_unit_21 -> c_21
I0717 12:30:49.644871 27176 net.cpp:382] LSTM_unit_21 -> h_21
I0717 12:30:49.644920 27176 net.cpp:124] Setting up LSTM_unit_21
I0717 12:30:49.644929 27176 net.cpp:131] Top shape: 1 10 52 (520)
I0717 12:30:49.644935 27176 net.cpp:131] Top shape: 1 10 52 (520)
I0717 12:30:49.644940 27176 net.cpp:139] Memory required for data: 1209760
I0717 12:30:49.644945 27176 layer_factory.hpp:77] Creating layer h_21_LSTM_unit_21_1_split
I0717 12:30:49.644951 27176 net.cpp:86] Creating Layer h_21_LSTM_unit_21_1_split
I0717 12:30:49.644958 27176 net.cpp:408] h_21_LSTM_unit_21_1_split <- h_21
I0717 12:30:49.644964 27176 net.cpp:382] h_21_LSTM_unit_21_1_split -> h_21_LSTM_unit_21_1_split_0
I0717 12:30:49.644973 27176 net.cpp:382] h_21_LSTM_unit_21_1_split -> h_21_LSTM_unit_21_1_split_1
I0717 12:30:49.645010 27176 net.cpp:124] Setting up h_21_LSTM_unit_21_1_split
I0717 12:30:49.645018 27176 net.cpp:131] Top shape: 1 10 52 (520)
I0717 12:30:49.645025 27176 net.cpp:131] Top shape: 1 10 52 (520)
I0717 12:30:49.645030 27176 net.cpp:139] Memory required for data: 1213920
I0717 12:30:49.645035 27176 layer_factory.hpp:77] Creating layer LSTM_h_conted_21
I0717 12:30:49.645041 27176 net.cpp:86] Creating Layer LSTM_h_conted_21
I0717 12:30:49.645046 27176 net.cpp:408] LSTM_h_conted_21 <- h_21_LSTM_unit_21_1_split_0
I0717 12:30:49.645053 27176 net.cpp:408] LSTM_h_conted_21 <- cont_22_LSTM_cont_slice_21_split_0
I0717 12:30:49.645063 27176 net.cpp:382] LSTM_h_conted_21 -> h_conted_21
I0717 12:30:49.645128 27176 net.cpp:124] Setting up LSTM_h_conted_21
I0717 12:30:49.645138 27176 net.cpp:131] Top shape: 1 10 52 (520)
I0717 12:30:49.645143 27176 net.cpp:139] Memory required for data: 1216000
I0717 12:30:49.645146 27176 layer_factory.hpp:77] Creating layer LSTM_transform_22
I0717 12:30:49.645156 27176 net.cpp:86] Creating Layer LSTM_transform_22
I0717 12:30:49.645162 27176 net.cpp:408] LSTM_transform_22 <- h_conted_21
I0717 12:30:49.645170 27176 net.cpp:382] LSTM_transform_22 -> W_hc_h_21
I0717 12:30:49.645593 27176 net.cpp:124] Setting up LSTM_transform_22
I0717 12:30:49.645606 27176 net.cpp:131] Top shape: 1 10 208 (2080)
I0717 12:30:49.645611 27176 net.cpp:139] Memory required for data: 1224320
I0717 12:30:49.645617 27176 net.cpp:467] Sharing parameters 'W_hc' owned by layer 'LSTM_transform_1', param index 0
I0717 12:30:49.645625 27176 layer_factory.hpp:77] Creating layer LSTM_gate_input_22
I0717 12:30:49.645640 27176 net.cpp:86] Creating Layer LSTM_gate_input_22
I0717 12:30:49.645647 27176 net.cpp:408] LSTM_gate_input_22 <- W_hc_h_21
I0717 12:30:49.645653 27176 net.cpp:408] LSTM_gate_input_22 <- W_xc_x_22
I0717 12:30:49.645660 27176 net.cpp:382] LSTM_gate_input_22 -> gate_input_22
I0717 12:30:49.645690 27176 net.cpp:124] Setting up LSTM_gate_input_22
I0717 12:30:49.645699 27176 net.cpp:131] Top shape: 1 10 208 (2080)
I0717 12:30:49.645704 27176 net.cpp:139] Memory required for data: 1232640
I0717 12:30:49.645709 27176 layer_factory.hpp:77] Creating layer LSTM_unit_22
I0717 12:30:49.645715 27176 net.cpp:86] Creating Layer LSTM_unit_22
I0717 12:30:49.645721 27176 net.cpp:408] LSTM_unit_22 <- c_21
I0717 12:30:49.645727 27176 net.cpp:408] LSTM_unit_22 <- gate_input_22
I0717 12:30:49.645735 27176 net.cpp:408] LSTM_unit_22 <- cont_22_LSTM_cont_slice_21_split_1
I0717 12:30:49.645741 27176 net.cpp:382] LSTM_unit_22 -> c_22
I0717 12:30:49.645750 27176 net.cpp:382] LSTM_unit_22 -> h_22
I0717 12:30:49.645802 27176 net.cpp:124] Setting up LSTM_unit_22
I0717 12:30:49.645810 27176 net.cpp:131] Top shape: 1 10 52 (520)
I0717 12:30:49.645817 27176 net.cpp:131] Top shape: 1 10 52 (520)
I0717 12:30:49.645822 27176 net.cpp:139] Memory required for data: 1236800
I0717 12:30:49.645826 27176 layer_factory.hpp:77] Creating layer h_22_LSTM_unit_22_1_split
I0717 12:30:49.645833 27176 net.cpp:86] Creating Layer h_22_LSTM_unit_22_1_split
I0717 12:30:49.645838 27176 net.cpp:408] h_22_LSTM_unit_22_1_split <- h_22
I0717 12:30:49.645845 27176 net.cpp:382] h_22_LSTM_unit_22_1_split -> h_22_LSTM_unit_22_1_split_0
I0717 12:30:49.645853 27176 net.cpp:382] h_22_LSTM_unit_22_1_split -> h_22_LSTM_unit_22_1_split_1
I0717 12:30:49.645890 27176 net.cpp:124] Setting up h_22_LSTM_unit_22_1_split
I0717 12:30:49.645898 27176 net.cpp:131] Top shape: 1 10 52 (520)
I0717 12:30:49.645905 27176 net.cpp:131] Top shape: 1 10 52 (520)
I0717 12:30:49.645910 27176 net.cpp:139] Memory required for data: 1240960
I0717 12:30:49.645915 27176 layer_factory.hpp:77] Creating layer LSTM_h_conted_22
I0717 12:30:49.645921 27176 net.cpp:86] Creating Layer LSTM_h_conted_22
I0717 12:30:49.645926 27176 net.cpp:408] LSTM_h_conted_22 <- h_22_LSTM_unit_22_1_split_0
I0717 12:30:49.645933 27176 net.cpp:408] LSTM_h_conted_22 <- cont_23_LSTM_cont_slice_22_split_0
I0717 12:30:49.645941 27176 net.cpp:382] LSTM_h_conted_22 -> h_conted_22
I0717 12:30:49.646004 27176 net.cpp:124] Setting up LSTM_h_conted_22
I0717 12:30:49.646013 27176 net.cpp:131] Top shape: 1 10 52 (520)
I0717 12:30:49.646018 27176 net.cpp:139] Memory required for data: 1243040
I0717 12:30:49.646023 27176 layer_factory.hpp:77] Creating layer LSTM_transform_23
I0717 12:30:49.646030 27176 net.cpp:86] Creating Layer LSTM_transform_23
I0717 12:30:49.646035 27176 net.cpp:408] LSTM_transform_23 <- h_conted_22
I0717 12:30:49.646045 27176 net.cpp:382] LSTM_transform_23 -> W_hc_h_22
I0717 12:30:49.646457 27176 net.cpp:124] Setting up LSTM_transform_23
I0717 12:30:49.646466 27176 net.cpp:131] Top shape: 1 10 208 (2080)
I0717 12:30:49.646471 27176 net.cpp:139] Memory required for data: 1251360
I0717 12:30:49.646477 27176 net.cpp:467] Sharing parameters 'W_hc' owned by layer 'LSTM_transform_1', param index 0
I0717 12:30:49.646482 27176 layer_factory.hpp:77] Creating layer LSTM_gate_input_23
I0717 12:30:49.646491 27176 net.cpp:86] Creating Layer LSTM_gate_input_23
I0717 12:30:49.646495 27176 net.cpp:408] LSTM_gate_input_23 <- W_hc_h_22
I0717 12:30:49.646502 27176 net.cpp:408] LSTM_gate_input_23 <- W_xc_x_23
I0717 12:30:49.646509 27176 net.cpp:382] LSTM_gate_input_23 -> gate_input_23
I0717 12:30:49.646538 27176 net.cpp:124] Setting up LSTM_gate_input_23
I0717 12:30:49.646546 27176 net.cpp:131] Top shape: 1 10 208 (2080)
I0717 12:30:49.646551 27176 net.cpp:139] Memory required for data: 1259680
I0717 12:30:49.646556 27176 layer_factory.hpp:77] Creating layer LSTM_unit_23
I0717 12:30:49.646564 27176 net.cpp:86] Creating Layer LSTM_unit_23
I0717 12:30:49.646574 27176 net.cpp:408] LSTM_unit_23 <- c_22
I0717 12:30:49.646585 27176 net.cpp:408] LSTM_unit_23 <- gate_input_23
I0717 12:30:49.646592 27176 net.cpp:408] LSTM_unit_23 <- cont_23_LSTM_cont_slice_22_split_1
I0717 12:30:49.646600 27176 net.cpp:382] LSTM_unit_23 -> c_23
I0717 12:30:49.646607 27176 net.cpp:382] LSTM_unit_23 -> h_23
I0717 12:30:49.646658 27176 net.cpp:124] Setting up LSTM_unit_23
I0717 12:30:49.646667 27176 net.cpp:131] Top shape: 1 10 52 (520)
I0717 12:30:49.646673 27176 net.cpp:131] Top shape: 1 10 52 (520)
I0717 12:30:49.646678 27176 net.cpp:139] Memory required for data: 1263840
I0717 12:30:49.646682 27176 layer_factory.hpp:77] Creating layer h_23_LSTM_unit_23_1_split
I0717 12:30:49.646692 27176 net.cpp:86] Creating Layer h_23_LSTM_unit_23_1_split
I0717 12:30:49.646697 27176 net.cpp:408] h_23_LSTM_unit_23_1_split <- h_23
I0717 12:30:49.646704 27176 net.cpp:382] h_23_LSTM_unit_23_1_split -> h_23_LSTM_unit_23_1_split_0
I0717 12:30:49.646713 27176 net.cpp:382] h_23_LSTM_unit_23_1_split -> h_23_LSTM_unit_23_1_split_1
I0717 12:30:49.646749 27176 net.cpp:124] Setting up h_23_LSTM_unit_23_1_split
I0717 12:30:49.646759 27176 net.cpp:131] Top shape: 1 10 52 (520)
I0717 12:30:49.646764 27176 net.cpp:131] Top shape: 1 10 52 (520)
I0717 12:30:49.646769 27176 net.cpp:139] Memory required for data: 1268000
I0717 12:30:49.646773 27176 layer_factory.hpp:77] Creating layer LSTM_h_conted_23
I0717 12:30:49.646780 27176 net.cpp:86] Creating Layer LSTM_h_conted_23
I0717 12:30:49.646786 27176 net.cpp:408] LSTM_h_conted_23 <- h_23_LSTM_unit_23_1_split_0
I0717 12:30:49.646793 27176 net.cpp:408] LSTM_h_conted_23 <- cont_24_LSTM_cont_slice_23_split_0
I0717 12:30:49.646802 27176 net.cpp:382] LSTM_h_conted_23 -> h_conted_23
I0717 12:30:49.646867 27176 net.cpp:124] Setting up LSTM_h_conted_23
I0717 12:30:49.646875 27176 net.cpp:131] Top shape: 1 10 52 (520)
I0717 12:30:49.646880 27176 net.cpp:139] Memory required for data: 1270080
I0717 12:30:49.646885 27176 layer_factory.hpp:77] Creating layer LSTM_transform_24
I0717 12:30:49.646893 27176 net.cpp:86] Creating Layer LSTM_transform_24
I0717 12:30:49.646898 27176 net.cpp:408] LSTM_transform_24 <- h_conted_23
I0717 12:30:49.646906 27176 net.cpp:382] LSTM_transform_24 -> W_hc_h_23
I0717 12:30:49.647321 27176 net.cpp:124] Setting up LSTM_transform_24
I0717 12:30:49.647331 27176 net.cpp:131] Top shape: 1 10 208 (2080)
I0717 12:30:49.647336 27176 net.cpp:139] Memory required for data: 1278400
I0717 12:30:49.647341 27176 net.cpp:467] Sharing parameters 'W_hc' owned by layer 'LSTM_transform_1', param index 0
I0717 12:30:49.647347 27176 layer_factory.hpp:77] Creating layer LSTM_gate_input_24
I0717 12:30:49.647354 27176 net.cpp:86] Creating Layer LSTM_gate_input_24
I0717 12:30:49.647359 27176 net.cpp:408] LSTM_gate_input_24 <- W_hc_h_23
I0717 12:30:49.647366 27176 net.cpp:408] LSTM_gate_input_24 <- W_xc_x_24
I0717 12:30:49.647372 27176 net.cpp:382] LSTM_gate_input_24 -> gate_input_24
I0717 12:30:49.647398 27176 net.cpp:124] Setting up LSTM_gate_input_24
I0717 12:30:49.647406 27176 net.cpp:131] Top shape: 1 10 208 (2080)
I0717 12:30:49.647411 27176 net.cpp:139] Memory required for data: 1286720
I0717 12:30:49.647415 27176 layer_factory.hpp:77] Creating layer LSTM_unit_24
I0717 12:30:49.647425 27176 net.cpp:86] Creating Layer LSTM_unit_24
I0717 12:30:49.647430 27176 net.cpp:408] LSTM_unit_24 <- c_23
I0717 12:30:49.647438 27176 net.cpp:408] LSTM_unit_24 <- gate_input_24
I0717 12:30:49.647444 27176 net.cpp:408] LSTM_unit_24 <- cont_24_LSTM_cont_slice_23_split_1
I0717 12:30:49.647450 27176 net.cpp:382] LSTM_unit_24 -> c_24
I0717 12:30:49.647459 27176 net.cpp:382] LSTM_unit_24 -> h_24
I0717 12:30:49.647507 27176 net.cpp:124] Setting up LSTM_unit_24
I0717 12:30:49.647516 27176 net.cpp:131] Top shape: 1 10 52 (520)
I0717 12:30:49.647522 27176 net.cpp:131] Top shape: 1 10 52 (520)
I0717 12:30:49.647527 27176 net.cpp:139] Memory required for data: 1290880
I0717 12:30:49.647532 27176 layer_factory.hpp:77] Creating layer h_24_LSTM_unit_24_1_split
I0717 12:30:49.647544 27176 net.cpp:86] Creating Layer h_24_LSTM_unit_24_1_split
I0717 12:30:49.647557 27176 net.cpp:408] h_24_LSTM_unit_24_1_split <- h_24
I0717 12:30:49.647563 27176 net.cpp:382] h_24_LSTM_unit_24_1_split -> h_24_LSTM_unit_24_1_split_0
I0717 12:30:49.647575 27176 net.cpp:382] h_24_LSTM_unit_24_1_split -> h_24_LSTM_unit_24_1_split_1
I0717 12:30:49.647611 27176 net.cpp:124] Setting up h_24_LSTM_unit_24_1_split
I0717 12:30:49.647619 27176 net.cpp:131] Top shape: 1 10 52 (520)
I0717 12:30:49.647625 27176 net.cpp:131] Top shape: 1 10 52 (520)
I0717 12:30:49.647629 27176 net.cpp:139] Memory required for data: 1295040
I0717 12:30:49.647634 27176 layer_factory.hpp:77] Creating layer LSTM_h_conted_24
I0717 12:30:49.647644 27176 net.cpp:86] Creating Layer LSTM_h_conted_24
I0717 12:30:49.647650 27176 net.cpp:408] LSTM_h_conted_24 <- h_24_LSTM_unit_24_1_split_0
I0717 12:30:49.647656 27176 net.cpp:408] LSTM_h_conted_24 <- cont_25_LSTM_cont_slice_24_split_0
I0717 12:30:49.647665 27176 net.cpp:382] LSTM_h_conted_24 -> h_conted_24
I0717 12:30:49.647732 27176 net.cpp:124] Setting up LSTM_h_conted_24
I0717 12:30:49.647740 27176 net.cpp:131] Top shape: 1 10 52 (520)
I0717 12:30:49.647745 27176 net.cpp:139] Memory required for data: 1297120
I0717 12:30:49.647750 27176 layer_factory.hpp:77] Creating layer LSTM_transform_25
I0717 12:30:49.647759 27176 net.cpp:86] Creating Layer LSTM_transform_25
I0717 12:30:49.647765 27176 net.cpp:408] LSTM_transform_25 <- h_conted_24
I0717 12:30:49.647773 27176 net.cpp:382] LSTM_transform_25 -> W_hc_h_24
I0717 12:30:49.648190 27176 net.cpp:124] Setting up LSTM_transform_25
I0717 12:30:49.648198 27176 net.cpp:131] Top shape: 1 10 208 (2080)
I0717 12:30:49.648203 27176 net.cpp:139] Memory required for data: 1305440
I0717 12:30:49.648210 27176 net.cpp:467] Sharing parameters 'W_hc' owned by layer 'LSTM_transform_1', param index 0
I0717 12:30:49.648214 27176 layer_factory.hpp:77] Creating layer LSTM_gate_input_25
I0717 12:30:49.648221 27176 net.cpp:86] Creating Layer LSTM_gate_input_25
I0717 12:30:49.648227 27176 net.cpp:408] LSTM_gate_input_25 <- W_hc_h_24
I0717 12:30:49.648236 27176 net.cpp:408] LSTM_gate_input_25 <- W_xc_x_25
I0717 12:30:49.648243 27176 net.cpp:382] LSTM_gate_input_25 -> gate_input_25
I0717 12:30:49.648268 27176 net.cpp:124] Setting up LSTM_gate_input_25
I0717 12:30:49.648277 27176 net.cpp:131] Top shape: 1 10 208 (2080)
I0717 12:30:49.648282 27176 net.cpp:139] Memory required for data: 1313760
I0717 12:30:49.648286 27176 layer_factory.hpp:77] Creating layer LSTM_unit_25
I0717 12:30:49.648293 27176 net.cpp:86] Creating Layer LSTM_unit_25
I0717 12:30:49.648299 27176 net.cpp:408] LSTM_unit_25 <- c_24
I0717 12:30:49.648305 27176 net.cpp:408] LSTM_unit_25 <- gate_input_25
I0717 12:30:49.648311 27176 net.cpp:408] LSTM_unit_25 <- cont_25_LSTM_cont_slice_24_split_1
I0717 12:30:49.648321 27176 net.cpp:382] LSTM_unit_25 -> c_25
I0717 12:30:49.648329 27176 net.cpp:382] LSTM_unit_25 -> h_25
I0717 12:30:49.648380 27176 net.cpp:124] Setting up LSTM_unit_25
I0717 12:30:49.648388 27176 net.cpp:131] Top shape: 1 10 52 (520)
I0717 12:30:49.648394 27176 net.cpp:131] Top shape: 1 10 52 (520)
I0717 12:30:49.648399 27176 net.cpp:139] Memory required for data: 1317920
I0717 12:30:49.648403 27176 layer_factory.hpp:77] Creating layer h_25_LSTM_unit_25_1_split
I0717 12:30:49.648411 27176 net.cpp:86] Creating Layer h_25_LSTM_unit_25_1_split
I0717 12:30:49.648416 27176 net.cpp:408] h_25_LSTM_unit_25_1_split <- h_25
I0717 12:30:49.648423 27176 net.cpp:382] h_25_LSTM_unit_25_1_split -> h_25_LSTM_unit_25_1_split_0
I0717 12:30:49.648432 27176 net.cpp:382] h_25_LSTM_unit_25_1_split -> h_25_LSTM_unit_25_1_split_1
I0717 12:30:49.648468 27176 net.cpp:124] Setting up h_25_LSTM_unit_25_1_split
I0717 12:30:49.648476 27176 net.cpp:131] Top shape: 1 10 52 (520)
I0717 12:30:49.648483 27176 net.cpp:131] Top shape: 1 10 52 (520)
I0717 12:30:49.648488 27176 net.cpp:139] Memory required for data: 1322080
I0717 12:30:49.648492 27176 layer_factory.hpp:77] Creating layer LSTM_h_conted_25
I0717 12:30:49.648499 27176 net.cpp:86] Creating Layer LSTM_h_conted_25
I0717 12:30:49.648509 27176 net.cpp:408] LSTM_h_conted_25 <- h_25_LSTM_unit_25_1_split_0
I0717 12:30:49.648521 27176 net.cpp:408] LSTM_h_conted_25 <- cont_26_LSTM_cont_slice_25_split_0
I0717 12:30:49.648531 27176 net.cpp:382] LSTM_h_conted_25 -> h_conted_25
I0717 12:30:49.648596 27176 net.cpp:124] Setting up LSTM_h_conted_25
I0717 12:30:49.648604 27176 net.cpp:131] Top shape: 1 10 52 (520)
I0717 12:30:49.648609 27176 net.cpp:139] Memory required for data: 1324160
I0717 12:30:49.648614 27176 layer_factory.hpp:77] Creating layer LSTM_transform_26
I0717 12:30:49.648624 27176 net.cpp:86] Creating Layer LSTM_transform_26
I0717 12:30:49.648630 27176 net.cpp:408] LSTM_transform_26 <- h_conted_25
I0717 12:30:49.648638 27176 net.cpp:382] LSTM_transform_26 -> W_hc_h_25
I0717 12:30:49.649050 27176 net.cpp:124] Setting up LSTM_transform_26
I0717 12:30:49.649060 27176 net.cpp:131] Top shape: 1 10 208 (2080)
I0717 12:30:49.649065 27176 net.cpp:139] Memory required for data: 1332480
I0717 12:30:49.649070 27176 net.cpp:467] Sharing parameters 'W_hc' owned by layer 'LSTM_transform_1', param index 0
I0717 12:30:49.649075 27176 layer_factory.hpp:77] Creating layer LSTM_gate_input_26
I0717 12:30:49.649082 27176 net.cpp:86] Creating Layer LSTM_gate_input_26
I0717 12:30:49.649088 27176 net.cpp:408] LSTM_gate_input_26 <- W_hc_h_25
I0717 12:30:49.649094 27176 net.cpp:408] LSTM_gate_input_26 <- W_xc_x_26
I0717 12:30:49.649101 27176 net.cpp:382] LSTM_gate_input_26 -> gate_input_26
I0717 12:30:49.649130 27176 net.cpp:124] Setting up LSTM_gate_input_26
I0717 12:30:49.649138 27176 net.cpp:131] Top shape: 1 10 208 (2080)
I0717 12:30:49.649143 27176 net.cpp:139] Memory required for data: 1340800
I0717 12:30:49.649147 27176 layer_factory.hpp:77] Creating layer LSTM_unit_26
I0717 12:30:49.649154 27176 net.cpp:86] Creating Layer LSTM_unit_26
I0717 12:30:49.649160 27176 net.cpp:408] LSTM_unit_26 <- c_25
I0717 12:30:49.649168 27176 net.cpp:408] LSTM_unit_26 <- gate_input_26
I0717 12:30:49.649173 27176 net.cpp:408] LSTM_unit_26 <- cont_26_LSTM_cont_slice_25_split_1
I0717 12:30:49.649180 27176 net.cpp:382] LSTM_unit_26 -> c_26
I0717 12:30:49.649188 27176 net.cpp:382] LSTM_unit_26 -> h_26
I0717 12:30:49.649241 27176 net.cpp:124] Setting up LSTM_unit_26
I0717 12:30:49.649257 27176 net.cpp:131] Top shape: 1 10 52 (520)
I0717 12:30:49.649265 27176 net.cpp:131] Top shape: 1 10 52 (520)
I0717 12:30:49.649269 27176 net.cpp:139] Memory required for data: 1344960
I0717 12:30:49.649274 27176 layer_factory.hpp:77] Creating layer h_26_LSTM_unit_26_1_split
I0717 12:30:49.649281 27176 net.cpp:86] Creating Layer h_26_LSTM_unit_26_1_split
I0717 12:30:49.649287 27176 net.cpp:408] h_26_LSTM_unit_26_1_split <- h_26
I0717 12:30:49.649294 27176 net.cpp:382] h_26_LSTM_unit_26_1_split -> h_26_LSTM_unit_26_1_split_0
I0717 12:30:49.649302 27176 net.cpp:382] h_26_LSTM_unit_26_1_split -> h_26_LSTM_unit_26_1_split_1
I0717 12:30:49.649341 27176 net.cpp:124] Setting up h_26_LSTM_unit_26_1_split
I0717 12:30:49.649349 27176 net.cpp:131] Top shape: 1 10 52 (520)
I0717 12:30:49.649355 27176 net.cpp:131] Top shape: 1 10 52 (520)
I0717 12:30:49.649360 27176 net.cpp:139] Memory required for data: 1349120
I0717 12:30:49.649365 27176 layer_factory.hpp:77] Creating layer LSTM_h_conted_26
I0717 12:30:49.649371 27176 net.cpp:86] Creating Layer LSTM_h_conted_26
I0717 12:30:49.649377 27176 net.cpp:408] LSTM_h_conted_26 <- h_26_LSTM_unit_26_1_split_0
I0717 12:30:49.649384 27176 net.cpp:408] LSTM_h_conted_26 <- cont_27_LSTM_cont_slice_26_split_0
I0717 12:30:49.649391 27176 net.cpp:382] LSTM_h_conted_26 -> h_conted_26
I0717 12:30:49.649456 27176 net.cpp:124] Setting up LSTM_h_conted_26
I0717 12:30:49.649466 27176 net.cpp:131] Top shape: 1 10 52 (520)
I0717 12:30:49.649469 27176 net.cpp:139] Memory required for data: 1351200
I0717 12:30:49.649474 27176 layer_factory.hpp:77] Creating layer LSTM_transform_27
I0717 12:30:49.649482 27176 net.cpp:86] Creating Layer LSTM_transform_27
I0717 12:30:49.649488 27176 net.cpp:408] LSTM_transform_27 <- h_conted_26
I0717 12:30:49.649497 27176 net.cpp:382] LSTM_transform_27 -> W_hc_h_26
I0717 12:30:49.649915 27176 net.cpp:124] Setting up LSTM_transform_27
I0717 12:30:49.649932 27176 net.cpp:131] Top shape: 1 10 208 (2080)
I0717 12:30:49.649937 27176 net.cpp:139] Memory required for data: 1359520
I0717 12:30:49.649943 27176 net.cpp:467] Sharing parameters 'W_hc' owned by layer 'LSTM_transform_1', param index 0
I0717 12:30:49.649948 27176 layer_factory.hpp:77] Creating layer LSTM_gate_input_27
I0717 12:30:49.649955 27176 net.cpp:86] Creating Layer LSTM_gate_input_27
I0717 12:30:49.649961 27176 net.cpp:408] LSTM_gate_input_27 <- W_hc_h_26
I0717 12:30:49.649967 27176 net.cpp:408] LSTM_gate_input_27 <- W_xc_x_27
I0717 12:30:49.649976 27176 net.cpp:382] LSTM_gate_input_27 -> gate_input_27
I0717 12:30:49.650004 27176 net.cpp:124] Setting up LSTM_gate_input_27
I0717 12:30:49.650012 27176 net.cpp:131] Top shape: 1 10 208 (2080)
I0717 12:30:49.650017 27176 net.cpp:139] Memory required for data: 1367840
I0717 12:30:49.650022 27176 layer_factory.hpp:77] Creating layer LSTM_unit_27
I0717 12:30:49.650029 27176 net.cpp:86] Creating Layer LSTM_unit_27
I0717 12:30:49.650034 27176 net.cpp:408] LSTM_unit_27 <- c_26
I0717 12:30:49.650041 27176 net.cpp:408] LSTM_unit_27 <- gate_input_27
I0717 12:30:49.650048 27176 net.cpp:408] LSTM_unit_27 <- cont_27_LSTM_cont_slice_26_split_1
I0717 12:30:49.650054 27176 net.cpp:382] LSTM_unit_27 -> c_27
I0717 12:30:49.650063 27176 net.cpp:382] LSTM_unit_27 -> h_27
I0717 12:30:49.650112 27176 net.cpp:124] Setting up LSTM_unit_27
I0717 12:30:49.650120 27176 net.cpp:131] Top shape: 1 10 52 (520)
I0717 12:30:49.650126 27176 net.cpp:131] Top shape: 1 10 52 (520)
I0717 12:30:49.650131 27176 net.cpp:139] Memory required for data: 1372000
I0717 12:30:49.650136 27176 layer_factory.hpp:77] Creating layer h_27_LSTM_unit_27_1_split
I0717 12:30:49.650146 27176 net.cpp:86] Creating Layer h_27_LSTM_unit_27_1_split
I0717 12:30:49.650151 27176 net.cpp:408] h_27_LSTM_unit_27_1_split <- h_27
I0717 12:30:49.650158 27176 net.cpp:382] h_27_LSTM_unit_27_1_split -> h_27_LSTM_unit_27_1_split_0
I0717 12:30:49.650166 27176 net.cpp:382] h_27_LSTM_unit_27_1_split -> h_27_LSTM_unit_27_1_split_1
I0717 12:30:49.650204 27176 net.cpp:124] Setting up h_27_LSTM_unit_27_1_split
I0717 12:30:49.650213 27176 net.cpp:131] Top shape: 1 10 52 (520)
I0717 12:30:49.650219 27176 net.cpp:131] Top shape: 1 10 52 (520)
I0717 12:30:49.650224 27176 net.cpp:139] Memory required for data: 1376160
I0717 12:30:49.650228 27176 layer_factory.hpp:77] Creating layer LSTM_h_conted_27
I0717 12:30:49.650235 27176 net.cpp:86] Creating Layer LSTM_h_conted_27
I0717 12:30:49.650241 27176 net.cpp:408] LSTM_h_conted_27 <- h_27_LSTM_unit_27_1_split_0
I0717 12:30:49.650249 27176 net.cpp:408] LSTM_h_conted_27 <- cont_28_LSTM_cont_slice_27_split_0
I0717 12:30:49.650259 27176 net.cpp:382] LSTM_h_conted_27 -> h_conted_27
I0717 12:30:49.650322 27176 net.cpp:124] Setting up LSTM_h_conted_27
I0717 12:30:49.650331 27176 net.cpp:131] Top shape: 1 10 52 (520)
I0717 12:30:49.650336 27176 net.cpp:139] Memory required for data: 1378240
I0717 12:30:49.650341 27176 layer_factory.hpp:77] Creating layer LSTM_transform_28
I0717 12:30:49.650348 27176 net.cpp:86] Creating Layer LSTM_transform_28
I0717 12:30:49.650354 27176 net.cpp:408] LSTM_transform_28 <- h_conted_27
I0717 12:30:49.650362 27176 net.cpp:382] LSTM_transform_28 -> W_hc_h_27
I0717 12:30:49.650775 27176 net.cpp:124] Setting up LSTM_transform_28
I0717 12:30:49.650785 27176 net.cpp:131] Top shape: 1 10 208 (2080)
I0717 12:30:49.650790 27176 net.cpp:139] Memory required for data: 1386560
I0717 12:30:49.650796 27176 net.cpp:467] Sharing parameters 'W_hc' owned by layer 'LSTM_transform_1', param index 0
I0717 12:30:49.650801 27176 layer_factory.hpp:77] Creating layer LSTM_gate_input_28
I0717 12:30:49.650809 27176 net.cpp:86] Creating Layer LSTM_gate_input_28
I0717 12:30:49.650815 27176 net.cpp:408] LSTM_gate_input_28 <- W_hc_h_27
I0717 12:30:49.650820 27176 net.cpp:408] LSTM_gate_input_28 <- W_xc_x_28
I0717 12:30:49.650827 27176 net.cpp:382] LSTM_gate_input_28 -> gate_input_28
I0717 12:30:49.650857 27176 net.cpp:124] Setting up LSTM_gate_input_28
I0717 12:30:49.650872 27176 net.cpp:131] Top shape: 1 10 208 (2080)
I0717 12:30:49.650877 27176 net.cpp:139] Memory required for data: 1394880
I0717 12:30:49.650882 27176 layer_factory.hpp:77] Creating layer LSTM_unit_28
I0717 12:30:49.650892 27176 net.cpp:86] Creating Layer LSTM_unit_28
I0717 12:30:49.650897 27176 net.cpp:408] LSTM_unit_28 <- c_27
I0717 12:30:49.650904 27176 net.cpp:408] LSTM_unit_28 <- gate_input_28
I0717 12:30:49.650910 27176 net.cpp:408] LSTM_unit_28 <- cont_28_LSTM_cont_slice_27_split_1
I0717 12:30:49.650918 27176 net.cpp:382] LSTM_unit_28 -> c_28
I0717 12:30:49.650926 27176 net.cpp:382] LSTM_unit_28 -> h_28
I0717 12:30:49.650979 27176 net.cpp:124] Setting up LSTM_unit_28
I0717 12:30:49.650987 27176 net.cpp:131] Top shape: 1 10 52 (520)
I0717 12:30:49.650993 27176 net.cpp:131] Top shape: 1 10 52 (520)
I0717 12:30:49.650998 27176 net.cpp:139] Memory required for data: 1399040
I0717 12:30:49.651003 27176 layer_factory.hpp:77] Creating layer h_28_LSTM_unit_28_1_split
I0717 12:30:49.651010 27176 net.cpp:86] Creating Layer h_28_LSTM_unit_28_1_split
I0717 12:30:49.651015 27176 net.cpp:408] h_28_LSTM_unit_28_1_split <- h_28
I0717 12:30:49.651022 27176 net.cpp:382] h_28_LSTM_unit_28_1_split -> h_28_LSTM_unit_28_1_split_0
I0717 12:30:49.651033 27176 net.cpp:382] h_28_LSTM_unit_28_1_split -> h_28_LSTM_unit_28_1_split_1
I0717 12:30:49.651068 27176 net.cpp:124] Setting up h_28_LSTM_unit_28_1_split
I0717 12:30:49.651077 27176 net.cpp:131] Top shape: 1 10 52 (520)
I0717 12:30:49.651082 27176 net.cpp:131] Top shape: 1 10 52 (520)
I0717 12:30:49.651087 27176 net.cpp:139] Memory required for data: 1403200
I0717 12:30:49.651091 27176 layer_factory.hpp:77] Creating layer LSTM_h_conted_28
I0717 12:30:49.651100 27176 net.cpp:86] Creating Layer LSTM_h_conted_28
I0717 12:30:49.651106 27176 net.cpp:408] LSTM_h_conted_28 <- h_28_LSTM_unit_28_1_split_0
I0717 12:30:49.651113 27176 net.cpp:408] LSTM_h_conted_28 <- cont_29_LSTM_cont_slice_28_split_0
I0717 12:30:49.651120 27176 net.cpp:382] LSTM_h_conted_28 -> h_conted_28
I0717 12:30:49.651187 27176 net.cpp:124] Setting up LSTM_h_conted_28
I0717 12:30:49.651196 27176 net.cpp:131] Top shape: 1 10 52 (520)
I0717 12:30:49.651201 27176 net.cpp:139] Memory required for data: 1405280
I0717 12:30:49.651206 27176 layer_factory.hpp:77] Creating layer LSTM_transform_29
I0717 12:30:49.651216 27176 net.cpp:86] Creating Layer LSTM_transform_29
I0717 12:30:49.651221 27176 net.cpp:408] LSTM_transform_29 <- h_conted_28
I0717 12:30:49.651229 27176 net.cpp:382] LSTM_transform_29 -> W_hc_h_28
I0717 12:30:49.651643 27176 net.cpp:124] Setting up LSTM_transform_29
I0717 12:30:49.651651 27176 net.cpp:131] Top shape: 1 10 208 (2080)
I0717 12:30:49.651656 27176 net.cpp:139] Memory required for data: 1413600
I0717 12:30:49.651662 27176 net.cpp:467] Sharing parameters 'W_hc' owned by layer 'LSTM_transform_1', param index 0
I0717 12:30:49.651667 27176 layer_factory.hpp:77] Creating layer LSTM_gate_input_29
I0717 12:30:49.651674 27176 net.cpp:86] Creating Layer LSTM_gate_input_29
I0717 12:30:49.651680 27176 net.cpp:408] LSTM_gate_input_29 <- W_hc_h_28
I0717 12:30:49.651688 27176 net.cpp:408] LSTM_gate_input_29 <- W_xc_x_29
I0717 12:30:49.651695 27176 net.cpp:382] LSTM_gate_input_29 -> gate_input_29
I0717 12:30:49.651721 27176 net.cpp:124] Setting up LSTM_gate_input_29
I0717 12:30:49.651729 27176 net.cpp:131] Top shape: 1 10 208 (2080)
I0717 12:30:49.651734 27176 net.cpp:139] Memory required for data: 1421920
I0717 12:30:49.651739 27176 layer_factory.hpp:77] Creating layer LSTM_unit_29
I0717 12:30:49.651746 27176 net.cpp:86] Creating Layer LSTM_unit_29
I0717 12:30:49.651752 27176 net.cpp:408] LSTM_unit_29 <- c_28
I0717 12:30:49.651758 27176 net.cpp:408] LSTM_unit_29 <- gate_input_29
I0717 12:30:49.651765 27176 net.cpp:408] LSTM_unit_29 <- cont_29_LSTM_cont_slice_28_split_1
I0717 12:30:49.651774 27176 net.cpp:382] LSTM_unit_29 -> c_29
I0717 12:30:49.651783 27176 net.cpp:382] LSTM_unit_29 -> h_29
I0717 12:30:49.651832 27176 net.cpp:124] Setting up LSTM_unit_29
I0717 12:30:49.651845 27176 net.cpp:131] Top shape: 1 10 52 (520)
I0717 12:30:49.651857 27176 net.cpp:131] Top shape: 1 10 52 (520)
I0717 12:30:49.651862 27176 net.cpp:139] Memory required for data: 1426080
I0717 12:30:49.651867 27176 layer_factory.hpp:77] Creating layer h_29_LSTM_unit_29_1_split
I0717 12:30:49.651875 27176 net.cpp:86] Creating Layer h_29_LSTM_unit_29_1_split
I0717 12:30:49.651880 27176 net.cpp:408] h_29_LSTM_unit_29_1_split <- h_29
I0717 12:30:49.651887 27176 net.cpp:382] h_29_LSTM_unit_29_1_split -> h_29_LSTM_unit_29_1_split_0
I0717 12:30:49.651896 27176 net.cpp:382] h_29_LSTM_unit_29_1_split -> h_29_LSTM_unit_29_1_split_1
I0717 12:30:49.651934 27176 net.cpp:124] Setting up h_29_LSTM_unit_29_1_split
I0717 12:30:49.651942 27176 net.cpp:131] Top shape: 1 10 52 (520)
I0717 12:30:49.651949 27176 net.cpp:131] Top shape: 1 10 52 (520)
I0717 12:30:49.651953 27176 net.cpp:139] Memory required for data: 1430240
I0717 12:30:49.651958 27176 layer_factory.hpp:77] Creating layer LSTM_h_conted_29
I0717 12:30:49.651965 27176 net.cpp:86] Creating Layer LSTM_h_conted_29
I0717 12:30:49.651971 27176 net.cpp:408] LSTM_h_conted_29 <- h_29_LSTM_unit_29_1_split_0
I0717 12:30:49.651978 27176 net.cpp:408] LSTM_h_conted_29 <- cont_30_LSTM_cont_slice_29_split_0
I0717 12:30:49.651988 27176 net.cpp:382] LSTM_h_conted_29 -> h_conted_29
I0717 12:30:49.652055 27176 net.cpp:124] Setting up LSTM_h_conted_29
I0717 12:30:49.652063 27176 net.cpp:131] Top shape: 1 10 52 (520)
I0717 12:30:49.652068 27176 net.cpp:139] Memory required for data: 1432320
I0717 12:30:49.652072 27176 layer_factory.hpp:77] Creating layer LSTM_transform_30
I0717 12:30:49.652082 27176 net.cpp:86] Creating Layer LSTM_transform_30
I0717 12:30:49.652088 27176 net.cpp:408] LSTM_transform_30 <- h_conted_29
I0717 12:30:49.652096 27176 net.cpp:382] LSTM_transform_30 -> W_hc_h_29
I0717 12:30:49.652509 27176 net.cpp:124] Setting up LSTM_transform_30
I0717 12:30:49.652519 27176 net.cpp:131] Top shape: 1 10 208 (2080)
I0717 12:30:49.652523 27176 net.cpp:139] Memory required for data: 1440640
I0717 12:30:49.652529 27176 net.cpp:467] Sharing parameters 'W_hc' owned by layer 'LSTM_transform_1', param index 0
I0717 12:30:49.652534 27176 layer_factory.hpp:77] Creating layer LSTM_gate_input_30
I0717 12:30:49.652542 27176 net.cpp:86] Creating Layer LSTM_gate_input_30
I0717 12:30:49.652547 27176 net.cpp:408] LSTM_gate_input_30 <- W_hc_h_29
I0717 12:30:49.652554 27176 net.cpp:408] LSTM_gate_input_30 <- W_xc_x_30
I0717 12:30:49.652561 27176 net.cpp:382] LSTM_gate_input_30 -> gate_input_30
I0717 12:30:49.652590 27176 net.cpp:124] Setting up LSTM_gate_input_30
I0717 12:30:49.652597 27176 net.cpp:131] Top shape: 1 10 208 (2080)
I0717 12:30:49.652602 27176 net.cpp:139] Memory required for data: 1448960
I0717 12:30:49.652607 27176 layer_factory.hpp:77] Creating layer LSTM_unit_30
I0717 12:30:49.652614 27176 net.cpp:86] Creating Layer LSTM_unit_30
I0717 12:30:49.652621 27176 net.cpp:408] LSTM_unit_30 <- c_29
I0717 12:30:49.652626 27176 net.cpp:408] LSTM_unit_30 <- gate_input_30
I0717 12:30:49.652632 27176 net.cpp:408] LSTM_unit_30 <- cont_30_LSTM_cont_slice_29_split_1
I0717 12:30:49.652640 27176 net.cpp:382] LSTM_unit_30 -> c_30
I0717 12:30:49.652648 27176 net.cpp:382] LSTM_unit_30 -> h_30
I0717 12:30:49.652700 27176 net.cpp:124] Setting up LSTM_unit_30
I0717 12:30:49.652709 27176 net.cpp:131] Top shape: 1 10 52 (520)
I0717 12:30:49.652715 27176 net.cpp:131] Top shape: 1 10 52 (520)
I0717 12:30:49.652720 27176 net.cpp:139] Memory required for data: 1453120
I0717 12:30:49.652724 27176 layer_factory.hpp:77] Creating layer h_30_LSTM_unit_30_1_split
I0717 12:30:49.652731 27176 net.cpp:86] Creating Layer h_30_LSTM_unit_30_1_split
I0717 12:30:49.652737 27176 net.cpp:408] h_30_LSTM_unit_30_1_split <- h_30
I0717 12:30:49.652745 27176 net.cpp:382] h_30_LSTM_unit_30_1_split -> h_30_LSTM_unit_30_1_split_0
I0717 12:30:49.652752 27176 net.cpp:382] h_30_LSTM_unit_30_1_split -> h_30_LSTM_unit_30_1_split_1
I0717 12:30:49.652792 27176 net.cpp:124] Setting up h_30_LSTM_unit_30_1_split
I0717 12:30:49.652806 27176 net.cpp:131] Top shape: 1 10 52 (520)
I0717 12:30:49.652817 27176 net.cpp:131] Top shape: 1 10 52 (520)
I0717 12:30:49.652822 27176 net.cpp:139] Memory required for data: 1457280
I0717 12:30:49.652827 27176 layer_factory.hpp:77] Creating layer LSTM_h_conted_30
I0717 12:30:49.652834 27176 net.cpp:86] Creating Layer LSTM_h_conted_30
I0717 12:30:49.652840 27176 net.cpp:408] LSTM_h_conted_30 <- h_30_LSTM_unit_30_1_split_0
I0717 12:30:49.652848 27176 net.cpp:408] LSTM_h_conted_30 <- cont_31_LSTM_cont_slice_30_split_0
I0717 12:30:49.652855 27176 net.cpp:382] LSTM_h_conted_30 -> h_conted_30
I0717 12:30:49.652921 27176 net.cpp:124] Setting up LSTM_h_conted_30
I0717 12:30:49.652930 27176 net.cpp:131] Top shape: 1 10 52 (520)
I0717 12:30:49.652935 27176 net.cpp:139] Memory required for data: 1459360
I0717 12:30:49.652940 27176 layer_factory.hpp:77] Creating layer LSTM_transform_31
I0717 12:30:49.652947 27176 net.cpp:86] Creating Layer LSTM_transform_31
I0717 12:30:49.652953 27176 net.cpp:408] LSTM_transform_31 <- h_conted_30
I0717 12:30:49.652962 27176 net.cpp:382] LSTM_transform_31 -> W_hc_h_30
I0717 12:30:49.653383 27176 net.cpp:124] Setting up LSTM_transform_31
I0717 12:30:49.653394 27176 net.cpp:131] Top shape: 1 10 208 (2080)
I0717 12:30:49.653399 27176 net.cpp:139] Memory required for data: 1467680
I0717 12:30:49.653409 27176 net.cpp:467] Sharing parameters 'W_hc' owned by layer 'LSTM_transform_1', param index 0
I0717 12:30:49.653415 27176 layer_factory.hpp:77] Creating layer LSTM_gate_input_31
I0717 12:30:49.653422 27176 net.cpp:86] Creating Layer LSTM_gate_input_31
I0717 12:30:49.653429 27176 net.cpp:408] LSTM_gate_input_31 <- W_hc_h_30
I0717 12:30:49.653435 27176 net.cpp:408] LSTM_gate_input_31 <- W_xc_x_31
I0717 12:30:49.653445 27176 net.cpp:382] LSTM_gate_input_31 -> gate_input_31
I0717 12:30:49.653472 27176 net.cpp:124] Setting up LSTM_gate_input_31
I0717 12:30:49.653481 27176 net.cpp:131] Top shape: 1 10 208 (2080)
I0717 12:30:49.653486 27176 net.cpp:139] Memory required for data: 1476000
I0717 12:30:49.653491 27176 layer_factory.hpp:77] Creating layer LSTM_unit_31
I0717 12:30:49.653497 27176 net.cpp:86] Creating Layer LSTM_unit_31
I0717 12:30:49.653503 27176 net.cpp:408] LSTM_unit_31 <- c_30
I0717 12:30:49.653511 27176 net.cpp:408] LSTM_unit_31 <- gate_input_31
I0717 12:30:49.653517 27176 net.cpp:408] LSTM_unit_31 <- cont_31_LSTM_cont_slice_30_split_1
I0717 12:30:49.653523 27176 net.cpp:382] LSTM_unit_31 -> c_31
I0717 12:30:49.653532 27176 net.cpp:382] LSTM_unit_31 -> h_31
I0717 12:30:49.653584 27176 net.cpp:124] Setting up LSTM_unit_31
I0717 12:30:49.653592 27176 net.cpp:131] Top shape: 1 10 52 (520)
I0717 12:30:49.653599 27176 net.cpp:131] Top shape: 1 10 52 (520)
I0717 12:30:49.653604 27176 net.cpp:139] Memory required for data: 1480160
I0717 12:30:49.653609 27176 layer_factory.hpp:77] Creating layer h_31_LSTM_unit_31_1_split
I0717 12:30:49.653615 27176 net.cpp:86] Creating Layer h_31_LSTM_unit_31_1_split
I0717 12:30:49.653620 27176 net.cpp:408] h_31_LSTM_unit_31_1_split <- h_31
I0717 12:30:49.653628 27176 net.cpp:382] h_31_LSTM_unit_31_1_split -> h_31_LSTM_unit_31_1_split_0
I0717 12:30:49.653636 27176 net.cpp:382] h_31_LSTM_unit_31_1_split -> h_31_LSTM_unit_31_1_split_1
I0717 12:30:49.653673 27176 net.cpp:124] Setting up h_31_LSTM_unit_31_1_split
I0717 12:30:49.653683 27176 net.cpp:131] Top shape: 1 10 52 (520)
I0717 12:30:49.653690 27176 net.cpp:131] Top shape: 1 10 52 (520)
I0717 12:30:49.653694 27176 net.cpp:139] Memory required for data: 1484320
I0717 12:30:49.653699 27176 layer_factory.hpp:77] Creating layer LSTM_h_conted_31
I0717 12:30:49.653707 27176 net.cpp:86] Creating Layer LSTM_h_conted_31
I0717 12:30:49.653712 27176 net.cpp:408] LSTM_h_conted_31 <- h_31_LSTM_unit_31_1_split_0
I0717 12:30:49.653719 27176 net.cpp:408] LSTM_h_conted_31 <- cont_32_LSTM_cont_slice_31_split_0
I0717 12:30:49.653726 27176 net.cpp:382] LSTM_h_conted_31 -> h_conted_31
I0717 12:30:49.653794 27176 net.cpp:124] Setting up LSTM_h_conted_31
I0717 12:30:49.653802 27176 net.cpp:131] Top shape: 1 10 52 (520)
I0717 12:30:49.653811 27176 net.cpp:139] Memory required for data: 1486400
I0717 12:30:49.653822 27176 layer_factory.hpp:77] Creating layer LSTM_transform_32
I0717 12:30:49.653831 27176 net.cpp:86] Creating Layer LSTM_transform_32
I0717 12:30:49.653836 27176 net.cpp:408] LSTM_transform_32 <- h_conted_31
I0717 12:30:49.653847 27176 net.cpp:382] LSTM_transform_32 -> W_hc_h_31
I0717 12:30:49.654261 27176 net.cpp:124] Setting up LSTM_transform_32
I0717 12:30:49.654270 27176 net.cpp:131] Top shape: 1 10 208 (2080)
I0717 12:30:49.654275 27176 net.cpp:139] Memory required for data: 1494720
I0717 12:30:49.654281 27176 net.cpp:467] Sharing parameters 'W_hc' owned by layer 'LSTM_transform_1', param index 0
I0717 12:30:49.654286 27176 layer_factory.hpp:77] Creating layer LSTM_gate_input_32
I0717 12:30:49.654294 27176 net.cpp:86] Creating Layer LSTM_gate_input_32
I0717 12:30:49.654299 27176 net.cpp:408] LSTM_gate_input_32 <- W_hc_h_31
I0717 12:30:49.654305 27176 net.cpp:408] LSTM_gate_input_32 <- W_xc_x_32
I0717 12:30:49.654312 27176 net.cpp:382] LSTM_gate_input_32 -> gate_input_32
I0717 12:30:49.654341 27176 net.cpp:124] Setting up LSTM_gate_input_32
I0717 12:30:49.654350 27176 net.cpp:131] Top shape: 1 10 208 (2080)
I0717 12:30:49.654355 27176 net.cpp:139] Memory required for data: 1503040
I0717 12:30:49.654359 27176 layer_factory.hpp:77] Creating layer LSTM_unit_32
I0717 12:30:49.654366 27176 net.cpp:86] Creating Layer LSTM_unit_32
I0717 12:30:49.654371 27176 net.cpp:408] LSTM_unit_32 <- c_31
I0717 12:30:49.654378 27176 net.cpp:408] LSTM_unit_32 <- gate_input_32
I0717 12:30:49.654384 27176 net.cpp:408] LSTM_unit_32 <- cont_32_LSTM_cont_slice_31_split_1
I0717 12:30:49.654392 27176 net.cpp:382] LSTM_unit_32 -> c_32
I0717 12:30:49.654400 27176 net.cpp:382] LSTM_unit_32 -> h_32
I0717 12:30:49.654450 27176 net.cpp:124] Setting up LSTM_unit_32
I0717 12:30:49.654459 27176 net.cpp:131] Top shape: 1 10 52 (520)
I0717 12:30:49.654465 27176 net.cpp:131] Top shape: 1 10 52 (520)
I0717 12:30:49.654469 27176 net.cpp:139] Memory required for data: 1507200
I0717 12:30:49.654474 27176 layer_factory.hpp:77] Creating layer h_32_LSTM_unit_32_1_split
I0717 12:30:49.654484 27176 net.cpp:86] Creating Layer h_32_LSTM_unit_32_1_split
I0717 12:30:49.654489 27176 net.cpp:408] h_32_LSTM_unit_32_1_split <- h_32
I0717 12:30:49.654496 27176 net.cpp:382] h_32_LSTM_unit_32_1_split -> h_32_LSTM_unit_32_1_split_0
I0717 12:30:49.654505 27176 net.cpp:382] h_32_LSTM_unit_32_1_split -> h_32_LSTM_unit_32_1_split_1
I0717 12:30:49.654541 27176 net.cpp:124] Setting up h_32_LSTM_unit_32_1_split
I0717 12:30:49.654551 27176 net.cpp:131] Top shape: 1 10 52 (520)
I0717 12:30:49.654556 27176 net.cpp:131] Top shape: 1 10 52 (520)
I0717 12:30:49.654561 27176 net.cpp:139] Memory required for data: 1511360
I0717 12:30:49.654566 27176 layer_factory.hpp:77] Creating layer LSTM_h_conted_32
I0717 12:30:49.654574 27176 net.cpp:86] Creating Layer LSTM_h_conted_32
I0717 12:30:49.654580 27176 net.cpp:408] LSTM_h_conted_32 <- h_32_LSTM_unit_32_1_split_0
I0717 12:30:49.654587 27176 net.cpp:408] LSTM_h_conted_32 <- cont_33_LSTM_cont_slice_32_split_0
I0717 12:30:49.654594 27176 net.cpp:382] LSTM_h_conted_32 -> h_conted_32
I0717 12:30:49.654659 27176 net.cpp:124] Setting up LSTM_h_conted_32
I0717 12:30:49.654667 27176 net.cpp:131] Top shape: 1 10 52 (520)
I0717 12:30:49.654672 27176 net.cpp:139] Memory required for data: 1513440
I0717 12:30:49.654677 27176 layer_factory.hpp:77] Creating layer LSTM_transform_33
I0717 12:30:49.654685 27176 net.cpp:86] Creating Layer LSTM_transform_33
I0717 12:30:49.654690 27176 net.cpp:408] LSTM_transform_33 <- h_conted_32
I0717 12:30:49.654697 27176 net.cpp:382] LSTM_transform_33 -> W_hc_h_32
I0717 12:30:49.655112 27176 net.cpp:124] Setting up LSTM_transform_33
I0717 12:30:49.655122 27176 net.cpp:131] Top shape: 1 10 208 (2080)
I0717 12:30:49.655128 27176 net.cpp:139] Memory required for data: 1521760
I0717 12:30:49.655133 27176 net.cpp:467] Sharing parameters 'W_hc' owned by layer 'LSTM_transform_1', param index 0
I0717 12:30:49.655138 27176 layer_factory.hpp:77] Creating layer LSTM_gate_input_33
I0717 12:30:49.655149 27176 net.cpp:86] Creating Layer LSTM_gate_input_33
I0717 12:30:49.655161 27176 net.cpp:408] LSTM_gate_input_33 <- W_hc_h_32
I0717 12:30:49.655167 27176 net.cpp:408] LSTM_gate_input_33 <- W_xc_x_33
I0717 12:30:49.655174 27176 net.cpp:382] LSTM_gate_input_33 -> gate_input_33
I0717 12:30:49.655201 27176 net.cpp:124] Setting up LSTM_gate_input_33
I0717 12:30:49.655210 27176 net.cpp:131] Top shape: 1 10 208 (2080)
I0717 12:30:49.655215 27176 net.cpp:139] Memory required for data: 1530080
I0717 12:30:49.655220 27176 layer_factory.hpp:77] Creating layer LSTM_unit_33
I0717 12:30:49.655228 27176 net.cpp:86] Creating Layer LSTM_unit_33
I0717 12:30:49.655234 27176 net.cpp:408] LSTM_unit_33 <- c_32
I0717 12:30:49.655241 27176 net.cpp:408] LSTM_unit_33 <- gate_input_33
I0717 12:30:49.655247 27176 net.cpp:408] LSTM_unit_33 <- cont_33_LSTM_cont_slice_32_split_1
I0717 12:30:49.655254 27176 net.cpp:382] LSTM_unit_33 -> c_33
I0717 12:30:49.655262 27176 net.cpp:382] LSTM_unit_33 -> h_33
I0717 12:30:49.655313 27176 net.cpp:124] Setting up LSTM_unit_33
I0717 12:30:49.655321 27176 net.cpp:131] Top shape: 1 10 52 (520)
I0717 12:30:49.655328 27176 net.cpp:131] Top shape: 1 10 52 (520)
I0717 12:30:49.655333 27176 net.cpp:139] Memory required for data: 1534240
I0717 12:30:49.655336 27176 layer_factory.hpp:77] Creating layer h_33_LSTM_unit_33_1_split
I0717 12:30:49.655344 27176 net.cpp:86] Creating Layer h_33_LSTM_unit_33_1_split
I0717 12:30:49.655349 27176 net.cpp:408] h_33_LSTM_unit_33_1_split <- h_33
I0717 12:30:49.655359 27176 net.cpp:382] h_33_LSTM_unit_33_1_split -> h_33_LSTM_unit_33_1_split_0
I0717 12:30:49.655367 27176 net.cpp:382] h_33_LSTM_unit_33_1_split -> h_33_LSTM_unit_33_1_split_1
I0717 12:30:49.655401 27176 net.cpp:124] Setting up h_33_LSTM_unit_33_1_split
I0717 12:30:49.655409 27176 net.cpp:131] Top shape: 1 10 52 (520)
I0717 12:30:49.655416 27176 net.cpp:131] Top shape: 1 10 52 (520)
I0717 12:30:49.655421 27176 net.cpp:139] Memory required for data: 1538400
I0717 12:30:49.655426 27176 layer_factory.hpp:77] Creating layer LSTM_h_conted_33
I0717 12:30:49.655434 27176 net.cpp:86] Creating Layer LSTM_h_conted_33
I0717 12:30:49.655441 27176 net.cpp:408] LSTM_h_conted_33 <- h_33_LSTM_unit_33_1_split_0
I0717 12:30:49.655447 27176 net.cpp:408] LSTM_h_conted_33 <- cont_34_LSTM_cont_slice_33_split_0
I0717 12:30:49.655457 27176 net.cpp:382] LSTM_h_conted_33 -> h_conted_33
I0717 12:30:49.655522 27176 net.cpp:124] Setting up LSTM_h_conted_33
I0717 12:30:49.655530 27176 net.cpp:131] Top shape: 1 10 52 (520)
I0717 12:30:49.655535 27176 net.cpp:139] Memory required for data: 1540480
I0717 12:30:49.655540 27176 layer_factory.hpp:77] Creating layer LSTM_transform_34
I0717 12:30:49.655549 27176 net.cpp:86] Creating Layer LSTM_transform_34
I0717 12:30:49.655553 27176 net.cpp:408] LSTM_transform_34 <- h_conted_33
I0717 12:30:49.655561 27176 net.cpp:382] LSTM_transform_34 -> W_hc_h_33
I0717 12:30:49.655973 27176 net.cpp:124] Setting up LSTM_transform_34
I0717 12:30:49.655983 27176 net.cpp:131] Top shape: 1 10 208 (2080)
I0717 12:30:49.655988 27176 net.cpp:139] Memory required for data: 1548800
I0717 12:30:49.655993 27176 net.cpp:467] Sharing parameters 'W_hc' owned by layer 'LSTM_transform_1', param index 0
I0717 12:30:49.655999 27176 layer_factory.hpp:77] Creating layer LSTM_gate_input_34
I0717 12:30:49.656008 27176 net.cpp:86] Creating Layer LSTM_gate_input_34
I0717 12:30:49.656013 27176 net.cpp:408] LSTM_gate_input_34 <- W_hc_h_33
I0717 12:30:49.656020 27176 net.cpp:408] LSTM_gate_input_34 <- W_xc_x_34
I0717 12:30:49.656028 27176 net.cpp:382] LSTM_gate_input_34 -> gate_input_34
I0717 12:30:49.656054 27176 net.cpp:124] Setting up LSTM_gate_input_34
I0717 12:30:49.656061 27176 net.cpp:131] Top shape: 1 10 208 (2080)
I0717 12:30:49.656066 27176 net.cpp:139] Memory required for data: 1557120
I0717 12:30:49.656071 27176 layer_factory.hpp:77] Creating layer LSTM_unit_34
I0717 12:30:49.656077 27176 net.cpp:86] Creating Layer LSTM_unit_34
I0717 12:30:49.656083 27176 net.cpp:408] LSTM_unit_34 <- c_33
I0717 12:30:49.656095 27176 net.cpp:408] LSTM_unit_34 <- gate_input_34
I0717 12:30:49.656106 27176 net.cpp:408] LSTM_unit_34 <- cont_34_LSTM_cont_slice_33_split_1
I0717 12:30:49.656116 27176 net.cpp:382] LSTM_unit_34 -> c_34
I0717 12:30:49.656124 27176 net.cpp:382] LSTM_unit_34 -> h_34
I0717 12:30:49.656175 27176 net.cpp:124] Setting up LSTM_unit_34
I0717 12:30:49.656184 27176 net.cpp:131] Top shape: 1 10 52 (520)
I0717 12:30:49.656190 27176 net.cpp:131] Top shape: 1 10 52 (520)
I0717 12:30:49.656195 27176 net.cpp:139] Memory required for data: 1561280
I0717 12:30:49.656199 27176 layer_factory.hpp:77] Creating layer LSTM_
I0717 12:30:49.656206 27176 net.cpp:86] Creating Layer LSTM_
I0717 12:30:49.656213 27176 net.cpp:408] LSTM_ <- c_34
I0717 12:30:49.656219 27176 net.cpp:382] LSTM_ -> c_T
I0717 12:30:49.656245 27176 net.cpp:124] Setting up LSTM_
I0717 12:30:49.656253 27176 net.cpp:131] Top shape: 1 10 52 (520)
I0717 12:30:49.656258 27176 net.cpp:139] Memory required for data: 1563360
I0717 12:30:49.656263 27176 layer_factory.hpp:77] Creating layer LSTM_h_concat
I0717 12:30:49.656277 27176 net.cpp:86] Creating Layer LSTM_h_concat
I0717 12:30:49.656283 27176 net.cpp:408] LSTM_h_concat <- h_1_LSTM_unit_1_1_split_1
I0717 12:30:49.656291 27176 net.cpp:408] LSTM_h_concat <- h_2_LSTM_unit_2_1_split_1
…
