step_stats {
  dev_stats {
    device: "/job:localhost/replica:0/task:0/cpu:0"
    node_stats {
      node_name: "_SOURCE"
      all_start_micros: 1488970778927289
      op_start_rel_micros: 5
      op_end_rel_micros: 6
      all_end_rel_micros: 14
      memory {
        allocator_name: "cpu"
      }
      timeline_label: "_SOURCE = NoOp()"
      scheduled_micros: 1488970778927282
    }
  }
  dev_stats {
    device: "/job:localhost/replica:0/task:0/gpu:0"
    node_stats {
      node_name: "_SOURCE"
      all_start_micros: 1488970778927297
      op_start_rel_micros: 3
      op_end_rel_micros: 19
      all_end_rel_micros: 44
      memory {
        allocator_name: "gpu_bfc"
      }
      timeline_label: "_SOURCE = NoOp()"
      scheduled_micros: 1488970778927274
    }
    node_stats {
      node_name: "Slice/begin/_1__cf__1"
      all_start_micros: 1488970778927356
      op_start_rel_micros: 1
      op_end_rel_micros: 3
      all_end_rel_micros: 13
      memory {
        allocator_name: "gpu_bfc"
      }
      output {
        tensor_description {
          dtype: DT_INT32
          shape {
            dim {
              size: 1
            }
          }
          allocation_description {
            requested_bytes: 4
            allocated_bytes: 256
            allocator_name: "cuda_host_bfc"
            allocation_id: 26
            ptr: 1108288211968
          }
        }
      }
      timeline_label: "Slice/begin/_1__cf__1 = Const()"
      scheduled_micros: 1488970778927341
    }
    node_stats {
      node_name: "gradients/Mean_grad/Reshape/_3__cf__3"
      all_start_micros: 1488970778927370
      op_start_rel_micros: 1
      op_end_rel_micros: 2
      all_end_rel_micros: 4
      memory {
        allocator_name: "gpu_bfc"
      }
      output {
        tensor_description {
          dtype: DT_FLOAT
          shape {
            dim {
              size: 1
            }
          }
          allocation_description {
            requested_bytes: 4
            allocated_bytes: 256
            allocator_name: "gpu_bfc"
            allocation_id: 53
            ptr: 1108290513408
          }
        }
      }
      timeline_label: "gradients/Mean_grad/Reshape/_3__cf__3 = Const()"
      scheduled_micros: 1488970778927369
    }
    node_stats {
      node_name: "Variable"
      all_start_micros: 1488970778927375
      op_start_rel_micros: 1
      op_end_rel_micros: 7
      all_end_rel_micros: 9
      memory {
        allocator_name: "gpu_bfc"
      }
      output {
        tensor_description {
          dtype: DT_FLOAT
          shape {
            dim {
              size: 784
            }
            dim {
              size: 220
            }
          }
          allocation_description {
            requested_bytes: 689920
            allocated_bytes: 689920
            allocator_name: "gpu_bfc"
            allocation_id: 43
            has_single_reference: true
            ptr: 1108295794176
          }
        }
      }
      timeline_label: "Variable = VariableV2()"
      scheduled_micros: 1488970778927374
    }
    node_stats {
      node_name: "Variable_1"
      all_start_micros: 1488970778927385
      op_start_rel_micros: 1
      op_end_rel_micros: 2
      all_end_rel_micros: 4
      memory {
        allocator_name: "gpu_bfc"
      }
      output {
        tensor_description {
          dtype: DT_FLOAT
          shape {
            dim {
              size: 220
            }
            dim {
              size: 220
            }
          }
          allocation_description {
            requested_bytes: 193600
            allocated_bytes: 193792
            allocator_name: "gpu_bfc"
            allocation_id: 44
            has_single_reference: true
            ptr: 1108290521344
          }
        }
      }
      timeline_label: "Variable_1 = VariableV2()"
      scheduled_micros: 1488970778927384
    }
    node_stats {
      node_name: "Variable_2"
      all_start_micros: 1488970778927390
      op_start_rel_micros: 1
      op_end_rel_micros: 2
      all_end_rel_micros: 7
      memory {
        allocator_name: "gpu_bfc"
      }
      output {
        tensor_description {
          dtype: DT_FLOAT
          shape {
            dim {
              size: 220
            }
            dim {
              size: 10
            }
          }
          allocation_description {
            requested_bytes: 8800
            allocated_bytes: 8960
            allocator_name: "gpu_bfc"
            allocation_id: 45
            has_single_reference: true
            ptr: 1108295600384
          }
        }
      }
      timeline_label: "Variable_2 = VariableV2()"
      scheduled_micros: 1488970778927389
    }
    node_stats {
      node_name: "Variable_3"
      all_start_micros: 1488970778927398
      op_start_rel_micros: 1
      op_end_rel_micros: 2
      all_end_rel_micros: 4
      memory {
        allocator_name: "gpu_bfc"
      }
      output {
        tensor_description {
          dtype: DT_FLOAT
          shape {
            dim {
              size: 220
            }
          }
          allocation_description {
            requested_bytes: 880
            allocated_bytes: 1024
            allocator_name: "gpu_bfc"
            allocation_id: 46
            has_single_reference: true
            ptr: 1108290510080
          }
        }
      }
      timeline_label: "Variable_3 = VariableV2()"
      scheduled_micros: 1488970778927397
    }
    node_stats {
      node_name: "Variable_4"
      all_start_micros: 1488970778927403
      op_end_rel_micros: 1
      all_end_rel_micros: 3
      memory {
        allocator_name: "gpu_bfc"
      }
      output {
        tensor_description {
          dtype: DT_FLOAT
          shape {
            dim {
              size: 220
            }
          }
          allocation_description {
            requested_bytes: 880
            allocated_bytes: 1024
            allocator_name: "gpu_bfc"
            allocation_id: 47
            has_single_reference: true
            ptr: 1108290511104
          }
        }
      }
      timeline_label: "Variable_4 = VariableV2()"
      scheduled_micros: 1488970778927402
    }
    node_stats {
      node_name: "Variable_5"
      all_start_micros: 1488970778927408
      op_end_rel_micros: 1
      all_end_rel_micros: 3
      memory {
        allocator_name: "gpu_bfc"
      }
      output {
        tensor_description {
          dtype: DT_FLOAT
          shape {
            dim {
              size: 10
            }
          }
          allocation_description {
            requested_bytes: 40
            allocated_bytes: 256
            allocator_name: "gpu_bfc"
            allocation_id: 48
            has_single_reference: true
            ptr: 1108290512128
          }
        }
      }
      timeline_label: "Variable_5 = VariableV2()"
      scheduled_micros: 1488970778927406
    }
    node_stats {
      node_name: "concat/values_0"
      all_start_micros: 1488970778927412
      op_start_rel_micros: 1
      op_end_rel_micros: 2
      all_end_rel_micros: 3
      memory {
        allocator_name: "gpu_bfc"
      }
      output {
        tensor_description {
          dtype: DT_INT32
          shape {
            dim {
              size: 1
            }
          }
          allocation_description {
            requested_bytes: 4
            allocated_bytes: 256
            allocator_name: "cuda_host_bfc"
            allocation_id: 15
            ptr: 1108288210176
          }
        }
      }
      timeline_label: "concat/values_0 = Const()"
      scheduled_micros: 1488970778927411
    }
    node_stats {
      node_name: "concat/axis"
      all_start_micros: 1488970778927416
      op_start_rel_micros: 1
      op_end_rel_micros: 2
      all_end_rel_micros: 3
      memory {
        allocator_name: "gpu_bfc"
      }
      output {
        tensor_description {
          dtype: DT_INT32
          shape {
          }
          allocation_description {
            requested_bytes: 4
            allocated_bytes: 256
            allocator_name: "cuda_host_bfc"
            allocation_id: 16
            ptr: 1108288210432
          }
        }
      }
      timeline_label: "concat/axis = Const()"
      scheduled_micros: 1488970778927415
    }
    node_stats {
      node_name: "Slice_2/begin"
      all_start_micros: 1488970778927420
      op_end_rel_micros: 1
      all_end_rel_micros: 3
      memory {
        allocator_name: "gpu_bfc"
      }
      output {
        tensor_description {
          dtype: DT_INT32
          shape {
            dim {
              size: 1
            }
          }
          allocation_description {
            requested_bytes: 4
            allocated_bytes: 256
            allocator_name: "cuda_host_bfc"
            allocation_id: 17
            ptr: 1108288210688
          }
        }
      }
      timeline_label: "Slice_2/begin = Const()"
      scheduled_micros: 1488970778927419
    }
    node_stats {
      node_name: "gradients/Mean_grad/Shape_2"
      all_start_micros: 1488970778927424
      op_end_rel_micros: 1
      all_end_rel_micros: 3
      memory {
        allocator_name: "gpu_bfc"
      }
      output {
        tensor_description {
          dtype: DT_INT32
          shape {
            dim {
            }
          }
        }
      }
      timeline_label: "gradients/Mean_grad/Shape_2 = Const()"
      scheduled_micros: 1488970778927423
    }
    node_stats {
      node_name: "gradients/Mean_grad/Maximum/y"
      all_start_micros: 1488970778927428
      op_start_rel_micros: 1
      op_end_rel_micros: 2
      all_end_rel_micros: 3
      memory {
        allocator_name: "gpu_bfc"
      }
      output {
        tensor_description {
          dtype: DT_INT32
          shape {
          }
          allocation_description {
            requested_bytes: 4
            allocated_bytes: 256
            allocator_name: "cuda_host_bfc"
            allocation_id: 18
            ptr: 1108288210944
          }
        }
      }
      timeline_label: "gradients/Mean_grad/Maximum/y = Const()"
      scheduled_micros: 1488970778927427
    }
    node_stats {
      node_name: "gradients/SoftmaxCrossEntropyWithLogits_grad/ExpandDims/dim"
      all_start_micros: 1488970778927432
      op_end_rel_micros: 2
      all_end_rel_micros: 3
      memory {
        allocator_name: "gpu_bfc"
      }
      output {
        tensor_description {
          dtype: DT_INT32
          shape {
          }
          allocation_description {
            requested_bytes: 4
            allocated_bytes: 256
            allocator_name: "cuda_host_bfc"
            allocation_id: 19
            ptr: 1108288211200
          }
        }
      }
      timeline_label: "gradients/SoftmaxCrossEntropyWithLogits_grad/ExpandDims/dim = Const()"
      scheduled_micros: 1488970778927431
    }
    node_stats {
      node_name: "gradients/add_grad/Shape_1"
      all_start_micros: 1488970778927436
      op_end_rel_micros: 1
      all_end_rel_micros: 2
      memory {
        allocator_name: "gpu_bfc"
      }
      output {
        tensor_description {
          dtype: DT_INT32
          shape {
            dim {
              size: 1
            }
          }
          allocation_description {
            requested_bytes: 4
            allocated_bytes: 256
            allocator_name: "cuda_host_bfc"
            allocation_id: 20
            ptr: 1108288211456
          }
        }
      }
      timeline_label: "gradients/add_grad/Shape_1 = Const()"
      scheduled_micros: 1488970778927435
    }
    node_stats {
      node_name: "gradients/Add_1_grad/Shape_1"
      all_start_micros: 1488970778927439
      op_start_rel_micros: 1
      op_end_rel_micros: 2
      all_end_rel_micros: 4
      memory {
        allocator_name: "gpu_bfc"
      }
      output {
        tensor_description {
          dtype: DT_INT32
          shape {
            dim {
              size: 1
            }
          }
          allocation_description {
            requested_bytes: 4
            allocated_bytes: 256
            allocator_name: "cuda_host_bfc"
            allocation_id: 21
            ptr: 1108288211712
          }
        }
      }
      timeline_label: "gradients/Add_1_grad/Shape_1 = Const()"
      scheduled_micros: 1488970778927438
    }
    node_stats {
      node_name: "beta1_power"
      all_start_micros: 1488970778927445
      op_start_rel_micros: 3
      op_end_rel_micros: 18
      all_end_rel_micros: 20
      memory {
        allocator_name: "gpu_bfc"
      }
      output {
        tensor_description {
          dtype: DT_FLOAT
          shape {
          }
          allocation_description {
            requested_bytes: 4
            allocated_bytes: 256
            allocator_name: "gpu_bfc"
            allocation_id: 17
            has_single_reference: true
            ptr: 1108291405056
          }
        }
      }
      timeline_label: "beta1_power = VariableV2()"
      scheduled_micros: 1488970778927442
    }
    node_stats {
      node_name: "beta2_power"
      all_start_micros: 1488970778927467
      op_end_rel_micros: 2
      all_end_rel_micros: 3
      memory {
        allocator_name: "gpu_bfc"
      }
      output {
        tensor_description {
          dtype: DT_FLOAT
          shape {
          }
          allocation_description {
            requested_bytes: 4
            allocated_bytes: 256
            allocator_name: "gpu_bfc"
            allocation_id: 18
            has_single_reference: true
            ptr: 1108291405312
          }
        }
      }
      timeline_label: "beta2_power = VariableV2()"
      scheduled_micros: 1488970778927465
    }
    node_stats {
      node_name: "Variable/Adam"
      all_start_micros: 1488970778927472
      op_start_rel_micros: 1
      op_end_rel_micros: 3
      all_end_rel_micros: 4
      memory {
        allocator_name: "gpu_bfc"
      }
      output {
        tensor_description {
          dtype: DT_FLOAT
          shape {
            dim {
              size: 784
            }
            dim {
              size: 220
            }
          }
          allocation_description {
            requested_bytes: 689920
            allocated_bytes: 997632
            allocator_name: "gpu_bfc"
            allocation_id: 19
            has_single_reference: true
            ptr: 1108291405568
          }
        }
      }
      timeline_label: "Variable/Adam = VariableV2()"
      scheduled_micros: 1488970778927470
    }
    node_stats {
      node_name: "Variable/Adam_1"
      all_start_micros: 1488970778927477
      op_end_rel_micros: 2
      all_end_rel_micros: 4
      memory {
        allocator_name: "gpu_bfc"
      }
      output {
        tensor_description {
          dtype: DT_FLOAT
          shape {
            dim {
              size: 784
            }
            dim {
              size: 220
            }
          }
          allocation_description {
            requested_bytes: 689920
            allocated_bytes: 689920
            allocator_name: "gpu_bfc"
            allocation_id: 20
            has_single_reference: true
            ptr: 1108294500352
          }
        }
      }
      timeline_label: "Variable/Adam_1 = VariableV2()"
      scheduled_micros: 1488970778927476
    }
    node_stats {
      node_name: "Variable_1/Adam"
      all_start_micros: 1488970778927483
      op_end_rel_micros: 1
      all_end_rel_micros: 3
      memory {
        allocator_name: "gpu_bfc"
      }
      output {
        tensor_description {
          dtype: DT_FLOAT
          shape {
            dim {
              size: 220
            }
            dim {
              size: 220
            }
          }
          allocation_description {
            requested_bytes: 193600
            allocated_bytes: 193792
            allocator_name: "gpu_bfc"
            allocation_id: 21
            has_single_reference: true
            ptr: 1108295190272
          }
        }
      }
      timeline_label: "Variable_1/Adam = VariableV2()"
      scheduled_micros: 1488970778927481
    }
    node_stats {
      node_name: "Variable_1/Adam_1"
      all_start_micros: 1488970778927487
      op_start_rel_micros: 2
      op_end_rel_micros: 4
      all_end_rel_micros: 5
      memory {
        allocator_name: "gpu_bfc"
      }
      output {
        tensor_description {
          dtype: DT_FLOAT
          shape {
            dim {
              size: 220
            }
            dim {
              size: 220
            }
          }
          allocation_description {
            requested_bytes: 193600
            allocated_bytes: 193792
            allocator_name: "gpu_bfc"
            allocation_id: 22
            has_single_reference: true
            ptr: 1108295384064
          }
        }
      }
      timeline_label: "Variable_1/Adam_1 = VariableV2()"
      scheduled_micros: 1488970778927486
    }
    node_stats {
      node_name: "Variable_2/Adam"
      all_start_micros: 1488970778927493
      op_start_rel_micros: 1
      op_end_rel_micros: 17
      all_end_rel_micros: 19
      memory {
        allocator_name: "gpu_bfc"
      }
      output {
        tensor_description {
          dtype: DT_FLOAT
          shape {
            dim {
              size: 220
            }
            dim {
              size: 10
            }
          }
          allocation_description {
            requested_bytes: 8800
            allocated_bytes: 8960
            allocator_name: "gpu_bfc"
            allocation_id: 23
            has_single_reference: true
            ptr: 1108295577856
          }
        }
      }
      timeline_label: "Variable_2/Adam = VariableV2()"
      scheduled_micros: 1488970778927492
    }
    node_stats {
      node_name: "Variable_2/Adam_1"
      all_start_micros: 1488970778927513
      op_end_rel_micros: 2
      all_end_rel_micros: 4
      memory {
        allocator_name: "gpu_bfc"
      }
      output {
        tensor_description {
          dtype: DT_FLOAT
          shape {
            dim {
              size: 220
            }
            dim {
              size: 10
            }
          }
          allocation_description {
            requested_bytes: 8800
            allocated_bytes: 8960
            allocator_name: "gpu_bfc"
            allocation_id: 24
            has_single_reference: true
            ptr: 1108295586816
          }
        }
      }
      timeline_label: "Variable_2/Adam_1 = VariableV2()"
      scheduled_micros: 1488970778927512
    }
    node_stats {
      node_name: "Variable_3/Adam"
      all_start_micros: 1488970778927518
      op_end_rel_micros: 2
      all_end_rel_micros: 3
      memory {
        allocator_name: "gpu_bfc"
      }
      output {
        tensor_description {
          dtype: DT_FLOAT
          shape {
            dim {
              size: 220
            }
          }
          allocation_description {
            requested_bytes: 880
            allocated_bytes: 1024
            allocator_name: "gpu_bfc"
            allocation_id: 25
            has_single_reference: true
            ptr: 1108295595776
          }
        }
      }
      timeline_label: "Variable_3/Adam = VariableV2()"
      scheduled_micros: 1488970778927517
    }
    node_stats {
      node_name: "Variable_3/Adam_1"
      all_start_micros: 1488970778927522
      op_start_rel_micros: 1
      op_end_rel_micros: 3
      all_end_rel_micros: 5
      memory {
        allocator_name: "gpu_bfc"
      }
      output {
        tensor_description {
          dtype: DT_FLOAT
          shape {
            dim {
              size: 220
            }
          }
          allocation_description {
            requested_bytes: 880
            allocated_bytes: 1024
            allocator_name: "gpu_bfc"
            allocation_id: 26
            has_single_reference: true
            ptr: 1108295596800
          }
        }
      }
      timeline_label: "Variable_3/Adam_1 = VariableV2()"
      scheduled_micros: 1488970778927521
    }
    node_stats {
      node_name: "Variable_4/Adam"
      all_start_micros: 1488970778927529
      op_end_rel_micros: 2
      all_end_rel_micros: 3
      memory {
        allocator_name: "gpu_bfc"
      }
      output {
        tensor_description {
          dtype: DT_FLOAT
          shape {
            dim {
              size: 220
            }
          }
          allocation_description {
            requested_bytes: 880
            allocated_bytes: 1024
            allocator_name: "gpu_bfc"
            allocation_id: 27
            has_single_reference: true
            ptr: 1108295597824
          }
        }
      }
      timeline_label: "Variable_4/Adam = VariableV2()"
      scheduled_micros: 1488970778927527
    }
    node_stats {
      node_name: "Variable_4/Adam_1"
      all_start_micros: 1488970778927534
      op_end_rel_micros: 1
      all_end_rel_micros: 2
      memory {
        allocator_name: "gpu_bfc"
      }
      output {
        tensor_description {
          dtype: DT_FLOAT
          shape {
            dim {
              size: 220
            }
          }
          allocation_description {
            requested_bytes: 880
            allocated_bytes: 1024
            allocator_name: "gpu_bfc"
            allocation_id: 28
            has_single_reference: true
            ptr: 1108295598848
          }
        }
      }
      timeline_label: "Variable_4/Adam_1 = VariableV2()"
      scheduled_micros: 1488970778927532
    }
    node_stats {
      node_name: "Variable_5/Adam"
      all_start_micros: 1488970778927538
      op_end_rel_micros: 2
      all_end_rel_micros: 3
      memory {
        allocator_name: "gpu_bfc"
      }
      output {
        tensor_description {
          dtype: DT_FLOAT
          shape {
            dim {
              size: 10
            }
          }
          allocation_description {
            requested_bytes: 40
            allocated_bytes: 256
            allocator_name: "gpu_bfc"
            allocation_id: 29
            has_single_reference: true
            ptr: 1108295599872
          }
        }
      }
      timeline_label: "Variable_5/Adam = VariableV2()"
      scheduled_micros: 1488970778927536
    }
    node_stats {
      node_name: "Variable_5/Adam_1"
      all_start_micros: 1488970778927543
      op_end_rel_micros: 2
      all_end_rel_micros: 3
      memory {
        allocator_name: "gpu_bfc"
      }
      output {
        tensor_description {
          dtype: DT_FLOAT
          shape {
            dim {
              size: 10
            }
          }
          allocation_description {
            requested_bytes: 40
            allocated_bytes: 256
            allocator_name: "gpu_bfc"
            allocation_id: 30
            has_single_reference: true
            ptr: 1108295600128
          }
        }
      }
      timeline_label: "Variable_5/Adam_1 = VariableV2()"
      scheduled_micros: 1488970778927541
    }
    node_stats {
      node_name: "Adam/learning_rate"
      all_start_micros: 1488970778927547
      op_end_rel_micros: 2
      all_end_rel_micros: 4
      memory {
        allocator_name: "gpu_bfc"
      }
      output {
        tensor_description {
          dtype: DT_FLOAT
          shape {
          }
          allocation_description {
            requested_bytes: 4
            allocated_bytes: 256
            allocator_name: "gpu_bfc"
            allocation_id: 49
            ptr: 1108290512384
          }
        }
      }
      timeline_label: "Adam/learning_rate = Const()"
      scheduled_micros: 1488970778927546
    }
    node_stats {
      node_name: "Adam/beta1"
      all_start_micros: 1488970778927552
      op_start_rel_micros: 1
      op_end_rel_micros: 2
      all_end_rel_micros: 3
      memory {
        allocator_name: "gpu_bfc"
      }
      output {
        tensor_description {
          dtype: DT_FLOAT
          shape {
          }
          allocation_description {
            requested_bytes: 4
            allocated_bytes: 256
            allocator_name: "gpu_bfc"
            allocation_id: 50
            ptr: 1108290512640
          }
        }
      }
      timeline_label: "Adam/beta1 = Const()"
      scheduled_micros: 1488970778927551
    }
    node_stats {
      node_name: "Adam/beta2"
      all_start_micros: 1488970778927556
      op_end_rel_micros: 1
      all_end_rel_micros: 3
      memory {
        allocator_name: "gpu_bfc"
      }
      output {
        tensor_description {
          dtype: DT_FLOAT
          shape {
          }
          allocation_description {
            requested_bytes: 4
            allocated_bytes: 256
            allocator_name: "gpu_bfc"
            allocation_id: 51
            ptr: 1108290512896
          }
        }
      }
      timeline_label: "Adam/beta2 = Const()"
      scheduled_micros: 1488970778927555
    }
    node_stats {
      node_name: "Adam/epsilon"
      all_start_micros: 1488970778927560
      op_end_rel_micros: 1
      all_end_rel_micros: 2
      memory {
        allocator_name: "gpu_bfc"
      }
      output {
        tensor_description {
          dtype: DT_FLOAT
          shape {
          }
          allocation_description {
            requested_bytes: 4
            allocated_bytes: 256
            allocator_name: "gpu_bfc"
            allocation_id: 52
            ptr: 1108290513152
          }
        }
      }
      timeline_label: "Adam/epsilon = Const()"
      scheduled_micros: 1488970778927559
    }
    node_stats {
      node_name: "Variable/read"
      all_start_micros: 1488970778927563
      op_start_rel_micros: 1
      op_end_rel_micros: 2
      all_end_rel_micros: 4
      memory {
        allocator_name: "gpu_bfc"
      }
      output {
        tensor_description {
          dtype: DT_FLOAT
          shape {
            dim {
              size: 784
            }
            dim {
              size: 220
            }
          }
          allocation_description {
            requested_bytes: 689920
            allocated_bytes: 689920
            allocator_name: "gpu_bfc"
            allocation_id: 43
            ptr: 1108295794176
          }
        }
      }
      timeline_label: "Variable/read = Identity(Variable)"
      scheduled_micros: 1488970778927562
    }
    node_stats {
      node_name: "Variable_1/read"
      all_start_micros: 1488970778927581
      op_start_rel_micros: 1
      op_end_rel_micros: 5
      all_end_rel_micros: 7
      memory {
        allocator_name: "gpu_bfc"
      }
      output {
        tensor_description {
          dtype: DT_FLOAT
          shape {
            dim {
              size: 220
            }
            dim {
              size: 220
            }
          }
          allocation_description {
            requested_bytes: 193600
            allocated_bytes: 193792
            allocator_name: "gpu_bfc"
            allocation_id: 44
            ptr: 1108290521344
          }
        }
      }
      timeline_label: "Variable_1/read = Identity(Variable_1)"
      scheduled_micros: 1488970778927567
    }
    node_stats {
      node_name: "Variable_2/read"
      all_start_micros: 1488970778927590
      op_start_rel_micros: 1
      op_end_rel_micros: 2
      all_end_rel_micros: 4
      memory {
        allocator_name: "gpu_bfc"
      }
      output {
        tensor_description {
          dtype: DT_FLOAT
          shape {
            dim {
              size: 220
            }
            dim {
              size: 10
            }
          }
          allocation_description {
            requested_bytes: 8800
            allocated_bytes: 8960
            allocator_name: "gpu_bfc"
            allocation_id: 45
            ptr: 1108295600384
          }
        }
      }
      timeline_label: "Variable_2/read = Identity(Variable_2)"
      scheduled_micros: 1488970778927588
    }
    node_stats {
      node_name: "Variable_3/read"
      all_start_micros: 1488970778927611
      op_end_rel_micros: 1
      all_end_rel_micros: 2
      memory {
        allocator_name: "gpu_bfc"
      }
      output {
        tensor_description {
          dtype: DT_FLOAT
          shape {
            dim {
              size: 220
            }
          }
          allocation_description {
            requested_bytes: 880
            allocated_bytes: 1024
            allocator_name: "gpu_bfc"
            allocation_id: 46
            ptr: 1108290510080
          }
        }
      }
      timeline_label: "Variable_3/read = Identity(Variable_3)"
      scheduled_micros: 1488970778927594
    }
    node_stats {
      node_name: "Variable_4/read"
      all_start_micros: 1488970778927615
      op_end_rel_micros: 1
      all_end_rel_micros: 2
      memory {
        allocator_name: "gpu_bfc"
      }
      output {
        tensor_description {
          dtype: DT_FLOAT
          shape {
            dim {
              size: 220
            }
          }
          allocation_description {
            requested_bytes: 880
            allocated_bytes: 1024
            allocator_name: "gpu_bfc"
            allocation_id: 47
            ptr: 1108290511104
          }
        }
      }
      timeline_label: "Variable_4/read = Identity(Variable_4)"
      scheduled_micros: 1488970778927613
    }
    node_stats {
      node_name: "Variable_5/read"
      all_start_micros: 1488970778927618
      op_start_rel_micros: 1
      op_end_rel_micros: 2
      all_end_rel_micros: 3
      memory {
        allocator_name: "gpu_bfc"
      }
      output {
        tensor_description {
          dtype: DT_FLOAT
          shape {
            dim {
              size: 10
            }
          }
          allocation_description {
            requested_bytes: 40
            allocated_bytes: 256
            allocator_name: "gpu_bfc"
            allocation_id: 48
            ptr: 1108290512128
          }
        }
      }
      timeline_label: "Variable_5/read = Identity(Variable_5)"
      scheduled_micros: 1488970778927617
    }
    node_stats {
      node_name: "beta1_power/read"
      all_start_micros: 1488970778927635
      op_start_rel_micros: 1
      op_end_rel_micros: 2
      all_end_rel_micros: 4
      memory {
        allocator_name: "gpu_bfc"
      }
      output {
        tensor_description {
          dtype: DT_FLOAT
          shape {
          }
          allocation_description {
            requested_bytes: 4
            allocated_bytes: 256
            allocator_name: "gpu_bfc"
            allocation_id: 17
            ptr: 1108291405056
          }
        }
      }
      timeline_label: "beta1_power/read = Identity(beta1_power)"
      scheduled_micros: 1488970778927630
    }
    node_stats {
      node_name: "beta2_power/read"
      all_start_micros: 1488970778927640
      op_start_rel_micros: 1
      op_end_rel_micros: 2
      all_end_rel_micros: 3
      memory {
        allocator_name: "gpu_bfc"
      }
      output {
        tensor_description {
          dtype: DT_FLOAT
          shape {
          }
          allocation_description {
            requested_bytes: 4
            allocated_bytes: 256
            allocator_name: "gpu_bfc"
            allocation_id: 18
            ptr: 1108291405312
          }
        }
      }
      timeline_label: "beta2_power/read = Identity(beta2_power)"
      scheduled_micros: 1488970778927638
    }
    node_stats {
      node_name: "Shape_2"
      all_start_micros: 1488970778927664
      op_start_rel_micros: 1
      op_end_rel_micros: 17
      all_end_rel_micros: 22
      memory {
        allocator_name: "gpu_bfc"
      }
      memory {
        allocator_name: "cpu_pool"
        total_bytes: 8
      }
      output {
        tensor_description {
          dtype: DT_INT32
          shape {
            dim {
              size: 2
            }
          }
          allocation_description {
            requested_bytes: 8
            allocator_name: "cpu_pool"
            ptr: 140707490698912
          }
        }
      }
      timeline_label: "Shape_2 = Shape(_recv_Placeholder_1_0/_5)"
      scheduled_micros: 1488970778927662
    }
    node_stats {
      node_name: "Slice_1"
      all_start_micros: 1488970778927689
      op_end_rel_micros: 13
      all_end_rel_micros: 16
      memory {
        allocator_name: "gpu_bfc"
      }
      memory {
        allocator_name: "cpu_pool"
        total_bytes: 4
      }
      output {
        tensor_description {
          dtype: DT_INT32
          shape {
            dim {
              size: 1
            }
          }
          allocation_description {
            requested_bytes: 4
            allocator_name: "cpu_pool"
            ptr: 140707490699776
          }
        }
      }
      timeline_label: "Slice_1 = Slice(Shape_2, Slice_1/begin, Slice_1/size)"
      scheduled_micros: 1488970778927686
    }
    node_stats {
      node_name: "concat_1"
      all_start_micros: 1488970778927707
      op_start_rel_micros: 1
      op_end_rel_micros: 23
      all_end_rel_micros: 25
      memory {
        allocator_name: "gpu_bfc"
      }
      memory {
        allocator_name: "cpu_pool"
        total_bytes: 8
      }
      output {
        tensor_description {
          dtype: DT_INT32
          shape {
            dim {
              size: 2
            }
          }
          allocation_description {
            requested_bytes: 8
            allocator_name: "cpu_pool"
            ptr: 140707490698912
          }
        }
      }
      timeline_label: "concat_1 = ConcatV2(concat_1/values_0, Slice_1, concat_1/axis)"
      scheduled_micros: 1488970778927705
    }
    node_stats {
      node_name: "Reshape_1"
      all_start_micros: 1488970778927734
      op_end_rel_micros: 2
      all_end_rel_micros: 5
      memory {
        allocator_name: "gpu_bfc"
      }
      output {
        tensor_description {
          dtype: DT_FLOAT
          shape {
            dim {
              size: 100
            }
            dim {
              size: 10
            }
          }
          allocation_description {
            requested_bytes: 4000
            allocated_bytes: 7680
            allocator_name: "gpu_bfc"
            allocation_id: 55
            ptr: 1108290513664
          }
        }
      }
      timeline_label: "Reshape_1 = Reshape(_recv_Placeholder_1_0/_5, concat_1)"
      scheduled_micros: 1488970778927732
    }
    node_stats {
      node_name: "gradients/Mean_grad/Prod_1"
      all_start_micros: 1488970778927669
      op_start_rel_micros: 1
      op_end_rel_micros: 76
      all_end_rel_micros: 78
      memory {
        allocator_name: "gpu_bfc"
        total_bytes: 512
        peak_bytes: 512
      }
      output {
        tensor_description {
          dtype: DT_INT32
          shape {
          }
          allocation_description {
            requested_bytes: 4
            allocated_bytes: 256
            allocator_name: "gpu_bfc"
            allocation_id: 58
            has_single_reference: true
            ptr: 1108295697664
          }
        }
      }
      timeline_label: "gradients/Mean_grad/Prod_1 = Prod(gradients/Mean_grad/Shape_2/_1, gradients/Mean_grad/Const_1)"
      scheduled_micros: 1488970778927667
    }
    node_stats {
      node_name: "gradients/Mean_grad/Maximum"
      all_start_micros: 1488970778927858
      op_end_rel_micros: 11
      all_end_rel_micros: 14
      memory {
        allocator_name: "gpu_bfc"
      }
      memory {
        allocator_name: "cpu_pool"
        total_bytes: 4
      }
      output {
        tensor_description {
          dtype: DT_INT32
          shape {
          }
          allocation_description {
            requested_bytes: 4
            allocator_name: "cpu_pool"
            ptr: 140707490699776
          }
        }
      }
      timeline_label: "gradients/Mean_grad/Maximum = Maximum(gradients/Mean_grad/Prod_1/_3, gradients/Mean_grad/Maximum/y)"
      scheduled_micros: 1488970778927856
    }
    node_stats {
      node_name: "MatMul"
      all_start_micros: 1488970778927674
      op_start_rel_micros: 1
      op_end_rel_micros: 144053
      all_end_rel_micros: 144071
      memory {
        allocator_name: "gpu_bfc"
        total_bytes: 88064
        peak_bytes: 88064
      }
      output {
        tensor_description {
          dtype: DT_FLOAT
          shape {
            dim {
              size: 100
            }
            dim {
              size: 220
            }
          }
          allocation_description {
            requested_bytes: 88000
            allocated_bytes: 88064
            allocator_name: "gpu_bfc"
            allocation_id: 57
            has_single_reference: true
            ptr: 1108295609600
          }
        }
      }
      timeline_label: "MatMul = MatMul(_recv_Placeholder_0/_7, Variable/read)"
      scheduled_micros: 1488970778927673
    }
    node_stats {
      node_name: "gradients/Add_grad/Shape"
      all_start_micros: 1488970779071768
      op_start_rel_micros: 4
      op_end_rel_micros: 14
      all_end_rel_micros: 16
      memory {
        allocator_name: "gpu_bfc"
      }
      memory {
        allocator_name: "cpu_pool"
        total_bytes: 8
      }
      output {
        tensor_description {
          dtype: DT_INT32
          shape {
            dim {
              size: 2
            }
          }
          allocation_description {
            requested_bytes: 8
            allocator_name: "cpu_pool"
            ptr: 140707490698912
          }
        }
      }
      timeline_label: "gradients/Add_grad/Shape = Shape(MatMul)"
      scheduled_micros: 1488970779071745
    }
    node_stats {
      node_name: "Add"
      all_start_micros: 1488970779071785
      op_start_rel_micros: 1
      op_end_rel_micros: 47
      all_end_rel_micros: 52
      memory {
        allocator_name: "gpu_bfc"
        total_bytes: 96512
        peak_bytes: 96512
      }
      output {
        tensor_description {
          dtype: DT_FLOAT
          shape {
            dim {
              size: 100
            }
            dim {
              size: 220
            }
          }
          allocation_description {
            requested_bytes: 88000
            allocated_bytes: 96512
            allocator_name: "gpu_bfc"
            allocation_id: 59
            has_single_reference: true
            ptr: 1108295697664
          }
        }
      }
      timeline_label: "Add = Add(MatMul, Variable_3/read)"
      scheduled_micros: 1488970779071784
    }
    node_stats {
      node_name: "gradients/Add_grad/BroadcastGradientArgs"
      all_start_micros: 1488970779071839
      op_end_rel_micros: 18
      all_end_rel_micros: 19
      memory {
        allocator_name: "gpu_bfc"
      }
      memory {
        allocator_name: "cpu_pool"
        total_bytes: 4
      }
      output {
        tensor_description {
          dtype: DT_INT32
          shape {
            dim {
            }
          }
        }
      }
      output {
        slot: 1
        tensor_description {
          dtype: DT_INT32
          shape {
            dim {
              size: 1
            }
          }
          allocation_description {
            requested_bytes: 4
            allocator_name: "cpu_pool"
            ptr: 140707222474752
          }
        }
      }
      timeline_label: "gradients/Add_grad/BroadcastGradientArgs = BroadcastGradientArgs(gradients/Add_grad/Shape, gradients/Add_grad/Shape_1)"
      scheduled_micros: 1488970779071837
    }
    node_stats {
      node_name: "Relu"
      all_start_micros: 1488970779071859
      op_start_rel_micros: 1
      op_end_rel_micros: 16
      all_end_rel_micros: 19
      memory {
        allocator_name: "gpu_bfc"
        total_bytes: 88320
        peak_bytes: 88320
      }
      output {
        tensor_description {
          dtype: DT_FLOAT
          shape {
            dim {
              size: 100
            }
            dim {
              size: 220
            }
          }
          allocation_description {
            requested_bytes: 88000
            allocated_bytes: 88320
            allocator_name: "gpu_bfc"
            allocation_id: 60
            has_single_reference: true
            ptr: 1108295609344
          }
        }
      }
      timeline_label: "Relu = Relu(Add)"
      scheduled_micros: 1488970779071858
    }
    node_stats {
      node_name: "MatMul_1"
      all_start_micros: 1488970779071879
      op_end_rel_micros: 32
      all_end_rel_micros: 34
      memory {
        allocator_name: "gpu_bfc"
        total_bytes: 96512
        peak_bytes: 96512
      }
      output {
        tensor_description {
          dtype: DT_FLOAT
          shape {
            dim {
              size: 100
            }
            dim {
              size: 220
            }
          }
          allocation_description {
            requested_bytes: 88000
            allocated_bytes: 96512
            allocator_name: "gpu_bfc"
            allocation_id: 61
            has_single_reference: true
            ptr: 1108295697664
          }
        }
      }
      timeline_label: "MatMul_1 = MatMul(Relu, Variable_1/read)"
      scheduled_micros: 1488970779071878
    }
    node_stats {
      node_name: "gradients/Add_1_grad/Shape"
      all_start_micros: 1488970779071914
      op_start_rel_micros: 1
      op_end_rel_micros: 3
      all_end_rel_micros: 4
      memory {
        allocator_name: "gpu_bfc"
      }
      memory {
        allocator_name: "cpu_pool"
        total_bytes: 8
      }
      output {
        tensor_description {
          dtype: DT_INT32
          shape {
            dim {
              size: 2
            }
          }
          allocation_description {
            requested_bytes: 8
            allocator_name: "cpu_pool"
            ptr: 140706487224224
          }
        }
      }
      timeline_label: "gradients/Add_1_grad/Shape = Shape(MatMul_1)"
      scheduled_micros: 1488970779071913
    }
    node_stats {
      node_name: "Add_1"
      all_start_micros: 1488970779071919
      op_end_rel_micros: 11
      all_end_rel_micros: 13
      memory {
        allocator_name: "gpu_bfc"
        total_bytes: 88064
        peak_bytes: 88064
      }
      output {
        tensor_description {
          dtype: DT_FLOAT
          shape {
            dim {
              size: 100
            }
            dim {
              size: 220
            }
          }
          allocation_description {
            requested_bytes: 88000
            allocated_bytes: 88064
            allocator_name: "gpu_bfc"
            allocation_id: 62
            has_single_reference: true
            ptr: 1108291028736
          }
        }
      }
      timeline_label: "Add_1 = Add(MatMul_1, Variable_4/read)"
      scheduled_micros: 1488970779071918
    }
    node_stats {
      node_name: "gradients/Add_1_grad/BroadcastGradientArgs"
      all_start_micros: 1488970779071934
      op_end_rel_micros: 3
      all_end_rel_micros: 4
      memory {
        allocator_name: "gpu_bfc"
      }
      memory {
        allocator_name: "cpu_pool"
        total_bytes: 4
      }
      output {
        tensor_description {
          dtype: DT_INT32
          shape {
            dim {
            }
          }
        }
      }
      output {
        slot: 1
        tensor_description {
          dtype: DT_INT32
          shape {
            dim {
              size: 1
            }
          }
          allocation_description {
            requested_bytes: 4
            allocator_name: "cpu_pool"
            ptr: 140706487223360
          }
        }
      }
      timeline_label: "gradients/Add_1_grad/BroadcastGradientArgs = BroadcastGradientArgs(gradients/Add_1_grad/Shape, gradients/Add_1_grad/Shape_1)"
      scheduled_micros: 1488970779071932
    }
    node_stats {
      node_name: "Relu_1"
      all_start_micros: 1488970779071939
      op_start_rel_micros: 1
      op_end_rel_micros: 9
      all_end_rel_micros: 12
      memory {
        allocator_name: "gpu_bfc"
        total_bytes: 96512
        peak_bytes: 96512
      }
      output {
        tensor_description {
          dtype: DT_FLOAT
          shape {
            dim {
              size: 100
            }
            dim {
              size: 220
            }
          }
          allocation_description {
            requested_bytes: 88000
            allocated_bytes: 96512
            allocator_name: "gpu_bfc"
            allocation_id: 63
            has_single_reference: true
            ptr: 1108295697664
          }
        }
      }
      timeline_label: "Relu_1 = Relu(Add_1)"
      scheduled_micros: 1488970779071938
    }
    node_stats {
      node_name: "MatMul_2"
      all_start_micros: 1488970779071953
      op_end_rel_micros: 16
      all_end_rel_micros: 18
      memory {
        allocator_name: "gpu_bfc"
        total_bytes: 4096
        peak_bytes: 4096
      }
      output {
        tensor_description {
          dtype: DT_FLOAT
          shape {
            dim {
              size: 100
            }
            dim {
              size: 10
            }
          }
          allocation_description {
            requested_bytes: 4000
            allocated_bytes: 4096
            allocator_name: "gpu_bfc"
            allocation_id: 64
            has_single_reference: true
            ptr: 1108291028736
          }
        }
      }
      timeline_label: "MatMul_2 = MatMul(Relu_1, Variable_2/read)"
      scheduled_micros: 1488970779071951
    }
    node_stats {
      node_name: "gradients/add_grad/Shape"
      all_start_micros: 1488970779071972
      op_start_rel_micros: 1
      op_end_rel_micros: 2
      all_end_rel_micros: 4
      memory {
        allocator_name: "gpu_bfc"
      }
      memory {
        allocator_name: "cpu_pool"
        total_bytes: 8
      }
      output {
        tensor_description {
          dtype: DT_INT32
          shape {
            dim {
              size: 2
            }
          }
          allocation_description {
            requested_bytes: 8
            allocator_name: "cpu_pool"
            ptr: 140706487229920
          }
        }
      }
      timeline_label: "gradients/add_grad/Shape = Shape(MatMul_2)"
      scheduled_micros: 1488970779071971
    }
    node_stats {
      node_name: "add"
      all_start_micros: 1488970779071977
      op_end_rel_micros: 10
      all_end_rel_micros: 12
      memory {
        allocator_name: "gpu_bfc"
        total_bytes: 4096
        peak_bytes: 4096
      }
      output {
        tensor_description {
          dtype: DT_FLOAT
          shape {
            dim {
              size: 100
            }
            dim {
              size: 10
            }
          }
          allocation_description {
            requested_bytes: 4000
            allocated_bytes: 4096
            allocator_name: "gpu_bfc"
            allocation_id: 65
            has_single_reference: true
            ptr: 1108291032832
          }
        }
      }
      timeline_label: "add = Add(MatMul_2, Variable_5/read)"
      scheduled_micros: 1488970779071976
    }
    node_stats {
      node_name: "gradients/add_grad/BroadcastGradientArgs"
      all_start_micros: 1488970779071991
      op_end_rel_micros: 3
      all_end_rel_micros: 4
      memory {
        allocator_name: "gpu_bfc"
      }
      memory {
        allocator_name: "cpu_pool"
        total_bytes: 4
      }
      output {
        tensor_description {
          dtype: DT_INT32
          shape {
            dim {
            }
          }
        }
      }
      output {
        slot: 1
        tensor_description {
          dtype: DT_INT32
          shape {
            dim {
              size: 1
            }
          }
          allocation_description {
            requested_bytes: 4
            allocator_name: "cpu_pool"
            ptr: 140706487229056
          }
        }
      }
      timeline_label: "gradients/add_grad/BroadcastGradientArgs = BroadcastGradientArgs(gradients/add_grad/Shape, gradients/add_grad/Shape_1)"
      scheduled_micros: 1488970779071989
    }
    node_stats {
      node_name: "Shape"
      all_start_micros: 1488970779071996
      op_end_rel_micros: 1
      all_end_rel_micros: 2
      memory {
        allocator_name: "gpu_bfc"
      }
      memory {
        allocator_name: "cpu_pool"
        total_bytes: 8
      }
      output {
        tensor_description {
          dtype: DT_INT32
          shape {
            dim {
              size: 2
            }
          }
          allocation_description {
            requested_bytes: 8
            allocator_name: "cpu_pool"
            ptr: 140706487233664
          }
        }
      }
      timeline_label: "Shape = Shape(add)"
      scheduled_micros: 1488970779071995
    }
    node_stats {
      node_name: "Slice_2"
      all_start_micros: 1488970779071999
      op_start_rel_micros: 1
      op_end_rel_micros: 5
      all_end_rel_micros: 6
      memory {
        allocator_name: "gpu_bfc"
      }
      memory {
        allocator_name: "cpu_pool"
        total_bytes: 4
      }
      output {
        tensor_description {
          dtype: DT_INT32
          shape {
            dim {
              size: 1
            }
          }
          allocation_description {
            requested_bytes: 4
            allocator_name: "cpu_pool"
            ptr: 140706487235488
          }
        }
      }
      timeline_label: "Slice_2 = Slice(Shape, Slice_2/begin, Slice_2/size)"
      scheduled_micros: 1488970779071998
    }
    node_stats {
      node_name: "Slice"
      all_start_micros: 1488970779072008
      op_end_rel_micros: 2
      all_end_rel_micros: 3
      memory {
        allocator_name: "gpu_bfc"
      }
      memory {
        allocator_name: "cpu_pool"
        total_bytes: 4
      }
      output {
        tensor_description {
          dtype: DT_INT32
          shape {
            dim {
              size: 1
            }
          }
          allocation_description {
            requested_bytes: 4
            allocator_name: "cpu_pool"
            ptr: 140706898336480
          }
        }
      }
      timeline_label: "Slice = Slice(Shape_1, Slice/begin, Slice/size)"
      scheduled_micros: 1488970779072005
    }
    node_stats {
      node_name: "concat"
      all_start_micros: 1488970779072012
      op_end_rel_micros: 7
      all_end_rel_micros: 9
      memory {
        allocator_name: "gpu_bfc"
      }
      memory {
        allocator_name: "cpu_pool"
        total_bytes: 8
      }
      output {
        tensor_description {
          dtype: DT_INT32
          shape {
            dim {
              size: 2
            }
          }
          allocation_description {
            requested_bytes: 8
            allocator_name: "cpu_pool"
            ptr: 140706898336960
          }
        }
      }
      timeline_label: "concat = ConcatV2(concat/values_0, Slice, concat/axis)"
      scheduled_micros: 1488970779072011
    }
    node_stats {
      node_name: "Reshape"
      all_start_micros: 1488970779072022
      op_start_rel_micros: 1
      op_end_rel_micros: 2
      all_end_rel_micros: 4
      memory {
        allocator_name: "gpu_bfc"
      }
      output {
        tensor_description {
          dtype: DT_FLOAT
          shape {
            dim {
              size: 100
            }
            dim {
              size: 10
            }
          }
          allocation_description {
            requested_bytes: 4000
            allocated_bytes: 4096
            allocator_name: "gpu_bfc"
            allocation_id: 65
            ptr: 1108291032832
          }
        }
      }
      timeline_label: "Reshape = Reshape(add, concat)"
      scheduled_micros: 1488970779072021
    }
    node_stats {
      node_name: "SoftmaxCrossEntropyWithLogits"
      all_start_micros: 1488970779072027
      op_end_rel_micros: 148
      all_end_rel_micros: 153
      memory {
        allocator_name: "gpu_bfc"
        total_bytes: 9728
        peak_bytes: 9728
      }
      output {
        tensor_description {
          dtype: DT_FLOAT
          shape {
            dim {
              size: 100
            }
          }
          allocation_description {
            requested_bytes: 400
            allocated_bytes: 512
            allocator_name: "gpu_bfc"
            allocation_id: 67
            has_single_reference: true
            ptr: 1108291029248
          }
        }
      }
      output {
        slot: 1
        tensor_description {
          dtype: DT_FLOAT
          shape {
            dim {
              size: 100
            }
            dim {
              size: 10
            }
          }
          allocation_description {
            requested_bytes: 4000
            allocated_bytes: 4096
            allocator_name: "gpu_bfc"
            allocation_id: 68
            has_single_reference: true
            ptr: 1108291036928
          }
        }
      }
      timeline_label: "SoftmaxCrossEntropyWithLogits = SoftmaxCrossEntropyWithLogits(Reshape, Reshape_1)"
      scheduled_micros: 1488970779072026
    }
    node_stats {
      node_name: "gradients/Reshape_2_grad/Shape"
      all_start_micros: 1488970779072183
      op_start_rel_micros: 1
      op_end_rel_micros: 4
      all_end_rel_micros: 6
      memory {
        allocator_name: "gpu_bfc"
      }
      memory {
        allocator_name: "cpu_pool"
        total_bytes: 4
      }
      output {
        tensor_description {
          dtype: DT_INT32
          shape {
            dim {
              size: 1
            }
          }
          allocation_description {
            requested_bytes: 4
            allocator_name: "cpu_pool"
            ptr: 140706898336480
          }
        }
      }
      timeline_label: "gradients/Reshape_2_grad/Shape = Shape(SoftmaxCrossEntropyWithLogits)"
      scheduled_micros: 1488970779072180
    }
    node_stats {
      node_name: "gradients/SoftmaxCrossEntropyWithLogits_grad/PreventGradient"
      all_start_micros: 1488970779072190
      op_start_rel_micros: 1
      op_end_rel_micros: 2
      all_end_rel_micros: 4
      memory {
        allocator_name: "gpu_bfc"
      }
      output {
        tensor_description {
          dtype: DT_FLOAT
          shape {
            dim {
              size: 100
            }
            dim {
              size: 10
            }
          }
          allocation_description {
            requested_bytes: 4000
            allocated_bytes: 4096
            allocator_name: "gpu_bfc"
            allocation_id: 68
            ptr: 1108291036928
          }
        }
      }
      timeline_label: "gradients/SoftmaxCrossEntropyWithLogits_grad/PreventGradient = PreventGradient(SoftmaxCrossEntropyWithLogits:1)"
      scheduled_micros: 1488970779072189
    }
    node_stats {
      node_name: "Reshape_2"
      all_start_micros: 1488970779072195
      op_start_rel_micros: 1
      op_end_rel_micros: 2
      all_end_rel_micros: 4
      memory {
        allocator_name: "gpu_bfc"
      }
      output {
        tensor_description {
          dtype: DT_FLOAT
          shape {
            dim {
              size: 100
            }
          }
          allocation_description {
            requested_bytes: 400
            allocated_bytes: 512
            allocator_name: "gpu_bfc"
            allocation_id: 67
            ptr: 1108291029248
          }
        }
      }
      timeline_label: "Reshape_2 = Reshape(SoftmaxCrossEntropyWithLogits, Slice_2)"
      scheduled_micros: 1488970779072194
    }
    node_stats {
      node_name: "gradients/Mean_grad/Shape"
      all_start_micros: 1488970779072201
      op_end_rel_micros: 10
      all_end_rel_micros: 12
      memory {
        allocator_name: "gpu_bfc"
      }
      memory {
        allocator_name: "cuda_host_bfc"
        total_bytes: 256
        peak_bytes: 256
      }
      output {
        tensor_description {
          dtype: DT_INT32
          shape {
            dim {
              size: 1
            }
          }
          allocation_description {
            requested_bytes: 4
            allocated_bytes: 256
            allocator_name: "cuda_host_bfc"
            allocation_id: 29
            has_single_reference: true
            ptr: 1108288212224
          }
        }
      }
      timeline_label: "gradients/Mean_grad/Shape = Shape(Reshape_2)"
      scheduled_micros: 1488970779072199
    }
    node_stats {
      node_name: "Mean"
      all_start_micros: 1488970779072214
      op_start_rel_micros: 1
      op_end_rel_micros: 26
      all_end_rel_micros: 28
      memory {
        allocator_name: "gpu_bfc"
        total_bytes: 512
        peak_bytes: 512
      }
      output {
        tensor_description {
          dtype: DT_FLOAT
          shape {
          }
          allocation_description {
            requested_bytes: 4
            allocated_bytes: 256
            allocator_name: "gpu_bfc"
            allocation_id: 72
            has_single_reference: true
            ptr: 1108291028992
          }
        }
      }
      timeline_label: "Mean = Mean(Reshape_2, Const)"
      scheduled_micros: 1488970779072213
    }
    node_stats {
      node_name: "gradients/Mean_grad/Tile"
      all_start_micros: 1488970779072266
      op_start_rel_micros: 1
      op_end_rel_micros: 31
      all_end_rel_micros: 33
      memory {
        allocator_name: "gpu_bfc"
        total_bytes: 512
        peak_bytes: 512
      }
      output {
        tensor_description {
          dtype: DT_FLOAT
          shape {
            dim {
              size: 100
            }
          }
          allocation_description {
            requested_bytes: 400
            allocated_bytes: 512
            allocator_name: "gpu_bfc"
            allocation_id: 73
            has_single_reference: true
            ptr: 1108290513664
          }
        }
      }
      timeline_label: "gradients/Mean_grad/Tile = Tile(gradients/Mean_grad/Reshape, gradients/Mean_grad/Shape)"
      scheduled_micros: 1488970779072254
    }
    node_stats {
      node_name: "gradients/Mean_grad/Prod"
      all_start_micros: 1488970779072361
      op_start_rel_micros: 1
      op_end_rel_micros: 11
      all_end_rel_micros: 15
      memory {
        allocator_name: "gpu_bfc"
        total_bytes: 256
        peak_bytes: 256
      }
      output {
        tensor_description {
          dtype: DT_INT32
          shape {
          }
          allocation_description {
            requested_bytes: 4
            allocated_bytes: 256
            allocator_name: "gpu_bfc"
            allocation_id: 74
            ptr: 1108291028736
          }
        }
      }
      timeline_label: "gradients/Mean_grad/Prod = Prod(gradients/Mean_grad/Shape_1/_9, gradients/Mean_grad/Const)"
      scheduled_micros: 1488970779072360
    }
    node_stats {
      node_name: "gradients/Mean_grad/floordiv"
      all_start_micros: 1488970779072420
      op_start_rel_micros: 2
      op_end_rel_micros: 20
      all_end_rel_micros: 26
      memory {
        allocator_name: "gpu_bfc"
      }
      memory {
        allocator_name: "cuda_host_bfc"
        total_bytes: 256
        peak_bytes: 256
      }
      output {
        tensor_description {
          dtype: DT_INT32
          shape {
          }
          allocation_description {
            requested_bytes: 4
            allocated_bytes: 256
            allocator_name: "cuda_host_bfc"
            allocation_id: 32
            has_single_reference: true
            ptr: 1108288212736
          }
        }
      }
      timeline_label: "gradients/Mean_grad/floordiv = FloorDiv(gradients/Mean_grad/Prod/_11, gradients/Mean_grad/Maximum)"
      scheduled_micros: 1488970779072418
    }
    node_stats {
      node_name: "gradients/Mean_grad/Cast"
      all_start_micros: 1488970779072523
      op_start_rel_micros: 1
      op_end_rel_micros: 46
      all_end_rel_micros: 50
      memory {
        allocator_name: "gpu_bfc"
        total_bytes: 256
        peak_bytes: 256
      }
      output {
        tensor_description {
          dtype: DT_FLOAT
          shape {
          }
          allocation_description {
            requested_bytes: 4
            allocated_bytes: 256
            allocator_name: "gpu_bfc"
            allocation_id: 77
            has_single_reference: true
            ptr: 1108290514432
          }
        }
      }
      timeline_label: "gradients/Mean_grad/Cast = Cast(gradients/Mean_grad/floordiv/_13)"
      scheduled_micros: 1488970779072522
    }
    node_stats {
      node_name: "gradients/Mean_grad/truediv"
      all_start_micros: 1488970779072575
      op_start_rel_micros: 1
      op_end_rel_micros: 46
      all_end_rel_micros: 51
      memory {
        allocator_name: "gpu_bfc"
        total_bytes: 512
        peak_bytes: 512
      }
      output {
        tensor_description {
          dtype: DT_FLOAT
          shape {
            dim {
              size: 100
            }
          }
          allocation_description {
            requested_bytes: 400
            allocated_bytes: 512
            allocator_name: "gpu_bfc"
            allocation_id: 78
            has_single_reference: true
            ptr: 1108290514688
          }
        }
      }
      timeline_label: "gradients/Mean_grad/truediv = RealDiv(gradients/Mean_grad/Tile, gradients/Mean_grad/Cast)"
      scheduled_micros: 1488970779072573
    }
    node_stats {
      node_name: "gradients/Reshape_2_grad/Reshape"
      all_start_micros: 1488970779072629
      op_start_rel_micros: 1
      op_end_rel_micros: 5
      all_end_rel_micros: 7
      memory {
        allocator_name: "gpu_bfc"
      }
      output {
        tensor_description {
          dtype: DT_FLOAT
          shape {
            dim {
              size: 100
            }
          }
          allocation_description {
            requested_bytes: 400
            allocated_bytes: 512
            allocator_name: "gpu_bfc"
            allocation_id: 78
            ptr: 1108290514688
          }
        }
      }
      timeline_label: "gradients/Reshape_2_grad/Reshape = Reshape(gradients/Mean_grad/truediv, gradients/Reshape_2_grad/Shape)"
      scheduled_micros: 1488970779072626
    }
    node_stats {
      node_name: "gradients/SoftmaxCrossEntropyWithLogits_grad/ExpandDims"
      all_start_micros: 1488970779072638
      op_end_rel_micros: 3
      all_end_rel_micros: 4
      memory {
        allocator_name: "gpu_bfc"
      }
      output {
        tensor_description {
          dtype: DT_FLOAT
          shape {
            dim {
              size: 100
            }
            dim {
              size: 1
            }
          }
          allocation_description {
            requested_bytes: 400
            allocated_bytes: 512
            allocator_name: "gpu_bfc"
            allocation_id: 78
            ptr: 1108290514688
          }
        }
      }
      timeline_label: "gradients/SoftmaxCrossEntropyWithLogits_grad/ExpandDims = ExpandDims(gradients/Reshape_2_grad/Reshape, gradients/SoftmaxCrossEntropyWithLogits_grad/ExpandDims/dim)"
      scheduled_micros: 1488970779072636
    }
    node_stats {
      node_name: "gradients/SoftmaxCrossEntropyWithLogits_grad/mul"
      all_start_micros: 1488970779072644
      op_start_rel_micros: 1
      op_end_rel_micros: 38
      all_end_rel_micros: 41
      memory {
        allocator_name: "gpu_bfc"
        total_bytes: 6144
        peak_bytes: 6144
      }
      output {
        tensor_description {
          dtype: DT_FLOAT
          shape {
            dim {
              size: 100
            }
            dim {
              size: 10
            }
          }
          allocation_description {
            requested_bytes: 4000
            allocated_bytes: 6144
            allocator_name: "gpu_bfc"
            allocation_id: 79
            has_single_reference: true
            ptr: 1108290515200
          }
        }
      }
      timeline_label: "gradients/SoftmaxCrossEntropyWithLogits_grad/mul = Mul(gradients/SoftmaxCrossEntropyWithLogits_grad/ExpandDims, gradients/SoftmaxCrossEntropyWithLogits_grad/PreventGradient)"
      scheduled_micros: 1488970779072642
    }
    node_stats {
      node_name: "gradients/Reshape_grad/Reshape"
      all_start_micros: 1488970779072688
      op_end_rel_micros: 2
      all_end_rel_micros: 5
      memory {
        allocator_name: "gpu_bfc"
      }
      output {
        tensor_description {
          dtype: DT_FLOAT
          shape {
            dim {
              size: 100
            }
            dim {
              size: 10
            }
          }
          allocation_description {
            requested_bytes: 4000
            allocated_bytes: 6144
            allocator_name: "gpu_bfc"
            allocation_id: 79
            ptr: 1108290515200
          }
        }
      }
      timeline_label: "gradients/Reshape_grad/Reshape = Reshape(gradients/SoftmaxCrossEntropyWithLogits_grad/mul, gradients/Reshape_grad/Shape)"
      scheduled_micros: 1488970779072685
    }
    node_stats {
      node_name: "gradients/add_grad/Sum"
      all_start_micros: 1488970779072694
      op_end_rel_micros: 6
      all_end_rel_micros: 7
      memory {
        allocator_name: "gpu_bfc"
        total_bytes: 256
        peak_bytes: 256
      }
      output {
        tensor_description {
          dtype: DT_FLOAT
          shape {
            dim {
              size: 100
            }
            dim {
              size: 10
            }
          }
          allocation_description {
            requested_bytes: 4000
            allocated_bytes: 6144
            allocator_name: "gpu_bfc"
            allocation_id: 79
            ptr: 1108290515200
          }
        }
      }
      timeline_label: "gradients/add_grad/Sum = Sum(gradients/Reshape_grad/Reshape, gradients/add_grad/BroadcastGradientArgs)"
      scheduled_micros: 1488970779072693
    }
    node_stats {
      node_name: "gradients/add_grad/Sum_1"
      all_start_micros: 1488970779072702
      op_start_rel_micros: 1
      op_end_rel_micros: 19
      all_end_rel_micros: 21
      memory {
        allocator_name: "gpu_bfc"
        total_bytes: 512
        peak_bytes: 512
      }
      output {
        tensor_description {
          dtype: DT_FLOAT
          shape {
            dim {
              size: 10
            }
          }
          allocation_description {
            requested_bytes: 40
            allocated_bytes: 256
            allocator_name: "gpu_bfc"
            allocation_id: 82
            has_single_reference: true
            ptr: 1108290513920
          }
        }
      }
      timeline_label: "gradients/add_grad/Sum_1 = Sum(gradients/Reshape_grad/Reshape, gradients/add_grad/BroadcastGradientArgs:1)"
      scheduled_micros: 1488970779072701
    }
    node_stats {
      node_name: "gradients/add_grad/Reshape"
      all_start_micros: 1488970779072724
      op_start_rel_micros: 1
      op_end_rel_micros: 2
      all_end_rel_micros: 3
      memory {
        allocator_name: "gpu_bfc"
      }
      output {
        tensor_description {
          dtype: DT_FLOAT
          shape {
            dim {
              size: 100
            }
            dim {
              size: 10
            }
          }
          allocation_description {
            requested_bytes: 4000
            allocated_bytes: 6144
            allocator_name: "gpu_bfc"
            allocation_id: 79
            ptr: 1108290515200
          }
        }
      }
      timeline_label: "gradients/add_grad/Reshape = Reshape(gradients/add_grad/Sum, gradients/add_grad/Shape)"
      scheduled_micros: 1488970779072723
    }
    node_stats {
      node_name: "gradients/add_grad/Reshape_1"
      all_start_micros: 1488970779072729
      op_start_rel_micros: 1
      op_end_rel_micros: 1
      all_end_rel_micros: 2
      memory {
        allocator_name: "gpu_bfc"
      }
      output {
        tensor_description {
          dtype: DT_FLOAT
          shape {
            dim {
              size: 10
            }
          }
          allocation_description {
            requested_bytes: 40
            allocated_bytes: 256
            allocator_name: "gpu_bfc"
            allocation_id: 82
            ptr: 1108290513920
          }
        }
      }
      timeline_label: "gradients/add_grad/Reshape_1 = Reshape(gradients/add_grad/Sum_1, gradients/add_grad/Shape_1)"
      scheduled_micros: 1488970779072727
    }
    node_stats {
      node_name: "gradients/add_grad/tuple/group_deps"
      all_start_micros: 1488970779072732
      op_end_rel_micros: 1
      all_end_rel_micros: 2
      memory {
        allocator_name: "gpu_bfc"
      }
      timeline_label: "gradients/add_grad/tuple/group_deps = NoOp(^gradients/add_grad/Reshape, ^gradients/add_grad/Reshape_1)"
      scheduled_micros: 1488970779072731
    }
    node_stats {
      node_name: "gradients/add_grad/tuple/control_dependency"
      all_start_micros: 1488970779072735
      op_end_rel_micros: 1
      all_end_rel_micros: 2
      memory {
        allocator_name: "gpu_bfc"
      }
      output {
        tensor_description {
          dtype: DT_FLOAT
          shape {
            dim {
              size: 100
            }
            dim {
              size: 10
            }
          }
          allocation_description {
            requested_bytes: 4000
            allocated_bytes: 6144
            allocator_name: "gpu_bfc"
            allocation_id: 79
            ptr: 1108290515200
          }
        }
      }
      timeline_label: "gradients/add_grad/tuple/control_dependency = Identity(gradients/add_grad/Reshape, ^gradients/add_grad/tuple/group_deps)"
      scheduled_micros: 1488970779072734
    }
    node_stats {
      node_name: "gradients/add_grad/tuple/control_dependency_1"
      all_start_micros: 1488970779072738
      op_end_rel_micros: 1
      all_end_rel_micros: 1
      memory {
        allocator_name: "gpu_bfc"
      }
      output {
        tensor_description {
          dtype: DT_FLOAT
          shape {
            dim {
              size: 10
            }
          }
          allocation_description {
            requested_bytes: 40
            allocated_bytes: 256
            allocator_name: "gpu_bfc"
            allocation_id: 82
            ptr: 1108290513920
          }
        }
      }
      timeline_label: "gradients/add_grad/tuple/control_dependency_1 = Identity(gradients/add_grad/Reshape_1, ^gradients/add_grad/tuple/group_deps)"
      scheduled_micros: 1488970779072737
    }
    node_stats {
      node_name: "gradients/MatMul_2_grad/MatMul"
      all_start_micros: 1488970779072741
      op_end_rel_micros: 37
      all_end_rel_micros: 39
      memory {
        allocator_name: "gpu_bfc"
        total_bytes: 88064
        peak_bytes: 88064
      }
      output {
        tensor_description {
          dtype: DT_FLOAT
          shape {
            dim {
              size: 100
            }
            dim {
              size: 220
            }
          }
          allocation_description {
            requested_bytes: 88000
            allocated_bytes: 88064
            allocator_name: "gpu_bfc"
            allocation_id: 83
            has_single_reference: true
            ptr: 1108291028736
          }
        }
      }
      timeline_label: "gradients/MatMul_2_grad/MatMul = MatMul(gradients/add_grad/tuple/control_dependency, Variable_2/read)"
      scheduled_micros: 1488970779072739
    }
    node_stats {
      node_name: "gradients/MatMul_2_grad/MatMul_1"
      all_start_micros: 1488970779072781
      op_start_rel_micros: 1
      op_end_rel_micros: 29
      all_end_rel_micros: 32
      memory {
        allocator_name: "gpu_bfc"
        total_bytes: 8960
        peak_bytes: 8960
      }
      output {
        tensor_description {
          dtype: DT_FLOAT
          shape {
            dim {
              size: 220
            }
            dim {
              size: 10
            }
          }
          allocation_description {
            requested_bytes: 8800
            allocated_bytes: 8960
            allocator_name: "gpu_bfc"
            allocation_id: 84
            has_single_reference: true
            ptr: 1108291116800
          }
        }
      }
      timeline_label: "gradients/MatMul_2_grad/MatMul_1 = MatMul(Relu_1, gradients/add_grad/tuple/control_dependency)"
      scheduled_micros: 1488970779072780
    }
    node_stats {
      node_name: "Adam/update_Variable_5/ApplyAdam"
      all_start_micros: 1488970779072814
      op_start_rel_micros: 2
      op_end_rel_micros: 70
      all_end_rel_micros: 73
      memory {
        allocator_name: "gpu_bfc"
      }
      output {
        tensor_description {
          dtype: DT_FLOAT
          shape {
            dim {
              size: 10
            }
          }
          allocation_description {
            requested_bytes: 40
            allocated_bytes: 256
            allocator_name: "gpu_bfc"
            allocation_id: 48
            has_single_reference: true
            ptr: 1108290512128
          }
        }
      }
      timeline_label: "Adam/update_Variable_5/ApplyAdam = ApplyAdam(Variable_5, Variable_5/Adam, Variable_5/Adam_1, beta1_power/read, beta2_power/read, Adam/learning_rate, Adam/beta1, Adam/beta2, Adam/epsilon, gradients/add_grad/tuple/control_dependency_1)"
      scheduled_micros: 1488970779072813
    }
    node_stats {
      node_name: "gradients/MatMul_2_grad/tuple/group_deps"
      all_start_micros: 1488970779072889
      op_start_rel_micros: 1
      op_end_rel_micros: 2
      all_end_rel_micros: 2
      memory {
        allocator_name: "gpu_bfc"
      }
      timeline_label: "gradients/MatMul_2_grad/tuple/group_deps = NoOp(^gradients/MatMul_2_grad/MatMul, ^gradients/MatMul_2_grad/MatMul_1)"
      scheduled_micros: 1488970779072887
    }
    node_stats {
      node_name: "gradients/MatMul_2_grad/tuple/control_dependency"
      all_start_micros: 1488970779072893
      op_end_rel_micros: 1
      all_end_rel_micros: 2
      memory {
        allocator_name: "gpu_bfc"
      }
      output {
        tensor_description {
          dtype: DT_FLOAT
          shape {
            dim {
              size: 100
            }
            dim {
              size: 220
            }
          }
          allocation_description {
            requested_bytes: 88000
            allocated_bytes: 88064
            allocator_name: "gpu_bfc"
            allocation_id: 83
            ptr: 1108291028736
          }
        }
      }
      timeline_label: "gradients/MatMul_2_grad/tuple/control_dependency = Identity(gradients/MatMul_2_grad/MatMul, ^gradients/MatMul_2_grad/tuple/group_deps)"
      scheduled_micros: 1488970779072891
    }
    node_stats {
      node_name: "gradients/MatMul_2_grad/tuple/control_dependency_1"
      all_start_micros: 1488970779072897
      op_end_rel_micros: 1
      all_end_rel_micros: 2
      memory {
        allocator_name: "gpu_bfc"
      }
      output {
        tensor_description {
          dtype: DT_FLOAT
          shape {
            dim {
              size: 220
            }
            dim {
              size: 10
            }
          }
          allocation_description {
            requested_bytes: 8800
            allocated_bytes: 8960
            allocator_name: "gpu_bfc"
            allocation_id: 84
            ptr: 1108291116800
          }
        }
      }
      timeline_label: "gradients/MatMul_2_grad/tuple/control_dependency_1 = Identity(gradients/MatMul_2_grad/MatMul_1, ^gradients/MatMul_2_grad/tuple/group_deps)"
      scheduled_micros: 1488970779072895
    }
    node_stats {
      node_name: "gradients/Relu_1_grad/ReluGrad"
      all_start_micros: 1488970779072900
      op_end_rel_micros: 13
      all_end_rel_micros: 15
      memory {
        allocator_name: "gpu_bfc"
        total_bytes: 88064
        peak_bytes: 88064
      }
      output {
        tensor_description {
          dtype: DT_FLOAT
          shape {
            dim {
              size: 100
            }
            dim {
              size: 220
            }
          }
          allocation_description {
            requested_bytes: 88000
            allocated_bytes: 88064
            allocator_name: "gpu_bfc"
            allocation_id: 85
            has_single_reference: true
            ptr: 1108291125760
          }
        }
      }
      timeline_label: "gradients/Relu_1_grad/ReluGrad = ReluGrad(gradients/MatMul_2_grad/tuple/control_dependency, Relu_1)"
      scheduled_micros: 1488970779072899
    }
    node_stats {
      node_name: "Adam/update_Variable_2/ApplyAdam"
      all_start_micros: 1488970779072917
      op_start_rel_micros: 1
      op_end_rel_micros: 25
      all_end_rel_micros: 28
      memory {
        allocator_name: "gpu_bfc"
      }
      output {
        tensor_description {
          dtype: DT_FLOAT
          shape {
            dim {
              size: 220
            }
            dim {
              size: 10
            }
          }
          allocation_description {
            requested_bytes: 8800
            allocated_bytes: 8960
            allocator_name: "gpu_bfc"
            allocation_id: 45
            has_single_reference: true
            ptr: 1108295600384
          }
        }
      }
      timeline_label: "Adam/update_Variable_2/ApplyAdam = ApplyAdam(Variable_2, Variable_2/Adam, Variable_2/Adam_1, beta1_power/read, beta2_power/read, Adam/learning_rate, Adam/beta1, Adam/beta2, Adam/epsilon, gradients/MatMul_2_grad/tuple/control_dependency_1)"
      scheduled_micros: 1488970779072915
    }
    node_stats {
      node_name: "gradients/Add_1_grad/Sum"
      all_start_micros: 1488970779072947
      op_start_rel_micros: 1
      op_end_rel_micros: 3
      all_end_rel_micros: 5
      memory {
        allocator_name: "gpu_bfc"
        total_bytes: 256
        peak_bytes: 256
      }
      output {
        tensor_description {
          dtype: DT_FLOAT
          shape {
            dim {
              size: 100
            }
            dim {
              size: 220
            }
          }
          allocation_description {
            requested_bytes: 88000
            allocated_bytes: 88064
            allocator_name: "gpu_bfc"
            allocation_id: 85
            ptr: 1108291125760
          }
        }
      }
      timeline_label: "gradients/Add_1_grad/Sum = Sum(gradients/Relu_1_grad/ReluGrad, gradients/Add_1_grad/BroadcastGradientArgs)"
      scheduled_micros: 1488970779072945
    }
    node_stats {
      node_name: "gradients/Add_1_grad/Sum_1"
      all_start_micros: 1488970779072953
      op_end_rel_micros: 19
      all_end_rel_micros: 21
      memory {
        allocator_name: "gpu_bfc"
        total_bytes: 1280
        peak_bytes: 1280
      }
      output {
        tensor_description {
          dtype: DT_FLOAT
          shape {
            dim {
              size: 220
            }
          }
          allocation_description {
            requested_bytes: 880
            allocated_bytes: 1024
            allocator_name: "gpu_bfc"
            allocation_id: 88
            has_single_reference: true
            ptr: 1108290513920
          }
        }
      }
      timeline_label: "gradients/Add_1_grad/Sum_1 = Sum(gradients/Relu_1_grad/ReluGrad, gradients/Add_1_grad/BroadcastGradientArgs:1)"
      scheduled_micros: 1488970779072952
    }
    node_stats {
      node_name: "gradients/Add_1_grad/Reshape"
      all_start_micros: 1488970779072976
      op_end_rel_micros: 1
      all_end_rel_micros: 2
      memory {
        allocator_name: "gpu_bfc"
      }
      output {
        tensor_description {
          dtype: DT_FLOAT
          shape {
            dim {
              size: 100
            }
            dim {
              size: 220
            }
          }
          allocation_description {
            requested_bytes: 88000
            allocated_bytes: 88064
            allocator_name: "gpu_bfc"
            allocation_id: 85
            ptr: 1108291125760
          }
        }
      }
      timeline_label: "gradients/Add_1_grad/Reshape = Reshape(gradients/Add_1_grad/Sum, gradients/Add_1_grad/Shape)"
      scheduled_micros: 1488970779072974
    }
    node_stats {
      node_name: "gradients/Add_1_grad/Reshape_1"
      all_start_micros: 1488970779072981
      op_end_rel_micros: 1
      all_end_rel_micros: 2
      memory {
        allocator_name: "gpu_bfc"
      }
      output {
        tensor_description {
          dtype: DT_FLOAT
          shape {
            dim {
              size: 220
            }
          }
          allocation_description {
            requested_bytes: 880
            allocated_bytes: 1024
            allocator_name: "gpu_bfc"
            allocation_id: 88
            ptr: 1108290513920
          }
        }
      }
      timeline_label: "gradients/Add_1_grad/Reshape_1 = Reshape(gradients/Add_1_grad/Sum_1, gradients/Add_1_grad/Shape_1)"
      scheduled_micros: 1488970779072978
    }
    node_stats {
      node_name: "gradients/Add_1_grad/tuple/group_deps"
      all_start_micros: 1488970779072984
      all_end_rel_micros: 1
      memory {
        allocator_name: "gpu_bfc"
      }
      timeline_label: "gradients/Add_1_grad/tuple/group_deps = NoOp(^gradients/Add_1_grad/Reshape, ^gradients/Add_1_grad/Reshape_1)"
      scheduled_micros: 1488970779072983
    }
    node_stats {
      node_name: "gradients/Add_1_grad/tuple/control_dependency"
      all_start_micros: 1488970779072986
      op_end_rel_micros: 1
      all_end_rel_micros: 1
      memory {
        allocator_name: "gpu_bfc"
      }
      output {
        tensor_description {
          dtype: DT_FLOAT
          shape {
            dim {
              size: 100
            }
            dim {
              size: 220
            }
          }
          allocation_description {
            requested_bytes: 88000
            allocated_bytes: 88064
            allocator_name: "gpu_bfc"
            allocation_id: 85
            ptr: 1108291125760
          }
        }
      }
      timeline_label: "gradients/Add_1_grad/tuple/control_dependency = Identity(gradients/Add_1_grad/Reshape, ^gradients/Add_1_grad/tuple/group_deps)"
      scheduled_micros: 1488970779072985
    }
    node_stats {
      node_name: "gradients/Add_1_grad/tuple/control_dependency_1"
      all_start_micros: 1488970779072988
      op_end_rel_micros: 1
      all_end_rel_micros: 2
      memory {
        allocator_name: "gpu_bfc"
      }
      output {
        tensor_description {
          dtype: DT_FLOAT
          shape {
            dim {
              size: 220
            }
          }
          allocation_description {
            requested_bytes: 880
            allocated_bytes: 1024
            allocator_name: "gpu_bfc"
            allocation_id: 88
            ptr: 1108290513920
          }
        }
      }
      timeline_label: "gradients/Add_1_grad/tuple/control_dependency_1 = Identity(gradients/Add_1_grad/Reshape_1, ^gradients/Add_1_grad/tuple/group_deps)"
      scheduled_micros: 1488970779072987
    }
    node_stats {
      node_name: "gradients/MatMul_1_grad/MatMul"
      all_start_micros: 1488970779072991
      op_end_rel_micros: 17
      all_end_rel_micros: 19
      memory {
        allocator_name: "gpu_bfc"
        total_bytes: 96512
        peak_bytes: 96512
      }
      output {
        tensor_description {
          dtype: DT_FLOAT
          shape {
            dim {
              size: 100
            }
            dim {
              size: 220
            }
          }
          allocation_description {
            requested_bytes: 88000
            allocated_bytes: 96512
            allocator_name: "gpu_bfc"
            allocation_id: 89
            has_single_reference: true
            ptr: 1108295697664
          }
        }
      }
      timeline_label: "gradients/MatMul_1_grad/MatMul = MatMul(gradients/Add_1_grad/tuple/control_dependency, Variable_1/read)"
      scheduled_micros: 1488970779072990
    }
    node_stats {
      node_name: "gradients/MatMul_1_grad/MatMul_1"
      all_start_micros: 1488970779073011
      op_start_rel_micros: 1
      op_end_rel_micros: 16
      all_end_rel_micros: 18
      memory {
        allocator_name: "gpu_bfc"
        total_bytes: 193792
        peak_bytes: 193792
      }
      output {
        tensor_description {
          dtype: DT_FLOAT
          shape {
            dim {
              size: 220
            }
            dim {
              size: 220
            }
          }
          allocation_description {
            requested_bytes: 193600
            allocated_bytes: 193792
            allocator_name: "gpu_bfc"
            allocation_id: 90
            has_single_reference: true
            ptr: 1108296484096
          }
        }
      }
      timeline_label: "[gpu_bfc 0.2MB 0.2MB] gradients/MatMul_1_grad/MatMul_1 = MatMul(Relu, gradients/Add_1_grad/tuple/control_dependency)"
      scheduled_micros: 1488970779073010
    }
    node_stats {
      node_name: "Adam/update_Variable_4/ApplyAdam"
      all_start_micros: 1488970779073037
      op_start_rel_micros: 1
      op_end_rel_micros: 24
      all_end_rel_micros: 26
      memory {
        allocator_name: "gpu_bfc"
      }
      output {
        tensor_description {
          dtype: DT_FLOAT
          shape {
            dim {
              size: 220
            }
          }
          allocation_description {
            requested_bytes: 880
            allocated_bytes: 1024
            allocator_name: "gpu_bfc"
            allocation_id: 47
            has_single_reference: true
            ptr: 1108290511104
          }
        }
      }
      timeline_label: "Adam/update_Variable_4/ApplyAdam = ApplyAdam(Variable_4, Variable_4/Adam, Variable_4/Adam_1, beta1_power/read, beta2_power/read, Adam/learning_rate, Adam/beta1, Adam/beta2, Adam/epsilon, gradients/Add_1_grad/tuple/control_dependency_1)"
      scheduled_micros: 1488970779073029
    }
    node_stats {
      node_name: "gradients/MatMul_1_grad/tuple/group_deps"
      all_start_micros: 1488970779073066
      op_start_rel_micros: 1
      op_end_rel_micros: 2
      all_end_rel_micros: 2
      memory {
        allocator_name: "gpu_bfc"
      }
      timeline_label: "gradients/MatMul_1_grad/tuple/group_deps = NoOp(^gradients/MatMul_1_grad/MatMul, ^gradients/MatMul_1_grad/MatMul_1)"
      scheduled_micros: 1488970779073063
    }
    node_stats {
      node_name: "gradients/MatMul_1_grad/tuple/control_dependency"
      all_start_micros: 1488970779073069
      op_start_rel_micros: 1
      op_end_rel_micros: 2
      all_end_rel_micros: 3
      memory {
        allocator_name: "gpu_bfc"
      }
      output {
        tensor_description {
          dtype: DT_FLOAT
          shape {
            dim {
              size: 100
            }
            dim {
              size: 220
            }
          }
          allocation_description {
            requested_bytes: 88000
            allocated_bytes: 96512
            allocator_name: "gpu_bfc"
            allocation_id: 89
            ptr: 1108295697664
          }
        }
      }
      timeline_label: "gradients/MatMul_1_grad/tuple/control_dependency = Identity(gradients/MatMul_1_grad/MatMul, ^gradients/MatMul_1_grad/tuple/group_deps)"
      scheduled_micros: 1488970779073068
    }
    node_stats {
      node_name: "gradients/MatMul_1_grad/tuple/control_dependency_1"
      all_start_micros: 1488970779073073
      op_end_rel_micros: 1
      all_end_rel_micros: 2
      memory {
        allocator_name: "gpu_bfc"
      }
      output {
        tensor_description {
          dtype: DT_FLOAT
          shape {
            dim {
              size: 220
            }
            dim {
              size: 220
            }
          }
          allocation_description {
            requested_bytes: 193600
            allocated_bytes: 193792
            allocator_name: "gpu_bfc"
            allocation_id: 90
            ptr: 1108296484096
          }
        }
      }
      timeline_label: "gradients/MatMul_1_grad/tuple/control_dependency_1 = Identity(gradients/MatMul_1_grad/MatMul_1, ^gradients/MatMul_1_grad/tuple/group_deps)"
      scheduled_micros: 1488970779073071
    }
    node_stats {
      node_name: "gradients/Relu_grad/ReluGrad"
      all_start_micros: 1488970779073075
      op_start_rel_micros: 1
      op_end_rel_micros: 11
      all_end_rel_micros: 13
      memory {
        allocator_name: "gpu_bfc"
        total_bytes: 88064
        peak_bytes: 88064
      }
      output {
        tensor_description {
          dtype: DT_FLOAT
          shape {
            dim {
              size: 100
            }
            dim {
              size: 220
            }
          }
          allocation_description {
            requested_bytes: 88000
            allocated_bytes: 88064
            allocator_name: "gpu_bfc"
            allocation_id: 91
            has_single_reference: true
            ptr: 1108291028736
          }
        }
      }
      timeline_label: "gradients/Relu_grad/ReluGrad = ReluGrad(gradients/MatMul_1_grad/tuple/control_dependency, Relu)"
      scheduled_micros: 1488970779073074
    }
    node_stats {
      node_name: "Adam/update_Variable_1/ApplyAdam"
      all_start_micros: 1488970779073090
      op_end_rel_micros: 23
      all_end_rel_micros: 25
      memory {
        allocator_name: "gpu_bfc"
      }
      output {
        tensor_description {
          dtype: DT_FLOAT
          shape {
            dim {
              size: 220
            }
            dim {
              size: 220
            }
          }
          allocation_description {
            requested_bytes: 193600
            allocated_bytes: 193792
            allocator_name: "gpu_bfc"
            allocation_id: 44
            has_single_reference: true
            ptr: 1108290521344
          }
        }
      }
      timeline_label: "Adam/update_Variable_1/ApplyAdam = ApplyAdam(Variable_1, Variable_1/Adam, Variable_1/Adam_1, beta1_power/read, beta2_power/read, Adam/learning_rate, Adam/beta1, Adam/beta2, Adam/epsilon, gradients/MatMul_1_grad/tuple/control_dependency_1)"
      scheduled_micros: 1488970779073088
    }
    node_stats {
      node_name: "gradients/Add_grad/Sum"
      all_start_micros: 1488970779073117
      op_end_rel_micros: 3
      all_end_rel_micros: 4
      memory {
        allocator_name: "gpu_bfc"
        total_bytes: 256
        peak_bytes: 256
      }
      output {
        tensor_description {
          dtype: DT_FLOAT
          shape {
            dim {
              size: 100
            }
            dim {
              size: 220
            }
          }
          allocation_description {
            requested_bytes: 88000
            allocated_bytes: 88064
            allocator_name: "gpu_bfc"
            allocation_id: 91
            ptr: 1108291028736
          }
        }
      }
      timeline_label: "gradients/Add_grad/Sum = Sum(gradients/Relu_grad/ReluGrad, gradients/Add_grad/BroadcastGradientArgs)"
      scheduled_micros: 1488970779073115
    }
    node_stats {
      node_name: "gradients/Add_grad/Sum_1"
      all_start_micros: 1488970779073122
      op_end_rel_micros: 16
      all_end_rel_micros: 18
      memory {
        allocator_name: "gpu_bfc"
        total_bytes: 1280
        peak_bytes: 1280
      }
      output {
        tensor_description {
          dtype: DT_FLOAT
          shape {
            dim {
              size: 220
            }
          }
          allocation_description {
            requested_bytes: 880
            allocated_bytes: 1024
            allocator_name: "gpu_bfc"
            allocation_id: 94
            has_single_reference: true
            ptr: 1108290513920
          }
        }
      }
      timeline_label: "gradients/Add_grad/Sum_1 = Sum(gradients/Relu_grad/ReluGrad, gradients/Add_grad/BroadcastGradientArgs:1)"
      scheduled_micros: 1488970779073121
    }
    node_stats {
      node_name: "gradients/Add_grad/Reshape"
      all_start_micros: 1488970779073141
      op_start_rel_micros: 1
      op_end_rel_micros: 2
      all_end_rel_micros: 3
      memory {
        allocator_name: "gpu_bfc"
      }
      output {
        tensor_description {
          dtype: DT_FLOAT
          shape {
            dim {
              size: 100
            }
            dim {
              size: 220
            }
          }
          allocation_description {
            requested_bytes: 88000
            allocated_bytes: 88064
            allocator_name: "gpu_bfc"
            allocation_id: 91
            ptr: 1108291028736
          }
        }
      }
      timeline_label: "gradients/Add_grad/Reshape = Reshape(gradients/Add_grad/Sum, gradients/Add_grad/Shape)"
      scheduled_micros: 1488970779073140
    }
    node_stats {
      node_name: "gradients/Add_grad/Reshape_1"
      all_start_micros: 1488970779073146
      op_end_rel_micros: 1
      all_end_rel_micros: 2
      memory {
        allocator_name: "gpu_bfc"
      }
      output {
        tensor_description {
          dtype: DT_FLOAT
          shape {
            dim {
              size: 220
            }
          }
          allocation_description {
            requested_bytes: 880
            allocated_bytes: 1024
            allocator_name: "gpu_bfc"
            allocation_id: 94
            ptr: 1108290513920
          }
        }
      }
      timeline_label: "gradients/Add_grad/Reshape_1 = Reshape(gradients/Add_grad/Sum_1, gradients/Add_grad/Shape_1)"
      scheduled_micros: 1488970779073144
    }
    node_stats {
      node_name: "gradients/Add_grad/tuple/group_deps"
      all_start_micros: 1488970779073149
      op_end_rel_micros: 1
      all_end_rel_micros: 1
      memory {
        allocator_name: "gpu_bfc"
      }
      timeline_label: "gradients/Add_grad/tuple/group_deps = NoOp(^gradients/Add_grad/Reshape, ^gradients/Add_grad/Reshape_1)"
      scheduled_micros: 1488970779073148
    }
    node_stats {
      node_name: "gradients/Add_grad/tuple/control_dependency"
      all_start_micros: 1488970779073151
      op_end_rel_micros: 1
      all_end_rel_micros: 2
      memory {
        allocator_name: "gpu_bfc"
      }
      output {
        tensor_description {
          dtype: DT_FLOAT
          shape {
            dim {
              size: 100
            }
            dim {
              size: 220
            }
          }
          allocation_description {
            requested_bytes: 88000
            allocated_bytes: 88064
            allocator_name: "gpu_bfc"
            allocation_id: 91
            ptr: 1108291028736
          }
        }
      }
      timeline_label: "gradients/Add_grad/tuple/control_dependency = Identity(gradients/Add_grad/Reshape, ^gradients/Add_grad/tuple/group_deps)"
      scheduled_micros: 1488970779073150
    }
    node_stats {
      node_name: "gradients/Add_grad/tuple/control_dependency_1"
      all_start_micros: 1488970779073154
      op_end_rel_micros: 1
      all_end_rel_micros: 2
      memory {
        allocator_name: "gpu_bfc"
      }
      output {
        tensor_description {
          dtype: DT_FLOAT
          shape {
            dim {
              size: 220
            }
          }
          allocation_description {
            requested_bytes: 880
            allocated_bytes: 1024
            allocator_name: "gpu_bfc"
            allocation_id: 94
            ptr: 1108290513920
          }
        }
      }
      timeline_label: "gradients/Add_grad/tuple/control_dependency_1 = Identity(gradients/Add_grad/Reshape_1, ^gradients/Add_grad/tuple/group_deps)"
      scheduled_micros: 1488970779073153
    }
    node_stats {
      node_name: "gradients/MatMul_grad/MatMul"
      all_start_micros: 1488970779073157
      op_end_rel_micros: 14
      all_end_rel_micros: 17
      memory {
        allocator_name: "gpu_bfc"
        total_bytes: 313600
        peak_bytes: 313600
      }
      output {
        tensor_description {
          dtype: DT_FLOAT
          shape {
            dim {
              size: 100
            }
            dim {
              size: 784
            }
          }
          allocation_description {
            requested_bytes: 313600
            allocated_bytes: 313600
            allocator_name: "gpu_bfc"
            allocation_id: 95
            has_single_reference: true
            ptr: 1108296484096
          }
        }
      }
      timeline_label: "[gpu_bfc 0.3MB 0.3MB] gradients/MatMul_grad/MatMul = MatMul(gradients/Add_grad/tuple/control_dependency, Variable/read)"
      scheduled_micros: 1488970779073156
    }
    node_stats {
      node_name: "gradients/MatMul_grad/MatMul_1"
      all_start_micros: 1488970779073178
      op_end_rel_micros: 14
      all_end_rel_micros: 17
      memory {
        allocator_name: "gpu_bfc"
        total_bytes: 689920
        peak_bytes: 689920
      }
      output {
        tensor_description {
          dtype: DT_FLOAT
          shape {
            dim {
              size: 784
            }
            dim {
              size: 220
            }
          }
          allocation_description {
            requested_bytes: 689920
            allocated_bytes: 689920
            allocator_name: "gpu_bfc"
            allocation_id: 96
            has_single_reference: true
            ptr: 1108296484096
          }
        }
      }
      timeline_label: "[gpu_bfc 0.7MB 0.7MB] gradients/MatMul_grad/MatMul_1 = MatMul(_recv_Placeholder_0/_7, gradients/Add_grad/tuple/control_dependency)"
      scheduled_micros: 1488970779073174
    }
    node_stats {
      node_name: "Adam/update_Variable_3/ApplyAdam"
      all_start_micros: 1488970779073198
      op_end_rel_micros: 35
      all_end_rel_micros: 37
      memory {
        allocator_name: "gpu_bfc"
      }
      output {
        tensor_description {
          dtype: DT_FLOAT
          shape {
            dim {
              size: 220
            }
          }
          allocation_description {
            requested_bytes: 880
            allocated_bytes: 1024
            allocator_name: "gpu_bfc"
            allocation_id: 46
            has_single_reference: true
            ptr: 1108290510080
          }
        }
      }
      timeline_label: "Adam/update_Variable_3/ApplyAdam = ApplyAdam(Variable_3, Variable_3/Adam, Variable_3/Adam_1, beta1_power/read, beta2_power/read, Adam/learning_rate, Adam/beta1, Adam/beta2, Adam/epsilon, gradients/Add_grad/tuple/control_dependency_1)"
      scheduled_micros: 1488970779073195
    }
    node_stats {
      node_name: "gradients/MatMul_grad/tuple/group_deps"
      all_start_micros: 1488970779073239
      op_end_rel_micros: 1
      all_end_rel_micros: 1
      memory {
        allocator_name: "gpu_bfc"
      }
      timeline_label: "gradients/MatMul_grad/tuple/group_deps = NoOp(^gradients/MatMul_grad/MatMul, ^gradients/MatMul_grad/MatMul_1)"
      scheduled_micros: 1488970779073235
    }
    node_stats {
      node_name: "gradients/MatMul_grad/tuple/control_dependency_1"
      all_start_micros: 1488970779073242
      op_end_rel_micros: 1
      all_end_rel_micros: 2
      memory {
        allocator_name: "gpu_bfc"
      }
      output {
        tensor_description {
          dtype: DT_FLOAT
          shape {
            dim {
              size: 784
            }
            dim {
              size: 220
            }
          }
          allocation_description {
            requested_bytes: 689920
            allocated_bytes: 689920
            allocator_name: "gpu_bfc"
            allocation_id: 96
            ptr: 1108296484096
          }
        }
      }
      timeline_label: "gradients/MatMul_grad/tuple/control_dependency_1 = Identity(gradients/MatMul_grad/MatMul_1, ^gradients/MatMul_grad/tuple/group_deps)"
      scheduled_micros: 1488970779073240
    }
    node_stats {
      node_name: "Adam/update_Variable/ApplyAdam"
      all_start_micros: 1488970779073245
      op_end_rel_micros: 35
      all_end_rel_micros: 37
      memory {
        allocator_name: "gpu_bfc"
      }
      output {
        tensor_description {
          dtype: DT_FLOAT
          shape {
            dim {
              size: 784
            }
            dim {
              size: 220
            }
          }
          allocation_description {
            requested_bytes: 689920
            allocated_bytes: 689920
            allocator_name: "gpu_bfc"
            allocation_id: 43
            has_single_reference: true
            ptr: 1108295794176
          }
        }
      }
      timeline_label: "Adam/update_Variable/ApplyAdam = ApplyAdam(Variable, Variable/Adam, Variable/Adam_1, beta1_power/read, beta2_power/read, Adam/learning_rate, Adam/beta1, Adam/beta2, Adam/epsilon, gradients/MatMul_grad/tuple/control_dependency_1)"
      scheduled_micros: 1488970779073244
    }
    node_stats {
      node_name: "Adam/mul"
      all_start_micros: 1488970779073285
      op_end_rel_micros: 12
      all_end_rel_micros: 14
      memory {
        allocator_name: "gpu_bfc"
        total_bytes: 256
        peak_bytes: 256
      }
      output {
        tensor_description {
          dtype: DT_FLOAT
          shape {
          }
          allocation_description {
            requested_bytes: 4
            allocated_bytes: 256
            allocator_name: "gpu_bfc"
            allocation_id: 97
            has_single_reference: true
            ptr: 1108290513664
          }
        }
      }
      timeline_label: "Adam/mul = Mul(beta1_power/read, Adam/beta1, ^Adam/update_Variable/ApplyAdam, ^Adam/update_Variable_1/ApplyAdam, ^Adam/update_Variable_2/ApplyAdam, ^Adam/update_Variable_3/ApplyAdam, ^Adam/update_Variable_4/ApplyAdam, ^Adam/update_Variable_5/ApplyAdam)"
      scheduled_micros: 1488970779073282
    }
    node_stats {
      node_name: "Adam/mul_1"
      all_start_micros: 1488970779073302
      op_end_rel_micros: 10
      all_end_rel_micros: 11
      memory {
        allocator_name: "gpu_bfc"
        total_bytes: 256
        peak_bytes: 256
      }
      output {
        tensor_description {
          dtype: DT_FLOAT
          shape {
          }
          allocation_description {
            requested_bytes: 4
            allocated_bytes: 256
            allocator_name: "gpu_bfc"
            allocation_id: 98
            has_single_reference: true
            ptr: 1108290513920
          }
        }
      }
      timeline_label: "Adam/mul_1 = Mul(beta2_power/read, Adam/beta2, ^Adam/update_Variable/ApplyAdam, ^Adam/update_Variable_1/ApplyAdam, ^Adam/update_Variable_2/ApplyAdam, ^Adam/update_Variable_3/ApplyAdam, ^Adam/update_Variable_4/ApplyAdam, ^Adam/update_Variable_5/ApplyAdam)"
      scheduled_micros: 1488970779073299
    }
    node_stats {
      node_name: "Adam/Assign"
      all_start_micros: 1488970779073315
      op_end_rel_micros: 16
      all_end_rel_micros: 18
      memory {
        allocator_name: "gpu_bfc"
      }
      output {
        tensor_description {
          dtype: DT_FLOAT
          shape {
          }
          allocation_description {
            requested_bytes: 4
            allocated_bytes: 256
            allocator_name: "gpu_bfc"
            allocation_id: 17
            has_single_reference: true
            ptr: 1108291405056
          }
        }
      }
      timeline_label: "Adam/Assign = Assign(beta1_power, Adam/mul)"
      scheduled_micros: 1488970779073313
    }
    node_stats {
      node_name: "Adam/Assign_1"
      all_start_micros: 1488970779073337
      op_end_rel_micros: 10
      all_end_rel_micros: 12
      memory {
        allocator_name: "gpu_bfc"
      }
      output {
        tensor_description {
          dtype: DT_FLOAT
          shape {
          }
          allocation_description {
            requested_bytes: 4
            allocated_bytes: 256
            allocator_name: "gpu_bfc"
            allocation_id: 18
            has_single_reference: true
            ptr: 1108291405312
          }
        }
      }
      timeline_label: "Adam/Assign_1 = Assign(beta2_power, Adam/mul_1)"
      scheduled_micros: 1488970779073333
    }
    node_stats {
      node_name: "Adam"
      all_start_micros: 1488970779073351
      op_end_rel_micros: 1
      all_end_rel_micros: 3
      memory {
        allocator_name: "gpu_bfc"
      }
      timeline_label: "Adam = NoOp(^Adam/update_Variable/ApplyAdam, ^Adam/update_Variable_1/ApplyAdam, ^Adam/update_Variable_2/ApplyAdam, ^Adam/update_Variable_3/ApplyAdam, ^Adam/update_Variable_4/ApplyAdam, ^Adam/update_Variable_5/ApplyAdam, ^Adam/Assign, ^Adam/Assign_1)"
      scheduled_micros: 1488970779073349
    }
  }
}
partition_graphs {
  node {
    name: "_recv_Placeholder_0/_7"
    op: "_Recv"
    device: "/job:localhost/replica:0/task:0/gpu:0"
    attr {
      key: "client_terminated"
      value {
        b: false
      }
    }
    attr {
      key: "recv_device"
      value {
        s: "/job:localhost/replica:0/task:0/gpu:0"
      }
    }
    attr {
      key: "send_device"
      value {
        s: "/job:localhost/replica:0/task:0/cpu:0"
      }
    }
    attr {
      key: "send_device_incarnation"
      value {
        i: 1
      }
    }
    attr {
      key: "tensor_name"
      value {
        s: "edge_315__recv_Placeholder_0"
      }
    }
    attr {
      key: "tensor_type"
      value {
        type: DT_FLOAT
      }
    }
  }
  node {
    name: "_recv_Placeholder_1_0/_5"
    op: "_Recv"
    device: "/job:localhost/replica:0/task:0/gpu:0"
    attr {
      key: "client_terminated"
      value {
        b: false
      }
    }
    attr {
      key: "recv_device"
      value {
        s: "/job:localhost/replica:0/task:0/gpu:0"
      }
    }
    attr {
      key: "send_device"
      value {
        s: "/job:localhost/replica:0/task:0/cpu:0"
      }
    }
    attr {
      key: "send_device_incarnation"
      value {
        i: 1
      }
    }
    attr {
      key: "tensor_name"
      value {
        s: "edge_316__recv_Placeholder_1_0"
      }
    }
    attr {
      key: "tensor_type"
      value {
        type: DT_FLOAT
      }
    }
  }
  node {
    name: "Shape_2"
    op: "Shape"
    input: "_recv_Placeholder_1_0/_5"
    device: "/job:localhost/replica:0/task:0/gpu:0"
    attr {
      key: "T"
      value {
        type: DT_FLOAT
      }
    }
    attr {
      key: "out_type"
      value {
        type: DT_INT32
      }
    }
  }
  node {
    name: "Variable"
    op: "VariableV2"
    device: "/job:localhost/replica:0/task:0/gpu:0"
    attr {
      key: "container"
      value {
        s: ""
      }
    }
    attr {
      key: "dtype"
      value {
        type: DT_FLOAT
      }
    }
    attr {
      key: "shape"
      value {
        shape {
          dim {
            size: 784
          }
          dim {
            size: 220
          }
        }
      }
    }
    attr {
      key: "shared_name"
      value {
        s: ""
      }
    }
  }
  node {
    name: "Variable/read"
    op: "Identity"
    input: "Variable"
    device: "/job:localhost/replica:0/task:0/gpu:0"
    attr {
      key: "T"
      value {
        type: DT_FLOAT
      }
    }
    attr {
      key: "_class"
      value {
        list {
          s: "loc:@Variable"
        }
      }
    }
  }
  node {
    name: "MatMul"
    op: "MatMul"
    input: "_recv_Placeholder_0/_7"
    input: "Variable/read"
    device: "/job:localhost/replica:0/task:0/gpu:0"
    attr {
      key: "T"
      value {
        type: DT_FLOAT
      }
    }
    attr {
      key: "transpose_a"
      value {
        b: false
      }
    }
    attr {
      key: "transpose_b"
      value {
        b: false
      }
    }
  }
  node {
    name: "gradients/Add_grad/Shape"
    op: "Shape"
    input: "MatMul"
    device: "/job:localhost/replica:0/task:0/gpu:0"
    attr {
      key: "T"
      value {
        type: DT_FLOAT
      }
    }
    attr {
      key: "out_type"
      value {
        type: DT_INT32
      }
    }
  }
  node {
    name: "Variable_1"
    op: "VariableV2"
    device: "/job:localhost/replica:0/task:0/gpu:0"
    attr {
      key: "container"
      value {
        s: ""
      }
    }
    attr {
      key: "dtype"
      value {
        type: DT_FLOAT
      }
    }
    attr {
      key: "shape"
      value {
        shape {
          dim {
            size: 220
          }
          dim {
            size: 220
          }
        }
      }
    }
    attr {
      key: "shared_name"
      value {
        s: ""
      }
    }
  }
  node {
    name: "Variable_1/read"
    op: "Identity"
    input: "Variable_1"
    device: "/job:localhost/replica:0/task:0/gpu:0"
    attr {
      key: "T"
      value {
        type: DT_FLOAT
      }
    }
    attr {
      key: "_class"
      value {
        list {
          s: "loc:@Variable_1"
        }
      }
    }
  }
  node {
    name: "Variable_2"
    op: "VariableV2"
    device: "/job:localhost/replica:0/task:0/gpu:0"
    attr {
      key: "container"
      value {
        s: ""
      }
    }
    attr {
      key: "dtype"
      value {
        type: DT_FLOAT
      }
    }
    attr {
      key: "shape"
      value {
        shape {
          dim {
            size: 220
          }
          dim {
            size: 10
          }
        }
      }
    }
    attr {
      key: "shared_name"
      value {
        s: ""
      }
    }
  }
  node {
    name: "Variable_2/read"
    op: "Identity"
    input: "Variable_2"
    device: "/job:localhost/replica:0/task:0/gpu:0"
    attr {
      key: "T"
      value {
        type: DT_FLOAT
      }
    }
    attr {
      key: "_class"
      value {
        list {
          s: "loc:@Variable_2"
        }
      }
    }
  }
  node {
    name: "Variable_3"
    op: "VariableV2"
    device: "/job:localhost/replica:0/task:0/gpu:0"
    attr {
      key: "container"
      value {
        s: ""
      }
    }
    attr {
      key: "dtype"
      value {
        type: DT_FLOAT
      }
    }
    attr {
      key: "shape"
      value {
        shape {
          dim {
            size: 220
          }
        }
      }
    }
    attr {
      key: "shared_name"
      value {
        s: ""
      }
    }
  }
  node {
    name: "Variable_3/read"
    op: "Identity"
    input: "Variable_3"
    device: "/job:localhost/replica:0/task:0/gpu:0"
    attr {
      key: "T"
      value {
        type: DT_FLOAT
      }
    }
    attr {
      key: "_class"
      value {
        list {
          s: "loc:@Variable_3"
        }
      }
    }
  }
  node {
    name: "Add"
    op: "Add"
    input: "MatMul"
    input: "Variable_3/read"
    device: "/job:localhost/replica:0/task:0/gpu:0"
    attr {
      key: "T"
      value {
        type: DT_FLOAT
      }
    }
  }
  node {
    name: "Relu"
    op: "Relu"
    input: "Add"
    device: "/job:localhost/replica:0/task:0/gpu:0"
    attr {
      key: "T"
      value {
        type: DT_FLOAT
      }
    }
  }
  node {
    name: "MatMul_1"
    op: "MatMul"
    input: "Relu"
    input: "Variable_1/read"
    device: "/job:localhost/replica:0/task:0/gpu:0"
    attr {
      key: "T"
      value {
        type: DT_FLOAT
      }
    }
    attr {
      key: "transpose_a"
      value {
        b: false
      }
    }
    attr {
      key: "transpose_b"
      value {
        b: false
      }
    }
  }
  node {
    name: "gradients/Add_1_grad/Shape"
    op: "Shape"
    input: "MatMul_1"
    device: "/job:localhost/replica:0/task:0/gpu:0"
    attr {
      key: "T"
      value {
        type: DT_FLOAT
      }
    }
    attr {
      key: "out_type"
      value {
        type: DT_INT32
      }
    }
  }
  node {
    name: "Variable_4"
    op: "VariableV2"
    device: "/job:localhost/replica:0/task:0/gpu:0"
    attr {
      key: "container"
      value {
        s: ""
      }
    }
    attr {
      key: "dtype"
      value {
        type: DT_FLOAT
      }
    }
    attr {
      key: "shape"
      value {
        shape {
          dim {
            size: 220
          }
        }
      }
    }
    attr {
      key: "shared_name"
      value {
        s: ""
      }
    }
  }
  node {
    name: "Variable_4/read"
    op: "Identity"
    input: "Variable_4"
    device: "/job:localhost/replica:0/task:0/gpu:0"
    attr {
      key: "T"
      value {
        type: DT_FLOAT
      }
    }
    attr {
      key: "_class"
      value {
        list {
          s: "loc:@Variable_4"
        }
      }
    }
  }
  node {
    name: "Add_1"
    op: "Add"
    input: "MatMul_1"
    input: "Variable_4/read"
    device: "/job:localhost/replica:0/task:0/gpu:0"
    attr {
      key: "T"
      value {
        type: DT_FLOAT
      }
    }
  }
  node {
    name: "Relu_1"
    op: "Relu"
    input: "Add_1"
    device: "/job:localhost/replica:0/task:0/gpu:0"
    attr {
      key: "T"
      value {
        type: DT_FLOAT
      }
    }
  }
  node {
    name: "MatMul_2"
    op: "MatMul"
    input: "Relu_1"
    input: "Variable_2/read"
    device: "/job:localhost/replica:0/task:0/gpu:0"
    attr {
      key: "T"
      value {
        type: DT_FLOAT
      }
    }
    attr {
      key: "transpose_a"
      value {
        b: false
      }
    }
    attr {
      key: "transpose_b"
      value {
        b: false
      }
    }
  }
  node {
    name: "gradients/add_grad/Shape"
    op: "Shape"
    input: "MatMul_2"
    device: "/job:localhost/replica:0/task:0/gpu:0"
    attr {
      key: "T"
      value {
        type: DT_FLOAT
      }
    }
    attr {
      key: "out_type"
      value {
        type: DT_INT32
      }
    }
  }
  node {
    name: "Variable_5"
    op: "VariableV2"
    device: "/job:localhost/replica:0/task:0/gpu:0"
    attr {
      key: "container"
      value {
        s: ""
      }
    }
    attr {
      key: "dtype"
      value {
        type: DT_FLOAT
      }
    }
    attr {
      key: "shape"
      value {
        shape {
          dim {
            size: 10
          }
        }
      }
    }
    attr {
      key: "shared_name"
      value {
        s: ""
      }
    }
  }
  node {
    name: "Variable_5/read"
    op: "Identity"
    input: "Variable_5"
    device: "/job:localhost/replica:0/task:0/gpu:0"
    attr {
      key: "T"
      value {
        type: DT_FLOAT
      }
    }
    attr {
      key: "_class"
      value {
        list {
          s: "loc:@Variable_5"
        }
      }
    }
  }
  node {
    name: "add"
    op: "Add"
    input: "MatMul_2"
    input: "Variable_5/read"
    device: "/job:localhost/replica:0/task:0/gpu:0"
    attr {
      key: "T"
      value {
        type: DT_FLOAT
      }
    }
  }
  node {
    name: "Shape"
    op: "Shape"
    input: "add"
    device: "/job:localhost/replica:0/task:0/gpu:0"
    attr {
      key: "T"
      value {
        type: DT_FLOAT
      }
    }
    attr {
      key: "out_type"
      value {
        type: DT_INT32
      }
    }
  }
  node {
    name: "Slice"
    op: "Slice"
    input: "Shape"
    input: "Slice/begin/_1__cf__1"
    input: "Slice/begin/_1__cf__1"
    device: "/job:localhost/replica:0/task:0/gpu:0"
    attr {
      key: "Index"
      value {
        type: DT_INT32
      }
    }
    attr {
      key: "T"
      value {
        type: DT_INT32
      }
    }
  }
  node {
    name: "concat/values_0"
    op: "Const"
    device: "/job:localhost/replica:0/task:0/gpu:0"
    attr {
      key: "dtype"
      value {
        type: DT_INT32
      }
    }
    attr {
      key: "value"
      value {
        tensor {
          dtype: DT_INT32
          tensor_shape {
            dim {
              size: 1
            }
          }
          int_val: -1
        }
      }
    }
  }
  node {
    name: "concat/axis"
    op: "Const"
    device: "/job:localhost/replica:0/task:0/gpu:0"
    attr {
      key: "dtype"
      value {
        type: DT_INT32
      }
    }
    attr {
      key: "value"
      value {
        tensor {
          dtype: DT_INT32
          tensor_shape {
          }
          int_val: 0
        }
      }
    }
  }
  node {
    name: "concat"
    op: "ConcatV2"
    input: "concat/values_0"
    input: "Slice"
    input: "concat/axis"
    device: "/job:localhost/replica:0/task:0/gpu:0"
    attr {
      key: "N"
      value {
        i: 2
      }
    }
    attr {
      key: "T"
      value {
        type: DT_INT32
      }
    }
    attr {
      key: "Tidx"
      value {
        type: DT_INT32
      }
    }
  }
  node {
    name: "Reshape"
    op: "Reshape"
    input: "add"
    input: "concat"
    device: "/job:localhost/replica:0/task:0/gpu:0"
    attr {
      key: "T"
      value {
        type: DT_FLOAT
      }
    }
    attr {
      key: "Tshape"
      value {
        type: DT_INT32
      }
    }
  }
  node {
    name: "Slice_1"
    op: "Slice"
    input: "Shape_2"
    input: "Slice/begin/_1__cf__1"
    input: "Slice/begin/_1__cf__1"
    device: "/job:localhost/replica:0/task:0/gpu:0"
    attr {
      key: "Index"
      value {
        type: DT_INT32
      }
    }
    attr {
      key: "T"
      value {
        type: DT_INT32
      }
    }
  }
  node {
    name: "concat_1"
    op: "ConcatV2"
    input: "concat/values_0"
    input: "Slice_1"
    input: "concat/axis"
    device: "/job:localhost/replica:0/task:0/gpu:0"
    attr {
      key: "N"
      value {
        i: 2
      }
    }
    attr {
      key: "T"
      value {
        type: DT_INT32
      }
    }
    attr {
      key: "Tidx"
      value {
        type: DT_INT32
      }
    }
  }
  node {
    name: "Reshape_1"
    op: "Reshape"
    input: "_recv_Placeholder_1_0/_5"
    input: "concat_1"
    device: "/job:localhost/replica:0/task:0/gpu:0"
    attr {
      key: "T"
      value {
        type: DT_FLOAT
      }
    }
    attr {
      key: "Tshape"
      value {
        type: DT_INT32
      }
    }
  }
  node {
    name: "SoftmaxCrossEntropyWithLogits"
    op: "SoftmaxCrossEntropyWithLogits"
    input: "Reshape"
    input: "Reshape_1"
    device: "/job:localhost/replica:0/task:0/gpu:0"
    attr {
      key: "T"
      value {
        type: DT_FLOAT
      }
    }
  }
  node {
    name: "gradients/Reshape_2_grad/Shape"
    op: "Shape"
    input: "SoftmaxCrossEntropyWithLogits"
    device: "/job:localhost/replica:0/task:0/gpu:0"
    attr {
      key: "T"
      value {
        type: DT_FLOAT
      }
    }
    attr {
      key: "out_type"
      value {
        type: DT_INT32
      }
    }
  }
  node {
    name: "gradients/SoftmaxCrossEntropyWithLogits_grad/PreventGradient"
    op: "PreventGradient"
    input: "SoftmaxCrossEntropyWithLogits:1"
    device: "/job:localhost/replica:0/task:0/gpu:0"
    attr {
      key: "T"
      value {
        type: DT_FLOAT
      }
    }
  }
  node {
    name: "Slice_2/begin"
    op: "Const"
    device: "/job:localhost/replica:0/task:0/gpu:0"
    attr {
      key: "dtype"
      value {
        type: DT_INT32
      }
    }
    attr {
      key: "value"
      value {
        tensor {
          dtype: DT_INT32
          tensor_shape {
            dim {
              size: 1
            }
          }
          int_val: 0
        }
      }
    }
  }
  node {
    name: "Slice_2"
    op: "Slice"
    input: "Shape"
    input: "Slice_2/begin"
    input: "Slice/begin/_1__cf__1"
    device: "/job:localhost/replica:0/task:0/gpu:0"
    attr {
      key: "Index"
      value {
        type: DT_INT32
      }
    }
    attr {
      key: "T"
      value {
        type: DT_INT32
      }
    }
  }
  node {
    name: "Reshape_2"
    op: "Reshape"
    input: "SoftmaxCrossEntropyWithLogits"
    input: "Slice_2"
    device: "/job:localhost/replica:0/task:0/gpu:0"
    attr {
      key: "T"
      value {
        type: DT_FLOAT
      }
    }
    attr {
      key: "Tshape"
      value {
        type: DT_INT32
      }
    }
  }
  node {
    name: "gradients/Mean_grad/Shape"
    op: "Shape"
    input: "Reshape_2"
    device: "/job:localhost/replica:0/task:0/gpu:0"
    attr {
      key: "T"
      value {
        type: DT_FLOAT
      }
    }
    attr {
      key: "out_type"
      value {
        type: DT_INT32
      }
    }
  }
  node {
    name: "gradients/Mean_grad/Shape_1/_8"
    op: "_HostSend"
    input: "gradients/Mean_grad/Shape"
    device: "/job:localhost/replica:0/task:0/gpu:0"
    attr {
      key: "T"
      value {
        type: DT_INT32
      }
    }
    attr {
      key: "client_terminated"
      value {
        b: false
      }
    }
    attr {
      key: "recv_device"
      value {
        s: "/job:localhost/replica:0/task:0/gpu:0"
      }
    }
    attr {
      key: "send_device"
      value {
        s: "/job:localhost/replica:0/task:0/gpu:0"
      }
    }
    attr {
      key: "send_device_incarnation"
      value {
        i: 1
      }
    }
    attr {
      key: "tensor_name"
      value {
        s: "edge_81_gradients/Mean_grad/Shape_1"
      }
    }
  }
  node {
    name: "gradients/Mean_grad/Shape_1/_9"
    op: "_Recv"
    input: "^gradients/Mean_grad/Shape_1/_8"
    device: "/job:localhost/replica:0/task:0/gpu:0"
    attr {
      key: "client_terminated"
      value {
        b: false
      }
    }
    attr {
      key: "recv_device"
      value {
        s: "/job:localhost/replica:0/task:0/gpu:0"
      }
    }
    attr {
      key: "send_device"
      value {
        s: "/job:localhost/replica:0/task:0/gpu:0"
      }
    }
    attr {
      key: "send_device_incarnation"
      value {
        i: 1
      }
    }
    attr {
      key: "tensor_name"
      value {
        s: "edge_81_gradients/Mean_grad/Shape_1"
      }
    }
    attr {
      key: "tensor_type"
      value {
        type: DT_INT32
      }
    }
  }
  node {
    name: "Mean"
    op: "Mean"
    input: "Reshape_2"
    input: "Slice_2/begin"
    device: "/job:localhost/replica:0/task:0/gpu:0"
    attr {
      key: "T"
      value {
        type: DT_FLOAT
      }
    }
    attr {
      key: "Tidx"
      value {
        type: DT_INT32
      }
    }
    attr {
      key: "keep_dims"
      value {
        b: false
      }
    }
  }
  node {
    name: "Mean/_14"
    op: "_Send"
    input: "Mean"
    device: "/job:localhost/replica:0/task:0/gpu:0"
    attr {
      key: "T"
      value {
        type: DT_FLOAT
      }
    }
    attr {
      key: "client_terminated"
      value {
        b: false
      }
    }
    attr {
      key: "recv_device"
      value {
        s: "/job:localhost/replica:0/task:0/cpu:0"
      }
    }
    attr {
      key: "send_device"
      value {
        s: "/job:localhost/replica:0/task:0/gpu:0"
      }
    }
    attr {
      key: "send_device_incarnation"
      value {
        i: 1
      }
    }
    attr {
      key: "tensor_name"
      value {
        s: "edge_35_Mean"
      }
    }
  }
  node {
    name: "gradients/Mean_grad/Tile"
    op: "Tile"
    input: "gradients/Mean_grad/Reshape/_3__cf__3"
    input: "gradients/Mean_grad/Shape"
    device: "/job:localhost/replica:0/task:0/gpu:0"
    attr {
      key: "T"
      value {
        type: DT_FLOAT
      }
    }
    attr {
      key: "Tmultiples"
      value {
        type: DT_INT32
      }
    }
  }
  node {
    name: "gradients/Mean_grad/Shape_2"
    op: "Const"
    device: "/job:localhost/replica:0/task:0/gpu:0"
    attr {
      key: "dtype"
      value {
        type: DT_INT32
      }
    }
    attr {
      key: "value"
      value {
        tensor {
          dtype: DT_INT32
          tensor_shape {
            dim {
            }
          }
        }
      }
    }
  }
  node {
    name: "gradients/Mean_grad/Shape_2/_0"
    op: "_HostSend"
    input: "gradients/Mean_grad/Shape_2"
    device: "/job:localhost/replica:0/task:0/gpu:0"
    attr {
      key: "T"
      value {
        type: DT_INT32
      }
    }
    attr {
      key: "client_terminated"
      value {
        b: false
      }
    }
    attr {
      key: "recv_device"
      value {
        s: "/job:localhost/replica:0/task:0/gpu:0"
      }
    }
    attr {
      key: "send_device"
      value {
        s: "/job:localhost/replica:0/task:0/gpu:0"
      }
    }
    attr {
      key: "send_device_incarnation"
      value {
        i: 1
      }
    }
    attr {
      key: "tensor_name"
      value {
        s: "edge_5_gradients/Mean_grad/Shape_2"
      }
    }
  }
  node {
    name: "gradients/Mean_grad/Shape_2/_1"
    op: "_Recv"
    input: "^gradients/Mean_grad/Shape_2/_0"
    device: "/job:localhost/replica:0/task:0/gpu:0"
    attr {
      key: "client_terminated"
      value {
        b: false
      }
    }
    attr {
      key: "recv_device"
      value {
        s: "/job:localhost/replica:0/task:0/gpu:0"
      }
    }
    attr {
      key: "send_device"
      value {
        s: "/job:localhost/replica:0/task:0/gpu:0"
      }
    }
    attr {
      key: "send_device_incarnation"
      value {
        i: 1
      }
    }
    attr {
      key: "tensor_name"
      value {
        s: "edge_5_gradients/Mean_grad/Shape_2"
      }
    }
    attr {
      key: "tensor_type"
      value {
        type: DT_INT32
      }
    }
  }
  node {
    name: "gradients/Mean_grad/Prod"
    op: "Prod"
    input: "gradients/Mean_grad/Shape_1/_9"
    input: "Slice_2/begin"
    device: "/job:localhost/replica:0/task:0/gpu:0"
    attr {
      key: "T"
      value {
        type: DT_INT32
      }
    }
    attr {
      key: "Tidx"
      value {
        type: DT_INT32
      }
    }
    attr {
      key: "keep_dims"
      value {
        b: false
      }
    }
  }
  node {
    name: "gradients/Mean_grad/Prod/_10"
    op: "_Send"
    input: "gradients/Mean_grad/Prod"
    device: "/job:localhost/replica:0/task:0/gpu:0"
    attr {
      key: "T"
      value {
        type: DT_INT32
      }
    }
    attr {
      key: "client_terminated"
      value {
        b: false
      }
    }
    attr {
      key: "recv_device"
      value {
        s: "/job:localhost/replica:0/task:0/gpu:0"
      }
    }
    attr {
      key: "send_device"
      value {
        s: "/job:localhost/replica:0/task:0/gpu:0"
      }
    }
    attr {
      key: "send_device_incarnation"
      value {
        i: 1
      }
    }
    attr {
      key: "tensor_name"
      value {
        s: "edge_83_gradients/Mean_grad/Prod"
      }
    }
  }
  node {
    name: "gradients/Mean_grad/Prod/_11"
    op: "_HostRecv"
    input: "^gradients/Mean_grad/Prod/_10"
    device: "/job:localhost/replica:0/task:0/gpu:0"
    attr {
      key: "client_terminated"
      value {
        b: false
      }
    }
    attr {
      key: "recv_device"
      value {
        s: "/job:localhost/replica:0/task:0/gpu:0"
      }
    }
    attr {
      key: "send_device"
      value {
        s: "/job:localhost/replica:0/task:0/gpu:0"
      }
    }
    attr {
      key: "send_device_incarnation"
      value {
        i: 1
      }
    }
    attr {
      key: "tensor_name"
      value {
        s: "edge_83_gradients/Mean_grad/Prod"
      }
    }
    attr {
      key: "tensor_type"
      value {
        type: DT_INT32
      }
    }
  }
  node {
    name: "gradients/Mean_grad/Prod_1"
    op: "Prod"
    input: "gradients/Mean_grad/Shape_2/_1"
    input: "Slice_2/begin"
    device: "/job:localhost/replica:0/task:0/gpu:0"
    attr {
      key: "T"
      value {
        type: DT_INT32
      }
    }
    attr {
      key: "Tidx"
      value {
        type: DT_INT32
      }
    }
    attr {
      key: "keep_dims"
      value {
        b: false
      }
    }
  }
  node {
    name: "gradients/Mean_grad/Prod_1/_2"
    op: "_Send"
    input: "gradients/Mean_grad/Prod_1"
    device: "/job:localhost/replica:0/task:0/gpu:0"
    attr {
      key: "T"
      value {
        type: DT_INT32
      }
    }
    attr {
      key: "client_terminated"
      value {
        b: false
      }
    }
    attr {
      key: "recv_device"
      value {
        s: "/job:localhost/replica:0/task:0/gpu:0"
      }
    }
    attr {
      key: "send_device"
      value {
        s: "/job:localhost/replica:0/task:0/gpu:0"
      }
    }
    attr {
      key: "send_device_incarnation"
      value {
        i: 1
      }
    }
    attr {
      key: "tensor_name"
      value {
        s: "edge_7_gradients/Mean_grad/Prod_1"
      }
    }
  }
  node {
    name: "gradients/Mean_grad/Prod_1/_3"
    op: "_HostRecv"
    input: "^gradients/Mean_grad/Prod_1/_2"
    device: "/job:localhost/replica:0/task:0/gpu:0"
    attr {
      key: "client_terminated"
      value {
        b: false
      }
    }
    attr {
      key: "recv_device"
      value {
        s: "/job:localhost/replica:0/task:0/gpu:0"
      }
    }
    attr {
      key: "send_device"
      value {
        s: "/job:localhost/replica:0/task:0/gpu:0"
      }
    }
    attr {
      key: "send_device_incarnation"
      value {
        i: 1
      }
    }
    attr {
      key: "tensor_name"
      value {
        s: "edge_7_gradients/Mean_grad/Prod_1"
      }
    }
    attr {
      key: "tensor_type"
      value {
        type: DT_INT32
      }
    }
  }
  node {
    name: "gradients/Mean_grad/Maximum/y"
    op: "Const"
    device: "/job:localhost/replica:0/task:0/gpu:0"
    attr {
      key: "dtype"
      value {
        type: DT_INT32
      }
    }
    attr {
      key: "value"
      value {
        tensor {
          dtype: DT_INT32
          tensor_shape {
          }
          int_val: 1
        }
      }
    }
  }
  node {
    name: "gradients/Mean_grad/Maximum"
    op: "Maximum"
    input: "gradients/Mean_grad/Prod_1/_3"
    input: "gradients/Mean_grad/Maximum/y"
    device: "/job:localhost/replica:0/task:0/gpu:0"
    attr {
      key: "T"
      value {
        type: DT_INT32
      }
    }
  }
  node {
    name: "gradients/Mean_grad/floordiv"
    op: "FloorDiv"
    input: "gradients/Mean_grad/Prod/_11"
    input: "gradients/Mean_grad/Maximum"
    device: "/job:localhost/replica:0/task:0/gpu:0"
    attr {
      key: "T"
      value {
        type: DT_INT32
      }
    }
  }
  node {
    name: "gradients/Mean_grad/floordiv/_12"
    op: "_HostSend"
    input: "gradients/Mean_grad/floordiv"
    device: "/job:localhost/replica:0/task:0/gpu:0"
    attr {
      key: "T"
      value {
        type: DT_INT32
      }
    }
    attr {
      key: "client_terminated"
      value {
        b: false
      }
    }
    attr {
      key: "recv_device"
      value {
        s: "/job:localhost/replica:0/task:0/gpu:0"
      }
    }
    attr {
      key: "send_device"
      value {
        s: "/job:localhost/replica:0/task:0/gpu:0"
      }
    }
    attr {
      key: "send_device_incarnation"
      value {
        i: 1
      }
    }
    attr {
      key: "tensor_name"
      value {
        s: "edge_85_gradients/Mean_grad/floordiv"
      }
    }
  }
  node {
    name: "gradients/Mean_grad/floordiv/_13"
    op: "_Recv"
    input: "^gradients/Mean_grad/floordiv/_12"
    device: "/job:localhost/replica:0/task:0/gpu:0"
    attr {
      key: "client_terminated"
      value {
        b: false
      }
    }
    attr {
      key: "recv_device"
      value {
        s: "/job:localhost/replica:0/task:0/gpu:0"
      }
    }
    attr {
      key: "send_device"
      value {
        s: "/job:localhost/replica:0/task:0/gpu:0"
      }
    }
    attr {
      key: "send_device_incarnation"
      value {
        i: 1
      }
    }
    attr {
      key: "tensor_name"
      value {
        s: "edge_85_gradients/Mean_grad/floordiv"
      }
    }
    attr {
      key: "tensor_type"
      value {
        type: DT_INT32
      }
    }
  }
  node {
    name: "gradients/Mean_grad/Cast"
    op: "Cast"
    input: "gradients/Mean_grad/floordiv/_13"
    device: "/job:localhost/replica:0/task:0/gpu:0"
    attr {
      key: "DstT"
      value {
        type: DT_FLOAT
      }
    }
    attr {
      key: "SrcT"
      value {
        type: DT_INT32
      }
    }
  }
  node {
    name: "gradients/Mean_grad/truediv"
    op: "RealDiv"
    input: "gradients/Mean_grad/Tile"
    input: "gradients/Mean_grad/Cast"
    device: "/job:localhost/replica:0/task:0/gpu:0"
    attr {
      key: "T"
      value {
        type: DT_FLOAT
      }
    }
  }
  node {
    name: "gradients/Reshape_2_grad/Reshape"
    op: "Reshape"
    input: "gradients/Mean_grad/truediv"
    input: "gradients/Reshape_2_grad/Shape"
    device: "/job:localhost/replica:0/task:0/gpu:0"
    attr {
      key: "T"
      value {
        type: DT_FLOAT
      }
    }
    attr {
      key: "Tshape"
      value {
        type: DT_INT32
      }
    }
  }
  node {
    name: "gradients/SoftmaxCrossEntropyWithLogits_grad/ExpandDims/dim"
    op: "Const"
    device: "/job:localhost/replica:0/task:0/gpu:0"
    attr {
      key: "dtype"
      value {
        type: DT_INT32
      }
    }
    attr {
      key: "value"
      value {
        tensor {
          dtype: DT_INT32
          tensor_shape {
          }
          int_val: -1
        }
      }
    }
  }
  node {
    name: "gradients/SoftmaxCrossEntropyWithLogits_grad/ExpandDims"
    op: "ExpandDims"
    input: "gradients/Reshape_2_grad/Reshape"
    input: "gradients/SoftmaxCrossEntropyWithLogits_grad/ExpandDims/dim"
    device: "/job:localhost/replica:0/task:0/gpu:0"
    attr {
      key: "T"
      value {
        type: DT_FLOAT
      }
    }
    attr {
      key: "Tdim"
      value {
        type: DT_INT32
      }
    }
  }
  node {
    name: "gradients/SoftmaxCrossEntropyWithLogits_grad/mul"
    op: "Mul"
    input: "gradients/SoftmaxCrossEntropyWithLogits_grad/ExpandDims"
    input: "gradients/SoftmaxCrossEntropyWithLogits_grad/PreventGradient"
    device: "/job:localhost/replica:0/task:0/gpu:0"
    attr {
      key: "T"
      value {
        type: DT_FLOAT
      }
    }
  }
  node {
    name: "gradients/Reshape_grad/Reshape"
    op: "Reshape"
    input: "gradients/SoftmaxCrossEntropyWithLogits_grad/mul"
    input: "Shape"
    device: "/job:localhost/replica:0/task:0/gpu:0"
    attr {
      key: "T"
      value {
        type: DT_FLOAT
      }
    }
    attr {
      key: "Tshape"
      value {
        type: DT_INT32
      }
    }
  }
  node {
    name: "gradients/add_grad/Shape_1"
    op: "Const"
    device: "/job:localhost/replica:0/task:0/gpu:0"
    attr {
      key: "dtype"
      value {
        type: DT_INT32
      }
    }
    attr {
      key: "value"
      value {
        tensor {
          dtype: DT_INT32
          tensor_shape {
            dim {
              size: 1
            }
          }
          int_val: 10
        }
      }
    }
  }
  node {
    name: "gradients/add_grad/BroadcastGradientArgs"
    op: "BroadcastGradientArgs"
    input: "gradients/add_grad/Shape"
    input: "gradients/add_grad/Shape_1"
    device: "/job:localhost/replica:0/task:0/gpu:0"
    attr {
      key: "T"
      value {
        type: DT_INT32
      }
    }
  }
  node {
    name: "gradients/add_grad/Sum"
    op: "Sum"
    input: "gradients/Reshape_grad/Reshape"
    input: "gradients/add_grad/BroadcastGradientArgs"
    device: "/job:localhost/replica:0/task:0/gpu:0"
    attr {
      key: "T"
      value {
        type: DT_FLOAT
      }
    }
    attr {
      key: "Tidx"
      value {
        type: DT_INT32
      }
    }
    attr {
      key: "keep_dims"
      value {
        b: false
      }
    }
  }
  node {
    name: "gradients/add_grad/Reshape"
    op: "Reshape"
    input: "gradients/add_grad/Sum"
    input: "gradients/add_grad/Shape"
    device: "/job:localhost/replica:0/task:0/gpu:0"
    attr {
      key: "T"
      value {
        type: DT_FLOAT
      }
    }
    attr {
      key: "Tshape"
      value {
        type: DT_INT32
      }
    }
  }
  node {
    name: "gradients/add_grad/Sum_1"
    op: "Sum"
    input: "gradients/Reshape_grad/Reshape"
    input: "gradients/add_grad/BroadcastGradientArgs:1"
    device: "/job:localhost/replica:0/task:0/gpu:0"
    attr {
      key: "T"
      value {
        type: DT_FLOAT
      }
    }
    attr {
      key: "Tidx"
      value {
        type: DT_INT32
      }
    }
    attr {
      key: "keep_dims"
      value {
        b: false
      }
    }
  }
  node {
    name: "gradients/add_grad/Reshape_1"
    op: "Reshape"
    input: "gradients/add_grad/Sum_1"
    input: "gradients/add_grad/Shape_1"
    device: "/job:localhost/replica:0/task:0/gpu:0"
    attr {
      key: "T"
      value {
        type: DT_FLOAT
      }
    }
    attr {
      key: "Tshape"
      value {
        type: DT_INT32
      }
    }
  }
  node {
    name: "gradients/add_grad/tuple/group_deps"
    op: "NoOp"
    input: "^gradients/add_grad/Reshape"
    input: "^gradients/add_grad/Reshape_1"
    device: "/job:localhost/replica:0/task:0/gpu:0"
  }
  node {
    name: "gradients/add_grad/tuple/control_dependency"
    op: "Identity"
    input: "gradients/add_grad/Reshape"
    input: "^gradients/add_grad/tuple/group_deps"
    device: "/job:localhost/replica:0/task:0/gpu:0"
    attr {
      key: "T"
      value {
        type: DT_FLOAT
      }
    }
    attr {
      key: "_class"
      value {
        list {
          s: "loc:@gradients/add_grad/Reshape"
        }
      }
    }
  }
  node {
    name: "gradients/MatMul_2_grad/MatMul"
    op: "MatMul"
    input: "gradients/add_grad/tuple/control_dependency"
    input: "Variable_2/read"
    device: "/job:localhost/replica:0/task:0/gpu:0"
    attr {
      key: "T"
      value {
        type: DT_FLOAT
      }
    }
    attr {
      key: "transpose_a"
      value {
        b: false
      }
    }
    attr {
      key: "transpose_b"
      value {
        b: true
      }
    }
  }
  node {
    name: "gradients/MatMul_2_grad/MatMul_1"
    op: "MatMul"
    input: "Relu_1"
    input: "gradients/add_grad/tuple/control_dependency"
    device: "/job:localhost/replica:0/task:0/gpu:0"
    attr {
      key: "T"
      value {
        type: DT_FLOAT
      }
    }
    attr {
      key: "transpose_a"
      value {
        b: true
      }
    }
    attr {
      key: "transpose_b"
      value {
        b: false
      }
    }
  }
  node {
    name: "gradients/MatMul_2_grad/tuple/group_deps"
    op: "NoOp"
    input: "^gradients/MatMul_2_grad/MatMul"
    input: "^gradients/MatMul_2_grad/MatMul_1"
    device: "/job:localhost/replica:0/task:0/gpu:0"
  }
  node {
    name: "gradients/MatMul_2_grad/tuple/control_dependency"
    op: "Identity"
    input: "gradients/MatMul_2_grad/MatMul"
    input: "^gradients/MatMul_2_grad/tuple/group_deps"
    device: "/job:localhost/replica:0/task:0/gpu:0"
    attr {
      key: "T"
      value {
        type: DT_FLOAT
      }
    }
    attr {
      key: "_class"
      value {
        list {
          s: "loc:@gradients/MatMul_2_grad/MatMul"
        }
      }
    }
  }
  node {
    name: "gradients/Relu_1_grad/ReluGrad"
    op: "ReluGrad"
    input: "gradients/MatMul_2_grad/tuple/control_dependency"
    input: "Relu_1"
    device: "/job:localhost/replica:0/task:0/gpu:0"
    attr {
      key: "T"
      value {
        type: DT_FLOAT
      }
    }
  }
  node {
    name: "gradients/MatMul_2_grad/tuple/control_dependency_1"
    op: "Identity"
    input: "gradients/MatMul_2_grad/MatMul_1"
    input: "^gradients/MatMul_2_grad/tuple/group_deps"
    device: "/job:localhost/replica:0/task:0/gpu:0"
    attr {
      key: "T"
      value {
        type: DT_FLOAT
      }
    }
    attr {
      key: "_class"
      value {
        list {
          s: "loc:@gradients/MatMul_2_grad/MatMul_1"
        }
      }
    }
  }
  node {
    name: "gradients/add_grad/tuple/control_dependency_1"
    op: "Identity"
    input: "gradients/add_grad/Reshape_1"
    input: "^gradients/add_grad/tuple/group_deps"
    device: "/job:localhost/replica:0/task:0/gpu:0"
    attr {
      key: "T"
      value {
        type: DT_FLOAT
      }
    }
    attr {
      key: "_class"
      value {
        list {
          s: "loc:@gradients/add_grad/Reshape_1"
        }
      }
    }
  }
  node {
    name: "gradients/Add_1_grad/Shape_1"
    op: "Const"
    device: "/job:localhost/replica:0/task:0/gpu:0"
    attr {
      key: "dtype"
      value {
        type: DT_INT32
      }
    }
    attr {
      key: "value"
      value {
        tensor {
          dtype: DT_INT32
          tensor_shape {
            dim {
              size: 1
            }
          }
          int_val: 220
        }
      }
    }
  }
  node {
    name: "gradients/Add_1_grad/BroadcastGradientArgs"
    op: "BroadcastGradientArgs"
    input: "gradients/Add_1_grad/Shape"
    input: "gradients/Add_1_grad/Shape_1"
    device: "/job:localhost/replica:0/task:0/gpu:0"
    attr {
      key: "T"
      value {
        type: DT_INT32
      }
    }
  }
  node {
    name: "gradients/Add_1_grad/Sum"
    op: "Sum"
    input: "gradients/Relu_1_grad/ReluGrad"
    input: "gradients/Add_1_grad/BroadcastGradientArgs"
    device: "/job:localhost/replica:0/task:0/gpu:0"
    attr {
      key: "T"
      value {
        type: DT_FLOAT
      }
    }
    attr {
      key: "Tidx"
      value {
        type: DT_INT32
      }
    }
    attr {
      key: "keep_dims"
      value {
        b: false
      }
    }
  }
  node {
    name: "gradients/Add_1_grad/Reshape"
    op: "Reshape"
    input: "gradients/Add_1_grad/Sum"
    input: "gradients/Add_1_grad/Shape"
    device: "/job:localhost/replica:0/task:0/gpu:0"
    attr {
      key: "T"
      value {
        type: DT_FLOAT
      }
    }
    attr {
      key: "Tshape"
      value {
        type: DT_INT32
      }
    }
  }
  node {
    name: "gradients/Add_1_grad/Sum_1"
    op: "Sum"
    input: "gradients/Relu_1_grad/ReluGrad"
    input: "gradients/Add_1_grad/BroadcastGradientArgs:1"
    device: "/job:localhost/replica:0/task:0/gpu:0"
    attr {
      key: "T"
      value {
        type: DT_FLOAT
      }
    }
    attr {
      key: "Tidx"
      value {
        type: DT_INT32
      }
    }
    attr {
      key: "keep_dims"
      value {
        b: false
      }
    }
  }
  node {
    name: "gradients/Add_1_grad/Reshape_1"
    op: "Reshape"
    input: "gradients/Add_1_grad/Sum_1"
    input: "gradients/Add_1_grad/Shape_1"
    device: "/job:localhost/replica:0/task:0/gpu:0"
    attr {
      key: "T"
      value {
        type: DT_FLOAT
      }
    }
    attr {
      key: "Tshape"
      value {
        type: DT_INT32
      }
    }
  }
  node {
    name: "gradients/Add_1_grad/tuple/group_deps"
    op: "NoOp"
    input: "^gradients/Add_1_grad/Reshape"
    input: "^gradients/Add_1_grad/Reshape_1"
    device: "/job:localhost/replica:0/task:0/gpu:0"
  }
  node {
    name: "gradients/Add_1_grad/tuple/control_dependency"
    op: "Identity"
    input: "gradients/Add_1_grad/Reshape"
    input: "^gradients/Add_1_grad/tuple/group_deps"
    device: "/job:localhost/replica:0/task:0/gpu:0"
    attr {
      key: "T"
      value {
        type: DT_FLOAT
      }
    }
    attr {
      key: "_class"
      value {
        list {
          s: "loc:@gradients/Add_1_grad/Reshape"
        }
      }
    }
  }
  node {
    name: "gradients/MatMul_1_grad/MatMul"
    op: "MatMul"
    input: "gradients/Add_1_grad/tuple/control_dependency"
    input: "Variable_1/read"
    device: "/job:localhost/replica:0/task:0/gpu:0"
    attr {
      key: "T"
      value {
        type: DT_FLOAT
      }
    }
    attr {
      key: "transpose_a"
      value {
        b: false
      }
    }
    attr {
      key: "transpose_b"
      value {
        b: true
      }
    }
  }
  node {
    name: "gradients/MatMul_1_grad/MatMul_1"
    op: "MatMul"
    input: "Relu"
    input: "gradients/Add_1_grad/tuple/control_dependency"
    device: "/job:localhost/replica:0/task:0/gpu:0"
    attr {
      key: "T"
      value {
        type: DT_FLOAT
      }
    }
    attr {
      key: "transpose_a"
      value {
        b: true
      }
    }
    attr {
      key: "transpose_b"
      value {
        b: false
      }
    }
  }
  node {
    name: "gradients/MatMul_1_grad/tuple/group_deps"
    op: "NoOp"
    input: "^gradients/MatMul_1_grad/MatMul"
    input: "^gradients/MatMul_1_grad/MatMul_1"
    device: "/job:localhost/replica:0/task:0/gpu:0"
  }
  node {
    name: "gradients/MatMul_1_grad/tuple/control_dependency"
    op: "Identity"
    input: "gradients/MatMul_1_grad/MatMul"
    input: "^gradients/MatMul_1_grad/tuple/group_deps"
    device: "/job:localhost/replica:0/task:0/gpu:0"
    attr {
      key: "T"
      value {
        type: DT_FLOAT
      }
    }
    attr {
      key: "_class"
      value {
        list {
          s: "loc:@gradients/MatMul_1_grad/MatMul"
        }
      }
    }
  }
  node {
    name: "gradients/Relu_grad/ReluGrad"
    op: "ReluGrad"
    input: "gradients/MatMul_1_grad/tuple/control_dependency"
    input: "Relu"
    device: "/job:localhost/replica:0/task:0/gpu:0"
    attr {
      key: "T"
      value {
        type: DT_FLOAT
      }
    }
  }
  node {
    name: "gradients/MatMul_1_grad/tuple/control_dependency_1"
    op: "Identity"
    input: "gradients/MatMul_1_grad/MatMul_1"
    input: "^gradients/MatMul_1_grad/tuple/group_deps"
    device: "/job:localhost/replica:0/task:0/gpu:0"
    attr {
      key: "T"
      value {
        type: DT_FLOAT
      }
    }
    attr {
      key: "_class"
      value {
        list {
          s: "loc:@gradients/MatMul_1_grad/MatMul_1"
        }
      }
    }
  }
  node {
    name: "gradients/Add_1_grad/tuple/control_dependency_1"
    op: "Identity"
    input: "gradients/Add_1_grad/Reshape_1"
    input: "^gradients/Add_1_grad/tuple/group_deps"
    device: "/job:localhost/replica:0/task:0/gpu:0"
    attr {
      key: "T"
      value {
        type: DT_FLOAT
      }
    }
    attr {
      key: "_class"
      value {
        list {
          s: "loc:@gradients/Add_1_grad/Reshape_1"
        }
      }
    }
  }
  node {
    name: "gradients/Add_grad/BroadcastGradientArgs"
    op: "BroadcastGradientArgs"
    input: "gradients/Add_grad/Shape"
    input: "gradients/Add_1_grad/Shape_1"
    device: "/job:localhost/replica:0/task:0/gpu:0"
    attr {
      key: "T"
      value {
        type: DT_INT32
      }
    }
  }
  node {
    name: "gradients/Add_grad/Sum"
    op: "Sum"
    input: "gradients/Relu_grad/ReluGrad"
    input: "gradients/Add_grad/BroadcastGradientArgs"
    device: "/job:localhost/replica:0/task:0/gpu:0"
    attr {
      key: "T"
      value {
        type: DT_FLOAT
      }
    }
    attr {
      key: "Tidx"
      value {
        type: DT_INT32
      }
    }
    attr {
      key: "keep_dims"
      value {
        b: false
      }
    }
  }
  node {
    name: "gradients/Add_grad/Reshape"
    op: "Reshape"
    input: "gradients/Add_grad/Sum"
    input: "gradients/Add_grad/Shape"
    device: "/job:localhost/replica:0/task:0/gpu:0"
    attr {
      key: "T"
      value {
        type: DT_FLOAT
      }
    }
    attr {
      key: "Tshape"
      value {
        type: DT_INT32
      }
    }
  }
  node {
    name: "gradients/Add_grad/Sum_1"
    op: "Sum"
    input: "gradients/Relu_grad/ReluGrad"
    input: "gradients/Add_grad/BroadcastGradientArgs:1"
    device: "/job:localhost/replica:0/task:0/gpu:0"
    attr {
      key: "T"
      value {
        type: DT_FLOAT
      }
    }
    attr {
      key: "Tidx"
      value {
        type: DT_INT32
      }
    }
    attr {
      key: "keep_dims"
      value {
        b: false
      }
    }
  }
  node {
    name: "gradients/Add_grad/Reshape_1"
    op: "Reshape"
    input: "gradients/Add_grad/Sum_1"
    input: "gradients/Add_1_grad/Shape_1"
    device: "/job:localhost/replica:0/task:0/gpu:0"
    attr {
      key: "T"
      value {
        type: DT_FLOAT
      }
    }
    attr {
      key: "Tshape"
      value {
        type: DT_INT32
      }
    }
  }
  node {
    name: "gradients/Add_grad/tuple/group_deps"
    op: "NoOp"
    input: "^gradients/Add_grad/Reshape"
    input: "^gradients/Add_grad/Reshape_1"
    device: "/job:localhost/replica:0/task:0/gpu:0"
  }
  node {
    name: "gradients/Add_grad/tuple/control_dependency"
    op: "Identity"
    input: "gradients/Add_grad/Reshape"
    input: "^gradients/Add_grad/tuple/group_deps"
    device: "/job:localhost/replica:0/task:0/gpu:0"
    attr {
      key: "T"
      value {
        type: DT_FLOAT
      }
    }
    attr {
      key: "_class"
      value {
        list {
          s: "loc:@gradients/Add_grad/Reshape"
        }
      }
    }
  }
  node {
    name: "gradients/MatMul_grad/MatMul"
    op: "MatMul"
    input: "gradients/Add_grad/tuple/control_dependency"
    input: "Variable/read"
    device: "/job:localhost/replica:0/task:0/gpu:0"
    attr {
      key: "T"
      value {
        type: DT_FLOAT
      }
    }
    attr {
      key: "transpose_a"
      value {
        b: false
      }
    }
    attr {
      key: "transpose_b"
      value {
        b: true
      }
    }
  }
  node {
    name: "gradients/MatMul_grad/MatMul_1"
    op: "MatMul"
    input: "_recv_Placeholder_0/_7"
    input: "gradients/Add_grad/tuple/control_dependency"
    device: "/job:localhost/replica:0/task:0/gpu:0"
    attr {
      key: "T"
      value {
        type: DT_FLOAT
      }
    }
    attr {
      key: "transpose_a"
      value {
        b: true
      }
    }
    attr {
      key: "transpose_b"
      value {
        b: false
      }
    }
  }
  node {
    name: "gradients/MatMul_grad/tuple/group_deps"
    op: "NoOp"
    input: "^gradients/MatMul_grad/MatMul"
    input: "^gradients/MatMul_grad/MatMul_1"
    device: "/job:localhost/replica:0/task:0/gpu:0"
  }
  node {
    name: "gradients/MatMul_grad/tuple/control_dependency_1"
    op: "Identity"
    input: "gradients/MatMul_grad/MatMul_1"
    input: "^gradients/MatMul_grad/tuple/group_deps"
    device: "/job:localhost/replica:0/task:0/gpu:0"
    attr {
      key: "T"
      value {
        type: DT_FLOAT
      }
    }
    attr {
      key: "_class"
      value {
        list {
          s: "loc:@gradients/MatMul_grad/MatMul_1"
        }
      }
    }
  }
  node {
    name: "gradients/Add_grad/tuple/control_dependency_1"
    op: "Identity"
    input: "gradients/Add_grad/Reshape_1"
    input: "^gradients/Add_grad/tuple/group_deps"
    device: "/job:localhost/replica:0/task:0/gpu:0"
    attr {
      key: "T"
      value {
        type: DT_FLOAT
      }
    }
    attr {
      key: "_class"
      value {
        list {
          s: "loc:@gradients/Add_grad/Reshape_1"
        }
      }
    }
  }
  node {
    name: "beta1_power"
    op: "VariableV2"
    device: "/job:localhost/replica:0/task:0/gpu:0"
    attr {
      key: "_class"
      value {
        list {
          s: "loc:@Variable"
        }
      }
    }
    attr {
      key: "container"
      value {
        s: ""
      }
    }
    attr {
      key: "dtype"
      value {
        type: DT_FLOAT
      }
    }
    attr {
      key: "shape"
      value {
        shape {
        }
      }
    }
    attr {
      key: "shared_name"
      value {
        s: ""
      }
    }
  }
  node {
    name: "beta1_power/read"
    op: "Identity"
    input: "beta1_power"
    device: "/job:localhost/replica:0/task:0/gpu:0"
    attr {
      key: "T"
      value {
        type: DT_FLOAT
      }
    }
    attr {
      key: "_class"
      value {
        list {
          s: "loc:@Variable"
        }
      }
    }
  }
  node {
    name: "beta2_power"
    op: "VariableV2"
    device: "/job:localhost/replica:0/task:0/gpu:0"
    attr {
      key: "_class"
      value {
        list {
          s: "loc:@Variable"
        }
      }
    }
    attr {
      key: "container"
      value {
        s: ""
      }
    }
    attr {
      key: "dtype"
      value {
        type: DT_FLOAT
      }
    }
    attr {
      key: "shape"
      value {
        shape {
        }
      }
    }
    attr {
      key: "shared_name"
      value {
        s: ""
      }
    }
  }
  node {
    name: "beta2_power/read"
    op: "Identity"
    input: "beta2_power"
    device: "/job:localhost/replica:0/task:0/gpu:0"
    attr {
      key: "T"
      value {
        type: DT_FLOAT
      }
    }
    attr {
      key: "_class"
      value {
        list {
          s: "loc:@Variable"
        }
      }
    }
  }
  node {
    name: "Variable/Adam"
    op: "VariableV2"
    device: "/job:localhost/replica:0/task:0/gpu:0"
    attr {
      key: "_class"
      value {
        list {
          s: "loc:@Variable"
        }
      }
    }
    attr {
      key: "container"
      value {
        s: ""
      }
    }
    attr {
      key: "dtype"
      value {
        type: DT_FLOAT
      }
    }
    attr {
      key: "shape"
      value {
        shape {
          dim {
            size: 784
          }
          dim {
            size: 220
          }
        }
      }
    }
    attr {
      key: "shared_name"
      value {
        s: ""
      }
    }
  }
  node {
    name: "Variable/Adam_1"
    op: "VariableV2"
    device: "/job:localhost/replica:0/task:0/gpu:0"
    attr {
      key: "_class"
      value {
        list {
          s: "loc:@Variable"
        }
      }
    }
    attr {
      key: "container"
      value {
        s: ""
      }
    }
    attr {
      key: "dtype"
      value {
        type: DT_FLOAT
      }
    }
    attr {
      key: "shape"
      value {
        shape {
          dim {
            size: 784
          }
          dim {
            size: 220
          }
        }
      }
    }
    attr {
      key: "shared_name"
      value {
        s: ""
      }
    }
  }
  node {
    name: "Variable_1/Adam"
    op: "VariableV2"
    device: "/job:localhost/replica:0/task:0/gpu:0"
    attr {
      key: "_class"
      value {
        list {
          s: "loc:@Variable_1"
        }
      }
    }
    attr {
      key: "container"
      value {
        s: ""
      }
    }
    attr {
      key: "dtype"
      value {
        type: DT_FLOAT
      }
    }
    attr {
      key: "shape"
      value {
        shape {
          dim {
            size: 220
          }
          dim {
            size: 220
          }
        }
      }
    }
    attr {
      key: "shared_name"
      value {
        s: ""
      }
    }
  }
  node {
    name: "Variable_1/Adam_1"
    op: "VariableV2"
    device: "/job:localhost/replica:0/task:0/gpu:0"
    attr {
      key: "_class"
      value {
        list {
          s: "loc:@Variable_1"
        }
      }
    }
    attr {
      key: "container"
      value {
        s: ""
      }
    }
    attr {
      key: "dtype"
      value {
        type: DT_FLOAT
      }
    }
    attr {
      key: "shape"
      value {
        shape {
          dim {
            size: 220
          }
          dim {
            size: 220
          }
        }
      }
    }
    attr {
      key: "shared_name"
      value {
        s: ""
      }
    }
  }
  node {
    name: "Variable_2/Adam"
    op: "VariableV2"
    device: "/job:localhost/replica:0/task:0/gpu:0"
    attr {
      key: "_class"
      value {
        list {
          s: "loc:@Variable_2"
        }
      }
    }
    attr {
      key: "container"
      value {
        s: ""
      }
    }
    attr {
      key: "dtype"
      value {
        type: DT_FLOAT
      }
    }
    attr {
      key: "shape"
      value {
        shape {
          dim {
            size: 220
          }
          dim {
            size: 10
          }
        }
      }
    }
    attr {
      key: "shared_name"
      value {
        s: ""
      }
    }
  }
  node {
    name: "Variable_2/Adam_1"
    op: "VariableV2"
    device: "/job:localhost/replica:0/task:0/gpu:0"
    attr {
      key: "_class"
      value {
        list {
          s: "loc:@Variable_2"
        }
      }
    }
    attr {
      key: "container"
      value {
        s: ""
      }
    }
    attr {
      key: "dtype"
      value {
        type: DT_FLOAT
      }
    }
    attr {
      key: "shape"
      value {
        shape {
          dim {
            size: 220
          }
          dim {
            size: 10
          }
        }
      }
    }
    attr {
      key: "shared_name"
      value {
        s: ""
      }
    }
  }
  node {
    name: "Variable_3/Adam"
    op: "VariableV2"
    device: "/job:localhost/replica:0/task:0/gpu:0"
    attr {
      key: "_class"
      value {
        list {
          s: "loc:@Variable_3"
        }
      }
    }
    attr {
      key: "container"
      value {
        s: ""
      }
    }
    attr {
      key: "dtype"
      value {
        type: DT_FLOAT
      }
    }
    attr {
      key: "shape"
      value {
        shape {
          dim {
            size: 220
          }
        }
      }
    }
    attr {
      key: "shared_name"
      value {
        s: ""
      }
    }
  }
  node {
    name: "Variable_3/Adam_1"
    op: "VariableV2"
    device: "/job:localhost/replica:0/task:0/gpu:0"
    attr {
      key: "_class"
      value {
        list {
          s: "loc:@Variable_3"
        }
      }
    }
    attr {
      key: "container"
      value {
        s: ""
      }
    }
    attr {
      key: "dtype"
      value {
        type: DT_FLOAT
      }
    }
    attr {
      key: "shape"
      value {
        shape {
          dim {
            size: 220
          }
        }
      }
    }
    attr {
      key: "shared_name"
      value {
        s: ""
      }
    }
  }
  node {
    name: "Variable_4/Adam"
    op: "VariableV2"
    device: "/job:localhost/replica:0/task:0/gpu:0"
    attr {
      key: "_class"
      value {
        list {
          s: "loc:@Variable_4"
        }
      }
    }
    attr {
      key: "container"
      value {
        s: ""
      }
    }
    attr {
      key: "dtype"
      value {
        type: DT_FLOAT
      }
    }
    attr {
      key: "shape"
      value {
        shape {
          dim {
            size: 220
          }
        }
      }
    }
    attr {
      key: "shared_name"
      value {
        s: ""
      }
    }
  }
  node {
    name: "Variable_4/Adam_1"
    op: "VariableV2"
    device: "/job:localhost/replica:0/task:0/gpu:0"
    attr {
      key: "_class"
      value {
        list {
          s: "loc:@Variable_4"
        }
      }
    }
    attr {
      key: "container"
      value {
        s: ""
      }
    }
    attr {
      key: "dtype"
      value {
        type: DT_FLOAT
      }
    }
    attr {
      key: "shape"
      value {
        shape {
          dim {
            size: 220
          }
        }
      }
    }
    attr {
      key: "shared_name"
      value {
        s: ""
      }
    }
  }
  node {
    name: "Variable_5/Adam"
    op: "VariableV2"
    device: "/job:localhost/replica:0/task:0/gpu:0"
    attr {
      key: "_class"
      value {
        list {
          s: "loc:@Variable_5"
        }
      }
    }
    attr {
      key: "container"
      value {
        s: ""
      }
    }
    attr {
      key: "dtype"
      value {
        type: DT_FLOAT
      }
    }
    attr {
      key: "shape"
      value {
        shape {
          dim {
            size: 10
          }
        }
      }
    }
    attr {
      key: "shared_name"
      value {
        s: ""
      }
    }
  }
  node {
    name: "Variable_5/Adam_1"
    op: "VariableV2"
    device: "/job:localhost/replica:0/task:0/gpu:0"
    attr {
      key: "_class"
      value {
        list {
          s: "loc:@Variable_5"
        }
      }
    }
    attr {
      key: "container"
      value {
        s: ""
      }
    }
    attr {
      key: "dtype"
      value {
        type: DT_FLOAT
      }
    }
    attr {
      key: "shape"
      value {
        shape {
          dim {
            size: 10
          }
        }
      }
    }
    attr {
      key: "shared_name"
      value {
        s: ""
      }
    }
  }
  node {
    name: "Adam/learning_rate"
    op: "Const"
    device: "/job:localhost/replica:0/task:0/gpu:0"
    attr {
      key: "dtype"
      value {
        type: DT_FLOAT
      }
    }
    attr {
      key: "value"
      value {
        tensor {
          dtype: DT_FLOAT
          tensor_shape {
          }
          float_val: 0.0010000000475
        }
      }
    }
  }
  node {
    name: "Adam/beta1"
    op: "Const"
    device: "/job:localhost/replica:0/task:0/gpu:0"
    attr {
      key: "dtype"
      value {
        type: DT_FLOAT
      }
    }
    attr {
      key: "value"
      value {
        tensor {
          dtype: DT_FLOAT
          tensor_shape {
          }
          float_val: 0.899999976158
        }
      }
    }
  }
  node {
    name: "Adam/beta2"
    op: "Const"
    device: "/job:localhost/replica:0/task:0/gpu:0"
    attr {
      key: "dtype"
      value {
        type: DT_FLOAT
      }
    }
    attr {
      key: "value"
      value {
        tensor {
          dtype: DT_FLOAT
          tensor_shape {
          }
          float_val: 0.999000012875
        }
      }
    }
  }
  node {
    name: "Adam/epsilon"
    op: "Const"
    device: "/job:localhost/replica:0/task:0/gpu:0"
    attr {
      key: "dtype"
      value {
        type: DT_FLOAT
      }
    }
    attr {
      key: "value"
      value {
        tensor {
          dtype: DT_FLOAT
          tensor_shape {
          }
          float_val: 9.99999993923e-09
        }
      }
    }
  }
  node {
    name: "Adam/update_Variable/ApplyAdam"
    op: "ApplyAdam"
    input: "Variable"
    input: "Variable/Adam"
    input: "Variable/Adam_1"
    input: "beta1_power/read"
    input: "beta2_power/read"
    input: "Adam/learning_rate"
    input: "Adam/beta1"
    input: "Adam/beta2"
    input: "Adam/epsilon"
    input: "gradients/MatMul_grad/tuple/control_dependency_1"
    device: "/job:localhost/replica:0/task:0/gpu:0"
    attr {
      key: "T"
      value {
        type: DT_FLOAT
      }
    }
    attr {
      key: "_class"
      value {
        list {
          s: "loc:@Variable"
        }
      }
    }
    attr {
      key: "use_locking"
      value {
        b: false
      }
    }
  }
  node {
    name: "Adam/update_Variable_3/ApplyAdam"
    op: "ApplyAdam"
    input: "Variable_3"
    input: "Variable_3/Adam"
    input: "Variable_3/Adam_1"
    input: "beta1_power/read"
    input: "beta2_power/read"
    input: "Adam/learning_rate"
    input: "Adam/beta1"
    input: "Adam/beta2"
    input: "Adam/epsilon"
    input: "gradients/Add_grad/tuple/control_dependency_1"
    device: "/job:localhost/replica:0/task:0/gpu:0"
    attr {
      key: "T"
      value {
        type: DT_FLOAT
      }
    }
    attr {
      key: "_class"
      value {
        list {
          s: "loc:@Variable_3"
        }
      }
    }
    attr {
      key: "use_locking"
      value {
        b: false
      }
    }
  }
  node {
    name: "Adam/update_Variable_1/ApplyAdam"
    op: "ApplyAdam"
    input: "Variable_1"
    input: "Variable_1/Adam"
    input: "Variable_1/Adam_1"
    input: "beta1_power/read"
    input: "beta2_power/read"
    input: "Adam/learning_rate"
    input: "Adam/beta1"
    input: "Adam/beta2"
    input: "Adam/epsilon"
    input: "gradients/MatMul_1_grad/tuple/control_dependency_1"
    device: "/job:localhost/replica:0/task:0/gpu:0"
    attr {
      key: "T"
      value {
        type: DT_FLOAT
      }
    }
    attr {
      key: "_class"
      value {
        list {
          s: "loc:@Variable_1"
        }
      }
    }
    attr {
      key: "use_locking"
      value {
        b: false
      }
    }
  }
  node {
    name: "Adam/update_Variable_4/ApplyAdam"
    op: "ApplyAdam"
    input: "Variable_4"
    input: "Variable_4/Adam"
    input: "Variable_4/Adam_1"
    input: "beta1_power/read"
    input: "beta2_power/read"
    input: "Adam/learning_rate"
    input: "Adam/beta1"
    input: "Adam/beta2"
    input: "Adam/epsilon"
    input: "gradients/Add_1_grad/tuple/control_dependency_1"
    device: "/job:localhost/replica:0/task:0/gpu:0"
    attr {
      key: "T"
      value {
        type: DT_FLOAT
      }
    }
    attr {
      key: "_class"
      value {
        list {
          s: "loc:@Variable_4"
        }
      }
    }
    attr {
      key: "use_locking"
      value {
        b: false
      }
    }
  }
  node {
    name: "Adam/update_Variable_2/ApplyAdam"
    op: "ApplyAdam"
    input: "Variable_2"
    input: "Variable_2/Adam"
    input: "Variable_2/Adam_1"
    input: "beta1_power/read"
    input: "beta2_power/read"
    input: "Adam/learning_rate"
    input: "Adam/beta1"
    input: "Adam/beta2"
    input: "Adam/epsilon"
    input: "gradients/MatMul_2_grad/tuple/control_dependency_1"
    device: "/job:localhost/replica:0/task:0/gpu:0"
    attr {
      key: "T"
      value {
        type: DT_FLOAT
      }
    }
    attr {
      key: "_class"
      value {
        list {
          s: "loc:@Variable_2"
        }
      }
    }
    attr {
      key: "use_locking"
      value {
        b: false
      }
    }
  }
  node {
    name: "Adam/update_Variable_5/ApplyAdam"
    op: "ApplyAdam"
    input: "Variable_5"
    input: "Variable_5/Adam"
    input: "Variable_5/Adam_1"
    input: "beta1_power/read"
    input: "beta2_power/read"
    input: "Adam/learning_rate"
    input: "Adam/beta1"
    input: "Adam/beta2"
    input: "Adam/epsilon"
    input: "gradients/add_grad/tuple/control_dependency_1"
    device: "/job:localhost/replica:0/task:0/gpu:0"
    attr {
      key: "T"
      value {
        type: DT_FLOAT
      }
    }
    attr {
      key: "_class"
      value {
        list {
          s: "loc:@Variable_5"
        }
      }
    }
    attr {
      key: "use_locking"
      value {
        b: false
      }
    }
  }
  node {
    name: "Adam/mul"
    op: "Mul"
    input: "beta1_power/read"
    input: "Adam/beta1"
    input: "^Adam/update_Variable/ApplyAdam"
    input: "^Adam/update_Variable_1/ApplyAdam"
    input: "^Adam/update_Variable_2/ApplyAdam"
    input: "^Adam/update_Variable_3/ApplyAdam"
    input: "^Adam/update_Variable_4/ApplyAdam"
    input: "^Adam/update_Variable_5/ApplyAdam"
    device: "/job:localhost/replica:0/task:0/gpu:0"
    attr {
      key: "T"
      value {
        type: DT_FLOAT
      }
    }
    attr {
      key: "_class"
      value {
        list {
          s: "loc:@Variable"
        }
      }
    }
  }
  node {
    name: "Adam/Assign"
    op: "Assign"
    input: "beta1_power"
    input: "Adam/mul"
    device: "/job:localhost/replica:0/task:0/gpu:0"
    attr {
      key: "T"
      value {
        type: DT_FLOAT
      }
    }
    attr {
      key: "_class"
      value {
        list {
          s: "loc:@Variable"
        }
      }
    }
    attr {
      key: "use_locking"
      value {
        b: false
      }
    }
    attr {
      key: "validate_shape"
      value {
        b: true
      }
    }
  }
  node {
    name: "Adam/mul_1"
    op: "Mul"
    input: "beta2_power/read"
    input: "Adam/beta2"
    input: "^Adam/update_Variable/ApplyAdam"
    input: "^Adam/update_Variable_1/ApplyAdam"
    input: "^Adam/update_Variable_2/ApplyAdam"
    input: "^Adam/update_Variable_3/ApplyAdam"
    input: "^Adam/update_Variable_4/ApplyAdam"
    input: "^Adam/update_Variable_5/ApplyAdam"
    device: "/job:localhost/replica:0/task:0/gpu:0"
    attr {
      key: "T"
      value {
        type: DT_FLOAT
      }
    }
    attr {
      key: "_class"
      value {
        list {
          s: "loc:@Variable"
        }
      }
    }
  }
  node {
    name: "Adam/Assign_1"
    op: "Assign"
    input: "beta2_power"
    input: "Adam/mul_1"
    device: "/job:localhost/replica:0/task:0/gpu:0"
    attr {
      key: "T"
      value {
        type: DT_FLOAT
      }
    }
    attr {
      key: "_class"
      value {
        list {
          s: "loc:@Variable"
        }
      }
    }
    attr {
      key: "use_locking"
      value {
        b: false
      }
    }
    attr {
      key: "validate_shape"
      value {
        b: true
      }
    }
  }
  node {
    name: "Adam"
    op: "NoOp"
    input: "^Adam/update_Variable/ApplyAdam"
    input: "^Adam/update_Variable_1/ApplyAdam"
    input: "^Adam/update_Variable_2/ApplyAdam"
    input: "^Adam/update_Variable_3/ApplyAdam"
    input: "^Adam/update_Variable_4/ApplyAdam"
    input: "^Adam/update_Variable_5/ApplyAdam"
    input: "^Adam/Assign"
    input: "^Adam/Assign_1"
    device: "/job:localhost/replica:0/task:0/gpu:0"
  }
  node {
    name: "Slice/begin/_1__cf__1"
    op: "Const"
    device: "/job:localhost/replica:0/task:0/gpu:0"
    attr {
      key: "dtype"
      value {
        type: DT_INT32
      }
    }
    attr {
      key: "value"
      value {
        tensor {
          dtype: DT_INT32
          tensor_shape {
            dim {
              size: 1
            }
          }
          int_val: 1
        }
      }
    }
  }
  node {
    name: "gradients/Mean_grad/Reshape/_3__cf__3"
    op: "Const"
    device: "/job:localhost/replica:0/task:0/gpu:0"
    attr {
      key: "dtype"
      value {
        type: DT_FLOAT
      }
    }
    attr {
      key: "value"
      value {
        tensor {
          dtype: DT_FLOAT
          tensor_shape {
            dim {
              size: 1
            }
          }
          float_val: 1.0
        }
      }
    }
  }
  versions {
    producer: 21
  }
}
partition_graphs {
  node {
    name: "Mean/_15"
    op: "_Recv"
    device: "/job:localhost/replica:0/task:0/cpu:0"
    attr {
      key: "client_terminated"
      value {
        b: false
      }
    }
    attr {
      key: "recv_device"
      value {
        s: "/job:localhost/replica:0/task:0/cpu:0"
      }
    }
    attr {
      key: "send_device"
      value {
        s: "/job:localhost/replica:0/task:0/gpu:0"
      }
    }
    attr {
      key: "send_device_incarnation"
      value {
        i: 1
      }
    }
    attr {
      key: "tensor_name"
      value {
        s: "edge_35_Mean"
      }
    }
    attr {
      key: "tensor_type"
      value {
        type: DT_FLOAT
      }
    }
  }
  node {
    name: "_send_Mean_0"
    op: "_Send"
    input: "Mean/_15"
    device: "/job:localhost/replica:0/task:0/cpu:0"
    attr {
      key: "T"
      value {
        type: DT_FLOAT
      }
    }
    attr {
      key: "client_terminated"
      value {
        b: true
      }
    }
    attr {
      key: "recv_device"
      value {
        s: "/job:localhost/replica:0/task:0/cpu:0"
      }
    }
    attr {
      key: "send_device"
      value {
        s: "/job:localhost/replica:0/task:0/cpu:0"
      }
    }
    attr {
      key: "send_device_incarnation"
      value {
        i: 792173694468823645
      }
    }
    attr {
      key: "tensor_name"
      value {
        s: "Mean:0"
      }
    }
  }
  node {
    name: "_recv_Placeholder_1_0"
    op: "_Recv"
    device: "/job:localhost/replica:0/task:0/cpu:0"
    attr {
      key: "client_terminated"
      value {
        b: true
      }
    }
    attr {
      key: "recv_device"
      value {
        s: "/job:localhost/replica:0/task:0/cpu:0"
      }
    }
    attr {
      key: "send_device"
      value {
        s: "/job:localhost/replica:0/task:0/cpu:0"
      }
    }
    attr {
      key: "send_device_incarnation"
      value {
        i: 792173694468823645
      }
    }
    attr {
      key: "tensor_name"
      value {
        s: "Placeholder_1:0"
      }
    }
    attr {
      key: "tensor_type"
      value {
        type: DT_FLOAT
      }
    }
  }
  node {
    name: "_recv_Placeholder_1_0/_4"
    op: "_Send"
    input: "_recv_Placeholder_1_0"
    device: "/job:localhost/replica:0/task:0/cpu:0"
    attr {
      key: "T"
      value {
        type: DT_FLOAT
      }
    }
    attr {
      key: "client_terminated"
      value {
        b: false
      }
    }
    attr {
      key: "recv_device"
      value {
        s: "/job:localhost/replica:0/task:0/gpu:0"
      }
    }
    attr {
      key: "send_device"
      value {
        s: "/job:localhost/replica:0/task:0/cpu:0"
      }
    }
    attr {
      key: "send_device_incarnation"
      value {
        i: 1
      }
    }
    attr {
      key: "tensor_name"
      value {
        s: "edge_316__recv_Placeholder_1_0"
      }
    }
  }
  node {
    name: "_recv_Placeholder_0"
    op: "_Recv"
    device: "/job:localhost/replica:0/task:0/cpu:0"
    attr {
      key: "client_terminated"
      value {
        b: true
      }
    }
    attr {
      key: "recv_device"
      value {
        s: "/job:localhost/replica:0/task:0/cpu:0"
      }
    }
    attr {
      key: "send_device"
      value {
        s: "/job:localhost/replica:0/task:0/cpu:0"
      }
    }
    attr {
      key: "send_device_incarnation"
      value {
        i: 792173694468823645
      }
    }
    attr {
      key: "tensor_name"
      value {
        s: "Placeholder:0"
      }
    }
    attr {
      key: "tensor_type"
      value {
        type: DT_FLOAT
      }
    }
  }
  node {
    name: "_recv_Placeholder_0/_6"
    op: "_Send"
    input: "_recv_Placeholder_0"
    device: "/job:localhost/replica:0/task:0/cpu:0"
    attr {
      key: "T"
      value {
        type: DT_FLOAT
      }
    }
    attr {
      key: "client_terminated"
      value {
        b: false
      }
    }
    attr {
      key: "recv_device"
      value {
        s: "/job:localhost/replica:0/task:0/gpu:0"
      }
    }
    attr {
      key: "send_device"
      value {
        s: "/job:localhost/replica:0/task:0/cpu:0"
      }
    }
    attr {
      key: "send_device_incarnation"
      value {
        i: 1
      }
    }
    attr {
      key: "tensor_name"
      value {
        s: "edge_315__recv_Placeholder_0"
      }
    }
  }
  versions {
    producer: 21
  }
}
