step_stats {
  dev_stats {
    device: "/job:localhost/replica:0/task:0/cpu:0"
    node_stats {
      node_name: "_SOURCE"
      all_start_micros: 1488970767845090
      op_start_rel_micros: 2
      op_end_rel_micros: 3
      all_end_rel_micros: 13
      memory {
        allocator_name: "cpu"
      }
      timeline_label: "_SOURCE = NoOp()"
      scheduled_micros: 1488970767845080
    }
  }
  dev_stats {
    device: "/job:localhost/replica:0/task:0/gpu:0"
    node_stats {
      node_name: "_SOURCE"
      all_start_micros: 1488970767845089
      op_start_rel_micros: 5
      op_end_rel_micros: 13
      all_end_rel_micros: 18
      memory {
        allocator_name: "gpu_bfc"
      }
      timeline_label: "_SOURCE = NoOp()"
      scheduled_micros: 1488970767845072
    }
    node_stats {
      node_name: "Slice/begin/_1__cf__1"
      all_start_micros: 1488970767845119
      op_start_rel_micros: 1
      op_end_rel_micros: 4
      all_end_rel_micros: 17
      memory {
        allocator_name: "gpu_bfc"
      }
      output {
        tensor_description {
          dtype: DT_INT32
          shape {
            dim {
              size: 1
            }
          }
          allocation_description {
            requested_bytes: 4
            allocated_bytes: 256
            allocator_name: "cuda_host_bfc"
            allocation_id: 26
            ptr: 1108288211968
          }
        }
      }
      timeline_label: "Slice/begin/_1__cf__1 = Const()"
      scheduled_micros: 1488970767845107
    }
    node_stats {
      node_name: "gradients/Mean_grad/Reshape/_3__cf__3"
      all_start_micros: 1488970767845138
      op_end_rel_micros: 2
      all_end_rel_micros: 4
      memory {
        allocator_name: "gpu_bfc"
      }
      output {
        tensor_description {
          dtype: DT_FLOAT
          shape {
            dim {
              size: 1
            }
          }
          allocation_description {
            requested_bytes: 4
            allocated_bytes: 256
            allocator_name: "gpu_bfc"
            allocation_id: 53
            ptr: 1108290432512
          }
        }
      }
      timeline_label: "gradients/Mean_grad/Reshape/_3__cf__3 = Const()"
      scheduled_micros: 1488970767845136
    }
    node_stats {
      node_name: "Variable"
      all_start_micros: 1488970767845144
      op_end_rel_micros: 5
      all_end_rel_micros: 6
      memory {
        allocator_name: "gpu_bfc"
      }
      output {
        tensor_description {
          dtype: DT_FLOAT
          shape {
            dim {
              size: 784
            }
            dim {
              size: 170
            }
          }
          allocation_description {
            requested_bytes: 533120
            allocated_bytes: 533248
            allocator_name: "gpu_bfc"
            allocation_id: 43
            has_single_reference: true
            ptr: 1108294864896
          }
        }
      }
      timeline_label: "Variable = VariableV2()"
      scheduled_micros: 1488970767845142
    }
    node_stats {
      node_name: "Variable_1"
      all_start_micros: 1488970767845152
      op_end_rel_micros: 1
      all_end_rel_micros: 2
      memory {
        allocator_name: "gpu_bfc"
      }
      output {
        tensor_description {
          dtype: DT_FLOAT
          shape {
            dim {
              size: 170
            }
            dim {
              size: 170
            }
          }
          allocation_description {
            requested_bytes: 115600
            allocated_bytes: 115712
            allocator_name: "gpu_bfc"
            allocation_id: 44
            has_single_reference: true
            ptr: 1108290438400
          }
        }
      }
      timeline_label: "Variable_1 = VariableV2()"
      scheduled_micros: 1488970767845150
    }
    node_stats {
      node_name: "Variable_2"
      all_start_micros: 1488970767845155
      op_start_rel_micros: 1
      op_end_rel_micros: 2
      all_end_rel_micros: 4
      memory {
        allocator_name: "gpu_bfc"
      }
      output {
        tensor_description {
          dtype: DT_FLOAT
          shape {
            dim {
              size: 170
            }
            dim {
              size: 10
            }
          }
          allocation_description {
            requested_bytes: 6800
            allocated_bytes: 6912
            allocator_name: "gpu_bfc"
            allocation_id: 45
            has_single_reference: true
            ptr: 1108294749184
          }
        }
      }
      timeline_label: "Variable_2 = VariableV2()"
      scheduled_micros: 1488970767845154
    }
    node_stats {
      node_name: "Variable_3"
      all_start_micros: 1488970767845160
      op_end_rel_micros: 2
      all_end_rel_micros: 15
      memory {
        allocator_name: "gpu_bfc"
      }
      output {
        tensor_description {
          dtype: DT_FLOAT
          shape {
            dim {
              size: 170
            }
          }
          allocation_description {
            requested_bytes: 680
            allocated_bytes: 768
            allocator_name: "gpu_bfc"
            allocation_id: 46
            has_single_reference: true
            ptr: 1108290429696
          }
        }
      }
      timeline_label: "Variable_3 = VariableV2()"
      scheduled_micros: 1488970767845159
    }
    node_stats {
      node_name: "Variable_4"
      all_start_micros: 1488970767845177
      op_start_rel_micros: 1
      op_end_rel_micros: 3
      all_end_rel_micros: 4
      memory {
        allocator_name: "gpu_bfc"
      }
      output {
        tensor_description {
          dtype: DT_FLOAT
          shape {
            dim {
              size: 170
            }
          }
          allocation_description {
            requested_bytes: 680
            allocated_bytes: 768
            allocator_name: "gpu_bfc"
            allocation_id: 47
            has_single_reference: true
            ptr: 1108290430464
          }
        }
      }
      timeline_label: "Variable_4 = VariableV2()"
      scheduled_micros: 1488970767845175
    }
    node_stats {
      node_name: "Variable_5"
      all_start_micros: 1488970767845182
      op_end_rel_micros: 1
      all_end_rel_micros: 3
      memory {
        allocator_name: "gpu_bfc"
      }
      output {
        tensor_description {
          dtype: DT_FLOAT
          shape {
            dim {
              size: 10
            }
          }
          allocation_description {
            requested_bytes: 40
            allocated_bytes: 256
            allocator_name: "gpu_bfc"
            allocation_id: 48
            has_single_reference: true
            ptr: 1108290431232
          }
        }
      }
      timeline_label: "Variable_5 = VariableV2()"
      scheduled_micros: 1488970767845181
    }
    node_stats {
      node_name: "concat/values_0"
      all_start_micros: 1488970767845185
      op_end_rel_micros: 1
      all_end_rel_micros: 3
      memory {
        allocator_name: "gpu_bfc"
      }
      output {
        tensor_description {
          dtype: DT_INT32
          shape {
            dim {
              size: 1
            }
          }
          allocation_description {
            requested_bytes: 4
            allocated_bytes: 256
            allocator_name: "cuda_host_bfc"
            allocation_id: 15
            ptr: 1108288210176
          }
        }
      }
      timeline_label: "concat/values_0 = Const()"
      scheduled_micros: 1488970767845184
    }
    node_stats {
      node_name: "concat/axis"
      all_start_micros: 1488970767845189
      op_end_rel_micros: 1
      all_end_rel_micros: 1
      memory {
        allocator_name: "gpu_bfc"
      }
      output {
        tensor_description {
          dtype: DT_INT32
          shape {
          }
          allocation_description {
            requested_bytes: 4
            allocated_bytes: 256
            allocator_name: "cuda_host_bfc"
            allocation_id: 16
            ptr: 1108288210432
          }
        }
      }
      timeline_label: "concat/axis = Const()"
      scheduled_micros: 1488970767845188
    }
    node_stats {
      node_name: "Slice_2/begin"
      all_start_micros: 1488970767845191
      op_end_rel_micros: 1
      all_end_rel_micros: 2
      memory {
        allocator_name: "gpu_bfc"
      }
      output {
        tensor_description {
          dtype: DT_INT32
          shape {
            dim {
              size: 1
            }
          }
          allocation_description {
            requested_bytes: 4
            allocated_bytes: 256
            allocator_name: "cuda_host_bfc"
            allocation_id: 17
            ptr: 1108288210688
          }
        }
      }
      timeline_label: "Slice_2/begin = Const()"
      scheduled_micros: 1488970767845190
    }
    node_stats {
      node_name: "gradients/Mean_grad/Shape_2"
      all_start_micros: 1488970767845193
      op_end_rel_micros: 1
      all_end_rel_micros: 2
      memory {
        allocator_name: "gpu_bfc"
      }
      output {
        tensor_description {
          dtype: DT_INT32
          shape {
            dim {
            }
          }
        }
      }
      timeline_label: "gradients/Mean_grad/Shape_2 = Const()"
      scheduled_micros: 1488970767845193
    }
    node_stats {
      node_name: "gradients/Mean_grad/Maximum/y"
      all_start_micros: 1488970767845195
      op_start_rel_micros: 5
      op_end_rel_micros: 6
      all_end_rel_micros: 7
      memory {
        allocator_name: "gpu_bfc"
      }
      output {
        tensor_description {
          dtype: DT_INT32
          shape {
          }
          allocation_description {
            requested_bytes: 4
            allocated_bytes: 256
            allocator_name: "cuda_host_bfc"
            allocation_id: 18
            ptr: 1108288210944
          }
        }
      }
      timeline_label: "gradients/Mean_grad/Maximum/y = Const()"
      scheduled_micros: 1488970767845195
    }
    node_stats {
      node_name: "gradients/SoftmaxCrossEntropyWithLogits_grad/ExpandDims/dim"
      all_start_micros: 1488970767845203
      op_end_rel_micros: 2
      all_end_rel_micros: 2
      memory {
        allocator_name: "gpu_bfc"
      }
      output {
        tensor_description {
          dtype: DT_INT32
          shape {
          }
          allocation_description {
            requested_bytes: 4
            allocated_bytes: 256
            allocator_name: "cuda_host_bfc"
            allocation_id: 19
            ptr: 1108288211200
          }
        }
      }
      timeline_label: "gradients/SoftmaxCrossEntropyWithLogits_grad/ExpandDims/dim = Const()"
      scheduled_micros: 1488970767845202
    }
    node_stats {
      node_name: "gradients/add_grad/Shape_1"
      all_start_micros: 1488970767845207
      op_end_rel_micros: 1
      all_end_rel_micros: 2
      memory {
        allocator_name: "gpu_bfc"
      }
      output {
        tensor_description {
          dtype: DT_INT32
          shape {
            dim {
              size: 1
            }
          }
          allocation_description {
            requested_bytes: 4
            allocated_bytes: 256
            allocator_name: "cuda_host_bfc"
            allocation_id: 20
            ptr: 1108288211456
          }
        }
      }
      timeline_label: "gradients/add_grad/Shape_1 = Const()"
      scheduled_micros: 1488970767845205
    }
    node_stats {
      node_name: "gradients/Add_1_grad/Shape_1"
      all_start_micros: 1488970767845210
      op_end_rel_micros: 1
      all_end_rel_micros: 2
      memory {
        allocator_name: "gpu_bfc"
      }
      output {
        tensor_description {
          dtype: DT_INT32
          shape {
            dim {
              size: 1
            }
          }
          allocation_description {
            requested_bytes: 4
            allocated_bytes: 256
            allocator_name: "cuda_host_bfc"
            allocation_id: 21
            ptr: 1108288211712
          }
        }
      }
      timeline_label: "gradients/Add_1_grad/Shape_1 = Const()"
      scheduled_micros: 1488970767845209
    }
    node_stats {
      node_name: "beta1_power"
      all_start_micros: 1488970767845213
      op_end_rel_micros: 1
      all_end_rel_micros: 2
      memory {
        allocator_name: "gpu_bfc"
      }
      output {
        tensor_description {
          dtype: DT_FLOAT
          shape {
          }
          allocation_description {
            requested_bytes: 4
            allocated_bytes: 256
            allocator_name: "gpu_bfc"
            allocation_id: 17
            has_single_reference: true
            ptr: 1108291087360
          }
        }
      }
      timeline_label: "beta1_power = VariableV2()"
      scheduled_micros: 1488970767845212
    }
    node_stats {
      node_name: "beta2_power"
      all_start_micros: 1488970767845218
      op_start_rel_micros: 1
      op_end_rel_micros: 2
      all_end_rel_micros: 3
      memory {
        allocator_name: "gpu_bfc"
      }
      output {
        tensor_description {
          dtype: DT_FLOAT
          shape {
          }
          allocation_description {
            requested_bytes: 4
            allocated_bytes: 256
            allocator_name: "gpu_bfc"
            allocation_id: 18
            has_single_reference: true
            ptr: 1108291087616
          }
        }
      }
      timeline_label: "beta2_power = VariableV2()"
      scheduled_micros: 1488970767845215
    }
    node_stats {
      node_name: "Variable/Adam"
      all_start_micros: 1488970767845222
      op_end_rel_micros: 1
      all_end_rel_micros: 2
      memory {
        allocator_name: "gpu_bfc"
      }
      output {
        tensor_description {
          dtype: DT_FLOAT
          shape {
            dim {
              size: 784
            }
            dim {
              size: 170
            }
          }
          allocation_description {
            requested_bytes: 533120
            allocated_bytes: 533248
            allocator_name: "gpu_bfc"
            allocation_id: 19
            has_single_reference: true
            ptr: 1108291087872
          }
        }
      }
      timeline_label: "Variable/Adam = VariableV2()"
      scheduled_micros: 1488970767845221
    }
    node_stats {
      node_name: "Variable/Adam_1"
      all_start_micros: 1488970767845225
      op_end_rel_micros: 2
      all_end_rel_micros: 3
      memory {
        allocator_name: "gpu_bfc"
      }
      output {
        tensor_description {
          dtype: DT_FLOAT
          shape {
            dim {
              size: 784
            }
            dim {
              size: 170
            }
          }
          allocation_description {
            requested_bytes: 533120
            allocated_bytes: 782080
            allocator_name: "gpu_bfc"
            allocation_id: 20
            has_single_reference: true
            ptr: 1108291621120
          }
        }
      }
      timeline_label: "Variable/Adam_1 = VariableV2()"
      scheduled_micros: 1488970767845224
    }
    node_stats {
      node_name: "Variable_1/Adam"
      all_start_micros: 1488970767845229
      op_end_rel_micros: 1
      all_end_rel_micros: 2
      memory {
        allocator_name: "gpu_bfc"
      }
      output {
        tensor_description {
          dtype: DT_FLOAT
          shape {
            dim {
              size: 170
            }
            dim {
              size: 170
            }
          }
          allocation_description {
            requested_bytes: 115600
            allocated_bytes: 115712
            allocator_name: "gpu_bfc"
            allocation_id: 21
            has_single_reference: true
            ptr: 1108294500352
          }
        }
      }
      timeline_label: "Variable_1/Adam = VariableV2()"
      scheduled_micros: 1488970767845228
    }
    node_stats {
      node_name: "Variable_1/Adam_1"
      all_start_micros: 1488970767845232
      op_end_rel_micros: 1
      all_end_rel_micros: 2
      memory {
        allocator_name: "gpu_bfc"
      }
      output {
        tensor_description {
          dtype: DT_FLOAT
          shape {
            dim {
              size: 170
            }
            dim {
              size: 170
            }
          }
          allocation_description {
            requested_bytes: 115600
            allocated_bytes: 115712
            allocator_name: "gpu_bfc"
            allocation_id: 22
            has_single_reference: true
            ptr: 1108294616064
          }
        }
      }
      timeline_label: "Variable_1/Adam_1 = VariableV2()"
      scheduled_micros: 1488970767845231
    }
    node_stats {
      node_name: "Variable_2/Adam"
      all_start_micros: 1488970767845238
      op_end_rel_micros: 2
      all_end_rel_micros: 2
      memory {
        allocator_name: "gpu_bfc"
      }
      output {
        tensor_description {
          dtype: DT_FLOAT
          shape {
            dim {
              size: 170
            }
            dim {
              size: 10
            }
          }
          allocation_description {
            requested_bytes: 6800
            allocated_bytes: 6912
            allocator_name: "gpu_bfc"
            allocation_id: 23
            has_single_reference: true
            ptr: 1108294731776
          }
        }
      }
      timeline_label: "Variable_2/Adam = VariableV2()"
      scheduled_micros: 1488970767845234
    }
    node_stats {
      node_name: "Variable_2/Adam_1"
      all_start_micros: 1488970767845241
      op_start_rel_micros: 1
      op_end_rel_micros: 2
      all_end_rel_micros: 3
      memory {
        allocator_name: "gpu_bfc"
      }
      output {
        tensor_description {
          dtype: DT_FLOAT
          shape {
            dim {
              size: 170
            }
            dim {
              size: 10
            }
          }
          allocation_description {
            requested_bytes: 6800
            allocated_bytes: 6912
            allocator_name: "gpu_bfc"
            allocation_id: 24
            has_single_reference: true
            ptr: 1108294738688
          }
        }
      }
      timeline_label: "Variable_2/Adam_1 = VariableV2()"
      scheduled_micros: 1488970767845240
    }
    node_stats {
      node_name: "Variable_3/Adam"
      all_start_micros: 1488970767845245
      op_end_rel_micros: 1
      all_end_rel_micros: 2
      memory {
        allocator_name: "gpu_bfc"
      }
      output {
        tensor_description {
          dtype: DT_FLOAT
          shape {
            dim {
              size: 170
            }
          }
          allocation_description {
            requested_bytes: 680
            allocated_bytes: 768
            allocator_name: "gpu_bfc"
            allocation_id: 25
            has_single_reference: true
            ptr: 1108294745600
          }
        }
      }
      timeline_label: "Variable_3/Adam = VariableV2()"
      scheduled_micros: 1488970767845244
    }
    node_stats {
      node_name: "Variable_3/Adam_1"
      all_start_micros: 1488970767845248
      op_end_rel_micros: 1
      all_end_rel_micros: 2
      memory {
        allocator_name: "gpu_bfc"
      }
      output {
        tensor_description {
          dtype: DT_FLOAT
          shape {
            dim {
              size: 170
            }
          }
          allocation_description {
            requested_bytes: 680
            allocated_bytes: 768
            allocator_name: "gpu_bfc"
            allocation_id: 26
            has_single_reference: true
            ptr: 1108294746368
          }
        }
      }
      timeline_label: "Variable_3/Adam_1 = VariableV2()"
      scheduled_micros: 1488970767845247
    }
    node_stats {
      node_name: "Variable_4/Adam"
      all_start_micros: 1488970767845251
      op_end_rel_micros: 1
      all_end_rel_micros: 4
      memory {
        allocator_name: "gpu_bfc"
      }
      output {
        tensor_description {
          dtype: DT_FLOAT
          shape {
            dim {
              size: 170
            }
          }
          allocation_description {
            requested_bytes: 680
            allocated_bytes: 768
            allocator_name: "gpu_bfc"
            allocation_id: 27
            has_single_reference: true
            ptr: 1108294747136
          }
        }
      }
      timeline_label: "Variable_4/Adam = VariableV2()"
      scheduled_micros: 1488970767845250
    }
    node_stats {
      node_name: "Variable_4/Adam_1"
      all_start_micros: 1488970767845256
      op_end_rel_micros: 1
      all_end_rel_micros: 2
      memory {
        allocator_name: "gpu_bfc"
      }
      output {
        tensor_description {
          dtype: DT_FLOAT
          shape {
            dim {
              size: 170
            }
          }
          allocation_description {
            requested_bytes: 680
            allocated_bytes: 768
            allocator_name: "gpu_bfc"
            allocation_id: 28
            has_single_reference: true
            ptr: 1108294747904
          }
        }
      }
      timeline_label: "Variable_4/Adam_1 = VariableV2()"
      scheduled_micros: 1488970767845254
    }
    node_stats {
      node_name: "Variable_5/Adam"
      all_start_micros: 1488970767845259
      op_end_rel_micros: 1
      all_end_rel_micros: 2
      memory {
        allocator_name: "gpu_bfc"
      }
      output {
        tensor_description {
          dtype: DT_FLOAT
          shape {
            dim {
              size: 10
            }
          }
          allocation_description {
            requested_bytes: 40
            allocated_bytes: 256
            allocator_name: "gpu_bfc"
            allocation_id: 29
            has_single_reference: true
            ptr: 1108294748672
          }
        }
      }
      timeline_label: "Variable_5/Adam = VariableV2()"
      scheduled_micros: 1488970767845258
    }
    node_stats {
      node_name: "Variable_5/Adam_1"
      all_start_micros: 1488970767845262
      op_end_rel_micros: 1
      all_end_rel_micros: 2
      memory {
        allocator_name: "gpu_bfc"
      }
      output {
        tensor_description {
          dtype: DT_FLOAT
          shape {
            dim {
              size: 10
            }
          }
          allocation_description {
            requested_bytes: 40
            allocated_bytes: 256
            allocator_name: "gpu_bfc"
            allocation_id: 30
            has_single_reference: true
            ptr: 1108294748928
          }
        }
      }
      timeline_label: "Variable_5/Adam_1 = VariableV2()"
      scheduled_micros: 1488970767845261
    }
    node_stats {
      node_name: "Adam/learning_rate"
      all_start_micros: 1488970767845265
      op_end_rel_micros: 1
      all_end_rel_micros: 2
      memory {
        allocator_name: "gpu_bfc"
      }
      output {
        tensor_description {
          dtype: DT_FLOAT
          shape {
          }
          allocation_description {
            requested_bytes: 4
            allocated_bytes: 256
            allocator_name: "gpu_bfc"
            allocation_id: 49
            ptr: 1108290431488
          }
        }
      }
      timeline_label: "Adam/learning_rate = Const()"
      scheduled_micros: 1488970767845264
    }
    node_stats {
      node_name: "Adam/beta1"
      all_start_micros: 1488970767845268
      op_end_rel_micros: 1
      all_end_rel_micros: 3
      memory {
        allocator_name: "gpu_bfc"
      }
      output {
        tensor_description {
          dtype: DT_FLOAT
          shape {
          }
          allocation_description {
            requested_bytes: 4
            allocated_bytes: 256
            allocator_name: "gpu_bfc"
            allocation_id: 50
            ptr: 1108290431744
          }
        }
      }
      timeline_label: "Adam/beta1 = Const()"
      scheduled_micros: 1488970767845267
    }
    node_stats {
      node_name: "Adam/beta2"
      all_start_micros: 1488970767845272
      op_end_rel_micros: 1
      all_end_rel_micros: 2
      memory {
        allocator_name: "gpu_bfc"
      }
      output {
        tensor_description {
          dtype: DT_FLOAT
          shape {
          }
          allocation_description {
            requested_bytes: 4
            allocated_bytes: 256
            allocator_name: "gpu_bfc"
            allocation_id: 51
            ptr: 1108290432000
          }
        }
      }
      timeline_label: "Adam/beta2 = Const()"
      scheduled_micros: 1488970767845271
    }
    node_stats {
      node_name: "Adam/epsilon"
      all_start_micros: 1488970767845275
      op_end_rel_micros: 1
      all_end_rel_micros: 1
      memory {
        allocator_name: "gpu_bfc"
      }
      output {
        tensor_description {
          dtype: DT_FLOAT
          shape {
          }
          allocation_description {
            requested_bytes: 4
            allocated_bytes: 256
            allocator_name: "gpu_bfc"
            allocation_id: 52
            ptr: 1108290432256
          }
        }
      }
      timeline_label: "Adam/epsilon = Const()"
      scheduled_micros: 1488970767845274
    }
    node_stats {
      node_name: "Variable/read"
      all_start_micros: 1488970767845277
      op_start_rel_micros: 1
      op_end_rel_micros: 5
      all_end_rel_micros: 6
      memory {
        allocator_name: "gpu_bfc"
      }
      output {
        tensor_description {
          dtype: DT_FLOAT
          shape {
            dim {
              size: 784
            }
            dim {
              size: 170
            }
          }
          allocation_description {
            requested_bytes: 533120
            allocated_bytes: 533248
            allocator_name: "gpu_bfc"
            allocation_id: 43
            ptr: 1108294864896
          }
        }
      }
      timeline_label: "Variable/read = Identity(Variable)"
      scheduled_micros: 1488970767845276
    }
    node_stats {
      node_name: "Variable_1/read"
      all_start_micros: 1488970767845284
      op_end_rel_micros: 1
      all_end_rel_micros: 2
      memory {
        allocator_name: "gpu_bfc"
      }
      output {
        tensor_description {
          dtype: DT_FLOAT
          shape {
            dim {
              size: 170
            }
            dim {
              size: 170
            }
          }
          allocation_description {
            requested_bytes: 115600
            allocated_bytes: 115712
            allocator_name: "gpu_bfc"
            allocation_id: 44
            ptr: 1108290438400
          }
        }
      }
      timeline_label: "Variable_1/read = Identity(Variable_1)"
      scheduled_micros: 1488970767845283
    }
    node_stats {
      node_name: "Variable_2/read"
      all_start_micros: 1488970767845288
      op_end_rel_micros: 6
      all_end_rel_micros: 8
      memory {
        allocator_name: "gpu_bfc"
      }
      output {
        tensor_description {
          dtype: DT_FLOAT
          shape {
            dim {
              size: 170
            }
            dim {
              size: 10
            }
          }
          allocation_description {
            requested_bytes: 6800
            allocated_bytes: 6912
            allocator_name: "gpu_bfc"
            allocation_id: 45
            ptr: 1108294749184
          }
        }
      }
      timeline_label: "Variable_2/read = Identity(Variable_2)"
      scheduled_micros: 1488970767845286
    }
    node_stats {
      node_name: "Variable_3/read"
      all_start_micros: 1488970767845297
      op_end_rel_micros: 2
      all_end_rel_micros: 3
      memory {
        allocator_name: "gpu_bfc"
      }
      output {
        tensor_description {
          dtype: DT_FLOAT
          shape {
            dim {
              size: 170
            }
          }
          allocation_description {
            requested_bytes: 680
            allocated_bytes: 768
            allocator_name: "gpu_bfc"
            allocation_id: 46
            ptr: 1108290429696
          }
        }
      }
      timeline_label: "Variable_3/read = Identity(Variable_3)"
      scheduled_micros: 1488970767845296
    }
    node_stats {
      node_name: "Variable_4/read"
      all_start_micros: 1488970767845302
      op_end_rel_micros: 1
      all_end_rel_micros: 1
      memory {
        allocator_name: "gpu_bfc"
      }
      output {
        tensor_description {
          dtype: DT_FLOAT
          shape {
            dim {
              size: 170
            }
          }
          allocation_description {
            requested_bytes: 680
            allocated_bytes: 768
            allocator_name: "gpu_bfc"
            allocation_id: 47
            ptr: 1108290430464
          }
        }
      }
      timeline_label: "Variable_4/read = Identity(Variable_4)"
      scheduled_micros: 1488970767845300
    }
    node_stats {
      node_name: "Variable_5/read"
      all_start_micros: 1488970767845305
      op_end_rel_micros: 1
      all_end_rel_micros: 1
      memory {
        allocator_name: "gpu_bfc"
      }
      output {
        tensor_description {
          dtype: DT_FLOAT
          shape {
            dim {
              size: 10
            }
          }
          allocation_description {
            requested_bytes: 40
            allocated_bytes: 256
            allocator_name: "gpu_bfc"
            allocation_id: 48
            ptr: 1108290431232
          }
        }
      }
      timeline_label: "Variable_5/read = Identity(Variable_5)"
      scheduled_micros: 1488970767845303
    }
    node_stats {
      node_name: "beta1_power/read"
      all_start_micros: 1488970767845323
      op_end_rel_micros: 1
      all_end_rel_micros: 2
      memory {
        allocator_name: "gpu_bfc"
      }
      output {
        tensor_description {
          dtype: DT_FLOAT
          shape {
          }
          allocation_description {
            requested_bytes: 4
            allocated_bytes: 256
            allocator_name: "gpu_bfc"
            allocation_id: 17
            ptr: 1108291087360
          }
        }
      }
      timeline_label: "beta1_power/read = Identity(beta1_power)"
      scheduled_micros: 1488970767845318
    }
    node_stats {
      node_name: "beta2_power/read"
      all_start_micros: 1488970767845326
      op_end_rel_micros: 1
      all_end_rel_micros: 2
      memory {
        allocator_name: "gpu_bfc"
      }
      output {
        tensor_description {
          dtype: DT_FLOAT
          shape {
          }
          allocation_description {
            requested_bytes: 4
            allocated_bytes: 256
            allocator_name: "gpu_bfc"
            allocation_id: 18
            ptr: 1108291087616
          }
        }
      }
      timeline_label: "beta2_power/read = Identity(beta2_power)"
      scheduled_micros: 1488970767845325
    }
    node_stats {
      node_name: "Shape_2"
      all_start_micros: 1488970767845358
      op_start_rel_micros: 1
      op_end_rel_micros: 11
      all_end_rel_micros: 14
      memory {
        allocator_name: "gpu_bfc"
      }
      memory {
        allocator_name: "cpu_pool"
        total_bytes: 8
      }
      output {
        tensor_description {
          dtype: DT_INT32
          shape {
            dim {
              size: 2
            }
          }
          allocation_description {
            requested_bytes: 8
            allocator_name: "cpu_pool"
            ptr: 140687760693408
          }
        }
      }
      timeline_label: "Shape_2 = Shape(_recv_Placeholder_1_0/_5)"
      scheduled_micros: 1488970767845357
    }
    node_stats {
      node_name: "Slice_1"
      all_start_micros: 1488970767845375
      op_end_rel_micros: 25
      all_end_rel_micros: 28
      memory {
        allocator_name: "gpu_bfc"
      }
      memory {
        allocator_name: "cpu_pool"
        total_bytes: 4
      }
      output {
        tensor_description {
          dtype: DT_INT32
          shape {
            dim {
              size: 1
            }
          }
          allocation_description {
            requested_bytes: 4
            allocator_name: "cpu_pool"
            ptr: 140687760691584
          }
        }
      }
      timeline_label: "Slice_1 = Slice(Shape_2, Slice_1/begin, Slice_1/size)"
      scheduled_micros: 1488970767845372
    }
    node_stats {
      node_name: "concat_1"
      all_start_micros: 1488970767845405
      op_start_rel_micros: 1
      op_end_rel_micros: 12
      all_end_rel_micros: 14
      memory {
        allocator_name: "gpu_bfc"
      }
      memory {
        allocator_name: "cpu_pool"
        total_bytes: 8
      }
      output {
        tensor_description {
          dtype: DT_INT32
          shape {
            dim {
              size: 2
            }
          }
          allocation_description {
            requested_bytes: 8
            allocator_name: "cpu_pool"
            ptr: 140687760693408
          }
        }
      }
      timeline_label: "concat_1 = ConcatV2(concat_1/values_0, Slice_1, concat_1/axis)"
      scheduled_micros: 1488970767845403
    }
    node_stats {
      node_name: "Reshape_1"
      all_start_micros: 1488970767845421
      op_start_rel_micros: 2
      op_end_rel_micros: 4
      all_end_rel_micros: 6
      memory {
        allocator_name: "gpu_bfc"
      }
      output {
        tensor_description {
          dtype: DT_FLOAT
          shape {
            dim {
              size: 100
            }
            dim {
              size: 10
            }
          }
          allocation_description {
            requested_bytes: 4000
            allocated_bytes: 5632
            allocator_name: "gpu_bfc"
            allocation_id: 55
            ptr: 1108290432768
          }
        }
      }
      timeline_label: "Reshape_1 = Reshape(_recv_Placeholder_1_0/_5, concat_1)"
      scheduled_micros: 1488970767845419
    }
    node_stats {
      node_name: "gradients/Mean_grad/Prod_1"
      all_start_micros: 1488970767845364
      op_start_rel_micros: 1
      op_end_rel_micros: 74
      all_end_rel_micros: 76
      memory {
        allocator_name: "gpu_bfc"
        total_bytes: 512
        peak_bytes: 512
      }
      output {
        tensor_description {
          dtype: DT_INT32
          shape {
          }
          allocation_description {
            requested_bytes: 4
            allocated_bytes: 256
            allocator_name: "gpu_bfc"
            allocation_id: 58
            has_single_reference: true
            ptr: 1108295398400
          }
        }
      }
      timeline_label: "gradients/Mean_grad/Prod_1 = Prod(gradients/Mean_grad/Shape_2/_1, gradients/Mean_grad/Const_1)"
      scheduled_micros: 1488970767845363
    }
    node_stats {
      node_name: "gradients/Mean_grad/Maximum"
      all_start_micros: 1488970767845560
      op_start_rel_micros: 2
      op_end_rel_micros: 14
      all_end_rel_micros: 18
      memory {
        allocator_name: "gpu_bfc"
      }
      memory {
        allocator_name: "cpu_pool"
        total_bytes: 4
      }
      output {
        tensor_description {
          dtype: DT_INT32
          shape {
          }
          allocation_description {
            requested_bytes: 4
            allocator_name: "cpu_pool"
            ptr: 140687760691584
          }
        }
      }
      timeline_label: "gradients/Mean_grad/Maximum = Maximum(gradients/Mean_grad/Prod_1/_3, gradients/Mean_grad/Maximum/y)"
      scheduled_micros: 1488970767845534
    }
    node_stats {
      node_name: "MatMul"
      all_start_micros: 1488970767845351
      op_start_rel_micros: 1
      op_end_rel_micros: 146033
      all_end_rel_micros: 146052
      memory {
        allocator_name: "gpu_bfc"
        total_bytes: 108800
        peak_bytes: 108800
      }
      output {
        tensor_description {
          dtype: DT_FLOAT
          shape {
            dim {
              size: 100
            }
            dim {
              size: 170
            }
          }
          allocation_description {
            requested_bytes: 68000
            allocated_bytes: 108800
            allocator_name: "gpu_bfc"
            allocation_id: 56
            has_single_reference: true
            ptr: 1108294756096
          }
        }
      }
      timeline_label: "[gpu_bfc 0.1MB 0.1MB] MatMul = MatMul(_recv_Placeholder_0/_7, Variable/read)"
      scheduled_micros: 1488970767845350
    }
    node_stats {
      node_name: "gradients/Add_grad/Shape"
      all_start_micros: 1488970767991419
      op_start_rel_micros: 16
      op_end_rel_micros: 42
      all_end_rel_micros: 44
      memory {
        allocator_name: "gpu_bfc"
      }
      memory {
        allocator_name: "cpu_pool"
        total_bytes: 8
      }
      output {
        tensor_description {
          dtype: DT_INT32
          shape {
            dim {
              size: 2
            }
          }
          allocation_description {
            requested_bytes: 8
            allocator_name: "cpu_pool"
            ptr: 140687760693408
          }
        }
      }
      timeline_label: "gradients/Add_grad/Shape = Shape(MatMul)"
      scheduled_micros: 1488970767991403
    }
    node_stats {
      node_name: "Add"
      all_start_micros: 1488970767991464
      op_start_rel_micros: 1
      op_end_rel_micros: 51
      all_end_rel_micros: 54
      memory {
        allocator_name: "gpu_bfc"
        total_bytes: 68096
        peak_bytes: 68096
      }
      output {
        tensor_description {
          dtype: DT_FLOAT
          shape {
            dim {
              size: 100
            }
            dim {
              size: 170
            }
          }
          allocation_description {
            requested_bytes: 68000
            allocated_bytes: 68096
            allocator_name: "gpu_bfc"
            allocation_id: 59
            has_single_reference: true
            ptr: 1108295398144
          }
        }
      }
      timeline_label: "Add = Add(MatMul, Variable_3/read)"
      scheduled_micros: 1488970767991463
    }
    node_stats {
      node_name: "gradients/Add_grad/BroadcastGradientArgs"
      all_start_micros: 1488970767991520
      op_end_rel_micros: 5
      all_end_rel_micros: 7
      memory {
        allocator_name: "gpu_bfc"
      }
      memory {
        allocator_name: "cpu_pool"
        total_bytes: 4
      }
      output {
        tensor_description {
          dtype: DT_INT32
          shape {
            dim {
            }
          }
        }
      }
      output {
        slot: 1
        tensor_description {
          dtype: DT_INT32
          shape {
            dim {
              size: 1
            }
          }
          allocation_description {
            requested_bytes: 4
            allocator_name: "cpu_pool"
            ptr: 140687626685760
          }
        }
      }
      timeline_label: "gradients/Add_grad/BroadcastGradientArgs = BroadcastGradientArgs(gradients/Add_grad/Shape, gradients/Add_grad/Shape_1)"
      scheduled_micros: 1488970767991518
    }
    node_stats {
      node_name: "Relu"
      all_start_micros: 1488970767991528
      op_start_rel_micros: 1
      op_end_rel_micros: 18
      all_end_rel_micros: 21
      memory {
        allocator_name: "gpu_bfc"
        total_bytes: 108800
        peak_bytes: 108800
      }
      output {
        tensor_description {
          dtype: DT_FLOAT
          shape {
            dim {
              size: 100
            }
            dim {
              size: 170
            }
          }
          allocation_description {
            requested_bytes: 68000
            allocated_bytes: 108800
            allocator_name: "gpu_bfc"
            allocation_id: 60
            has_single_reference: true
            ptr: 1108294756096
          }
        }
      }
      timeline_label: "[gpu_bfc 0.1MB 0.1MB] Relu = Relu(Add)"
      scheduled_micros: 1488970767991527
    }
    node_stats {
      node_name: "MatMul_1"
      all_start_micros: 1488970767991552
      op_start_rel_micros: 1
      op_end_rel_micros: 19
      all_end_rel_micros: 21
      memory {
        allocator_name: "gpu_bfc"
        total_bytes: 68096
        peak_bytes: 68096
      }
      output {
        tensor_description {
          dtype: DT_FLOAT
          shape {
            dim {
              size: 100
            }
            dim {
              size: 170
            }
          }
          allocation_description {
            requested_bytes: 68000
            allocated_bytes: 68096
            allocator_name: "gpu_bfc"
            allocation_id: 61
            has_single_reference: true
            ptr: 1108295398144
          }
        }
      }
      timeline_label: "MatMul_1 = MatMul(Relu, Variable_1/read)"
      scheduled_micros: 1488970767991549
    }
    node_stats {
      node_name: "gradients/Add_1_grad/Shape"
      all_start_micros: 1488970767991575
      op_end_rel_micros: 2
      all_end_rel_micros: 3
      memory {
        allocator_name: "gpu_bfc"
      }
      memory {
        allocator_name: "cpu_pool"
        total_bytes: 8
      }
      output {
        tensor_description {
          dtype: DT_INT32
          shape {
            dim {
              size: 2
            }
          }
          allocation_description {
            requested_bytes: 8
            allocator_name: "cpu_pool"
            ptr: 140687105615904
          }
        }
      }
      timeline_label: "gradients/Add_1_grad/Shape = Shape(MatMul_1)"
      scheduled_micros: 1488970767991573
    }
    node_stats {
      node_name: "Add_1"
      all_start_micros: 1488970767991580
      op_end_rel_micros: 11
      all_end_rel_micros: 13
      memory {
        allocator_name: "gpu_bfc"
        total_bytes: 68096
        peak_bytes: 68096
      }
      output {
        tensor_description {
          dtype: DT_FLOAT
          shape {
            dim {
              size: 100
            }
            dim {
              size: 170
            }
          }
          allocation_description {
            requested_bytes: 68000
            allocated_bytes: 68096
            allocator_name: "gpu_bfc"
            allocation_id: 62
            has_single_reference: true
            ptr: 1108295466240
          }
        }
      }
      timeline_label: "Add_1 = Add(MatMul_1, Variable_4/read)"
      scheduled_micros: 1488970767991578
    }
    node_stats {
      node_name: "gradients/Add_1_grad/BroadcastGradientArgs"
      all_start_micros: 1488970767991594
      op_start_rel_micros: 1
      op_end_rel_micros: 3
      all_end_rel_micros: 4
      memory {
        allocator_name: "gpu_bfc"
      }
      memory {
        allocator_name: "cpu_pool"
        total_bytes: 4
      }
      output {
        tensor_description {
          dtype: DT_INT32
          shape {
            dim {
            }
          }
        }
      }
      output {
        slot: 1
        tensor_description {
          dtype: DT_INT32
          shape {
            dim {
              size: 1
            }
          }
          allocation_description {
            requested_bytes: 4
            allocator_name: "cpu_pool"
            ptr: 140687105614880
          }
        }
      }
      timeline_label: "gradients/Add_1_grad/BroadcastGradientArgs = BroadcastGradientArgs(gradients/Add_1_grad/Shape, gradients/Add_1_grad/Shape_1)"
      scheduled_micros: 1488970767991593
    }
    node_stats {
      node_name: "Relu_1"
      all_start_micros: 1488970767991599
      op_end_rel_micros: 10
      all_end_rel_micros: 12
      memory {
        allocator_name: "gpu_bfc"
        total_bytes: 68096
        peak_bytes: 68096
      }
      output {
        tensor_description {
          dtype: DT_FLOAT
          shape {
            dim {
              size: 100
            }
            dim {
              size: 170
            }
          }
          allocation_description {
            requested_bytes: 68000
            allocated_bytes: 68096
            allocator_name: "gpu_bfc"
            allocation_id: 63
            has_single_reference: true
            ptr: 1108295398144
          }
        }
      }
      timeline_label: "Relu_1 = Relu(Add_1)"
      scheduled_micros: 1488970767991598
    }
    node_stats {
      node_name: "MatMul_2"
      all_start_micros: 1488970767991612
      op_start_rel_micros: 1
      op_end_rel_micros: 17
      all_end_rel_micros: 19
      memory {
        allocator_name: "gpu_bfc"
        total_bytes: 4096
        peak_bytes: 4096
      }
      output {
        tensor_description {
          dtype: DT_FLOAT
          shape {
            dim {
              size: 100
            }
            dim {
              size: 10
            }
          }
          allocation_description {
            requested_bytes: 4000
            allocated_bytes: 4096
            allocator_name: "gpu_bfc"
            allocation_id: 64
            has_single_reference: true
            ptr: 1108295466240
          }
        }
      }
      timeline_label: "MatMul_2 = MatMul(Relu_1, Variable_2/read)"
      scheduled_micros: 1488970767991611
    }
    node_stats {
      node_name: "gradients/add_grad/Shape"
      all_start_micros: 1488970767991633
      op_end_rel_micros: 2
      all_end_rel_micros: 3
      memory {
        allocator_name: "gpu_bfc"
      }
      memory {
        allocator_name: "cpu_pool"
        total_bytes: 8
      }
      output {
        tensor_description {
          dtype: DT_INT32
          shape {
            dim {
              size: 2
            }
          }
          allocation_description {
            requested_bytes: 8
            allocator_name: "cpu_pool"
            ptr: 140687105622688
          }
        }
      }
      timeline_label: "gradients/add_grad/Shape = Shape(MatMul_2)"
      scheduled_micros: 1488970767991631
    }
    node_stats {
      node_name: "add"
      all_start_micros: 1488970767991637
      op_end_rel_micros: 10
      all_end_rel_micros: 12
      memory {
        allocator_name: "gpu_bfc"
        total_bytes: 4096
        peak_bytes: 4096
      }
      output {
        tensor_description {
          dtype: DT_FLOAT
          shape {
            dim {
              size: 100
            }
            dim {
              size: 10
            }
          }
          allocation_description {
            requested_bytes: 4000
            allocated_bytes: 4096
            allocator_name: "gpu_bfc"
            allocation_id: 65
            has_single_reference: true
            ptr: 1108295470336
          }
        }
      }
      timeline_label: "add = Add(MatMul_2, Variable_5/read)"
      scheduled_micros: 1488970767991636
    }
    node_stats {
      node_name: "gradients/add_grad/BroadcastGradientArgs"
      all_start_micros: 1488970767991651
      op_end_rel_micros: 2
      all_end_rel_micros: 4
      memory {
        allocator_name: "gpu_bfc"
      }
      memory {
        allocator_name: "cpu_pool"
        total_bytes: 4
      }
      output {
        tensor_description {
          dtype: DT_INT32
          shape {
            dim {
            }
          }
        }
      }
      output {
        slot: 1
        tensor_description {
          dtype: DT_INT32
          shape {
            dim {
              size: 1
            }
          }
          allocation_description {
            requested_bytes: 4
            allocator_name: "cpu_pool"
            ptr: 140687105621536
          }
        }
      }
      timeline_label: "gradients/add_grad/BroadcastGradientArgs = BroadcastGradientArgs(gradients/add_grad/Shape, gradients/add_grad/Shape_1)"
      scheduled_micros: 1488970767991649
    }
    node_stats {
      node_name: "Shape"
      all_start_micros: 1488970767991656
      op_end_rel_micros: 1
      all_end_rel_micros: 2
      memory {
        allocator_name: "gpu_bfc"
      }
      memory {
        allocator_name: "cpu_pool"
        total_bytes: 8
      }
      output {
        tensor_description {
          dtype: DT_INT32
          shape {
            dim {
              size: 2
            }
          }
          allocation_description {
            requested_bytes: 8
            allocator_name: "cpu_pool"
            ptr: 140687105625664
          }
        }
      }
      timeline_label: "Shape = Shape(add)"
      scheduled_micros: 1488970767991655
    }
    node_stats {
      node_name: "Slice_2"
      all_start_micros: 1488970767991659
      op_start_rel_micros: 1
      op_end_rel_micros: 6
      all_end_rel_micros: 6
      memory {
        allocator_name: "gpu_bfc"
      }
      memory {
        allocator_name: "cpu_pool"
        total_bytes: 4
      }
      output {
        tensor_description {
          dtype: DT_INT32
          shape {
            dim {
              size: 1
            }
          }
          allocation_description {
            requested_bytes: 4
            allocator_name: "cpu_pool"
            ptr: 140687105629024
          }
        }
      }
      timeline_label: "Slice_2 = Slice(Shape, Slice_2/begin, Slice_2/size)"
      scheduled_micros: 1488970767991658
    }
    node_stats {
      node_name: "Slice"
      all_start_micros: 1488970767991667
      op_start_rel_micros: 1
      op_end_rel_micros: 2
      all_end_rel_micros: 3
      memory {
        allocator_name: "gpu_bfc"
      }
      memory {
        allocator_name: "cpu_pool"
        total_bytes: 4
      }
      output {
        tensor_description {
          dtype: DT_INT32
          shape {
            dim {
              size: 1
            }
          }
          allocation_description {
            requested_bytes: 4
            allocator_name: "cpu_pool"
            ptr: 140687105630848
          }
        }
      }
      timeline_label: "Slice = Slice(Shape_1, Slice/begin, Slice/size)"
      scheduled_micros: 1488970767991665
    }
    node_stats {
      node_name: "concat"
      all_start_micros: 1488970767991671
      op_end_rel_micros: 7
      all_end_rel_micros: 8
      memory {
        allocator_name: "gpu_bfc"
      }
      memory {
        allocator_name: "cpu_pool"
        total_bytes: 8
      }
      output {
        tensor_description {
          dtype: DT_INT32
          shape {
            dim {
              size: 2
            }
          }
          allocation_description {
            requested_bytes: 8
            allocator_name: "cpu_pool"
            ptr: 140687506964288
          }
        }
      }
      timeline_label: "concat = ConcatV2(concat/values_0, Slice, concat/axis)"
      scheduled_micros: 1488970767991670
    }
    node_stats {
      node_name: "Reshape"
      all_start_micros: 1488970767991681
      op_end_rel_micros: 3
      all_end_rel_micros: 4
      memory {
        allocator_name: "gpu_bfc"
      }
      output {
        tensor_description {
          dtype: DT_FLOAT
          shape {
            dim {
              size: 100
            }
            dim {
              size: 10
            }
          }
          allocation_description {
            requested_bytes: 4000
            allocated_bytes: 4096
            allocator_name: "gpu_bfc"
            allocation_id: 65
            ptr: 1108295470336
          }
        }
      }
      timeline_label: "Reshape = Reshape(add, concat)"
      scheduled_micros: 1488970767991679
    }
    node_stats {
      node_name: "SoftmaxCrossEntropyWithLogits"
      all_start_micros: 1488970767991686
      op_end_rel_micros: 136
      all_end_rel_micros: 141
      memory {
        allocator_name: "gpu_bfc"
        total_bytes: 9728
        peak_bytes: 9728
      }
      output {
        tensor_description {
          dtype: DT_FLOAT
          shape {
            dim {
              size: 100
            }
          }
          allocation_description {
            requested_bytes: 400
            allocated_bytes: 512
            allocator_name: "gpu_bfc"
            allocation_id: 67
            has_single_reference: true
            ptr: 1108295466752
          }
        }
      }
      output {
        slot: 1
        tensor_description {
          dtype: DT_FLOAT
          shape {
            dim {
              size: 100
            }
            dim {
              size: 10
            }
          }
          allocation_description {
            requested_bytes: 4000
            allocated_bytes: 4096
            allocator_name: "gpu_bfc"
            allocation_id: 68
            has_single_reference: true
            ptr: 1108295474432
          }
        }
      }
      timeline_label: "SoftmaxCrossEntropyWithLogits = SoftmaxCrossEntropyWithLogits(Reshape, Reshape_1)"
      scheduled_micros: 1488970767991685
    }
    node_stats {
      node_name: "gradients/Reshape_2_grad/Shape"
      all_start_micros: 1488970767991830
      op_end_rel_micros: 4
      all_end_rel_micros: 5
      memory {
        allocator_name: "gpu_bfc"
      }
      memory {
        allocator_name: "cpu_pool"
        total_bytes: 4
      }
      output {
        tensor_description {
          dtype: DT_INT32
          shape {
            dim {
              size: 1
            }
          }
          allocation_description {
            requested_bytes: 4
            allocator_name: "cpu_pool"
            ptr: 140687105630848
          }
        }
      }
      timeline_label: "gradients/Reshape_2_grad/Shape = Shape(SoftmaxCrossEntropyWithLogits)"
      scheduled_micros: 1488970767991827
    }
    node_stats {
      node_name: "gradients/SoftmaxCrossEntropyWithLogits_grad/PreventGradient"
      all_start_micros: 1488970767991837
      op_end_rel_micros: 1
      all_end_rel_micros: 3
      memory {
        allocator_name: "gpu_bfc"
      }
      output {
        tensor_description {
          dtype: DT_FLOAT
          shape {
            dim {
              size: 100
            }
            dim {
              size: 10
            }
          }
          allocation_description {
            requested_bytes: 4000
            allocated_bytes: 4096
            allocator_name: "gpu_bfc"
            allocation_id: 68
            ptr: 1108295474432
          }
        }
      }
      timeline_label: "gradients/SoftmaxCrossEntropyWithLogits_grad/PreventGradient = PreventGradient(SoftmaxCrossEntropyWithLogits:1)"
      scheduled_micros: 1488970767991835
    }
    node_stats {
      node_name: "Reshape_2"
      all_start_micros: 1488970767991842
      op_end_rel_micros: 2
      all_end_rel_micros: 4
      memory {
        allocator_name: "gpu_bfc"
      }
      output {
        tensor_description {
          dtype: DT_FLOAT
          shape {
            dim {
              size: 100
            }
          }
          allocation_description {
            requested_bytes: 400
            allocated_bytes: 512
            allocator_name: "gpu_bfc"
            allocation_id: 67
            ptr: 1108295466752
          }
        }
      }
      timeline_label: "Reshape_2 = Reshape(SoftmaxCrossEntropyWithLogits, Slice_2)"
      scheduled_micros: 1488970767991840
    }
    node_stats {
      node_name: "gradients/Mean_grad/Shape"
      all_start_micros: 1488970767991848
      op_end_rel_micros: 10
      all_end_rel_micros: 12
      memory {
        allocator_name: "gpu_bfc"
      }
      memory {
        allocator_name: "cuda_host_bfc"
        total_bytes: 256
        peak_bytes: 256
      }
      output {
        tensor_description {
          dtype: DT_INT32
          shape {
            dim {
              size: 1
            }
          }
          allocation_description {
            requested_bytes: 4
            allocated_bytes: 256
            allocator_name: "cuda_host_bfc"
            allocation_id: 29
            has_single_reference: true
            ptr: 1108288212224
          }
        }
      }
      timeline_label: "gradients/Mean_grad/Shape = Shape(Reshape_2)"
      scheduled_micros: 1488970767991846
    }
    node_stats {
      node_name: "Mean"
      all_start_micros: 1488970767991862
      op_start_rel_micros: 1
      op_end_rel_micros: 20
      all_end_rel_micros: 22
      memory {
        allocator_name: "gpu_bfc"
        total_bytes: 512
        peak_bytes: 512
      }
      output {
        tensor_description {
          dtype: DT_FLOAT
          shape {
          }
          allocation_description {
            requested_bytes: 4
            allocated_bytes: 256
            allocator_name: "gpu_bfc"
            allocation_id: 72
            has_single_reference: true
            ptr: 1108295466496
          }
        }
      }
      timeline_label: "Mean = Mean(Reshape_2, Const)"
      scheduled_micros: 1488970767991860
    }
    node_stats {
      node_name: "gradients/Mean_grad/Tile"
      all_start_micros: 1488970767991904
      op_end_rel_micros: 25
      all_end_rel_micros: 27
      memory {
        allocator_name: "gpu_bfc"
        total_bytes: 512
        peak_bytes: 512
      }
      output {
        tensor_description {
          dtype: DT_FLOAT
          shape {
            dim {
              size: 100
            }
          }
          allocation_description {
            requested_bytes: 400
            allocated_bytes: 512
            allocator_name: "gpu_bfc"
            allocation_id: 73
            has_single_reference: true
            ptr: 1108290432768
          }
        }
      }
      timeline_label: "gradients/Mean_grad/Tile = Tile(gradients/Mean_grad/Reshape, gradients/Mean_grad/Shape)"
      scheduled_micros: 1488970767991894
    }
    node_stats {
      node_name: "gradients/Mean_grad/Prod"
      all_start_micros: 1488970767992002
      op_start_rel_micros: 1
      op_end_rel_micros: 7
      all_end_rel_micros: 9
      memory {
        allocator_name: "gpu_bfc"
        total_bytes: 256
        peak_bytes: 256
      }
      output {
        tensor_description {
          dtype: DT_INT32
          shape {
          }
          allocation_description {
            requested_bytes: 4
            allocated_bytes: 256
            allocator_name: "gpu_bfc"
            allocation_id: 74
            ptr: 1108295466240
          }
        }
      }
      timeline_label: "gradients/Mean_grad/Prod = Prod(gradients/Mean_grad/Shape_1/_9, gradients/Mean_grad/Const)"
      scheduled_micros: 1488970767992000
    }
    node_stats {
      node_name: "gradients/Mean_grad/floordiv"
      all_start_micros: 1488970767992065
      op_start_rel_micros: 2
      op_end_rel_micros: 21
      all_end_rel_micros: 28
      memory {
        allocator_name: "gpu_bfc"
      }
      memory {
        allocator_name: "cuda_host_bfc"
        total_bytes: 256
        peak_bytes: 256
      }
      output {
        tensor_description {
          dtype: DT_INT32
          shape {
          }
          allocation_description {
            requested_bytes: 4
            allocated_bytes: 256
            allocator_name: "cuda_host_bfc"
            allocation_id: 32
            has_single_reference: true
            ptr: 1108288212736
          }
        }
      }
      timeline_label: "gradients/Mean_grad/floordiv = FloorDiv(gradients/Mean_grad/Prod/_11, gradients/Mean_grad/Maximum)"
      scheduled_micros: 1488970767992063
    }
    node_stats {
      node_name: "gradients/Mean_grad/Cast"
      all_start_micros: 1488970767992156
      op_start_rel_micros: 1
      op_end_rel_micros: 36
      all_end_rel_micros: 41
      memory {
        allocator_name: "gpu_bfc"
        total_bytes: 256
        peak_bytes: 256
      }
      output {
        tensor_description {
          dtype: DT_FLOAT
          shape {
          }
          allocation_description {
            requested_bytes: 4
            allocated_bytes: 256
            allocator_name: "gpu_bfc"
            allocation_id: 77
            has_single_reference: true
            ptr: 1108290433536
          }
        }
      }
      timeline_label: "gradients/Mean_grad/Cast = Cast(gradients/Mean_grad/floordiv/_13)"
      scheduled_micros: 1488970767992155
    }
    node_stats {
      node_name: "gradients/Mean_grad/truediv"
      all_start_micros: 1488970767992200
      op_end_rel_micros: 29
      all_end_rel_micros: 34
      memory {
        allocator_name: "gpu_bfc"
        total_bytes: 512
        peak_bytes: 512
      }
      output {
        tensor_description {
          dtype: DT_FLOAT
          shape {
            dim {
              size: 100
            }
          }
          allocation_description {
            requested_bytes: 400
            allocated_bytes: 512
            allocator_name: "gpu_bfc"
            allocation_id: 78
            has_single_reference: true
            ptr: 1108290433792
          }
        }
      }
      timeline_label: "gradients/Mean_grad/truediv = RealDiv(gradients/Mean_grad/Tile, gradients/Mean_grad/Cast)"
      scheduled_micros: 1488970767992196
    }
    node_stats {
      node_name: "gradients/Reshape_2_grad/Reshape"
      all_start_micros: 1488970767992237
      op_start_rel_micros: 1
      op_end_rel_micros: 3
      all_end_rel_micros: 5
      memory {
        allocator_name: "gpu_bfc"
      }
      output {
        tensor_description {
          dtype: DT_FLOAT
          shape {
            dim {
              size: 100
            }
          }
          allocation_description {
            requested_bytes: 400
            allocated_bytes: 512
            allocator_name: "gpu_bfc"
            allocation_id: 78
            ptr: 1108290433792
          }
        }
      }
      timeline_label: "gradients/Reshape_2_grad/Reshape = Reshape(gradients/Mean_grad/truediv, gradients/Reshape_2_grad/Shape)"
      scheduled_micros: 1488970767992234
    }
    node_stats {
      node_name: "gradients/SoftmaxCrossEntropyWithLogits_grad/ExpandDims"
      all_start_micros: 1488970767992246
      op_end_rel_micros: 3
      all_end_rel_micros: 5
      memory {
        allocator_name: "gpu_bfc"
      }
      output {
        tensor_description {
          dtype: DT_FLOAT
          shape {
            dim {
              size: 100
            }
            dim {
              size: 1
            }
          }
          allocation_description {
            requested_bytes: 400
            allocated_bytes: 512
            allocator_name: "gpu_bfc"
            allocation_id: 78
            ptr: 1108290433792
          }
        }
      }
      timeline_label: "gradients/SoftmaxCrossEntropyWithLogits_grad/ExpandDims = ExpandDims(gradients/Reshape_2_grad/Reshape, gradients/SoftmaxCrossEntropyWithLogits_grad/ExpandDims/dim)"
      scheduled_micros: 1488970767992242
    }
    node_stats {
      node_name: "gradients/SoftmaxCrossEntropyWithLogits_grad/mul"
      all_start_micros: 1488970767992252
      op_start_rel_micros: 1
      op_end_rel_micros: 25
      all_end_rel_micros: 30
      memory {
        allocator_name: "gpu_bfc"
        total_bytes: 4096
        peak_bytes: 4096
      }
      output {
        tensor_description {
          dtype: DT_FLOAT
          shape {
            dim {
              size: 100
            }
            dim {
              size: 10
            }
          }
          allocation_description {
            requested_bytes: 4000
            allocated_bytes: 4096
            allocator_name: "gpu_bfc"
            allocation_id: 79
            has_single_reference: true
            ptr: 1108290434304
          }
        }
      }
      timeline_label: "gradients/SoftmaxCrossEntropyWithLogits_grad/mul = Mul(gradients/SoftmaxCrossEntropyWithLogits_grad/ExpandDims, gradients/SoftmaxCrossEntropyWithLogits_grad/PreventGradient)"
      scheduled_micros: 1488970767992250
    }
    node_stats {
      node_name: "gradients/Reshape_grad/Reshape"
      all_start_micros: 1488970767992284
      op_start_rel_micros: 1
      op_end_rel_micros: 2
      all_end_rel_micros: 5
      memory {
        allocator_name: "gpu_bfc"
      }
      output {
        tensor_description {
          dtype: DT_FLOAT
          shape {
            dim {
              size: 100
            }
            dim {
              size: 10
            }
          }
          allocation_description {
            requested_bytes: 4000
            allocated_bytes: 4096
            allocator_name: "gpu_bfc"
            allocation_id: 79
            ptr: 1108290434304
          }
        }
      }
      timeline_label: "gradients/Reshape_grad/Reshape = Reshape(gradients/SoftmaxCrossEntropyWithLogits_grad/mul, gradients/Reshape_grad/Shape)"
      scheduled_micros: 1488970767992282
    }
    node_stats {
      node_name: "gradients/add_grad/Sum"
      all_start_micros: 1488970767992292
      op_start_rel_micros: 1
      op_end_rel_micros: 8
      all_end_rel_micros: 10
      memory {
        allocator_name: "gpu_bfc"
        total_bytes: 256
        peak_bytes: 256
      }
      output {
        tensor_description {
          dtype: DT_FLOAT
          shape {
            dim {
              size: 100
            }
            dim {
              size: 10
            }
          }
          allocation_description {
            requested_bytes: 4000
            allocated_bytes: 4096
            allocator_name: "gpu_bfc"
            allocation_id: 79
            ptr: 1108290434304
          }
        }
      }
      timeline_label: "gradients/add_grad/Sum = Sum(gradients/Reshape_grad/Reshape, gradients/add_grad/BroadcastGradientArgs)"
      scheduled_micros: 1488970767992289
    }
    node_stats {
      node_name: "gradients/add_grad/Sum_1"
      all_start_micros: 1488970767992304
      op_end_rel_micros: 25
      all_end_rel_micros: 27
      memory {
        allocator_name: "gpu_bfc"
        total_bytes: 512
        peak_bytes: 512
      }
      output {
        tensor_description {
          dtype: DT_FLOAT
          shape {
            dim {
              size: 10
            }
          }
          allocation_description {
            requested_bytes: 40
            allocated_bytes: 256
            allocator_name: "gpu_bfc"
            allocation_id: 82
            has_single_reference: true
            ptr: 1108290433024
          }
        }
      }
      timeline_label: "gradients/add_grad/Sum_1 = Sum(gradients/Reshape_grad/Reshape, gradients/add_grad/BroadcastGradientArgs:1)"
      scheduled_micros: 1488970767992302
    }
    node_stats {
      node_name: "gradients/add_grad/Reshape"
      all_start_micros: 1488970767992333
      op_start_rel_micros: 1
      op_end_rel_micros: 3
      all_end_rel_micros: 4
      memory {
        allocator_name: "gpu_bfc"
      }
      output {
        tensor_description {
          dtype: DT_FLOAT
          shape {
            dim {
              size: 100
            }
            dim {
              size: 10
            }
          }
          allocation_description {
            requested_bytes: 4000
            allocated_bytes: 4096
            allocator_name: "gpu_bfc"
            allocation_id: 79
            ptr: 1108290434304
          }
        }
      }
      timeline_label: "gradients/add_grad/Reshape = Reshape(gradients/add_grad/Sum, gradients/add_grad/Shape)"
      scheduled_micros: 1488970767992331
    }
    node_stats {
      node_name: "gradients/add_grad/Reshape_1"
      all_start_micros: 1488970767992340
      op_start_rel_micros: 1
      op_end_rel_micros: 2
      all_end_rel_micros: 3
      memory {
        allocator_name: "gpu_bfc"
      }
      output {
        tensor_description {
          dtype: DT_FLOAT
          shape {
            dim {
              size: 10
            }
          }
          allocation_description {
            requested_bytes: 40
            allocated_bytes: 256
            allocator_name: "gpu_bfc"
            allocation_id: 82
            ptr: 1108290433024
          }
        }
      }
      timeline_label: "gradients/add_grad/Reshape_1 = Reshape(gradients/add_grad/Sum_1, gradients/add_grad/Shape_1)"
      scheduled_micros: 1488970767992337
    }
    node_stats {
      node_name: "gradients/add_grad/tuple/group_deps"
      all_start_micros: 1488970767992345
      op_end_rel_micros: 1
      all_end_rel_micros: 2
      memory {
        allocator_name: "gpu_bfc"
      }
      timeline_label: "gradients/add_grad/tuple/group_deps = NoOp(^gradients/add_grad/Reshape, ^gradients/add_grad/Reshape_1)"
      scheduled_micros: 1488970767992343
    }
    node_stats {
      node_name: "gradients/add_grad/tuple/control_dependency"
      all_start_micros: 1488970767992348
      op_start_rel_micros: 1
      op_end_rel_micros: 2
      all_end_rel_micros: 3
      memory {
        allocator_name: "gpu_bfc"
      }
      output {
        tensor_description {
          dtype: DT_FLOAT
          shape {
            dim {
              size: 100
            }
            dim {
              size: 10
            }
          }
          allocation_description {
            requested_bytes: 4000
            allocated_bytes: 4096
            allocator_name: "gpu_bfc"
            allocation_id: 79
            ptr: 1108290434304
          }
        }
      }
      timeline_label: "gradients/add_grad/tuple/control_dependency = Identity(gradients/add_grad/Reshape, ^gradients/add_grad/tuple/group_deps)"
      scheduled_micros: 1488970767992347
    }
    node_stats {
      node_name: "gradients/add_grad/tuple/control_dependency_1"
      all_start_micros: 1488970767992353
      op_start_rel_micros: 1
      op_end_rel_micros: 1
      all_end_rel_micros: 3
      memory {
        allocator_name: "gpu_bfc"
      }
      output {
        tensor_description {
          dtype: DT_FLOAT
          shape {
            dim {
              size: 10
            }
          }
          allocation_description {
            requested_bytes: 40
            allocated_bytes: 256
            allocator_name: "gpu_bfc"
            allocation_id: 82
            ptr: 1108290433024
          }
        }
      }
      timeline_label: "gradients/add_grad/tuple/control_dependency_1 = Identity(gradients/add_grad/Reshape_1, ^gradients/add_grad/tuple/group_deps)"
      scheduled_micros: 1488970767992351
    }
    node_stats {
      node_name: "gradients/MatMul_2_grad/MatMul"
      all_start_micros: 1488970767992357
      op_end_rel_micros: 35
      all_end_rel_micros: 37
      memory {
        allocator_name: "gpu_bfc"
        total_bytes: 68096
        peak_bytes: 68096
      }
      output {
        tensor_description {
          dtype: DT_FLOAT
          shape {
            dim {
              size: 100
            }
            dim {
              size: 170
            }
          }
          allocation_description {
            requested_bytes: 68000
            allocated_bytes: 68096
            allocator_name: "gpu_bfc"
            allocation_id: 83
            has_single_reference: true
            ptr: 1108295466240
          }
        }
      }
      timeline_label: "gradients/MatMul_2_grad/MatMul = MatMul(gradients/add_grad/tuple/control_dependency, Variable_2/read)"
      scheduled_micros: 1488970767992356
    }
    node_stats {
      node_name: "gradients/MatMul_2_grad/MatMul_1"
      all_start_micros: 1488970767992397
      op_end_rel_micros: 23
      all_end_rel_micros: 27
      memory {
        allocator_name: "gpu_bfc"
        total_bytes: 6912
        peak_bytes: 6912
      }
      output {
        tensor_description {
          dtype: DT_FLOAT
          shape {
            dim {
              size: 170
            }
            dim {
              size: 10
            }
          }
          allocation_description {
            requested_bytes: 6800
            allocated_bytes: 6912
            allocator_name: "gpu_bfc"
            allocation_id: 84
            has_single_reference: true
            ptr: 1108295534336
          }
        }
      }
      timeline_label: "gradients/MatMul_2_grad/MatMul_1 = MatMul(Relu_1, gradients/add_grad/tuple/control_dependency)"
      scheduled_micros: 1488970767992394
    }
    node_stats {
      node_name: "Adam/update_Variable_5/ApplyAdam"
      all_start_micros: 1488970767992427
      op_start_rel_micros: 1
      op_end_rel_micros: 55
      all_end_rel_micros: 60
      memory {
        allocator_name: "gpu_bfc"
      }
      output {
        tensor_description {
          dtype: DT_FLOAT
          shape {
            dim {
              size: 10
            }
          }
          allocation_description {
            requested_bytes: 40
            allocated_bytes: 256
            allocator_name: "gpu_bfc"
            allocation_id: 48
            has_single_reference: true
            ptr: 1108290431232
          }
        }
      }
      timeline_label: "Adam/update_Variable_5/ApplyAdam = ApplyAdam(Variable_5, Variable_5/Adam, Variable_5/Adam_1, beta1_power/read, beta2_power/read, Adam/learning_rate, Adam/beta1, Adam/beta2, Adam/epsilon, gradients/add_grad/tuple/control_dependency_1)"
      scheduled_micros: 1488970767992424
    }
    node_stats {
      node_name: "gradients/MatMul_2_grad/tuple/group_deps"
      all_start_micros: 1488970767992491
      op_start_rel_micros: 1
      op_end_rel_micros: 2
      all_end_rel_micros: 3
      memory {
        allocator_name: "gpu_bfc"
      }
      timeline_label: "gradients/MatMul_2_grad/tuple/group_deps = NoOp(^gradients/MatMul_2_grad/MatMul, ^gradients/MatMul_2_grad/MatMul_1)"
      scheduled_micros: 1488970767992487
    }
    node_stats {
      node_name: "gradients/MatMul_2_grad/tuple/control_dependency"
      all_start_micros: 1488970767992496
      op_end_rel_micros: 1
      all_end_rel_micros: 4
      memory {
        allocator_name: "gpu_bfc"
      }
      output {
        tensor_description {
          dtype: DT_FLOAT
          shape {
            dim {
              size: 100
            }
            dim {
              size: 170
            }
          }
          allocation_description {
            requested_bytes: 68000
            allocated_bytes: 68096
            allocator_name: "gpu_bfc"
            allocation_id: 83
            ptr: 1108295466240
          }
        }
      }
      timeline_label: "gradients/MatMul_2_grad/tuple/control_dependency = Identity(gradients/MatMul_2_grad/MatMul, ^gradients/MatMul_2_grad/tuple/group_deps)"
      scheduled_micros: 1488970767992494
    }
    node_stats {
      node_name: "gradients/MatMul_2_grad/tuple/control_dependency_1"
      all_start_micros: 1488970767992505
      op_end_rel_micros: 1
      all_end_rel_micros: 3
      memory {
        allocator_name: "gpu_bfc"
      }
      output {
        tensor_description {
          dtype: DT_FLOAT
          shape {
            dim {
              size: 170
            }
            dim {
              size: 10
            }
          }
          allocation_description {
            requested_bytes: 6800
            allocated_bytes: 6912
            allocator_name: "gpu_bfc"
            allocation_id: 84
            ptr: 1108295534336
          }
        }
      }
      timeline_label: "gradients/MatMul_2_grad/tuple/control_dependency_1 = Identity(gradients/MatMul_2_grad/MatMul_1, ^gradients/MatMul_2_grad/tuple/group_deps)"
      scheduled_micros: 1488970767992500
    }
    node_stats {
      node_name: "gradients/Relu_1_grad/ReluGrad"
      all_start_micros: 1488970767992510
      op_end_rel_micros: 19
      all_end_rel_micros: 23
      memory {
        allocator_name: "gpu_bfc"
        total_bytes: 68096
        peak_bytes: 68096
      }
      output {
        tensor_description {
          dtype: DT_FLOAT
          shape {
            dim {
              size: 100
            }
            dim {
              size: 170
            }
          }
          allocation_description {
            requested_bytes: 68000
            allocated_bytes: 68096
            allocator_name: "gpu_bfc"
            allocation_id: 85
            has_single_reference: true
            ptr: 1108295541248
          }
        }
      }
      timeline_label: "gradients/Relu_1_grad/ReluGrad = ReluGrad(gradients/MatMul_2_grad/tuple/control_dependency, Relu_1)"
      scheduled_micros: 1488970767992508
    }
    node_stats {
      node_name: "Adam/update_Variable_2/ApplyAdam"
      all_start_micros: 1488970767992535
      op_start_rel_micros: 2
      op_end_rel_micros: 37
      all_end_rel_micros: 41
      memory {
        allocator_name: "gpu_bfc"
      }
      output {
        tensor_description {
          dtype: DT_FLOAT
          shape {
            dim {
              size: 170
            }
            dim {
              size: 10
            }
          }
          allocation_description {
            requested_bytes: 6800
            allocated_bytes: 6912
            allocator_name: "gpu_bfc"
            allocation_id: 45
            has_single_reference: true
            ptr: 1108294749184
          }
        }
      }
      timeline_label: "Adam/update_Variable_2/ApplyAdam = ApplyAdam(Variable_2, Variable_2/Adam, Variable_2/Adam_1, beta1_power/read, beta2_power/read, Adam/learning_rate, Adam/beta1, Adam/beta2, Adam/epsilon, gradients/MatMul_2_grad/tuple/control_dependency_1)"
      scheduled_micros: 1488970767992533
    }
    node_stats {
      node_name: "gradients/Add_1_grad/Sum"
      all_start_micros: 1488970767992580
      op_start_rel_micros: 1
      op_end_rel_micros: 5
      all_end_rel_micros: 7
      memory {
        allocator_name: "gpu_bfc"
        total_bytes: 256
        peak_bytes: 256
      }
      output {
        tensor_description {
          dtype: DT_FLOAT
          shape {
            dim {
              size: 100
            }
            dim {
              size: 170
            }
          }
          allocation_description {
            requested_bytes: 68000
            allocated_bytes: 68096
            allocator_name: "gpu_bfc"
            allocation_id: 85
            ptr: 1108295541248
          }
        }
      }
      timeline_label: "gradients/Add_1_grad/Sum = Sum(gradients/Relu_1_grad/ReluGrad, gradients/Add_1_grad/BroadcastGradientArgs)"
      scheduled_micros: 1488970767992576
    }
    node_stats {
      node_name: "gradients/Add_1_grad/Sum_1"
      all_start_micros: 1488970767992589
      op_end_rel_micros: 28
      all_end_rel_micros: 31
      memory {
        allocator_name: "gpu_bfc"
        total_bytes: 1024
        peak_bytes: 1024
      }
      output {
        tensor_description {
          dtype: DT_FLOAT
          shape {
            dim {
              size: 170
            }
          }
          allocation_description {
            requested_bytes: 680
            allocated_bytes: 768
            allocator_name: "gpu_bfc"
            allocation_id: 88
            has_single_reference: true
            ptr: 1108290433024
          }
        }
      }
      timeline_label: "gradients/Add_1_grad/Sum_1 = Sum(gradients/Relu_1_grad/ReluGrad, gradients/Add_1_grad/BroadcastGradientArgs:1)"
      scheduled_micros: 1488970767992587
    }
    node_stats {
      node_name: "gradients/Add_1_grad/Reshape"
      all_start_micros: 1488970767992623
      op_end_rel_micros: 2
      all_end_rel_micros: 4
      memory {
        allocator_name: "gpu_bfc"
      }
      output {
        tensor_description {
          dtype: DT_FLOAT
          shape {
            dim {
              size: 100
            }
            dim {
              size: 170
            }
          }
          allocation_description {
            requested_bytes: 68000
            allocated_bytes: 68096
            allocator_name: "gpu_bfc"
            allocation_id: 85
            ptr: 1108295541248
          }
        }
      }
      timeline_label: "gradients/Add_1_grad/Reshape = Reshape(gradients/Add_1_grad/Sum, gradients/Add_1_grad/Shape)"
      scheduled_micros: 1488970767992620
    }
    node_stats {
      node_name: "gradients/Add_1_grad/Reshape_1"
      all_start_micros: 1488970767992630
      op_end_rel_micros: 2
      all_end_rel_micros: 3
      memory {
        allocator_name: "gpu_bfc"
      }
      output {
        tensor_description {
          dtype: DT_FLOAT
          shape {
            dim {
              size: 170
            }
          }
          allocation_description {
            requested_bytes: 680
            allocated_bytes: 768
            allocator_name: "gpu_bfc"
            allocation_id: 88
            ptr: 1108290433024
          }
        }
      }
      timeline_label: "gradients/Add_1_grad/Reshape_1 = Reshape(gradients/Add_1_grad/Sum_1, gradients/Add_1_grad/Shape_1)"
      scheduled_micros: 1488970767992627
    }
    node_stats {
      node_name: "gradients/Add_1_grad/tuple/group_deps"
      all_start_micros: 1488970767992635
      op_end_rel_micros: 1
      all_end_rel_micros: 1
      memory {
        allocator_name: "gpu_bfc"
      }
      timeline_label: "gradients/Add_1_grad/tuple/group_deps = NoOp(^gradients/Add_1_grad/Reshape, ^gradients/Add_1_grad/Reshape_1)"
      scheduled_micros: 1488970767992633
    }
    node_stats {
      node_name: "gradients/Add_1_grad/tuple/control_dependency"
      all_start_micros: 1488970767992638
      op_end_rel_micros: 1
      all_end_rel_micros: 3
      memory {
        allocator_name: "gpu_bfc"
      }
      output {
        tensor_description {
          dtype: DT_FLOAT
          shape {
            dim {
              size: 100
            }
            dim {
              size: 170
            }
          }
          allocation_description {
            requested_bytes: 68000
            allocated_bytes: 68096
            allocator_name: "gpu_bfc"
            allocation_id: 85
            ptr: 1108295541248
          }
        }
      }
      timeline_label: "gradients/Add_1_grad/tuple/control_dependency = Identity(gradients/Add_1_grad/Reshape, ^gradients/Add_1_grad/tuple/group_deps)"
      scheduled_micros: 1488970767992636
    }
    node_stats {
      node_name: "gradients/Add_1_grad/tuple/control_dependency_1"
      all_start_micros: 1488970767992642
      op_start_rel_micros: 1
      op_end_rel_micros: 1
      all_end_rel_micros: 3
      memory {
        allocator_name: "gpu_bfc"
      }
      output {
        tensor_description {
          dtype: DT_FLOAT
          shape {
            dim {
              size: 170
            }
          }
          allocation_description {
            requested_bytes: 680
            allocated_bytes: 768
            allocator_name: "gpu_bfc"
            allocation_id: 88
            ptr: 1108290433024
          }
        }
      }
      timeline_label: "gradients/Add_1_grad/tuple/control_dependency_1 = Identity(gradients/Add_1_grad/Reshape_1, ^gradients/Add_1_grad/tuple/group_deps)"
      scheduled_micros: 1488970767992641
    }
    node_stats {
      node_name: "gradients/MatMul_1_grad/MatMul"
      all_start_micros: 1488970767992646
      op_end_rel_micros: 24
      all_end_rel_micros: 28
      memory {
        allocator_name: "gpu_bfc"
        total_bytes: 68096
        peak_bytes: 68096
      }
      output {
        tensor_description {
          dtype: DT_FLOAT
          shape {
            dim {
              size: 100
            }
            dim {
              size: 170
            }
          }
          allocation_description {
            requested_bytes: 68000
            allocated_bytes: 68096
            allocator_name: "gpu_bfc"
            allocation_id: 89
            has_single_reference: true
            ptr: 1108295398144
          }
        }
      }
      timeline_label: "gradients/MatMul_1_grad/MatMul = MatMul(gradients/Add_1_grad/tuple/control_dependency, Variable_1/read)"
      scheduled_micros: 1488970767992645
    }
    node_stats {
      node_name: "gradients/MatMul_1_grad/MatMul_1"
      all_start_micros: 1488970767992676
      op_start_rel_micros: 1
      op_end_rel_micros: 23
      all_end_rel_micros: 27
      memory {
        allocator_name: "gpu_bfc"
        total_bytes: 115712
        peak_bytes: 115712
      }
      output {
        tensor_description {
          dtype: DT_FLOAT
          shape {
            dim {
              size: 170
            }
            dim {
              size: 170
            }
          }
          allocation_description {
            requested_bytes: 115600
            allocated_bytes: 115712
            allocator_name: "gpu_bfc"
            allocation_id: 90
            has_single_reference: true
            ptr: 1108295609344
          }
        }
      }
      timeline_label: "[gpu_bfc 0.1MB 0.1MB] gradients/MatMul_1_grad/MatMul_1 = MatMul(Relu, gradients/Add_1_grad/tuple/control_dependency)"
      scheduled_micros: 1488970767992674
    }
    node_stats {
      node_name: "Adam/update_Variable_4/ApplyAdam"
      all_start_micros: 1488970767992709
      op_start_rel_micros: 1
      op_end_rel_micros: 36
      all_end_rel_micros: 41
      memory {
        allocator_name: "gpu_bfc"
      }
      output {
        tensor_description {
          dtype: DT_FLOAT
          shape {
            dim {
              size: 170
            }
          }
          allocation_description {
            requested_bytes: 680
            allocated_bytes: 768
            allocator_name: "gpu_bfc"
            allocation_id: 47
            has_single_reference: true
            ptr: 1108290430464
          }
        }
      }
      timeline_label: "Adam/update_Variable_4/ApplyAdam = ApplyAdam(Variable_4, Variable_4/Adam, Variable_4/Adam_1, beta1_power/read, beta2_power/read, Adam/learning_rate, Adam/beta1, Adam/beta2, Adam/epsilon, gradients/Add_1_grad/tuple/control_dependency_1)"
      scheduled_micros: 1488970767992703
    }
    node_stats {
      node_name: "gradients/MatMul_1_grad/tuple/group_deps"
      all_start_micros: 1488970767992755
      op_start_rel_micros: 1
      op_end_rel_micros: 2
      all_end_rel_micros: 3
      memory {
        allocator_name: "gpu_bfc"
      }
      timeline_label: "gradients/MatMul_1_grad/tuple/group_deps = NoOp(^gradients/MatMul_1_grad/MatMul, ^gradients/MatMul_1_grad/MatMul_1)"
      scheduled_micros: 1488970767992750
    }
    node_stats {
      node_name: "gradients/MatMul_1_grad/tuple/control_dependency"
      all_start_micros: 1488970767992760
      op_end_rel_micros: 1
      all_end_rel_micros: 3
      memory {
        allocator_name: "gpu_bfc"
      }
      output {
        tensor_description {
          dtype: DT_FLOAT
          shape {
            dim {
              size: 100
            }
            dim {
              size: 170
            }
          }
          allocation_description {
            requested_bytes: 68000
            allocated_bytes: 68096
            allocator_name: "gpu_bfc"
            allocation_id: 89
            ptr: 1108295398144
          }
        }
      }
      timeline_label: "gradients/MatMul_1_grad/tuple/control_dependency = Identity(gradients/MatMul_1_grad/MatMul, ^gradients/MatMul_1_grad/tuple/group_deps)"
      scheduled_micros: 1488970767992758
    }
    node_stats {
      node_name: "gradients/MatMul_1_grad/tuple/control_dependency_1"
      all_start_micros: 1488970767992764
      op_start_rel_micros: 1
      op_end_rel_micros: 2
      all_end_rel_micros: 3
      memory {
        allocator_name: "gpu_bfc"
      }
      output {
        tensor_description {
          dtype: DT_FLOAT
          shape {
            dim {
              size: 170
            }
            dim {
              size: 170
            }
          }
          allocation_description {
            requested_bytes: 115600
            allocated_bytes: 115712
            allocator_name: "gpu_bfc"
            allocation_id: 90
            ptr: 1108295609344
          }
        }
      }
      timeline_label: "gradients/MatMul_1_grad/tuple/control_dependency_1 = Identity(gradients/MatMul_1_grad/MatMul_1, ^gradients/MatMul_1_grad/tuple/group_deps)"
      scheduled_micros: 1488970767992763
    }
    node_stats {
      node_name: "gradients/Relu_grad/ReluGrad"
      all_start_micros: 1488970767992769
      op_end_rel_micros: 16
      all_end_rel_micros: 20
      memory {
        allocator_name: "gpu_bfc"
        total_bytes: 68096
        peak_bytes: 68096
      }
      output {
        tensor_description {
          dtype: DT_FLOAT
          shape {
            dim {
              size: 100
            }
            dim {
              size: 170
            }
          }
          allocation_description {
            requested_bytes: 68000
            allocated_bytes: 68096
            allocator_name: "gpu_bfc"
            allocation_id: 91
            has_single_reference: true
            ptr: 1108295466240
          }
        }
      }
      timeline_label: "gradients/Relu_grad/ReluGrad = ReluGrad(gradients/MatMul_1_grad/tuple/control_dependency, Relu)"
      scheduled_micros: 1488970767992767
    }
    node_stats {
      node_name: "Adam/update_Variable_1/ApplyAdam"
      all_start_micros: 1488970767992792
      op_start_rel_micros: 1
      op_end_rel_micros: 33
      all_end_rel_micros: 39
      memory {
        allocator_name: "gpu_bfc"
      }
      output {
        tensor_description {
          dtype: DT_FLOAT
          shape {
            dim {
              size: 170
            }
            dim {
              size: 170
            }
          }
          allocation_description {
            requested_bytes: 115600
            allocated_bytes: 115712
            allocator_name: "gpu_bfc"
            allocation_id: 44
            has_single_reference: true
            ptr: 1108290438400
          }
        }
      }
      timeline_label: "Adam/update_Variable_1/ApplyAdam = ApplyAdam(Variable_1, Variable_1/Adam, Variable_1/Adam_1, beta1_power/read, beta2_power/read, Adam/learning_rate, Adam/beta1, Adam/beta2, Adam/epsilon, gradients/MatMul_1_grad/tuple/control_dependency_1)"
      scheduled_micros: 1488970767992789
    }
    node_stats {
      node_name: "gradients/Add_grad/Sum"
      all_start_micros: 1488970767992834
      op_start_rel_micros: 1
      op_end_rel_micros: 5
      all_end_rel_micros: 7
      memory {
        allocator_name: "gpu_bfc"
        total_bytes: 256
        peak_bytes: 256
      }
      output {
        tensor_description {
          dtype: DT_FLOAT
          shape {
            dim {
              size: 100
            }
            dim {
              size: 170
            }
          }
          allocation_description {
            requested_bytes: 68000
            allocated_bytes: 68096
            allocator_name: "gpu_bfc"
            allocation_id: 91
            ptr: 1108295466240
          }
        }
      }
      timeline_label: "gradients/Add_grad/Sum = Sum(gradients/Relu_grad/ReluGrad, gradients/Add_grad/BroadcastGradientArgs)"
      scheduled_micros: 1488970767992831
    }
    node_stats {
      node_name: "gradients/Add_grad/Sum_1"
      all_start_micros: 1488970767992843
      op_end_rel_micros: 27
      all_end_rel_micros: 30
      memory {
        allocator_name: "gpu_bfc"
        total_bytes: 1024
        peak_bytes: 1024
      }
      output {
        tensor_description {
          dtype: DT_FLOAT
          shape {
            dim {
              size: 170
            }
          }
          allocation_description {
            requested_bytes: 680
            allocated_bytes: 768
            allocator_name: "gpu_bfc"
            allocation_id: 94
            has_single_reference: true
            ptr: 1108290433024
          }
        }
      }
      timeline_label: "gradients/Add_grad/Sum_1 = Sum(gradients/Relu_grad/ReluGrad, gradients/Add_grad/BroadcastGradientArgs:1)"
      scheduled_micros: 1488970767992841
    }
    node_stats {
      node_name: "gradients/Add_grad/Reshape"
      all_start_micros: 1488970767992876
      op_start_rel_micros: 1
      op_end_rel_micros: 3
      all_end_rel_micros: 5
      memory {
        allocator_name: "gpu_bfc"
      }
      output {
        tensor_description {
          dtype: DT_FLOAT
          shape {
            dim {
              size: 100
            }
            dim {
              size: 170
            }
          }
          allocation_description {
            requested_bytes: 68000
            allocated_bytes: 68096
            allocator_name: "gpu_bfc"
            allocation_id: 91
            ptr: 1108295466240
          }
        }
      }
      timeline_label: "gradients/Add_grad/Reshape = Reshape(gradients/Add_grad/Sum, gradients/Add_grad/Shape)"
      scheduled_micros: 1488970767992873
    }
    node_stats {
      node_name: "gradients/Add_grad/Reshape_1"
      all_start_micros: 1488970767992882
      op_start_rel_micros: 2
      op_end_rel_micros: 3
      all_end_rel_micros: 4
      memory {
        allocator_name: "gpu_bfc"
      }
      output {
        tensor_description {
          dtype: DT_FLOAT
          shape {
            dim {
              size: 170
            }
          }
          allocation_description {
            requested_bytes: 680
            allocated_bytes: 768
            allocator_name: "gpu_bfc"
            allocation_id: 94
            ptr: 1108290433024
          }
        }
      }
      timeline_label: "gradients/Add_grad/Reshape_1 = Reshape(gradients/Add_grad/Sum_1, gradients/Add_grad/Shape_1)"
      scheduled_micros: 1488970767992881
    }
    node_stats {
      node_name: "gradients/Add_grad/tuple/group_deps"
      all_start_micros: 1488970767992888
      op_end_rel_micros: 1
      all_end_rel_micros: 2
      memory {
        allocator_name: "gpu_bfc"
      }
      timeline_label: "gradients/Add_grad/tuple/group_deps = NoOp(^gradients/Add_grad/Reshape, ^gradients/Add_grad/Reshape_1)"
      scheduled_micros: 1488970767992886
    }
    node_stats {
      node_name: "gradients/Add_grad/tuple/control_dependency"
      all_start_micros: 1488970767992891
      op_end_rel_micros: 1
      all_end_rel_micros: 3
      memory {
        allocator_name: "gpu_bfc"
      }
      output {
        tensor_description {
          dtype: DT_FLOAT
          shape {
            dim {
              size: 100
            }
            dim {
              size: 170
            }
          }
          allocation_description {
            requested_bytes: 68000
            allocated_bytes: 68096
            allocator_name: "gpu_bfc"
            allocation_id: 91
            ptr: 1108295466240
          }
        }
      }
      timeline_label: "gradients/Add_grad/tuple/control_dependency = Identity(gradients/Add_grad/Reshape, ^gradients/Add_grad/tuple/group_deps)"
      scheduled_micros: 1488970767992889
    }
    node_stats {
      node_name: "gradients/Add_grad/tuple/control_dependency_1"
      all_start_micros: 1488970767992895
      op_end_rel_micros: 1
      all_end_rel_micros: 2
      memory {
        allocator_name: "gpu_bfc"
      }
      output {
        tensor_description {
          dtype: DT_FLOAT
          shape {
            dim {
              size: 170
            }
          }
          allocation_description {
            requested_bytes: 680
            allocated_bytes: 768
            allocator_name: "gpu_bfc"
            allocation_id: 94
            ptr: 1108290433024
          }
        }
      }
      timeline_label: "gradients/Add_grad/tuple/control_dependency_1 = Identity(gradients/Add_grad/Reshape_1, ^gradients/Add_grad/tuple/group_deps)"
      scheduled_micros: 1488970767992894
    }
    node_stats {
      node_name: "gradients/MatMul_grad/MatMul"
      all_start_micros: 1488970767992899
      op_end_rel_micros: 24
      all_end_rel_micros: 29
      memory {
        allocator_name: "gpu_bfc"
        total_bytes: 313600
        peak_bytes: 313600
      }
      output {
        tensor_description {
          dtype: DT_FLOAT
          shape {
            dim {
              size: 100
            }
            dim {
              size: 784
            }
          }
          allocation_description {
            requested_bytes: 313600
            allocated_bytes: 313600
            allocator_name: "gpu_bfc"
            allocation_id: 95
            has_single_reference: true
            ptr: 1108295534336
          }
        }
      }
      timeline_label: "[gpu_bfc 0.3MB 0.3MB] gradients/MatMul_grad/MatMul = MatMul(gradients/Add_grad/tuple/control_dependency, Variable/read)"
      scheduled_micros: 1488970767992897
    }
    node_stats {
      node_name: "gradients/MatMul_grad/MatMul_1"
      all_start_micros: 1488970767992933
      op_start_rel_micros: 1
      op_end_rel_micros: 23
      all_end_rel_micros: 27
      memory {
        allocator_name: "gpu_bfc"
        total_bytes: 533248
        peak_bytes: 533248
      }
      output {
        tensor_description {
          dtype: DT_FLOAT
          shape {
            dim {
              size: 784
            }
            dim {
              size: 170
            }
          }
          allocation_description {
            requested_bytes: 533120
            allocated_bytes: 533248
            allocator_name: "gpu_bfc"
            allocation_id: 96
            has_single_reference: true
            ptr: 1108295534336
          }
        }
      }
      timeline_label: "[gpu_bfc 0.5MB 0.5MB] gradients/MatMul_grad/MatMul_1 = MatMul(_recv_Placeholder_0/_7, gradients/Add_grad/tuple/control_dependency)"
      scheduled_micros: 1488970767992928
    }
    node_stats {
      node_name: "Adam/update_Variable_3/ApplyAdam"
      all_start_micros: 1488970767992965
      op_start_rel_micros: 1
      op_end_rel_micros: 34
      all_end_rel_micros: 38
      memory {
        allocator_name: "gpu_bfc"
      }
      output {
        tensor_description {
          dtype: DT_FLOAT
          shape {
            dim {
              size: 170
            }
          }
          allocation_description {
            requested_bytes: 680
            allocated_bytes: 768
            allocator_name: "gpu_bfc"
            allocation_id: 46
            has_single_reference: true
            ptr: 1108290429696
          }
        }
      }
      timeline_label: "Adam/update_Variable_3/ApplyAdam = ApplyAdam(Variable_3, Variable_3/Adam, Variable_3/Adam_1, beta1_power/read, beta2_power/read, Adam/learning_rate, Adam/beta1, Adam/beta2, Adam/epsilon, gradients/Add_grad/tuple/control_dependency_1)"
      scheduled_micros: 1488970767992960
    }
    node_stats {
      node_name: "gradients/MatMul_grad/tuple/group_deps"
      all_start_micros: 1488970767993008
      op_start_rel_micros: 1
      op_end_rel_micros: 2
      all_end_rel_micros: 3
      memory {
        allocator_name: "gpu_bfc"
      }
      timeline_label: "gradients/MatMul_grad/tuple/group_deps = NoOp(^gradients/MatMul_grad/MatMul, ^gradients/MatMul_grad/MatMul_1)"
      scheduled_micros: 1488970767993003
    }
    node_stats {
      node_name: "gradients/MatMul_grad/tuple/control_dependency_1"
      all_start_micros: 1488970767993013
      op_end_rel_micros: 1
      all_end_rel_micros: 3
      memory {
        allocator_name: "gpu_bfc"
      }
      output {
        tensor_description {
          dtype: DT_FLOAT
          shape {
            dim {
              size: 784
            }
            dim {
              size: 170
            }
          }
          allocation_description {
            requested_bytes: 533120
            allocated_bytes: 533248
            allocator_name: "gpu_bfc"
            allocation_id: 96
            ptr: 1108295534336
          }
        }
      }
      timeline_label: "gradients/MatMul_grad/tuple/control_dependency_1 = Identity(gradients/MatMul_grad/MatMul_1, ^gradients/MatMul_grad/tuple/group_deps)"
      scheduled_micros: 1488970767993011
    }
    node_stats {
      node_name: "Adam/update_Variable/ApplyAdam"
      all_start_micros: 1488970767993018
      op_start_rel_micros: 1
      op_end_rel_micros: 34
      all_end_rel_micros: 39
      memory {
        allocator_name: "gpu_bfc"
      }
      output {
        tensor_description {
          dtype: DT_FLOAT
          shape {
            dim {
              size: 784
            }
            dim {
              size: 170
            }
          }
          allocation_description {
            requested_bytes: 533120
            allocated_bytes: 533248
            allocator_name: "gpu_bfc"
            allocation_id: 43
            has_single_reference: true
            ptr: 1108294864896
          }
        }
      }
      timeline_label: "Adam/update_Variable/ApplyAdam = ApplyAdam(Variable, Variable/Adam, Variable/Adam_1, beta1_power/read, beta2_power/read, Adam/learning_rate, Adam/beta1, Adam/beta2, Adam/epsilon, gradients/MatMul_grad/tuple/control_dependency_1)"
      scheduled_micros: 1488970767993016
    }
    node_stats {
      node_name: "Adam/mul"
      all_start_micros: 1488970767993061
      op_end_rel_micros: 18
      all_end_rel_micros: 21
      memory {
        allocator_name: "gpu_bfc"
        total_bytes: 256
        peak_bytes: 256
      }
      output {
        tensor_description {
          dtype: DT_FLOAT
          shape {
          }
          allocation_description {
            requested_bytes: 4
            allocated_bytes: 256
            allocator_name: "gpu_bfc"
            allocation_id: 97
            has_single_reference: true
            ptr: 1108290432768
          }
        }
      }
      timeline_label: "Adam/mul = Mul(beta1_power/read, Adam/beta1, ^Adam/update_Variable/ApplyAdam, ^Adam/update_Variable_1/ApplyAdam, ^Adam/update_Variable_2/ApplyAdam, ^Adam/update_Variable_3/ApplyAdam, ^Adam/update_Variable_4/ApplyAdam, ^Adam/update_Variable_5/ApplyAdam)"
      scheduled_micros: 1488970767993057
    }
    node_stats {
      node_name: "Adam/mul_1"
      all_start_micros: 1488970767993086
      op_start_rel_micros: 1
      op_end_rel_micros: 14
      all_end_rel_micros: 16
      memory {
        allocator_name: "gpu_bfc"
        total_bytes: 256
        peak_bytes: 256
      }
      output {
        tensor_description {
          dtype: DT_FLOAT
          shape {
          }
          allocation_description {
            requested_bytes: 4
            allocated_bytes: 256
            allocator_name: "gpu_bfc"
            allocation_id: 98
            has_single_reference: true
            ptr: 1108290433024
          }
        }
      }
      timeline_label: "Adam/mul_1 = Mul(beta2_power/read, Adam/beta2, ^Adam/update_Variable/ApplyAdam, ^Adam/update_Variable_1/ApplyAdam, ^Adam/update_Variable_2/ApplyAdam, ^Adam/update_Variable_3/ApplyAdam, ^Adam/update_Variable_4/ApplyAdam, ^Adam/update_Variable_5/ApplyAdam)"
      scheduled_micros: 1488970767993082
    }
    node_stats {
      node_name: "Adam/Assign"
      all_start_micros: 1488970767993105
      op_start_rel_micros: 1
      op_end_rel_micros: 21
      all_end_rel_micros: 25
      memory {
        allocator_name: "gpu_bfc"
      }
      output {
        tensor_description {
          dtype: DT_FLOAT
          shape {
          }
          allocation_description {
            requested_bytes: 4
            allocated_bytes: 256
            allocator_name: "gpu_bfc"
            allocation_id: 17
            has_single_reference: true
            ptr: 1108291087360
          }
        }
      }
      timeline_label: "Adam/Assign = Assign(beta1_power, Adam/mul)"
      scheduled_micros: 1488970767993102
    }
    node_stats {
      node_name: "Adam/Assign_1"
      all_start_micros: 1488970767993133
      op_start_rel_micros: 2
      op_end_rel_micros: 18
      all_end_rel_micros: 22
      memory {
        allocator_name: "gpu_bfc"
      }
      output {
        tensor_description {
          dtype: DT_FLOAT
          shape {
          }
          allocation_description {
            requested_bytes: 4
            allocated_bytes: 256
            allocator_name: "gpu_bfc"
            allocation_id: 18
            has_single_reference: true
            ptr: 1108291087616
          }
        }
      }
      timeline_label: "Adam/Assign_1 = Assign(beta2_power, Adam/mul_1)"
      scheduled_micros: 1488970767993130
    }
    node_stats {
      node_name: "Adam"
      all_start_micros: 1488970767993157
      op_start_rel_micros: 1
      op_end_rel_micros: 2
      all_end_rel_micros: 4
      memory {
        allocator_name: "gpu_bfc"
      }
      timeline_label: "Adam = NoOp(^Adam/update_Variable/ApplyAdam, ^Adam/update_Variable_1/ApplyAdam, ^Adam/update_Variable_2/ApplyAdam, ^Adam/update_Variable_3/ApplyAdam, ^Adam/update_Variable_4/ApplyAdam, ^Adam/update_Variable_5/ApplyAdam, ^Adam/Assign, ^Adam/Assign_1)"
      scheduled_micros: 1488970767993155
    }
  }
  dev_stats {
    device: "/gpu:0/stream:all"
    node_stats {
      node_name: "gradients/Mean_grad/Prod_1:Prod"
      all_start_micros: 1488970767845435
      op_end_rel_micros: 3
      all_end_rel_micros: 3
    }
    node_stats {
      node_name: "MatMul:MatMul"
      all_start_micros: 1488970767991376
      op_end_rel_micros: 55
      all_end_rel_micros: 55
    }
    node_stats {
      node_name: "Add:Add"
      all_start_micros: 1488970767991514
      op_end_rel_micros: 5
      all_end_rel_micros: 5
    }
    node_stats {
      node_name: "Relu:Relu"
      all_start_micros: 1488970767991546
      op_end_rel_micros: 2
      all_end_rel_micros: 2
    }
    node_stats {
      node_name: "MatMul_1:MatMul"
      all_start_micros: 1488970767991572
      op_end_rel_micros: 23
      all_end_rel_micros: 23
    }
    node_stats {
      node_name: "Add_1:Add"
      all_start_micros: 1488970767991596
      op_end_rel_micros: 4
      all_end_rel_micros: 4
    }
    node_stats {
      node_name: "Relu_1:Relu"
      all_start_micros: 1488970767991610
      op_end_rel_micros: 2
      all_end_rel_micros: 2
    }
    node_stats {
      node_name: "MatMul_2:MatMul"
      all_start_micros: 1488970767991630
      op_end_rel_micros: 9
      all_end_rel_micros: 9
    }
    node_stats {
      node_name: "add:Add"
      all_start_micros: 1488970767991648
      op_end_rel_micros: 3
      all_end_rel_micros: 3
    }
    node_stats {
      node_name: "SoftmaxCrossEntropyWithLogits:SoftmaxCrossEntropyWithLogits"
      all_start_micros: 1488970767991701
      op_end_rel_micros: 4
      all_end_rel_micros: 4
    }
    node_stats {
      node_name: "SoftmaxCrossEntropyWithLogits:SoftmaxCrossEntropyWithLogits"
      all_start_micros: 1488970767991709
      op_end_rel_micros: 7
      all_end_rel_micros: 7
    }
    node_stats {
      node_name: "SoftmaxCrossEntropyWithLogits:SoftmaxCrossEntropyWithLogits"
      all_start_micros: 1488970767991717
      op_end_rel_micros: 5
      all_end_rel_micros: 5
    }
    node_stats {
      node_name: "SoftmaxCrossEntropyWithLogits:SoftmaxCrossEntropyWithLogits"
      all_start_micros: 1488970767991724
      op_end_rel_micros: 3
      all_end_rel_micros: 3
    }
    node_stats {
      node_name: "SoftmaxCrossEntropyWithLogits:SoftmaxCrossEntropyWithLogits"
      all_start_micros: 1488970767991730
      op_end_rel_micros: 7
      all_end_rel_micros: 7
    }
    node_stats {
      node_name: "SoftmaxCrossEntropyWithLogits:SoftmaxCrossEntropyWithLogits"
      all_start_micros: 1488970767991818
      op_end_rel_micros: 4
      all_end_rel_micros: 4
    }
    node_stats {
      node_name: "SoftmaxCrossEntropyWithLogits:SoftmaxCrossEntropyWithLogits"
      all_start_micros: 1488970767991865
      op_end_rel_micros: 9
      all_end_rel_micros: 9
    }
    node_stats {
      node_name: "Mean:Mean"
      all_start_micros: 1488970767991881
      op_end_rel_micros: 2
      all_end_rel_micros: 2
    }
    node_stats {
      node_name: "gradients/Mean_grad/Tile:Tile"
      all_start_micros: 1488970767991929
      op_end_rel_micros: 3
      all_end_rel_micros: 3
    }
    node_stats {
      node_name: "gradients/Mean_grad/Cast:Cast"
      all_start_micros: 1488970767992191
      op_end_rel_micros: 2
      all_end_rel_micros: 2
    }
    node_stats {
      node_name: "gradients/Mean_grad/truediv:RealDiv"
      all_start_micros: 1488970767992228
      op_end_rel_micros: 3
      all_end_rel_micros: 3
    }
    node_stats {
      node_name: "gradients/SoftmaxCrossEntropyWithLogits_grad/mul:Mul"
      all_start_micros: 1488970767992276
      op_end_rel_micros: 9
      all_end_rel_micros: 9
    }
    node_stats {
      node_name: "gradients/add_grad/Sum_1:Sum"
      all_start_micros: 1488970767992327
      op_end_rel_micros: 3
      all_end_rel_micros: 3
    }
    node_stats {
      node_name: "gradients/MatMul_2_grad/MatMul:MatMul"
      all_start_micros: 1488970767992391
      op_end_rel_micros: 13
      all_end_rel_micros: 13
    }
    node_stats {
      node_name: "gradients/MatMul_2_grad/MatMul_1:MatMul"
      all_start_micros: 1488970767992419
      op_end_rel_micros: 5
      all_end_rel_micros: 5
    }
    node_stats {
      node_name: "Adam/update_Variable_5/ApplyAdam:ApplyAdam"
      all_start_micros: 1488970767992454
      op_end_rel_micros: 2
      all_end_rel_micros: 2
    }
    node_stats {
      node_name: "Adam/update_Variable_5/ApplyAdam:ApplyAdam"
      all_start_micros: 1488970767992469
      op_end_rel_micros: 3
      all_end_rel_micros: 3
    }
    node_stats {
      node_name: "Adam/update_Variable_5/ApplyAdam:ApplyAdam"
      all_start_micros: 1488970767992480
      op_end_rel_micros: 6
      all_end_rel_micros: 6
    }
    node_stats {
      node_name: "gradients/Relu_1_grad/ReluGrad:ReluGrad"
      all_start_micros: 1488970767992528
      op_end_rel_micros: 2
      all_end_rel_micros: 2
    }
    node_stats {
      node_name: "Adam/update_Variable_2/ApplyAdam:ApplyAdam"
      all_start_micros: 1488970767992551
      op_end_rel_micros: 2
      all_end_rel_micros: 2
    }
    node_stats {
      node_name: "Adam/update_Variable_2/ApplyAdam:ApplyAdam"
      all_start_micros: 1488970767992560
      op_end_rel_micros: 3
      all_end_rel_micros: 3
    }
    node_stats {
      node_name: "Adam/update_Variable_2/ApplyAdam:ApplyAdam"
      all_start_micros: 1488970767992572
      op_end_rel_micros: 5
      all_end_rel_micros: 5
    }
    node_stats {
      node_name: "gradients/Add_1_grad/Sum_1:Sum"
      all_start_micros: 1488970767992605
      op_end_rel_micros: 2
      all_end_rel_micros: 2
    }
    node_stats {
      node_name: "gradients/Add_1_grad/Sum_1:Sum"
      all_start_micros: 1488970767992616
      op_end_rel_micros: 3
      all_end_rel_micros: 3
    }
    node_stats {
      node_name: "gradients/MatMul_1_grad/MatMul:MatMul"
      all_start_micros: 1488970767992669
      op_end_rel_micros: 19
      all_end_rel_micros: 19
    }
    node_stats {
      node_name: "gradients/MatMul_1_grad/MatMul_1:MatMul"
      all_start_micros: 1488970767992699
      op_end_rel_micros: 17
      all_end_rel_micros: 17
    }
    node_stats {
      node_name: "Adam/update_Variable_4/ApplyAdam:ApplyAdam"
      all_start_micros: 1488970767992727
      op_end_rel_micros: 3
      all_end_rel_micros: 3
    }
    node_stats {
      node_name: "Adam/update_Variable_4/ApplyAdam:ApplyAdam"
      all_start_micros: 1488970767992737
      op_end_rel_micros: 2
      all_end_rel_micros: 2
    }
    node_stats {
      node_name: "Adam/update_Variable_4/ApplyAdam:ApplyAdam"
      all_start_micros: 1488970767992745
      op_end_rel_micros: 5
      all_end_rel_micros: 5
    }
    node_stats {
      node_name: "gradients/Relu_grad/ReluGrad:ReluGrad"
      all_start_micros: 1488970767992785
      op_end_rel_micros: 2
      all_end_rel_micros: 2
    }
    node_stats {
      node_name: "Adam/update_Variable_1/ApplyAdam:ApplyAdam"
      all_start_micros: 1488970767992807
      op_end_rel_micros: 3
      all_end_rel_micros: 3
    }
    node_stats {
      node_name: "Adam/update_Variable_1/ApplyAdam:ApplyAdam"
      all_start_micros: 1488970767992817
      op_end_rel_micros: 3
      all_end_rel_micros: 3
    }
    node_stats {
      node_name: "Adam/update_Variable_1/ApplyAdam:ApplyAdam"
      all_start_micros: 1488970767992825
      op_end_rel_micros: 6
      all_end_rel_micros: 6
    }
    node_stats {
      node_name: "gradients/Add_grad/Sum_1:Sum"
      all_start_micros: 1488970767992859
      op_end_rel_micros: 1
      all_end_rel_micros: 1
    }
    node_stats {
      node_name: "gradients/Add_grad/Sum_1:Sum"
      all_start_micros: 1488970767992870
      op_end_rel_micros: 3
      all_end_rel_micros: 3
    }
    node_stats {
      node_name: "gradients/MatMul_grad/MatMul:MatMul"
      all_start_micros: 1488970767992922
      op_end_rel_micros: 26
      all_end_rel_micros: 26
    }
    node_stats {
      node_name: "gradients/MatMul_grad/MatMul_1:MatMul"
      all_start_micros: 1488970767992955
      op_end_rel_micros: 20
      all_end_rel_micros: 20
    }
    node_stats {
      node_name: "Adam/update_Variable_3/ApplyAdam:ApplyAdam"
      all_start_micros: 1488970767992982
      op_end_rel_micros: 3
      all_end_rel_micros: 3
    }
    node_stats {
      node_name: "Adam/update_Variable_3/ApplyAdam:ApplyAdam"
      all_start_micros: 1488970767992991
      op_end_rel_micros: 3
      all_end_rel_micros: 3
    }
    node_stats {
      node_name: "Adam/update_Variable_3/ApplyAdam:ApplyAdam"
      all_start_micros: 1488970767992999
      op_end_rel_micros: 5
      all_end_rel_micros: 5
    }
    node_stats {
      node_name: "Adam/update_Variable/ApplyAdam:ApplyAdam"
      all_start_micros: 1488970767993034
      op_end_rel_micros: 5
      all_end_rel_micros: 5
    }
    node_stats {
      node_name: "Adam/update_Variable/ApplyAdam:ApplyAdam"
      all_start_micros: 1488970767993043
      op_end_rel_micros: 6
      all_end_rel_micros: 6
    }
    node_stats {
      node_name: "Adam/update_Variable/ApplyAdam:ApplyAdam"
      all_start_micros: 1488970767993053
      op_end_rel_micros: 11
      all_end_rel_micros: 11
    }
    node_stats {
      node_name: "Adam/mul:Mul"
      all_start_micros: 1488970767993079
      op_end_rel_micros: 2
      all_end_rel_micros: 2
    }
    node_stats {
      node_name: "Adam/mul_1:Mul"
      all_start_micros: 1488970767993101
      op_end_rel_micros: 1
      all_end_rel_micros: 1
    }
  }
  dev_stats {
    device: "/gpu:0/stream:12"
    node_stats {
      node_name: "gradients/Mean_grad/Prod_1:Prod"
      all_start_micros: 1488970767845435
      op_end_rel_micros: 3
      all_end_rel_micros: 3
    }
    node_stats {
      node_name: "MatMul:MatMul"
      all_start_micros: 1488970767991376
      op_end_rel_micros: 55
      all_end_rel_micros: 55
    }
    node_stats {
      node_name: "Add:Add"
      all_start_micros: 1488970767991514
      op_end_rel_micros: 5
      all_end_rel_micros: 5
    }
    node_stats {
      node_name: "Relu:Relu"
      all_start_micros: 1488970767991546
      op_end_rel_micros: 2
      all_end_rel_micros: 2
    }
    node_stats {
      node_name: "MatMul_1:MatMul"
      all_start_micros: 1488970767991572
      op_end_rel_micros: 23
      all_end_rel_micros: 23
    }
    node_stats {
      node_name: "Add_1:Add"
      all_start_micros: 1488970767991596
      op_end_rel_micros: 4
      all_end_rel_micros: 4
    }
    node_stats {
      node_name: "Relu_1:Relu"
      all_start_micros: 1488970767991610
      op_end_rel_micros: 2
      all_end_rel_micros: 2
    }
    node_stats {
      node_name: "MatMul_2:MatMul"
      all_start_micros: 1488970767991630
      op_end_rel_micros: 9
      all_end_rel_micros: 9
    }
    node_stats {
      node_name: "add:Add"
      all_start_micros: 1488970767991648
      op_end_rel_micros: 3
      all_end_rel_micros: 3
    }
    node_stats {
      node_name: "SoftmaxCrossEntropyWithLogits:SoftmaxCrossEntropyWithLogits"
      all_start_micros: 1488970767991701
      op_end_rel_micros: 4
      all_end_rel_micros: 4
    }
    node_stats {
      node_name: "SoftmaxCrossEntropyWithLogits:SoftmaxCrossEntropyWithLogits"
      all_start_micros: 1488970767991709
      op_end_rel_micros: 7
      all_end_rel_micros: 7
    }
    node_stats {
      node_name: "SoftmaxCrossEntropyWithLogits:SoftmaxCrossEntropyWithLogits"
      all_start_micros: 1488970767991717
      op_end_rel_micros: 5
      all_end_rel_micros: 5
    }
    node_stats {
      node_name: "SoftmaxCrossEntropyWithLogits:SoftmaxCrossEntropyWithLogits"
      all_start_micros: 1488970767991724
      op_end_rel_micros: 3
      all_end_rel_micros: 3
    }
    node_stats {
      node_name: "SoftmaxCrossEntropyWithLogits:SoftmaxCrossEntropyWithLogits"
      all_start_micros: 1488970767991730
      op_end_rel_micros: 7
      all_end_rel_micros: 7
    }
    node_stats {
      node_name: "SoftmaxCrossEntropyWithLogits:SoftmaxCrossEntropyWithLogits"
      all_start_micros: 1488970767991818
      op_end_rel_micros: 4
      all_end_rel_micros: 4
    }
    node_stats {
      node_name: "SoftmaxCrossEntropyWithLogits:SoftmaxCrossEntropyWithLogits"
      all_start_micros: 1488970767991865
      op_end_rel_micros: 9
      all_end_rel_micros: 9
    }
    node_stats {
      node_name: "Mean:Mean"
      all_start_micros: 1488970767991881
      op_end_rel_micros: 2
      all_end_rel_micros: 2
    }
    node_stats {
      node_name: "gradients/Mean_grad/Tile:Tile"
      all_start_micros: 1488970767991929
      op_end_rel_micros: 3
      all_end_rel_micros: 3
    }
    node_stats {
      node_name: "gradients/Mean_grad/Cast:Cast"
      all_start_micros: 1488970767992191
      op_end_rel_micros: 2
      all_end_rel_micros: 2
    }
    node_stats {
      node_name: "gradients/Mean_grad/truediv:RealDiv"
      all_start_micros: 1488970767992228
      op_end_rel_micros: 3
      all_end_rel_micros: 3
    }
    node_stats {
      node_name: "gradients/SoftmaxCrossEntropyWithLogits_grad/mul:Mul"
      all_start_micros: 1488970767992276
      op_end_rel_micros: 9
      all_end_rel_micros: 9
    }
    node_stats {
      node_name: "gradients/add_grad/Sum_1:Sum"
      all_start_micros: 1488970767992327
      op_end_rel_micros: 3
      all_end_rel_micros: 3
    }
    node_stats {
      node_name: "gradients/MatMul_2_grad/MatMul:MatMul"
      all_start_micros: 1488970767992391
      op_end_rel_micros: 13
      all_end_rel_micros: 13
    }
    node_stats {
      node_name: "gradients/MatMul_2_grad/MatMul_1:MatMul"
      all_start_micros: 1488970767992419
      op_end_rel_micros: 5
      all_end_rel_micros: 5
    }
    node_stats {
      node_name: "Adam/update_Variable_5/ApplyAdam:ApplyAdam"
      all_start_micros: 1488970767992454
      op_end_rel_micros: 2
      all_end_rel_micros: 2
    }
    node_stats {
      node_name: "Adam/update_Variable_5/ApplyAdam:ApplyAdam"
      all_start_micros: 1488970767992469
      op_end_rel_micros: 3
      all_end_rel_micros: 3
    }
    node_stats {
      node_name: "Adam/update_Variable_5/ApplyAdam:ApplyAdam"
      all_start_micros: 1488970767992480
      op_end_rel_micros: 6
      all_end_rel_micros: 6
    }
    node_stats {
      node_name: "gradients/Relu_1_grad/ReluGrad:ReluGrad"
      all_start_micros: 1488970767992528
      op_end_rel_micros: 2
      all_end_rel_micros: 2
    }
    node_stats {
      node_name: "Adam/update_Variable_2/ApplyAdam:ApplyAdam"
      all_start_micros: 1488970767992551
      op_end_rel_micros: 2
      all_end_rel_micros: 2
    }
    node_stats {
      node_name: "Adam/update_Variable_2/ApplyAdam:ApplyAdam"
      all_start_micros: 1488970767992560
      op_end_rel_micros: 3
      all_end_rel_micros: 3
    }
    node_stats {
      node_name: "Adam/update_Variable_2/ApplyAdam:ApplyAdam"
      all_start_micros: 1488970767992572
      op_end_rel_micros: 5
      all_end_rel_micros: 5
    }
    node_stats {
      node_name: "gradients/Add_1_grad/Sum_1:Sum"
      all_start_micros: 1488970767992605
      op_end_rel_micros: 2
      all_end_rel_micros: 2
    }
    node_stats {
      node_name: "gradients/Add_1_grad/Sum_1:Sum"
      all_start_micros: 1488970767992616
      op_end_rel_micros: 3
      all_end_rel_micros: 3
    }
    node_stats {
      node_name: "gradients/MatMul_1_grad/MatMul:MatMul"
      all_start_micros: 1488970767992669
      op_end_rel_micros: 19
      all_end_rel_micros: 19
    }
    node_stats {
      node_name: "gradients/MatMul_1_grad/MatMul_1:MatMul"
      all_start_micros: 1488970767992699
      op_end_rel_micros: 17
      all_end_rel_micros: 17
    }
    node_stats {
      node_name: "Adam/update_Variable_4/ApplyAdam:ApplyAdam"
      all_start_micros: 1488970767992727
      op_end_rel_micros: 3
      all_end_rel_micros: 3
    }
    node_stats {
      node_name: "Adam/update_Variable_4/ApplyAdam:ApplyAdam"
      all_start_micros: 1488970767992737
      op_end_rel_micros: 2
      all_end_rel_micros: 2
    }
    node_stats {
      node_name: "Adam/update_Variable_4/ApplyAdam:ApplyAdam"
      all_start_micros: 1488970767992745
      op_end_rel_micros: 5
      all_end_rel_micros: 5
    }
    node_stats {
      node_name: "gradients/Relu_grad/ReluGrad:ReluGrad"
      all_start_micros: 1488970767992785
      op_end_rel_micros: 2
      all_end_rel_micros: 2
    }
    node_stats {
      node_name: "Adam/update_Variable_1/ApplyAdam:ApplyAdam"
      all_start_micros: 1488970767992807
      op_end_rel_micros: 3
      all_end_rel_micros: 3
    }
    node_stats {
      node_name: "Adam/update_Variable_1/ApplyAdam:ApplyAdam"
      all_start_micros: 1488970767992817
      op_end_rel_micros: 3
      all_end_rel_micros: 3
    }
    node_stats {
      node_name: "Adam/update_Variable_1/ApplyAdam:ApplyAdam"
      all_start_micros: 1488970767992825
      op_end_rel_micros: 6
      all_end_rel_micros: 6
    }
    node_stats {
      node_name: "gradients/Add_grad/Sum_1:Sum"
      all_start_micros: 1488970767992859
      op_end_rel_micros: 1
      all_end_rel_micros: 1
    }
    node_stats {
      node_name: "gradients/Add_grad/Sum_1:Sum"
      all_start_micros: 1488970767992870
      op_end_rel_micros: 3
      all_end_rel_micros: 3
    }
    node_stats {
      node_name: "gradients/MatMul_grad/MatMul:MatMul"
      all_start_micros: 1488970767992922
      op_end_rel_micros: 26
      all_end_rel_micros: 26
    }
    node_stats {
      node_name: "gradients/MatMul_grad/MatMul_1:MatMul"
      all_start_micros: 1488970767992955
      op_end_rel_micros: 20
      all_end_rel_micros: 20
    }
    node_stats {
      node_name: "Adam/update_Variable_3/ApplyAdam:ApplyAdam"
      all_start_micros: 1488970767992982
      op_end_rel_micros: 3
      all_end_rel_micros: 3
    }
    node_stats {
      node_name: "Adam/update_Variable_3/ApplyAdam:ApplyAdam"
      all_start_micros: 1488970767992991
      op_end_rel_micros: 3
      all_end_rel_micros: 3
    }
    node_stats {
      node_name: "Adam/update_Variable_3/ApplyAdam:ApplyAdam"
      all_start_micros: 1488970767992999
      op_end_rel_micros: 5
      all_end_rel_micros: 5
    }
    node_stats {
      node_name: "Adam/update_Variable/ApplyAdam:ApplyAdam"
      all_start_micros: 1488970767993034
      op_end_rel_micros: 5
      all_end_rel_micros: 5
    }
    node_stats {
      node_name: "Adam/update_Variable/ApplyAdam:ApplyAdam"
      all_start_micros: 1488970767993043
      op_end_rel_micros: 6
      all_end_rel_micros: 6
    }
    node_stats {
      node_name: "Adam/update_Variable/ApplyAdam:ApplyAdam"
      all_start_micros: 1488970767993053
      op_end_rel_micros: 11
      all_end_rel_micros: 11
    }
    node_stats {
      node_name: "Adam/mul:Mul"
      all_start_micros: 1488970767993079
      op_end_rel_micros: 2
      all_end_rel_micros: 2
    }
    node_stats {
      node_name: "Adam/mul_1:Mul"
      all_start_micros: 1488970767993101
      op_end_rel_micros: 1
      all_end_rel_micros: 1
    }
    node_stats {
      node_name: "Adam/Assign:Assign:MEMCPYDtoD"
      all_start_micros: 1488970767993125
      op_end_rel_micros: 1
      all_end_rel_micros: 1
      timeline_label: "MEMCPYDtoD 4 bytes (Device to Device)"
    }
    node_stats {
      node_name: "Adam/Assign_1:Assign:MEMCPYDtoD"
      all_start_micros: 1488970767993151
      op_end_rel_micros: 1
      all_end_rel_micros: 1
      timeline_label: "MEMCPYDtoD 4 bytes (Device to Device)"
    }
  }
  dev_stats {
    device: "/gpu:0/memcpy"
    node_stats {
      node_name: "edge_315__recv_Placeholder_0:MEMCPYHtoD"
      all_start_micros: 1488970767845284
      op_end_rel_micros: 31
      all_end_rel_micros: 31
      timeline_label: "MEMCPYHtoD 313600 bytes (Pageable to Device)"
    }
    node_stats {
      node_name: "edge_316__recv_Placeholder_1_0:MEMCPYHtoD"
      all_start_micros: 1488970767845323
      op_end_rel_micros: 1
      all_end_rel_micros: 1
      timeline_label: "MEMCPYHtoD 4000 bytes (Pageable to Device)"
    }
    node_stats {
      node_name: "edge_7_gradients/Mean_grad/Prod_1:MEMCPYDtoH"
      all_start_micros: 1488970767845482
      op_end_rel_micros: 1
      all_end_rel_micros: 1
      timeline_label: "MEMCPYDtoH 4 bytes (Device to Pinned)"
    }
    node_stats {
      node_name: "MatMul:MatMul:MEMCPYHtoD"
      all_start_micros: 1488970767991129
      op_end_rel_micros: 1
      all_end_rel_micros: 1
      timeline_label: "MEMCPYHtoD 112 bytes (Pageable to Device)"
    }
    node_stats {
      node_name: "edge_81_gradients/Mean_grad/Shape_1:MEMCPYHtoD"
      all_start_micros: 1488970767991959
      op_end_rel_micros: 1
      all_end_rel_micros: 1
      timeline_label: "MEMCPYHtoD 4 bytes (Pinned to Device)"
    }
    node_stats {
      node_name: "edge_35_Mean:MEMCPYDtoH"
      all_start_micros: 1488970767991969
      op_end_rel_micros: 1
      all_end_rel_micros: 1
      timeline_label: "MEMCPYDtoH 4 bytes (Device to Pinned)"
    }
    node_stats {
      node_name: "edge_83_gradients/Mean_grad/Prod:MEMCPYDtoH"
      all_start_micros: 1488970767992045
      op_end_rel_micros: 1
      all_end_rel_micros: 1
      timeline_label: "MEMCPYDtoH 4 bytes (Device to Pinned)"
    }
    node_stats {
      node_name: "edge_85_gradients/Mean_grad/floordiv:MEMCPYHtoD"
      all_start_micros: 1488970767992137
      op_end_rel_micros: 1
      all_end_rel_micros: 1
      timeline_label: "MEMCPYHtoD 4 bytes (Pinned to Device)"
    }
    node_stats {
      node_name: "Adam/Assign:Assign:MEMCPYDtoD"
      all_start_micros: 1488970767993125
      op_end_rel_micros: 1
      all_end_rel_micros: 1
      timeline_label: "MEMCPYDtoD 4 bytes (Device to Device)"
    }
    node_stats {
      node_name: "Adam/Assign_1:Assign:MEMCPYDtoD"
      all_start_micros: 1488970767993151
      op_end_rel_micros: 1
      all_end_rel_micros: 1
      timeline_label: "MEMCPYDtoD 4 bytes (Device to Device)"
    }
  }
  dev_stats {
    device: "/gpu:0/stream:13"
    node_stats {
      node_name: "edge_315__recv_Placeholder_0:MEMCPYHtoD"
      all_start_micros: 1488970767845284
      op_end_rel_micros: 31
      all_end_rel_micros: 31
      timeline_label: "MEMCPYHtoD 313600 bytes (Pageable to Device)"
    }
    node_stats {
      node_name: "edge_316__recv_Placeholder_1_0:MEMCPYHtoD"
      all_start_micros: 1488970767845323
      op_end_rel_micros: 1
      all_end_rel_micros: 1
      timeline_label: "MEMCPYHtoD 4000 bytes (Pageable to Device)"
    }
    node_stats {
      node_name: "edge_81_gradients/Mean_grad/Shape_1:MEMCPYHtoD"
      all_start_micros: 1488970767991959
      op_end_rel_micros: 1
      all_end_rel_micros: 1
      timeline_label: "MEMCPYHtoD 4 bytes (Pinned to Device)"
    }
    node_stats {
      node_name: "edge_85_gradients/Mean_grad/floordiv:MEMCPYHtoD"
      all_start_micros: 1488970767992137
      op_end_rel_micros: 1
      all_end_rel_micros: 1
      timeline_label: "MEMCPYHtoD 4 bytes (Pinned to Device)"
    }
  }
  dev_stats {
    device: "/gpu:0/stream:14"
    node_stats {
      node_name: "edge_7_gradients/Mean_grad/Prod_1:MEMCPYDtoH"
      all_start_micros: 1488970767845482
      op_end_rel_micros: 1
      all_end_rel_micros: 1
      timeline_label: "MEMCPYDtoH 4 bytes (Device to Pinned)"
    }
    node_stats {
      node_name: "edge_35_Mean:MEMCPYDtoH"
      all_start_micros: 1488970767991969
      op_end_rel_micros: 1
      all_end_rel_micros: 1
      timeline_label: "MEMCPYDtoH 4 bytes (Device to Pinned)"
    }
    node_stats {
      node_name: "edge_83_gradients/Mean_grad/Prod:MEMCPYDtoH"
      all_start_micros: 1488970767992045
      op_end_rel_micros: 1
      all_end_rel_micros: 1
      timeline_label: "MEMCPYDtoH 4 bytes (Device to Pinned)"
    }
  }
  dev_stats {
    device: "/gpu:0/stream:7"
    node_stats {
      node_name: "MatMul:MatMul:MEMCPYHtoD"
      all_start_micros: 1488970767991129
      op_end_rel_micros: 1
      all_end_rel_micros: 1
      timeline_label: "MEMCPYHtoD 112 bytes (Pageable to Device)"
    }
  }
}
partition_graphs {
  node {
    name: "_recv_Placeholder_0/_7"
    op: "_Recv"
    device: "/job:localhost/replica:0/task:0/gpu:0"
    attr {
      key: "client_terminated"
      value {
        b: false
      }
    }
    attr {
      key: "recv_device"
      value {
        s: "/job:localhost/replica:0/task:0/gpu:0"
      }
    }
    attr {
      key: "send_device"
      value {
        s: "/job:localhost/replica:0/task:0/cpu:0"
      }
    }
    attr {
      key: "send_device_incarnation"
      value {
        i: 1
      }
    }
    attr {
      key: "tensor_name"
      value {
        s: "edge_315__recv_Placeholder_0"
      }
    }
    attr {
      key: "tensor_type"
      value {
        type: DT_FLOAT
      }
    }
  }
  node {
    name: "_recv_Placeholder_1_0/_5"
    op: "_Recv"
    device: "/job:localhost/replica:0/task:0/gpu:0"
    attr {
      key: "client_terminated"
      value {
        b: false
      }
    }
    attr {
      key: "recv_device"
      value {
        s: "/job:localhost/replica:0/task:0/gpu:0"
      }
    }
    attr {
      key: "send_device"
      value {
        s: "/job:localhost/replica:0/task:0/cpu:0"
      }
    }
    attr {
      key: "send_device_incarnation"
      value {
        i: 1
      }
    }
    attr {
      key: "tensor_name"
      value {
        s: "edge_316__recv_Placeholder_1_0"
      }
    }
    attr {
      key: "tensor_type"
      value {
        type: DT_FLOAT
      }
    }
  }
  node {
    name: "Shape_2"
    op: "Shape"
    input: "_recv_Placeholder_1_0/_5"
    device: "/job:localhost/replica:0/task:0/gpu:0"
    attr {
      key: "T"
      value {
        type: DT_FLOAT
      }
    }
    attr {
      key: "out_type"
      value {
        type: DT_INT32
      }
    }
  }
  node {
    name: "Variable"
    op: "VariableV2"
    device: "/job:localhost/replica:0/task:0/gpu:0"
    attr {
      key: "container"
      value {
        s: ""
      }
    }
    attr {
      key: "dtype"
      value {
        type: DT_FLOAT
      }
    }
    attr {
      key: "shape"
      value {
        shape {
          dim {
            size: 784
          }
          dim {
            size: 170
          }
        }
      }
    }
    attr {
      key: "shared_name"
      value {
        s: ""
      }
    }
  }
  node {
    name: "Variable/read"
    op: "Identity"
    input: "Variable"
    device: "/job:localhost/replica:0/task:0/gpu:0"
    attr {
      key: "T"
      value {
        type: DT_FLOAT
      }
    }
    attr {
      key: "_class"
      value {
        list {
          s: "loc:@Variable"
        }
      }
    }
  }
  node {
    name: "MatMul"
    op: "MatMul"
    input: "_recv_Placeholder_0/_7"
    input: "Variable/read"
    device: "/job:localhost/replica:0/task:0/gpu:0"
    attr {
      key: "T"
      value {
        type: DT_FLOAT
      }
    }
    attr {
      key: "transpose_a"
      value {
        b: false
      }
    }
    attr {
      key: "transpose_b"
      value {
        b: false
      }
    }
  }
  node {
    name: "gradients/Add_grad/Shape"
    op: "Shape"
    input: "MatMul"
    device: "/job:localhost/replica:0/task:0/gpu:0"
    attr {
      key: "T"
      value {
        type: DT_FLOAT
      }
    }
    attr {
      key: "out_type"
      value {
        type: DT_INT32
      }
    }
  }
  node {
    name: "Variable_1"
    op: "VariableV2"
    device: "/job:localhost/replica:0/task:0/gpu:0"
    attr {
      key: "container"
      value {
        s: ""
      }
    }
    attr {
      key: "dtype"
      value {
        type: DT_FLOAT
      }
    }
    attr {
      key: "shape"
      value {
        shape {
          dim {
            size: 170
          }
          dim {
            size: 170
          }
        }
      }
    }
    attr {
      key: "shared_name"
      value {
        s: ""
      }
    }
  }
  node {
    name: "Variable_1/read"
    op: "Identity"
    input: "Variable_1"
    device: "/job:localhost/replica:0/task:0/gpu:0"
    attr {
      key: "T"
      value {
        type: DT_FLOAT
      }
    }
    attr {
      key: "_class"
      value {
        list {
          s: "loc:@Variable_1"
        }
      }
    }
  }
  node {
    name: "Variable_2"
    op: "VariableV2"
    device: "/job:localhost/replica:0/task:0/gpu:0"
    attr {
      key: "container"
      value {
        s: ""
      }
    }
    attr {
      key: "dtype"
      value {
        type: DT_FLOAT
      }
    }
    attr {
      key: "shape"
      value {
        shape {
          dim {
            size: 170
          }
          dim {
            size: 10
          }
        }
      }
    }
    attr {
      key: "shared_name"
      value {
        s: ""
      }
    }
  }
  node {
    name: "Variable_2/read"
    op: "Identity"
    input: "Variable_2"
    device: "/job:localhost/replica:0/task:0/gpu:0"
    attr {
      key: "T"
      value {
        type: DT_FLOAT
      }
    }
    attr {
      key: "_class"
      value {
        list {
          s: "loc:@Variable_2"
        }
      }
    }
  }
  node {
    name: "Variable_3"
    op: "VariableV2"
    device: "/job:localhost/replica:0/task:0/gpu:0"
    attr {
      key: "container"
      value {
        s: ""
      }
    }
    attr {
      key: "dtype"
      value {
        type: DT_FLOAT
      }
    }
    attr {
      key: "shape"
      value {
        shape {
          dim {
            size: 170
          }
        }
      }
    }
    attr {
      key: "shared_name"
      value {
        s: ""
      }
    }
  }
  node {
    name: "Variable_3/read"
    op: "Identity"
    input: "Variable_3"
    device: "/job:localhost/replica:0/task:0/gpu:0"
    attr {
      key: "T"
      value {
        type: DT_FLOAT
      }
    }
    attr {
      key: "_class"
      value {
        list {
          s: "loc:@Variable_3"
        }
      }
    }
  }
  node {
    name: "Add"
    op: "Add"
    input: "MatMul"
    input: "Variable_3/read"
    device: "/job:localhost/replica:0/task:0/gpu:0"
    attr {
      key: "T"
      value {
        type: DT_FLOAT
      }
    }
  }
  node {
    name: "Relu"
    op: "Relu"
    input: "Add"
    device: "/job:localhost/replica:0/task:0/gpu:0"
    attr {
      key: "T"
      value {
        type: DT_FLOAT
      }
    }
  }
  node {
    name: "MatMul_1"
    op: "MatMul"
    input: "Relu"
    input: "Variable_1/read"
    device: "/job:localhost/replica:0/task:0/gpu:0"
    attr {
      key: "T"
      value {
        type: DT_FLOAT
      }
    }
    attr {
      key: "transpose_a"
      value {
        b: false
      }
    }
    attr {
      key: "transpose_b"
      value {
        b: false
      }
    }
  }
  node {
    name: "gradients/Add_1_grad/Shape"
    op: "Shape"
    input: "MatMul_1"
    device: "/job:localhost/replica:0/task:0/gpu:0"
    attr {
      key: "T"
      value {
        type: DT_FLOAT
      }
    }
    attr {
      key: "out_type"
      value {
        type: DT_INT32
      }
    }
  }
  node {
    name: "Variable_4"
    op: "VariableV2"
    device: "/job:localhost/replica:0/task:0/gpu:0"
    attr {
      key: "container"
      value {
        s: ""
      }
    }
    attr {
      key: "dtype"
      value {
        type: DT_FLOAT
      }
    }
    attr {
      key: "shape"
      value {
        shape {
          dim {
            size: 170
          }
        }
      }
    }
    attr {
      key: "shared_name"
      value {
        s: ""
      }
    }
  }
  node {
    name: "Variable_4/read"
    op: "Identity"
    input: "Variable_4"
    device: "/job:localhost/replica:0/task:0/gpu:0"
    attr {
      key: "T"
      value {
        type: DT_FLOAT
      }
    }
    attr {
      key: "_class"
      value {
        list {
          s: "loc:@Variable_4"
        }
      }
    }
  }
  node {
    name: "Add_1"
    op: "Add"
    input: "MatMul_1"
    input: "Variable_4/read"
    device: "/job:localhost/replica:0/task:0/gpu:0"
    attr {
      key: "T"
      value {
        type: DT_FLOAT
      }
    }
  }
  node {
    name: "Relu_1"
    op: "Relu"
    input: "Add_1"
    device: "/job:localhost/replica:0/task:0/gpu:0"
    attr {
      key: "T"
      value {
        type: DT_FLOAT
      }
    }
  }
  node {
    name: "MatMul_2"
    op: "MatMul"
    input: "Relu_1"
    input: "Variable_2/read"
    device: "/job:localhost/replica:0/task:0/gpu:0"
    attr {
      key: "T"
      value {
        type: DT_FLOAT
      }
    }
    attr {
      key: "transpose_a"
      value {
        b: false
      }
    }
    attr {
      key: "transpose_b"
      value {
        b: false
      }
    }
  }
  node {
    name: "gradients/add_grad/Shape"
    op: "Shape"
    input: "MatMul_2"
    device: "/job:localhost/replica:0/task:0/gpu:0"
    attr {
      key: "T"
      value {
        type: DT_FLOAT
      }
    }
    attr {
      key: "out_type"
      value {
        type: DT_INT32
      }
    }
  }
  node {
    name: "Variable_5"
    op: "VariableV2"
    device: "/job:localhost/replica:0/task:0/gpu:0"
    attr {
      key: "container"
      value {
        s: ""
      }
    }
    attr {
      key: "dtype"
      value {
        type: DT_FLOAT
      }
    }
    attr {
      key: "shape"
      value {
        shape {
          dim {
            size: 10
          }
        }
      }
    }
    attr {
      key: "shared_name"
      value {
        s: ""
      }
    }
  }
  node {
    name: "Variable_5/read"
    op: "Identity"
    input: "Variable_5"
    device: "/job:localhost/replica:0/task:0/gpu:0"
    attr {
      key: "T"
      value {
        type: DT_FLOAT
      }
    }
    attr {
      key: "_class"
      value {
        list {
          s: "loc:@Variable_5"
        }
      }
    }
  }
  node {
    name: "add"
    op: "Add"
    input: "MatMul_2"
    input: "Variable_5/read"
    device: "/job:localhost/replica:0/task:0/gpu:0"
    attr {
      key: "T"
      value {
        type: DT_FLOAT
      }
    }
  }
  node {
    name: "Shape"
    op: "Shape"
    input: "add"
    device: "/job:localhost/replica:0/task:0/gpu:0"
    attr {
      key: "T"
      value {
        type: DT_FLOAT
      }
    }
    attr {
      key: "out_type"
      value {
        type: DT_INT32
      }
    }
  }
  node {
    name: "Slice"
    op: "Slice"
    input: "Shape"
    input: "Slice/begin/_1__cf__1"
    input: "Slice/begin/_1__cf__1"
    device: "/job:localhost/replica:0/task:0/gpu:0"
    attr {
      key: "Index"
      value {
        type: DT_INT32
      }
    }
    attr {
      key: "T"
      value {
        type: DT_INT32
      }
    }
  }
  node {
    name: "concat/values_0"
    op: "Const"
    device: "/job:localhost/replica:0/task:0/gpu:0"
    attr {
      key: "dtype"
      value {
        type: DT_INT32
      }
    }
    attr {
      key: "value"
      value {
        tensor {
          dtype: DT_INT32
          tensor_shape {
            dim {
              size: 1
            }
          }
          int_val: -1
        }
      }
    }
  }
  node {
    name: "concat/axis"
    op: "Const"
    device: "/job:localhost/replica:0/task:0/gpu:0"
    attr {
      key: "dtype"
      value {
        type: DT_INT32
      }
    }
    attr {
      key: "value"
      value {
        tensor {
          dtype: DT_INT32
          tensor_shape {
          }
          int_val: 0
        }
      }
    }
  }
  node {
    name: "concat"
    op: "ConcatV2"
    input: "concat/values_0"
    input: "Slice"
    input: "concat/axis"
    device: "/job:localhost/replica:0/task:0/gpu:0"
    attr {
      key: "N"
      value {
        i: 2
      }
    }
    attr {
      key: "T"
      value {
        type: DT_INT32
      }
    }
    attr {
      key: "Tidx"
      value {
        type: DT_INT32
      }
    }
  }
  node {
    name: "Reshape"
    op: "Reshape"
    input: "add"
    input: "concat"
    device: "/job:localhost/replica:0/task:0/gpu:0"
    attr {
      key: "T"
      value {
        type: DT_FLOAT
      }
    }
    attr {
      key: "Tshape"
      value {
        type: DT_INT32
      }
    }
  }
  node {
    name: "Slice_1"
    op: "Slice"
    input: "Shape_2"
    input: "Slice/begin/_1__cf__1"
    input: "Slice/begin/_1__cf__1"
    device: "/job:localhost/replica:0/task:0/gpu:0"
    attr {
      key: "Index"
      value {
        type: DT_INT32
      }
    }
    attr {
      key: "T"
      value {
        type: DT_INT32
      }
    }
  }
  node {
    name: "concat_1"
    op: "ConcatV2"
    input: "concat/values_0"
    input: "Slice_1"
    input: "concat/axis"
    device: "/job:localhost/replica:0/task:0/gpu:0"
    attr {
      key: "N"
      value {
        i: 2
      }
    }
    attr {
      key: "T"
      value {
        type: DT_INT32
      }
    }
    attr {
      key: "Tidx"
      value {
        type: DT_INT32
      }
    }
  }
  node {
    name: "Reshape_1"
    op: "Reshape"
    input: "_recv_Placeholder_1_0/_5"
    input: "concat_1"
    device: "/job:localhost/replica:0/task:0/gpu:0"
    attr {
      key: "T"
      value {
        type: DT_FLOAT
      }
    }
    attr {
      key: "Tshape"
      value {
        type: DT_INT32
      }
    }
  }
  node {
    name: "SoftmaxCrossEntropyWithLogits"
    op: "SoftmaxCrossEntropyWithLogits"
    input: "Reshape"
    input: "Reshape_1"
    device: "/job:localhost/replica:0/task:0/gpu:0"
    attr {
      key: "T"
      value {
        type: DT_FLOAT
      }
    }
  }
  node {
    name: "gradients/Reshape_2_grad/Shape"
    op: "Shape"
    input: "SoftmaxCrossEntropyWithLogits"
    device: "/job:localhost/replica:0/task:0/gpu:0"
    attr {
      key: "T"
      value {
        type: DT_FLOAT
      }
    }
    attr {
      key: "out_type"
      value {
        type: DT_INT32
      }
    }
  }
  node {
    name: "gradients/SoftmaxCrossEntropyWithLogits_grad/PreventGradient"
    op: "PreventGradient"
    input: "SoftmaxCrossEntropyWithLogits:1"
    device: "/job:localhost/replica:0/task:0/gpu:0"
    attr {
      key: "T"
      value {
        type: DT_FLOAT
      }
    }
  }
  node {
    name: "Slice_2/begin"
    op: "Const"
    device: "/job:localhost/replica:0/task:0/gpu:0"
    attr {
      key: "dtype"
      value {
        type: DT_INT32
      }
    }
    attr {
      key: "value"
      value {
        tensor {
          dtype: DT_INT32
          tensor_shape {
            dim {
              size: 1
            }
          }
          int_val: 0
        }
      }
    }
  }
  node {
    name: "Slice_2"
    op: "Slice"
    input: "Shape"
    input: "Slice_2/begin"
    input: "Slice/begin/_1__cf__1"
    device: "/job:localhost/replica:0/task:0/gpu:0"
    attr {
      key: "Index"
      value {
        type: DT_INT32
      }
    }
    attr {
      key: "T"
      value {
        type: DT_INT32
      }
    }
  }
  node {
    name: "Reshape_2"
    op: "Reshape"
    input: "SoftmaxCrossEntropyWithLogits"
    input: "Slice_2"
    device: "/job:localhost/replica:0/task:0/gpu:0"
    attr {
      key: "T"
      value {
        type: DT_FLOAT
      }
    }
    attr {
      key: "Tshape"
      value {
        type: DT_INT32
      }
    }
  }
  node {
    name: "gradients/Mean_grad/Shape"
    op: "Shape"
    input: "Reshape_2"
    device: "/job:localhost/replica:0/task:0/gpu:0"
    attr {
      key: "T"
      value {
        type: DT_FLOAT
      }
    }
    attr {
      key: "out_type"
      value {
        type: DT_INT32
      }
    }
  }
  node {
    name: "gradients/Mean_grad/Shape_1/_8"
    op: "_HostSend"
    input: "gradients/Mean_grad/Shape"
    device: "/job:localhost/replica:0/task:0/gpu:0"
    attr {
      key: "T"
      value {
        type: DT_INT32
      }
    }
    attr {
      key: "client_terminated"
      value {
        b: false
      }
    }
    attr {
      key: "recv_device"
      value {
        s: "/job:localhost/replica:0/task:0/gpu:0"
      }
    }
    attr {
      key: "send_device"
      value {
        s: "/job:localhost/replica:0/task:0/gpu:0"
      }
    }
    attr {
      key: "send_device_incarnation"
      value {
        i: 1
      }
    }
    attr {
      key: "tensor_name"
      value {
        s: "edge_81_gradients/Mean_grad/Shape_1"
      }
    }
  }
  node {
    name: "gradients/Mean_grad/Shape_1/_9"
    op: "_Recv"
    input: "^gradients/Mean_grad/Shape_1/_8"
    device: "/job:localhost/replica:0/task:0/gpu:0"
    attr {
      key: "client_terminated"
      value {
        b: false
      }
    }
    attr {
      key: "recv_device"
      value {
        s: "/job:localhost/replica:0/task:0/gpu:0"
      }
    }
    attr {
      key: "send_device"
      value {
        s: "/job:localhost/replica:0/task:0/gpu:0"
      }
    }
    attr {
      key: "send_device_incarnation"
      value {
        i: 1
      }
    }
    attr {
      key: "tensor_name"
      value {
        s: "edge_81_gradients/Mean_grad/Shape_1"
      }
    }
    attr {
      key: "tensor_type"
      value {
        type: DT_INT32
      }
    }
  }
  node {
    name: "Mean"
    op: "Mean"
    input: "Reshape_2"
    input: "Slice_2/begin"
    device: "/job:localhost/replica:0/task:0/gpu:0"
    attr {
      key: "T"
      value {
        type: DT_FLOAT
      }
    }
    attr {
      key: "Tidx"
      value {
        type: DT_INT32
      }
    }
    attr {
      key: "keep_dims"
      value {
        b: false
      }
    }
  }
  node {
    name: "Mean/_14"
    op: "_Send"
    input: "Mean"
    device: "/job:localhost/replica:0/task:0/gpu:0"
    attr {
      key: "T"
      value {
        type: DT_FLOAT
      }
    }
    attr {
      key: "client_terminated"
      value {
        b: false
      }
    }
    attr {
      key: "recv_device"
      value {
        s: "/job:localhost/replica:0/task:0/cpu:0"
      }
    }
    attr {
      key: "send_device"
      value {
        s: "/job:localhost/replica:0/task:0/gpu:0"
      }
    }
    attr {
      key: "send_device_incarnation"
      value {
        i: 1
      }
    }
    attr {
      key: "tensor_name"
      value {
        s: "edge_35_Mean"
      }
    }
  }
  node {
    name: "gradients/Mean_grad/Tile"
    op: "Tile"
    input: "gradients/Mean_grad/Reshape/_3__cf__3"
    input: "gradients/Mean_grad/Shape"
    device: "/job:localhost/replica:0/task:0/gpu:0"
    attr {
      key: "T"
      value {
        type: DT_FLOAT
      }
    }
    attr {
      key: "Tmultiples"
      value {
        type: DT_INT32
      }
    }
  }
  node {
    name: "gradients/Mean_grad/Shape_2"
    op: "Const"
    device: "/job:localhost/replica:0/task:0/gpu:0"
    attr {
      key: "dtype"
      value {
        type: DT_INT32
      }
    }
    attr {
      key: "value"
      value {
        tensor {
          dtype: DT_INT32
          tensor_shape {
            dim {
            }
          }
        }
      }
    }
  }
  node {
    name: "gradients/Mean_grad/Shape_2/_0"
    op: "_HostSend"
    input: "gradients/Mean_grad/Shape_2"
    device: "/job:localhost/replica:0/task:0/gpu:0"
    attr {
      key: "T"
      value {
        type: DT_INT32
      }
    }
    attr {
      key: "client_terminated"
      value {
        b: false
      }
    }
    attr {
      key: "recv_device"
      value {
        s: "/job:localhost/replica:0/task:0/gpu:0"
      }
    }
    attr {
      key: "send_device"
      value {
        s: "/job:localhost/replica:0/task:0/gpu:0"
      }
    }
    attr {
      key: "send_device_incarnation"
      value {
        i: 1
      }
    }
    attr {
      key: "tensor_name"
      value {
        s: "edge_5_gradients/Mean_grad/Shape_2"
      }
    }
  }
  node {
    name: "gradients/Mean_grad/Shape_2/_1"
    op: "_Recv"
    input: "^gradients/Mean_grad/Shape_2/_0"
    device: "/job:localhost/replica:0/task:0/gpu:0"
    attr {
      key: "client_terminated"
      value {
        b: false
      }
    }
    attr {
      key: "recv_device"
      value {
        s: "/job:localhost/replica:0/task:0/gpu:0"
      }
    }
    attr {
      key: "send_device"
      value {
        s: "/job:localhost/replica:0/task:0/gpu:0"
      }
    }
    attr {
      key: "send_device_incarnation"
      value {
        i: 1
      }
    }
    attr {
      key: "tensor_name"
      value {
        s: "edge_5_gradients/Mean_grad/Shape_2"
      }
    }
    attr {
      key: "tensor_type"
      value {
        type: DT_INT32
      }
    }
  }
  node {
    name: "gradients/Mean_grad/Prod"
    op: "Prod"
    input: "gradients/Mean_grad/Shape_1/_9"
    input: "Slice_2/begin"
    device: "/job:localhost/replica:0/task:0/gpu:0"
    attr {
      key: "T"
      value {
        type: DT_INT32
      }
    }
    attr {
      key: "Tidx"
      value {
        type: DT_INT32
      }
    }
    attr {
      key: "keep_dims"
      value {
        b: false
      }
    }
  }
  node {
    name: "gradients/Mean_grad/Prod/_10"
    op: "_Send"
    input: "gradients/Mean_grad/Prod"
    device: "/job:localhost/replica:0/task:0/gpu:0"
    attr {
      key: "T"
      value {
        type: DT_INT32
      }
    }
    attr {
      key: "client_terminated"
      value {
        b: false
      }
    }
    attr {
      key: "recv_device"
      value {
        s: "/job:localhost/replica:0/task:0/gpu:0"
      }
    }
    attr {
      key: "send_device"
      value {
        s: "/job:localhost/replica:0/task:0/gpu:0"
      }
    }
    attr {
      key: "send_device_incarnation"
      value {
        i: 1
      }
    }
    attr {
      key: "tensor_name"
      value {
        s: "edge_83_gradients/Mean_grad/Prod"
      }
    }
  }
  node {
    name: "gradients/Mean_grad/Prod/_11"
    op: "_HostRecv"
    input: "^gradients/Mean_grad/Prod/_10"
    device: "/job:localhost/replica:0/task:0/gpu:0"
    attr {
      key: "client_terminated"
      value {
        b: false
      }
    }
    attr {
      key: "recv_device"
      value {
        s: "/job:localhost/replica:0/task:0/gpu:0"
      }
    }
    attr {
      key: "send_device"
      value {
        s: "/job:localhost/replica:0/task:0/gpu:0"
      }
    }
    attr {
      key: "send_device_incarnation"
      value {
        i: 1
      }
    }
    attr {
      key: "tensor_name"
      value {
        s: "edge_83_gradients/Mean_grad/Prod"
      }
    }
    attr {
      key: "tensor_type"
      value {
        type: DT_INT32
      }
    }
  }
  node {
    name: "gradients/Mean_grad/Prod_1"
    op: "Prod"
    input: "gradients/Mean_grad/Shape_2/_1"
    input: "Slice_2/begin"
    device: "/job:localhost/replica:0/task:0/gpu:0"
    attr {
      key: "T"
      value {
        type: DT_INT32
      }
    }
    attr {
      key: "Tidx"
      value {
        type: DT_INT32
      }
    }
    attr {
      key: "keep_dims"
      value {
        b: false
      }
    }
  }
  node {
    name: "gradients/Mean_grad/Prod_1/_2"
    op: "_Send"
    input: "gradients/Mean_grad/Prod_1"
    device: "/job:localhost/replica:0/task:0/gpu:0"
    attr {
      key: "T"
      value {
        type: DT_INT32
      }
    }
    attr {
      key: "client_terminated"
      value {
        b: false
      }
    }
    attr {
      key: "recv_device"
      value {
        s: "/job:localhost/replica:0/task:0/gpu:0"
      }
    }
    attr {
      key: "send_device"
      value {
        s: "/job:localhost/replica:0/task:0/gpu:0"
      }
    }
    attr {
      key: "send_device_incarnation"
      value {
        i: 1
      }
    }
    attr {
      key: "tensor_name"
      value {
        s: "edge_7_gradients/Mean_grad/Prod_1"
      }
    }
  }
  node {
    name: "gradients/Mean_grad/Prod_1/_3"
    op: "_HostRecv"
    input: "^gradients/Mean_grad/Prod_1/_2"
    device: "/job:localhost/replica:0/task:0/gpu:0"
    attr {
      key: "client_terminated"
      value {
        b: false
      }
    }
    attr {
      key: "recv_device"
      value {
        s: "/job:localhost/replica:0/task:0/gpu:0"
      }
    }
    attr {
      key: "send_device"
      value {
        s: "/job:localhost/replica:0/task:0/gpu:0"
      }
    }
    attr {
      key: "send_device_incarnation"
      value {
        i: 1
      }
    }
    attr {
      key: "tensor_name"
      value {
        s: "edge_7_gradients/Mean_grad/Prod_1"
      }
    }
    attr {
      key: "tensor_type"
      value {
        type: DT_INT32
      }
    }
  }
  node {
    name: "gradients/Mean_grad/Maximum/y"
    op: "Const"
    device: "/job:localhost/replica:0/task:0/gpu:0"
    attr {
      key: "dtype"
      value {
        type: DT_INT32
      }
    }
    attr {
      key: "value"
      value {
        tensor {
          dtype: DT_INT32
          tensor_shape {
          }
          int_val: 1
        }
      }
    }
  }
  node {
    name: "gradients/Mean_grad/Maximum"
    op: "Maximum"
    input: "gradients/Mean_grad/Prod_1/_3"
    input: "gradients/Mean_grad/Maximum/y"
    device: "/job:localhost/replica:0/task:0/gpu:0"
    attr {
      key: "T"
      value {
        type: DT_INT32
      }
    }
  }
  node {
    name: "gradients/Mean_grad/floordiv"
    op: "FloorDiv"
    input: "gradients/Mean_grad/Prod/_11"
    input: "gradients/Mean_grad/Maximum"
    device: "/job:localhost/replica:0/task:0/gpu:0"
    attr {
      key: "T"
      value {
        type: DT_INT32
      }
    }
  }
  node {
    name: "gradients/Mean_grad/floordiv/_12"
    op: "_HostSend"
    input: "gradients/Mean_grad/floordiv"
    device: "/job:localhost/replica:0/task:0/gpu:0"
    attr {
      key: "T"
      value {
        type: DT_INT32
      }
    }
    attr {
      key: "client_terminated"
      value {
        b: false
      }
    }
    attr {
      key: "recv_device"
      value {
        s: "/job:localhost/replica:0/task:0/gpu:0"
      }
    }
    attr {
      key: "send_device"
      value {
        s: "/job:localhost/replica:0/task:0/gpu:0"
      }
    }
    attr {
      key: "send_device_incarnation"
      value {
        i: 1
      }
    }
    attr {
      key: "tensor_name"
      value {
        s: "edge_85_gradients/Mean_grad/floordiv"
      }
    }
  }
  node {
    name: "gradients/Mean_grad/floordiv/_13"
    op: "_Recv"
    input: "^gradients/Mean_grad/floordiv/_12"
    device: "/job:localhost/replica:0/task:0/gpu:0"
    attr {
      key: "client_terminated"
      value {
        b: false
      }
    }
    attr {
      key: "recv_device"
      value {
        s: "/job:localhost/replica:0/task:0/gpu:0"
      }
    }
    attr {
      key: "send_device"
      value {
        s: "/job:localhost/replica:0/task:0/gpu:0"
      }
    }
    attr {
      key: "send_device_incarnation"
      value {
        i: 1
      }
    }
    attr {
      key: "tensor_name"
      value {
        s: "edge_85_gradients/Mean_grad/floordiv"
      }
    }
    attr {
      key: "tensor_type"
      value {
        type: DT_INT32
      }
    }
  }
  node {
    name: "gradients/Mean_grad/Cast"
    op: "Cast"
    input: "gradients/Mean_grad/floordiv/_13"
    device: "/job:localhost/replica:0/task:0/gpu:0"
    attr {
      key: "DstT"
      value {
        type: DT_FLOAT
      }
    }
    attr {
      key: "SrcT"
      value {
        type: DT_INT32
      }
    }
  }
  node {
    name: "gradients/Mean_grad/truediv"
    op: "RealDiv"
    input: "gradients/Mean_grad/Tile"
    input: "gradients/Mean_grad/Cast"
    device: "/job:localhost/replica:0/task:0/gpu:0"
    attr {
      key: "T"
      value {
        type: DT_FLOAT
      }
    }
  }
  node {
    name: "gradients/Reshape_2_grad/Reshape"
    op: "Reshape"
    input: "gradients/Mean_grad/truediv"
    input: "gradients/Reshape_2_grad/Shape"
    device: "/job:localhost/replica:0/task:0/gpu:0"
    attr {
      key: "T"
      value {
        type: DT_FLOAT
      }
    }
    attr {
      key: "Tshape"
      value {
        type: DT_INT32
      }
    }
  }
  node {
    name: "gradients/SoftmaxCrossEntropyWithLogits_grad/ExpandDims/dim"
    op: "Const"
    device: "/job:localhost/replica:0/task:0/gpu:0"
    attr {
      key: "dtype"
      value {
        type: DT_INT32
      }
    }
    attr {
      key: "value"
      value {
        tensor {
          dtype: DT_INT32
          tensor_shape {
          }
          int_val: -1
        }
      }
    }
  }
  node {
    name: "gradients/SoftmaxCrossEntropyWithLogits_grad/ExpandDims"
    op: "ExpandDims"
    input: "gradients/Reshape_2_grad/Reshape"
    input: "gradients/SoftmaxCrossEntropyWithLogits_grad/ExpandDims/dim"
    device: "/job:localhost/replica:0/task:0/gpu:0"
    attr {
      key: "T"
      value {
        type: DT_FLOAT
      }
    }
    attr {
      key: "Tdim"
      value {
        type: DT_INT32
      }
    }
  }
  node {
    name: "gradients/SoftmaxCrossEntropyWithLogits_grad/mul"
    op: "Mul"
    input: "gradients/SoftmaxCrossEntropyWithLogits_grad/ExpandDims"
    input: "gradients/SoftmaxCrossEntropyWithLogits_grad/PreventGradient"
    device: "/job:localhost/replica:0/task:0/gpu:0"
    attr {
      key: "T"
      value {
        type: DT_FLOAT
      }
    }
  }
  node {
    name: "gradients/Reshape_grad/Reshape"
    op: "Reshape"
    input: "gradients/SoftmaxCrossEntropyWithLogits_grad/mul"
    input: "Shape"
    device: "/job:localhost/replica:0/task:0/gpu:0"
    attr {
      key: "T"
      value {
        type: DT_FLOAT
      }
    }
    attr {
      key: "Tshape"
      value {
        type: DT_INT32
      }
    }
  }
  node {
    name: "gradients/add_grad/Shape_1"
    op: "Const"
    device: "/job:localhost/replica:0/task:0/gpu:0"
    attr {
      key: "dtype"
      value {
        type: DT_INT32
      }
    }
    attr {
      key: "value"
      value {
        tensor {
          dtype: DT_INT32
          tensor_shape {
            dim {
              size: 1
            }
          }
          int_val: 10
        }
      }
    }
  }
  node {
    name: "gradients/add_grad/BroadcastGradientArgs"
    op: "BroadcastGradientArgs"
    input: "gradients/add_grad/Shape"
    input: "gradients/add_grad/Shape_1"
    device: "/job:localhost/replica:0/task:0/gpu:0"
    attr {
      key: "T"
      value {
        type: DT_INT32
      }
    }
  }
  node {
    name: "gradients/add_grad/Sum"
    op: "Sum"
    input: "gradients/Reshape_grad/Reshape"
    input: "gradients/add_grad/BroadcastGradientArgs"
    device: "/job:localhost/replica:0/task:0/gpu:0"
    attr {
      key: "T"
      value {
        type: DT_FLOAT
      }
    }
    attr {
      key: "Tidx"
      value {
        type: DT_INT32
      }
    }
    attr {
      key: "keep_dims"
      value {
        b: false
      }
    }
  }
  node {
    name: "gradients/add_grad/Reshape"
    op: "Reshape"
    input: "gradients/add_grad/Sum"
    input: "gradients/add_grad/Shape"
    device: "/job:localhost/replica:0/task:0/gpu:0"
    attr {
      key: "T"
      value {
        type: DT_FLOAT
      }
    }
    attr {
      key: "Tshape"
      value {
        type: DT_INT32
      }
    }
  }
  node {
    name: "gradients/add_grad/Sum_1"
    op: "Sum"
    input: "gradients/Reshape_grad/Reshape"
    input: "gradients/add_grad/BroadcastGradientArgs:1"
    device: "/job:localhost/replica:0/task:0/gpu:0"
    attr {
      key: "T"
      value {
        type: DT_FLOAT
      }
    }
    attr {
      key: "Tidx"
      value {
        type: DT_INT32
      }
    }
    attr {
      key: "keep_dims"
      value {
        b: false
      }
    }
  }
  node {
    name: "gradients/add_grad/Reshape_1"
    op: "Reshape"
    input: "gradients/add_grad/Sum_1"
    input: "gradients/add_grad/Shape_1"
    device: "/job:localhost/replica:0/task:0/gpu:0"
    attr {
      key: "T"
      value {
        type: DT_FLOAT
      }
    }
    attr {
      key: "Tshape"
      value {
        type: DT_INT32
      }
    }
  }
  node {
    name: "gradients/add_grad/tuple/group_deps"
    op: "NoOp"
    input: "^gradients/add_grad/Reshape"
    input: "^gradients/add_grad/Reshape_1"
    device: "/job:localhost/replica:0/task:0/gpu:0"
  }
  node {
    name: "gradients/add_grad/tuple/control_dependency"
    op: "Identity"
    input: "gradients/add_grad/Reshape"
    input: "^gradients/add_grad/tuple/group_deps"
    device: "/job:localhost/replica:0/task:0/gpu:0"
    attr {
      key: "T"
      value {
        type: DT_FLOAT
      }
    }
    attr {
      key: "_class"
      value {
        list {
          s: "loc:@gradients/add_grad/Reshape"
        }
      }
    }
  }
  node {
    name: "gradients/MatMul_2_grad/MatMul"
    op: "MatMul"
    input: "gradients/add_grad/tuple/control_dependency"
    input: "Variable_2/read"
    device: "/job:localhost/replica:0/task:0/gpu:0"
    attr {
      key: "T"
      value {
        type: DT_FLOAT
      }
    }
    attr {
      key: "transpose_a"
      value {
        b: false
      }
    }
    attr {
      key: "transpose_b"
      value {
        b: true
      }
    }
  }
  node {
    name: "gradients/MatMul_2_grad/MatMul_1"
    op: "MatMul"
    input: "Relu_1"
    input: "gradients/add_grad/tuple/control_dependency"
    device: "/job:localhost/replica:0/task:0/gpu:0"
    attr {
      key: "T"
      value {
        type: DT_FLOAT
      }
    }
    attr {
      key: "transpose_a"
      value {
        b: true
      }
    }
    attr {
      key: "transpose_b"
      value {
        b: false
      }
    }
  }
  node {
    name: "gradients/MatMul_2_grad/tuple/group_deps"
    op: "NoOp"
    input: "^gradients/MatMul_2_grad/MatMul"
    input: "^gradients/MatMul_2_grad/MatMul_1"
    device: "/job:localhost/replica:0/task:0/gpu:0"
  }
  node {
    name: "gradients/MatMul_2_grad/tuple/control_dependency"
    op: "Identity"
    input: "gradients/MatMul_2_grad/MatMul"
    input: "^gradients/MatMul_2_grad/tuple/group_deps"
    device: "/job:localhost/replica:0/task:0/gpu:0"
    attr {
      key: "T"
      value {
        type: DT_FLOAT
      }
    }
    attr {
      key: "_class"
      value {
        list {
          s: "loc:@gradients/MatMul_2_grad/MatMul"
        }
      }
    }
  }
  node {
    name: "gradients/Relu_1_grad/ReluGrad"
    op: "ReluGrad"
    input: "gradients/MatMul_2_grad/tuple/control_dependency"
    input: "Relu_1"
    device: "/job:localhost/replica:0/task:0/gpu:0"
    attr {
      key: "T"
      value {
        type: DT_FLOAT
      }
    }
  }
  node {
    name: "gradients/MatMul_2_grad/tuple/control_dependency_1"
    op: "Identity"
    input: "gradients/MatMul_2_grad/MatMul_1"
    input: "^gradients/MatMul_2_grad/tuple/group_deps"
    device: "/job:localhost/replica:0/task:0/gpu:0"
    attr {
      key: "T"
      value {
        type: DT_FLOAT
      }
    }
    attr {
      key: "_class"
      value {
        list {
          s: "loc:@gradients/MatMul_2_grad/MatMul_1"
        }
      }
    }
  }
  node {
    name: "gradients/add_grad/tuple/control_dependency_1"
    op: "Identity"
    input: "gradients/add_grad/Reshape_1"
    input: "^gradients/add_grad/tuple/group_deps"
    device: "/job:localhost/replica:0/task:0/gpu:0"
    attr {
      key: "T"
      value {
        type: DT_FLOAT
      }
    }
    attr {
      key: "_class"
      value {
        list {
          s: "loc:@gradients/add_grad/Reshape_1"
        }
      }
    }
  }
  node {
    name: "gradients/Add_1_grad/Shape_1"
    op: "Const"
    device: "/job:localhost/replica:0/task:0/gpu:0"
    attr {
      key: "dtype"
      value {
        type: DT_INT32
      }
    }
    attr {
      key: "value"
      value {
        tensor {
          dtype: DT_INT32
          tensor_shape {
            dim {
              size: 1
            }
          }
          int_val: 170
        }
      }
    }
  }
  node {
    name: "gradients/Add_1_grad/BroadcastGradientArgs"
    op: "BroadcastGradientArgs"
    input: "gradients/Add_1_grad/Shape"
    input: "gradients/Add_1_grad/Shape_1"
    device: "/job:localhost/replica:0/task:0/gpu:0"
    attr {
      key: "T"
      value {
        type: DT_INT32
      }
    }
  }
  node {
    name: "gradients/Add_1_grad/Sum"
    op: "Sum"
    input: "gradients/Relu_1_grad/ReluGrad"
    input: "gradients/Add_1_grad/BroadcastGradientArgs"
    device: "/job:localhost/replica:0/task:0/gpu:0"
    attr {
      key: "T"
      value {
        type: DT_FLOAT
      }
    }
    attr {
      key: "Tidx"
      value {
        type: DT_INT32
      }
    }
    attr {
      key: "keep_dims"
      value {
        b: false
      }
    }
  }
  node {
    name: "gradients/Add_1_grad/Reshape"
    op: "Reshape"
    input: "gradients/Add_1_grad/Sum"
    input: "gradients/Add_1_grad/Shape"
    device: "/job:localhost/replica:0/task:0/gpu:0"
    attr {
      key: "T"
      value {
        type: DT_FLOAT
      }
    }
    attr {
      key: "Tshape"
      value {
        type: DT_INT32
      }
    }
  }
  node {
    name: "gradients/Add_1_grad/Sum_1"
    op: "Sum"
    input: "gradients/Relu_1_grad/ReluGrad"
    input: "gradients/Add_1_grad/BroadcastGradientArgs:1"
    device: "/job:localhost/replica:0/task:0/gpu:0"
    attr {
      key: "T"
      value {
        type: DT_FLOAT
      }
    }
    attr {
      key: "Tidx"
      value {
        type: DT_INT32
      }
    }
    attr {
      key: "keep_dims"
      value {
        b: false
      }
    }
  }
  node {
    name: "gradients/Add_1_grad/Reshape_1"
    op: "Reshape"
    input: "gradients/Add_1_grad/Sum_1"
    input: "gradients/Add_1_grad/Shape_1"
    device: "/job:localhost/replica:0/task:0/gpu:0"
    attr {
      key: "T"
      value {
        type: DT_FLOAT
      }
    }
    attr {
      key: "Tshape"
      value {
        type: DT_INT32
      }
    }
  }
  node {
    name: "gradients/Add_1_grad/tuple/group_deps"
    op: "NoOp"
    input: "^gradients/Add_1_grad/Reshape"
    input: "^gradients/Add_1_grad/Reshape_1"
    device: "/job:localhost/replica:0/task:0/gpu:0"
  }
  node {
    name: "gradients/Add_1_grad/tuple/control_dependency"
    op: "Identity"
    input: "gradients/Add_1_grad/Reshape"
    input: "^gradients/Add_1_grad/tuple/group_deps"
    device: "/job:localhost/replica:0/task:0/gpu:0"
    attr {
      key: "T"
      value {
        type: DT_FLOAT
      }
    }
    attr {
      key: "_class"
      value {
        list {
          s: "loc:@gradients/Add_1_grad/Reshape"
        }
      }
    }
  }
  node {
    name: "gradients/MatMul_1_grad/MatMul"
    op: "MatMul"
    input: "gradients/Add_1_grad/tuple/control_dependency"
    input: "Variable_1/read"
    device: "/job:localhost/replica:0/task:0/gpu:0"
    attr {
      key: "T"
      value {
        type: DT_FLOAT
      }
    }
    attr {
      key: "transpose_a"
      value {
        b: false
      }
    }
    attr {
      key: "transpose_b"
      value {
        b: true
      }
    }
  }
  node {
    name: "gradients/MatMul_1_grad/MatMul_1"
    op: "MatMul"
    input: "Relu"
    input: "gradients/Add_1_grad/tuple/control_dependency"
    device: "/job:localhost/replica:0/task:0/gpu:0"
    attr {
      key: "T"
      value {
        type: DT_FLOAT
      }
    }
    attr {
      key: "transpose_a"
      value {
        b: true
      }
    }
    attr {
      key: "transpose_b"
      value {
        b: false
      }
    }
  }
  node {
    name: "gradients/MatMul_1_grad/tuple/group_deps"
    op: "NoOp"
    input: "^gradients/MatMul_1_grad/MatMul"
    input: "^gradients/MatMul_1_grad/MatMul_1"
    device: "/job:localhost/replica:0/task:0/gpu:0"
  }
  node {
    name: "gradients/MatMul_1_grad/tuple/control_dependency"
    op: "Identity"
    input: "gradients/MatMul_1_grad/MatMul"
    input: "^gradients/MatMul_1_grad/tuple/group_deps"
    device: "/job:localhost/replica:0/task:0/gpu:0"
    attr {
      key: "T"
      value {
        type: DT_FLOAT
      }
    }
    attr {
      key: "_class"
      value {
        list {
          s: "loc:@gradients/MatMul_1_grad/MatMul"
        }
      }
    }
  }
  node {
    name: "gradients/Relu_grad/ReluGrad"
    op: "ReluGrad"
    input: "gradients/MatMul_1_grad/tuple/control_dependency"
    input: "Relu"
    device: "/job:localhost/replica:0/task:0/gpu:0"
    attr {
      key: "T"
      value {
        type: DT_FLOAT
      }
    }
  }
  node {
    name: "gradients/MatMul_1_grad/tuple/control_dependency_1"
    op: "Identity"
    input: "gradients/MatMul_1_grad/MatMul_1"
    input: "^gradients/MatMul_1_grad/tuple/group_deps"
    device: "/job:localhost/replica:0/task:0/gpu:0"
    attr {
      key: "T"
      value {
        type: DT_FLOAT
      }
    }
    attr {
      key: "_class"
      value {
        list {
          s: "loc:@gradients/MatMul_1_grad/MatMul_1"
        }
      }
    }
  }
  node {
    name: "gradients/Add_1_grad/tuple/control_dependency_1"
    op: "Identity"
    input: "gradients/Add_1_grad/Reshape_1"
    input: "^gradients/Add_1_grad/tuple/group_deps"
    device: "/job:localhost/replica:0/task:0/gpu:0"
    attr {
      key: "T"
      value {
        type: DT_FLOAT
      }
    }
    attr {
      key: "_class"
      value {
        list {
          s: "loc:@gradients/Add_1_grad/Reshape_1"
        }
      }
    }
  }
  node {
    name: "gradients/Add_grad/BroadcastGradientArgs"
    op: "BroadcastGradientArgs"
    input: "gradients/Add_grad/Shape"
    input: "gradients/Add_1_grad/Shape_1"
    device: "/job:localhost/replica:0/task:0/gpu:0"
    attr {
      key: "T"
      value {
        type: DT_INT32
      }
    }
  }
  node {
    name: "gradients/Add_grad/Sum"
    op: "Sum"
    input: "gradients/Relu_grad/ReluGrad"
    input: "gradients/Add_grad/BroadcastGradientArgs"
    device: "/job:localhost/replica:0/task:0/gpu:0"
    attr {
      key: "T"
      value {
        type: DT_FLOAT
      }
    }
    attr {
      key: "Tidx"
      value {
        type: DT_INT32
      }
    }
    attr {
      key: "keep_dims"
      value {
        b: false
      }
    }
  }
  node {
    name: "gradients/Add_grad/Reshape"
    op: "Reshape"
    input: "gradients/Add_grad/Sum"
    input: "gradients/Add_grad/Shape"
    device: "/job:localhost/replica:0/task:0/gpu:0"
    attr {
      key: "T"
      value {
        type: DT_FLOAT
      }
    }
    attr {
      key: "Tshape"
      value {
        type: DT_INT32
      }
    }
  }
  node {
    name: "gradients/Add_grad/Sum_1"
    op: "Sum"
    input: "gradients/Relu_grad/ReluGrad"
    input: "gradients/Add_grad/BroadcastGradientArgs:1"
    device: "/job:localhost/replica:0/task:0/gpu:0"
    attr {
      key: "T"
      value {
        type: DT_FLOAT
      }
    }
    attr {
      key: "Tidx"
      value {
        type: DT_INT32
      }
    }
    attr {
      key: "keep_dims"
      value {
        b: false
      }
    }
  }
  node {
    name: "gradients/Add_grad/Reshape_1"
    op: "Reshape"
    input: "gradients/Add_grad/Sum_1"
    input: "gradients/Add_1_grad/Shape_1"
    device: "/job:localhost/replica:0/task:0/gpu:0"
    attr {
      key: "T"
      value {
        type: DT_FLOAT
      }
    }
    attr {
      key: "Tshape"
      value {
        type: DT_INT32
      }
    }
  }
  node {
    name: "gradients/Add_grad/tuple/group_deps"
    op: "NoOp"
    input: "^gradients/Add_grad/Reshape"
    input: "^gradients/Add_grad/Reshape_1"
    device: "/job:localhost/replica:0/task:0/gpu:0"
  }
  node {
    name: "gradients/Add_grad/tuple/control_dependency"
    op: "Identity"
    input: "gradients/Add_grad/Reshape"
    input: "^gradients/Add_grad/tuple/group_deps"
    device: "/job:localhost/replica:0/task:0/gpu:0"
    attr {
      key: "T"
      value {
        type: DT_FLOAT
      }
    }
    attr {
      key: "_class"
      value {
        list {
          s: "loc:@gradients/Add_grad/Reshape"
        }
      }
    }
  }
  node {
    name: "gradients/MatMul_grad/MatMul"
    op: "MatMul"
    input: "gradients/Add_grad/tuple/control_dependency"
    input: "Variable/read"
    device: "/job:localhost/replica:0/task:0/gpu:0"
    attr {
      key: "T"
      value {
        type: DT_FLOAT
      }
    }
    attr {
      key: "transpose_a"
      value {
        b: false
      }
    }
    attr {
      key: "transpose_b"
      value {
        b: true
      }
    }
  }
  node {
    name: "gradients/MatMul_grad/MatMul_1"
    op: "MatMul"
    input: "_recv_Placeholder_0/_7"
    input: "gradients/Add_grad/tuple/control_dependency"
    device: "/job:localhost/replica:0/task:0/gpu:0"
    attr {
      key: "T"
      value {
        type: DT_FLOAT
      }
    }
    attr {
      key: "transpose_a"
      value {
        b: true
      }
    }
    attr {
      key: "transpose_b"
      value {
        b: false
      }
    }
  }
  node {
    name: "gradients/MatMul_grad/tuple/group_deps"
    op: "NoOp"
    input: "^gradients/MatMul_grad/MatMul"
    input: "^gradients/MatMul_grad/MatMul_1"
    device: "/job:localhost/replica:0/task:0/gpu:0"
  }
  node {
    name: "gradients/MatMul_grad/tuple/control_dependency_1"
    op: "Identity"
    input: "gradients/MatMul_grad/MatMul_1"
    input: "^gradients/MatMul_grad/tuple/group_deps"
    device: "/job:localhost/replica:0/task:0/gpu:0"
    attr {
      key: "T"
      value {
        type: DT_FLOAT
      }
    }
    attr {
      key: "_class"
      value {
        list {
          s: "loc:@gradients/MatMul_grad/MatMul_1"
        }
      }
    }
  }
  node {
    name: "gradients/Add_grad/tuple/control_dependency_1"
    op: "Identity"
    input: "gradients/Add_grad/Reshape_1"
    input: "^gradients/Add_grad/tuple/group_deps"
    device: "/job:localhost/replica:0/task:0/gpu:0"
    attr {
      key: "T"
      value {
        type: DT_FLOAT
      }
    }
    attr {
      key: "_class"
      value {
        list {
          s: "loc:@gradients/Add_grad/Reshape_1"
        }
      }
    }
  }
  node {
    name: "beta1_power"
    op: "VariableV2"
    device: "/job:localhost/replica:0/task:0/gpu:0"
    attr {
      key: "_class"
      value {
        list {
          s: "loc:@Variable"
        }
      }
    }
    attr {
      key: "container"
      value {
        s: ""
      }
    }
    attr {
      key: "dtype"
      value {
        type: DT_FLOAT
      }
    }
    attr {
      key: "shape"
      value {
        shape {
        }
      }
    }
    attr {
      key: "shared_name"
      value {
        s: ""
      }
    }
  }
  node {
    name: "beta1_power/read"
    op: "Identity"
    input: "beta1_power"
    device: "/job:localhost/replica:0/task:0/gpu:0"
    attr {
      key: "T"
      value {
        type: DT_FLOAT
      }
    }
    attr {
      key: "_class"
      value {
        list {
          s: "loc:@Variable"
        }
      }
    }
  }
  node {
    name: "beta2_power"
    op: "VariableV2"
    device: "/job:localhost/replica:0/task:0/gpu:0"
    attr {
      key: "_class"
      value {
        list {
          s: "loc:@Variable"
        }
      }
    }
    attr {
      key: "container"
      value {
        s: ""
      }
    }
    attr {
      key: "dtype"
      value {
        type: DT_FLOAT
      }
    }
    attr {
      key: "shape"
      value {
        shape {
        }
      }
    }
    attr {
      key: "shared_name"
      value {
        s: ""
      }
    }
  }
  node {
    name: "beta2_power/read"
    op: "Identity"
    input: "beta2_power"
    device: "/job:localhost/replica:0/task:0/gpu:0"
    attr {
      key: "T"
      value {
        type: DT_FLOAT
      }
    }
    attr {
      key: "_class"
      value {
        list {
          s: "loc:@Variable"
        }
      }
    }
  }
  node {
    name: "Variable/Adam"
    op: "VariableV2"
    device: "/job:localhost/replica:0/task:0/gpu:0"
    attr {
      key: "_class"
      value {
        list {
          s: "loc:@Variable"
        }
      }
    }
    attr {
      key: "container"
      value {
        s: ""
      }
    }
    attr {
      key: "dtype"
      value {
        type: DT_FLOAT
      }
    }
    attr {
      key: "shape"
      value {
        shape {
          dim {
            size: 784
          }
          dim {
            size: 170
          }
        }
      }
    }
    attr {
      key: "shared_name"
      value {
        s: ""
      }
    }
  }
  node {
    name: "Variable/Adam_1"
    op: "VariableV2"
    device: "/job:localhost/replica:0/task:0/gpu:0"
    attr {
      key: "_class"
      value {
        list {
          s: "loc:@Variable"
        }
      }
    }
    attr {
      key: "container"
      value {
        s: ""
      }
    }
    attr {
      key: "dtype"
      value {
        type: DT_FLOAT
      }
    }
    attr {
      key: "shape"
      value {
        shape {
          dim {
            size: 784
          }
          dim {
            size: 170
          }
        }
      }
    }
    attr {
      key: "shared_name"
      value {
        s: ""
      }
    }
  }
  node {
    name: "Variable_1/Adam"
    op: "VariableV2"
    device: "/job:localhost/replica:0/task:0/gpu:0"
    attr {
      key: "_class"
      value {
        list {
          s: "loc:@Variable_1"
        }
      }
    }
    attr {
      key: "container"
      value {
        s: ""
      }
    }
    attr {
      key: "dtype"
      value {
        type: DT_FLOAT
      }
    }
    attr {
      key: "shape"
      value {
        shape {
          dim {
            size: 170
          }
          dim {
            size: 170
          }
        }
      }
    }
    attr {
      key: "shared_name"
      value {
        s: ""
      }
    }
  }
  node {
    name: "Variable_1/Adam_1"
    op: "VariableV2"
    device: "/job:localhost/replica:0/task:0/gpu:0"
    attr {
      key: "_class"
      value {
        list {
          s: "loc:@Variable_1"
        }
      }
    }
    attr {
      key: "container"
      value {
        s: ""
      }
    }
    attr {
      key: "dtype"
      value {
        type: DT_FLOAT
      }
    }
    attr {
      key: "shape"
      value {
        shape {
          dim {
            size: 170
          }
          dim {
            size: 170
          }
        }
      }
    }
    attr {
      key: "shared_name"
      value {
        s: ""
      }
    }
  }
  node {
    name: "Variable_2/Adam"
    op: "VariableV2"
    device: "/job:localhost/replica:0/task:0/gpu:0"
    attr {
      key: "_class"
      value {
        list {
          s: "loc:@Variable_2"
        }
      }
    }
    attr {
      key: "container"
      value {
        s: ""
      }
    }
    attr {
      key: "dtype"
      value {
        type: DT_FLOAT
      }
    }
    attr {
      key: "shape"
      value {
        shape {
          dim {
            size: 170
          }
          dim {
            size: 10
          }
        }
      }
    }
    attr {
      key: "shared_name"
      value {
        s: ""
      }
    }
  }
  node {
    name: "Variable_2/Adam_1"
    op: "VariableV2"
    device: "/job:localhost/replica:0/task:0/gpu:0"
    attr {
      key: "_class"
      value {
        list {
          s: "loc:@Variable_2"
        }
      }
    }
    attr {
      key: "container"
      value {
        s: ""
      }
    }
    attr {
      key: "dtype"
      value {
        type: DT_FLOAT
      }
    }
    attr {
      key: "shape"
      value {
        shape {
          dim {
            size: 170
          }
          dim {
            size: 10
          }
        }
      }
    }
    attr {
      key: "shared_name"
      value {
        s: ""
      }
    }
  }
  node {
    name: "Variable_3/Adam"
    op: "VariableV2"
    device: "/job:localhost/replica:0/task:0/gpu:0"
    attr {
      key: "_class"
      value {
        list {
          s: "loc:@Variable_3"
        }
      }
    }
    attr {
      key: "container"
      value {
        s: ""
      }
    }
    attr {
      key: "dtype"
      value {
        type: DT_FLOAT
      }
    }
    attr {
      key: "shape"
      value {
        shape {
          dim {
            size: 170
          }
        }
      }
    }
    attr {
      key: "shared_name"
      value {
        s: ""
      }
    }
  }
  node {
    name: "Variable_3/Adam_1"
    op: "VariableV2"
    device: "/job:localhost/replica:0/task:0/gpu:0"
    attr {
      key: "_class"
      value {
        list {
          s: "loc:@Variable_3"
        }
      }
    }
    attr {
      key: "container"
      value {
        s: ""
      }
    }
    attr {
      key: "dtype"
      value {
        type: DT_FLOAT
      }
    }
    attr {
      key: "shape"
      value {
        shape {
          dim {
            size: 170
          }
        }
      }
    }
    attr {
      key: "shared_name"
      value {
        s: ""
      }
    }
  }
  node {
    name: "Variable_4/Adam"
    op: "VariableV2"
    device: "/job:localhost/replica:0/task:0/gpu:0"
    attr {
      key: "_class"
      value {
        list {
          s: "loc:@Variable_4"
        }
      }
    }
    attr {
      key: "container"
      value {
        s: ""
      }
    }
    attr {
      key: "dtype"
      value {
        type: DT_FLOAT
      }
    }
    attr {
      key: "shape"
      value {
        shape {
          dim {
            size: 170
          }
        }
      }
    }
    attr {
      key: "shared_name"
      value {
        s: ""
      }
    }
  }
  node {
    name: "Variable_4/Adam_1"
    op: "VariableV2"
    device: "/job:localhost/replica:0/task:0/gpu:0"
    attr {
      key: "_class"
      value {
        list {
          s: "loc:@Variable_4"
        }
      }
    }
    attr {
      key: "container"
      value {
        s: ""
      }
    }
    attr {
      key: "dtype"
      value {
        type: DT_FLOAT
      }
    }
    attr {
      key: "shape"
      value {
        shape {
          dim {
            size: 170
          }
        }
      }
    }
    attr {
      key: "shared_name"
      value {
        s: ""
      }
    }
  }
  node {
    name: "Variable_5/Adam"
    op: "VariableV2"
    device: "/job:localhost/replica:0/task:0/gpu:0"
    attr {
      key: "_class"
      value {
        list {
          s: "loc:@Variable_5"
        }
      }
    }
    attr {
      key: "container"
      value {
        s: ""
      }
    }
    attr {
      key: "dtype"
      value {
        type: DT_FLOAT
      }
    }
    attr {
      key: "shape"
      value {
        shape {
          dim {
            size: 10
          }
        }
      }
    }
    attr {
      key: "shared_name"
      value {
        s: ""
      }
    }
  }
  node {
    name: "Variable_5/Adam_1"
    op: "VariableV2"
    device: "/job:localhost/replica:0/task:0/gpu:0"
    attr {
      key: "_class"
      value {
        list {
          s: "loc:@Variable_5"
        }
      }
    }
    attr {
      key: "container"
      value {
        s: ""
      }
    }
    attr {
      key: "dtype"
      value {
        type: DT_FLOAT
      }
    }
    attr {
      key: "shape"
      value {
        shape {
          dim {
            size: 10
          }
        }
      }
    }
    attr {
      key: "shared_name"
      value {
        s: ""
      }
    }
  }
  node {
    name: "Adam/learning_rate"
    op: "Const"
    device: "/job:localhost/replica:0/task:0/gpu:0"
    attr {
      key: "dtype"
      value {
        type: DT_FLOAT
      }
    }
    attr {
      key: "value"
      value {
        tensor {
          dtype: DT_FLOAT
          tensor_shape {
          }
          float_val: 0.0010000000475
        }
      }
    }
  }
  node {
    name: "Adam/beta1"
    op: "Const"
    device: "/job:localhost/replica:0/task:0/gpu:0"
    attr {
      key: "dtype"
      value {
        type: DT_FLOAT
      }
    }
    attr {
      key: "value"
      value {
        tensor {
          dtype: DT_FLOAT
          tensor_shape {
          }
          float_val: 0.899999976158
        }
      }
    }
  }
  node {
    name: "Adam/beta2"
    op: "Const"
    device: "/job:localhost/replica:0/task:0/gpu:0"
    attr {
      key: "dtype"
      value {
        type: DT_FLOAT
      }
    }
    attr {
      key: "value"
      value {
        tensor {
          dtype: DT_FLOAT
          tensor_shape {
          }
          float_val: 0.999000012875
        }
      }
    }
  }
  node {
    name: "Adam/epsilon"
    op: "Const"
    device: "/job:localhost/replica:0/task:0/gpu:0"
    attr {
      key: "dtype"
      value {
        type: DT_FLOAT
      }
    }
    attr {
      key: "value"
      value {
        tensor {
          dtype: DT_FLOAT
          tensor_shape {
          }
          float_val: 9.99999993923e-09
        }
      }
    }
  }
  node {
    name: "Adam/update_Variable/ApplyAdam"
    op: "ApplyAdam"
    input: "Variable"
    input: "Variable/Adam"
    input: "Variable/Adam_1"
    input: "beta1_power/read"
    input: "beta2_power/read"
    input: "Adam/learning_rate"
    input: "Adam/beta1"
    input: "Adam/beta2"
    input: "Adam/epsilon"
    input: "gradients/MatMul_grad/tuple/control_dependency_1"
    device: "/job:localhost/replica:0/task:0/gpu:0"
    attr {
      key: "T"
      value {
        type: DT_FLOAT
      }
    }
    attr {
      key: "_class"
      value {
        list {
          s: "loc:@Variable"
        }
      }
    }
    attr {
      key: "use_locking"
      value {
        b: false
      }
    }
  }
  node {
    name: "Adam/update_Variable_3/ApplyAdam"
    op: "ApplyAdam"
    input: "Variable_3"
    input: "Variable_3/Adam"
    input: "Variable_3/Adam_1"
    input: "beta1_power/read"
    input: "beta2_power/read"
    input: "Adam/learning_rate"
    input: "Adam/beta1"
    input: "Adam/beta2"
    input: "Adam/epsilon"
    input: "gradients/Add_grad/tuple/control_dependency_1"
    device: "/job:localhost/replica:0/task:0/gpu:0"
    attr {
      key: "T"
      value {
        type: DT_FLOAT
      }
    }
    attr {
      key: "_class"
      value {
        list {
          s: "loc:@Variable_3"
        }
      }
    }
    attr {
      key: "use_locking"
      value {
        b: false
      }
    }
  }
  node {
    name: "Adam/update_Variable_1/ApplyAdam"
    op: "ApplyAdam"
    input: "Variable_1"
    input: "Variable_1/Adam"
    input: "Variable_1/Adam_1"
    input: "beta1_power/read"
    input: "beta2_power/read"
    input: "Adam/learning_rate"
    input: "Adam/beta1"
    input: "Adam/beta2"
    input: "Adam/epsilon"
    input: "gradients/MatMul_1_grad/tuple/control_dependency_1"
    device: "/job:localhost/replica:0/task:0/gpu:0"
    attr {
      key: "T"
      value {
        type: DT_FLOAT
      }
    }
    attr {
      key: "_class"
      value {
        list {
          s: "loc:@Variable_1"
        }
      }
    }
    attr {
      key: "use_locking"
      value {
        b: false
      }
    }
  }
  node {
    name: "Adam/update_Variable_4/ApplyAdam"
    op: "ApplyAdam"
    input: "Variable_4"
    input: "Variable_4/Adam"
    input: "Variable_4/Adam_1"
    input: "beta1_power/read"
    input: "beta2_power/read"
    input: "Adam/learning_rate"
    input: "Adam/beta1"
    input: "Adam/beta2"
    input: "Adam/epsilon"
    input: "gradients/Add_1_grad/tuple/control_dependency_1"
    device: "/job:localhost/replica:0/task:0/gpu:0"
    attr {
      key: "T"
      value {
        type: DT_FLOAT
      }
    }
    attr {
      key: "_class"
      value {
        list {
          s: "loc:@Variable_4"
        }
      }
    }
    attr {
      key: "use_locking"
      value {
        b: false
      }
    }
  }
  node {
    name: "Adam/update_Variable_2/ApplyAdam"
    op: "ApplyAdam"
    input: "Variable_2"
    input: "Variable_2/Adam"
    input: "Variable_2/Adam_1"
    input: "beta1_power/read"
    input: "beta2_power/read"
    input: "Adam/learning_rate"
    input: "Adam/beta1"
    input: "Adam/beta2"
    input: "Adam/epsilon"
    input: "gradients/MatMul_2_grad/tuple/control_dependency_1"
    device: "/job:localhost/replica:0/task:0/gpu:0"
    attr {
      key: "T"
      value {
        type: DT_FLOAT
      }
    }
    attr {
      key: "_class"
      value {
        list {
          s: "loc:@Variable_2"
        }
      }
    }
    attr {
      key: "use_locking"
      value {
        b: false
      }
    }
  }
  node {
    name: "Adam/update_Variable_5/ApplyAdam"
    op: "ApplyAdam"
    input: "Variable_5"
    input: "Variable_5/Adam"
    input: "Variable_5/Adam_1"
    input: "beta1_power/read"
    input: "beta2_power/read"
    input: "Adam/learning_rate"
    input: "Adam/beta1"
    input: "Adam/beta2"
    input: "Adam/epsilon"
    input: "gradients/add_grad/tuple/control_dependency_1"
    device: "/job:localhost/replica:0/task:0/gpu:0"
    attr {
      key: "T"
      value {
        type: DT_FLOAT
      }
    }
    attr {
      key: "_class"
      value {
        list {
          s: "loc:@Variable_5"
        }
      }
    }
    attr {
      key: "use_locking"
      value {
        b: false
      }
    }
  }
  node {
    name: "Adam/mul"
    op: "Mul"
    input: "beta1_power/read"
    input: "Adam/beta1"
    input: "^Adam/update_Variable/ApplyAdam"
    input: "^Adam/update_Variable_1/ApplyAdam"
    input: "^Adam/update_Variable_2/ApplyAdam"
    input: "^Adam/update_Variable_3/ApplyAdam"
    input: "^Adam/update_Variable_4/ApplyAdam"
    input: "^Adam/update_Variable_5/ApplyAdam"
    device: "/job:localhost/replica:0/task:0/gpu:0"
    attr {
      key: "T"
      value {
        type: DT_FLOAT
      }
    }
    attr {
      key: "_class"
      value {
        list {
          s: "loc:@Variable"
        }
      }
    }
  }
  node {
    name: "Adam/Assign"
    op: "Assign"
    input: "beta1_power"
    input: "Adam/mul"
    device: "/job:localhost/replica:0/task:0/gpu:0"
    attr {
      key: "T"
      value {
        type: DT_FLOAT
      }
    }
    attr {
      key: "_class"
      value {
        list {
          s: "loc:@Variable"
        }
      }
    }
    attr {
      key: "use_locking"
      value {
        b: false
      }
    }
    attr {
      key: "validate_shape"
      value {
        b: true
      }
    }
  }
  node {
    name: "Adam/mul_1"
    op: "Mul"
    input: "beta2_power/read"
    input: "Adam/beta2"
    input: "^Adam/update_Variable/ApplyAdam"
    input: "^Adam/update_Variable_1/ApplyAdam"
    input: "^Adam/update_Variable_2/ApplyAdam"
    input: "^Adam/update_Variable_3/ApplyAdam"
    input: "^Adam/update_Variable_4/ApplyAdam"
    input: "^Adam/update_Variable_5/ApplyAdam"
    device: "/job:localhost/replica:0/task:0/gpu:0"
    attr {
      key: "T"
      value {
        type: DT_FLOAT
      }
    }
    attr {
      key: "_class"
      value {
        list {
          s: "loc:@Variable"
        }
      }
    }
  }
  node {
    name: "Adam/Assign_1"
    op: "Assign"
    input: "beta2_power"
    input: "Adam/mul_1"
    device: "/job:localhost/replica:0/task:0/gpu:0"
    attr {
      key: "T"
      value {
        type: DT_FLOAT
      }
    }
    attr {
      key: "_class"
      value {
        list {
          s: "loc:@Variable"
        }
      }
    }
    attr {
      key: "use_locking"
      value {
        b: false
      }
    }
    attr {
      key: "validate_shape"
      value {
        b: true
      }
    }
  }
  node {
    name: "Adam"
    op: "NoOp"
    input: "^Adam/update_Variable/ApplyAdam"
    input: "^Adam/update_Variable_1/ApplyAdam"
    input: "^Adam/update_Variable_2/ApplyAdam"
    input: "^Adam/update_Variable_3/ApplyAdam"
    input: "^Adam/update_Variable_4/ApplyAdam"
    input: "^Adam/update_Variable_5/ApplyAdam"
    input: "^Adam/Assign"
    input: "^Adam/Assign_1"
    device: "/job:localhost/replica:0/task:0/gpu:0"
  }
  node {
    name: "Slice/begin/_1__cf__1"
    op: "Const"
    device: "/job:localhost/replica:0/task:0/gpu:0"
    attr {
      key: "dtype"
      value {
        type: DT_INT32
      }
    }
    attr {
      key: "value"
      value {
        tensor {
          dtype: DT_INT32
          tensor_shape {
            dim {
              size: 1
            }
          }
          int_val: 1
        }
      }
    }
  }
  node {
    name: "gradients/Mean_grad/Reshape/_3__cf__3"
    op: "Const"
    device: "/job:localhost/replica:0/task:0/gpu:0"
    attr {
      key: "dtype"
      value {
        type: DT_FLOAT
      }
    }
    attr {
      key: "value"
      value {
        tensor {
          dtype: DT_FLOAT
          tensor_shape {
            dim {
              size: 1
            }
          }
          float_val: 1.0
        }
      }
    }
  }
  versions {
    producer: 21
  }
}
partition_graphs {
  node {
    name: "Mean/_15"
    op: "_Recv"
    device: "/job:localhost/replica:0/task:0/cpu:0"
    attr {
      key: "client_terminated"
      value {
        b: false
      }
    }
    attr {
      key: "recv_device"
      value {
        s: "/job:localhost/replica:0/task:0/cpu:0"
      }
    }
    attr {
      key: "send_device"
      value {
        s: "/job:localhost/replica:0/task:0/gpu:0"
      }
    }
    attr {
      key: "send_device_incarnation"
      value {
        i: 1
      }
    }
    attr {
      key: "tensor_name"
      value {
        s: "edge_35_Mean"
      }
    }
    attr {
      key: "tensor_type"
      value {
        type: DT_FLOAT
      }
    }
  }
  node {
    name: "_send_Mean_0"
    op: "_Send"
    input: "Mean/_15"
    device: "/job:localhost/replica:0/task:0/cpu:0"
    attr {
      key: "T"
      value {
        type: DT_FLOAT
      }
    }
    attr {
      key: "client_terminated"
      value {
        b: true
      }
    }
    attr {
      key: "recv_device"
      value {
        s: "/job:localhost/replica:0/task:0/cpu:0"
      }
    }
    attr {
      key: "send_device"
      value {
        s: "/job:localhost/replica:0/task:0/cpu:0"
      }
    }
    attr {
      key: "send_device_incarnation"
      value {
        i: 229284018541059736
      }
    }
    attr {
      key: "tensor_name"
      value {
        s: "Mean:0"
      }
    }
  }
  node {
    name: "_recv_Placeholder_1_0"
    op: "_Recv"
    device: "/job:localhost/replica:0/task:0/cpu:0"
    attr {
      key: "client_terminated"
      value {
        b: true
      }
    }
    attr {
      key: "recv_device"
      value {
        s: "/job:localhost/replica:0/task:0/cpu:0"
      }
    }
    attr {
      key: "send_device"
      value {
        s: "/job:localhost/replica:0/task:0/cpu:0"
      }
    }
    attr {
      key: "send_device_incarnation"
      value {
        i: 229284018541059736
      }
    }
    attr {
      key: "tensor_name"
      value {
        s: "Placeholder_1:0"
      }
    }
    attr {
      key: "tensor_type"
      value {
        type: DT_FLOAT
      }
    }
  }
  node {
    name: "_recv_Placeholder_1_0/_4"
    op: "_Send"
    input: "_recv_Placeholder_1_0"
    device: "/job:localhost/replica:0/task:0/cpu:0"
    attr {
      key: "T"
      value {
        type: DT_FLOAT
      }
    }
    attr {
      key: "client_terminated"
      value {
        b: false
      }
    }
    attr {
      key: "recv_device"
      value {
        s: "/job:localhost/replica:0/task:0/gpu:0"
      }
    }
    attr {
      key: "send_device"
      value {
        s: "/job:localhost/replica:0/task:0/cpu:0"
      }
    }
    attr {
      key: "send_device_incarnation"
      value {
        i: 1
      }
    }
    attr {
      key: "tensor_name"
      value {
        s: "edge_316__recv_Placeholder_1_0"
      }
    }
  }
  node {
    name: "_recv_Placeholder_0"
    op: "_Recv"
    device: "/job:localhost/replica:0/task:0/cpu:0"
    attr {
      key: "client_terminated"
      value {
        b: true
      }
    }
    attr {
      key: "recv_device"
      value {
        s: "/job:localhost/replica:0/task:0/cpu:0"
      }
    }
    attr {
      key: "send_device"
      value {
        s: "/job:localhost/replica:0/task:0/cpu:0"
      }
    }
    attr {
      key: "send_device_incarnation"
      value {
        i: 229284018541059736
      }
    }
    attr {
      key: "tensor_name"
      value {
        s: "Placeholder:0"
      }
    }
    attr {
      key: "tensor_type"
      value {
        type: DT_FLOAT
      }
    }
  }
  node {
    name: "_recv_Placeholder_0/_6"
    op: "_Send"
    input: "_recv_Placeholder_0"
    device: "/job:localhost/replica:0/task:0/cpu:0"
    attr {
      key: "T"
      value {
        type: DT_FLOAT
      }
    }
    attr {
      key: "client_terminated"
      value {
        b: false
      }
    }
    attr {
      key: "recv_device"
      value {
        s: "/job:localhost/replica:0/task:0/gpu:0"
      }
    }
    attr {
      key: "send_device"
      value {
        s: "/job:localhost/replica:0/task:0/cpu:0"
      }
    }
    attr {
      key: "send_device_incarnation"
      value {
        i: 1
      }
    }
    attr {
      key: "tensor_name"
      value {
        s: "edge_315__recv_Placeholder_0"
      }
    }
  }
  versions {
    producer: 21
  }
}
